Models/BS/FFNN/Prop trans costs/BS_FFNN_CVaR_50_tc.pth (torch, 48779 bytes, 63 tensors)

hedge_q.0.linear_relu_stack.0.weight f4 [16, 1]
0.11965191 0.38078308 -0.34332252 1.056949 -0.8390227 0.8145247 0.9788512 0.5490882
0.73784566 -0.246176 -1.1269757 -0.79118335 0.8963358 -1.0186144 0.254349 0.7786881
00000000: 100c f53d 00f6 c23e f8c7 afbe 1b4a 873f
00000010: 31ca 56bf b184 503f fe95 7a3f 0b91 0c3f
00000020: 74e3 3c3f 9015 7cbe bd40 90bf fe8a 4abf
00000030: 4376 653f f561 82bf 083a 823e 1a58 473f

hedge_q.0.linear_relu_stack.0.bias f4 [16]
-0.4752729 0.72623867 -0.35356998 0.75348973 0.594446 0.42063388 0.18044122 -0.16796458
0.43691874 -0.91655064 0.75282425 -0.3506428 0.484053 0.97568184 -0.46575856 -0.95561373
00000000: f856 f3be c7ea 393f 2007 b5be b4e4 403f
00000010: 9d2d 183f 535d d73e 95c5 383e e8fe 2bbe
00000020: d0b3 df3e 10a3 6abf 17b9 403f 7487 b3be
00000030: cbd5 f73e 49c6 793f e877 eebe 1aa3 74bf

hedge_q.0.linear_relu_stack.2.weight f4 [16, 16]
-0.18512347 -0.07452622 -0.12916288 0.050424904 0.16346917 -0.15765607 0.14349812 0.16954643
-0.16245267 -0.09332174 -0.0469186 -0.010230958 0.14859262 0.048644602 0.16726235 -0.034368545
0.054757714 0.041806597 0.12574455 -0.051357962 0.20715924 0.15140283 -0.08987245 -0.1869344
-0.26005897 -0.16683966 -0.23268685 0.16920808 0.004082395 -0.08971546 -0.20929104 0.044756442
-0.1329968 -0.1834316 0.105485946 0.12905887 -0.021290362 0.0508267 0.16832453 0.23713547
-0.074706316 0.23593923 -0.083853036 -0.12358269 -0.19568509 0.12543222 -0.22812653 -0.15890986
0.02324751 0.12836474 -0.1996958 -0.22229034 0.14998296 -0.14792171 -0.22572926 0.13470423
-0.16048348 -0.23832202 0.12469825 -0.02586478 0.1359263 -0.031208932 -0.1309456 0.031644076
-0.23049709 -0.19724953 0.0077420473 0.039244056 -0.18731043 -0.21086127 -0.016830236 -0.24901566
0.24292663 0.035175055 0.009625465 -0.12627825 0.07641104 -0.22759956 0.02055484 4.118681e-05
0.100292325 0.00069090724 -0.035498977 -0.1880072 0.23733449 -0.24316028 -0.16597822 -0.0030007064
0.10464433 -0.20101035 -0.12898752 -0.21165472 0.23903725 0.0072355866 0.10363245 0.12721795
-0.14704731 0.15651919 -0.18123943 0.02001919 0.35384917 -0.17580336 -0.021471342 -0.26216352
-0.16040914 0.2062723 0.69123304 -0.096004605 -0.033882238 0.06174299 -0.2267071 0.10100961
0.2185531 0.11940226 0.23932073 -0.24585965 0.11860144 -0.19269714 0.22984728 0.030462325
-0.025577039 0.060589433 0.069778115 0.15607843 -0.17552155 -0.21726301 -0.0461708 0.16721433
-0.120915025 0.2208777 -0.24690276 0.12172088 -0.20797351 -0.22765619 0.17298183 -0.20372677
-0.19068632 0.005630374 -0.048119575 -0.10713488 0.012324899 0.12670416 0.07537326 0.06471914
-0.23841241 0.26164025 -0.018279731 -0.13113557 -0.52520007 0.13690978 -0.00078647025 0.20459266
0.27483407 -0.16221094 -0.34143317 0.1344927 0.22543293 -0.10960506 -0.2128847 -0.104298204
-0.20313698 0.2878015 0.12208012 0.2872589 -0.52045596 0.15845414 0.30303386 0.50720555
0.33418432 -0.14535388 -0.42423442 -0.23531464 -0.013587256 -0.19004074 -0.0933187 0.021197706
-0.15098548 0.14206931 0.008323729 0.053198844 -0.24528477 -0.1953406 -0.04930702 0.069827646
0.24123248 -0.22043642 0.15277967 0.24902123 -0.192806 0.024817258 -0.20807001 0.21402723
-0.15354577 -0.008271515 -0.038058907 0.22630757 0.13029915 -0.19979918 -0.22486106 -0.09490383
0.16205269 0.18887138 -0.12927547 0.019382566 -0.13554326 -0.06776869 0.044694006 -0.10237768
0.09004596 0.12871209 -0.01954481 0.16171719 -0.40170985 -0.1546202 0.32472518 0.15635593
0.04893367 -0.117458284 -0.74284106 -0.11963931 0.3119416 -0.3971096 -0.21693018 0.22795573
-0.10740897 -0.15979826 0.23993641 0.056233674 -0.23728588 -0.03880194 -0.17092451 -0.1666458
-0.09816477 0.053174973 0.16789532 0.14396316 -0.22105265 0.108121514 -0.23052627 -0.15200329
0.14335373 -0.12422758 0.20031446 -0.24879226 0.2445099 0.053302914 -0.12095699 0.00624761
-0.096717715 0.036709726 0.23847741 -0.05706221 -0.11611757 0.2471126 0.1401954 -0.16672498
00000000: 0291 3dbe 34a1 98bd 4643 04be 588a 4e3d
00000010: 7664 273e 9870 21be 2cf1 123e 949d 2d3e
00000020: fe59 26be 781f bfbd b82d 40bd c09f 27bc
00000030: aa28 183e 903f 473d d246 2b3e 08c6 0cbd
00000040: a049 603d 653d 2b3d 2ec3 003e ba5c 52bd
00000050: 8d21 543e 5809 1b3e 0c0f b8bd bb6b 3fbe
00000060: 7326 85be 04d8 2abe 7645 6ebe e244 2d3e
00000070: 9dc5 853b bdbc b7bd 6450 56be 8852 373d
00000080: 5030 08be 7ed5 3bbe 0409 d83d 0228 043e
00000090: 2069 aebc a82f 503d 445d 2c3e a4d3 723e
000000a0: a0ff 98bd 0e9a 713e 24bb abbd ec18 fdbd
000000b0: ac61 48be 4e71 003e 009a 69be 44b9 22be
000000c0: 9071 be3c 0c72 033e 0e7d 4cbe 14a0 63be
000000d0: 2295 193e ca78 17be 9225 67be e8ef 093e
000000e0: c855 24be b00a 74be cc61 ff3d 60e2 d3bc
000000f0: 4430 0b3e e0a9 ffbc 9a16 06be 389d 013d
00000100: 6e07 6cbe c8fb 49be 00b1 fd3b 60be 203d
00000110: 4ece 3fbe 04ec 57be 90df 89bc f6fd 7ebe
00000120: c2c1 783e b813 103d 20b4 1d3c 164f 01be
00000130: 647d 9c3d dc0f 69be a062 a83c 00c0 2c38
00000140: 1066 cd3d 001e 353a 6067 11bd f684 40be
00000150: d007 733e 02ff 78be 32f6 29be 80a7 44bb
00000160: c44f d63d a8d5 4dbe 4e15 04be 04bc 58be
00000170: 2ec6 743e 8018 ed3b 403d d43d 6c45 023e
00000180: 9293 16be 9146 203e d496 39be 49ff a33c
00000190: b82b b53e cc05 34be abe4 afbc 4c3a 86be
000001a0: 4b42 24be 0c39 533e a6f4 303f 109e c4bd
000001b0: 1ac8 0abd 38e6 7c3d e825 68be 20de ce3d
000001c0: 62cc 5f3e 2c89 f43d 7e10 753e a2c2 7bbe
000001d0: 50e5 f23d 6652 45be 165d 6b3e 208c f93c
000001e0: f086 d1bc a02c 783d d4e7 8e3d 06d3 1f3e
000001f0: ecbb 33be 327a 5ebe 981d 3dbd 3c3a 2b3e
00000200: 4ca2 f7bd c42d 623e 14d4 7cbe cc48 f93d
00000210: 02f7 54be b41e 69be 2622 313e c09d 50be
00000220: 4643 43be 007f b83b 0819 45bd 8869 dbbd
00000230: 60ee 493c bcbe 013e 4c5d 9a3d 788b 843d
00000240: 6222 74be b6f5 853e 60bf 95bc 6748 06be
00000250: 8373 06bf 1432 0c3e 202b 4eba bd80 513e
00000260: 0db7 8c3e a01a 26be 54d0 aebe 74b8 093e
00000270: e4d7 663e 9e78 e0bd 72fe 59be 4c9a d5bd
00000280: 2403 50be b85a 933e 2405 fa3d 9913 933e
00000290: 9a3c 05bf cd41 223e 4127 9b3e 39d8 013f
000002a0: 351a ab3e a6d7 14be 4135 d9be 52f6 70be
000002b0: 159d 5ebc 0a9a 42be e01d bfbd d0a6 ad3c
000002c0: f09b 1abe 9e7a 113e 4060 083c 08e7 593d
000002d0: ee2b 7bbe 5e07 48be 28f6 49bd cc01 8f3d
000002e0: a605 773e 16ba 61be 4672 1c3e 6cff 7e3e
000002f0: f06e 45be 904d cb3c 4e10 55be f429 5b3e
00000300: 1a3b 1dbe 4085 07bc a8e3 1bbd 2cbd 673e
00000310: 246d 053e 2898 4cbe fa41 66be f05c c2bd
00000320: 24f1 253e 8067 413e ca60 04be 30c8 9e3c
00000330: dacb 0abe 50ca 8abd 1011 373d 64ab d1bd
00000340: 046a b83d 1acd 033e 701c a0bc 3199 253e
00000350: eaac cdbe c254 1ebe 6142 a63e c51b 203e
00000360: ac6e 483d f88d f0bd d52a 3ebf 7405 f5bd
00000370: cfb6 9f3e f351 cbbe f222 5ebe 3a6d 693e
00000380: 3cf9 dbbd 28a2 23be e4b1 753e 4855 663d
00000390: 12fb 72be c8ee 1ebd d606 2fbe 32a5 2abe
000003a0: 9c0a c9bd 00ce 593d c0ec 2b3e 146b 133e
000003b0: a05b 62be d06e dd3d 140f 6cbe c0a6 1bbe
000003c0: 52cb 123e 086b febd 3c1f 4d3e 66c3 7ebe
000003d0: ce60 7a3e 2854 5a3d 4cb8 f7bd c0b8 cc3b
000003e0: f013 c6bd f05c 163d 6c33 743e 10ba 69bd
000003f0: 0ccf edbd 160b 7d3e 628f 0f3e f4b9 2abe

hedge_q.0.linear_relu_stack.2.bias f4 [16]
-0.16855001 0.16339849 -0.16294202 0.036084384 0.06634918 0.059314013 0.1468759 -0.24995637
-0.23869696 -0.2436693 0.10440756 -0.2425783 -0.060222834 0.10538003 -0.096992135 0.16160169
00000000: 6098 2cbe ef51 273e 46da 26be 38cd 133d
00000010: 14e2 873d 40f3 723d a366 163e 90f4 7fbe
00000020: fa6c 74be 7284 79be a1d3 d53d 7266 78be
00000030: 38ac 76bd 7cd1 d73d d0a3 c6bd ea7a 253e

hedge_q.0.linear_relu_stack.4.weight f4 [16, 16]
0.18313473 0.11798093 -0.039311677 0.2442961 0.1416091 -0.04905504 -0.1356166 0.13294634
-0.032069534 -0.15963092 -0.22332984 0.11152375 -0.08296633 0.090666056 -0.18630841 -0.16617662
0.15397573 -0.14751402 -0.19527194 -0.18966079 0.09377116 -0.054861367 0.20095606 0.039319634
0.23570684 -0.13574488 -0.07839597 -0.17843014 0.17250496 0.010341543 -0.025546879 -0.026022464
0.11306718 0.1382683 -0.062915355 -0.10244468 0.10699397 0.15291142 0.16650775 0.119432926
0.08333787 0.06374944 0.11897957 -0.23474798 -0.1552895 0.22805896 0.21845269 -0.0069241524
0.21790645 0.1521147 0.0035042763 -0.16009098 -0.061365664 -0.1758922 -0.07359009 -0.20072466
0.11141649 0.033979636 0.31789517 -0.17542094 0.1466226 0.31982052 -0.05857849 -0.0409438
-0.03896317 0.07556957 0.031323314 0.20327085 -0.024735957 -0.11059523 -0.047071636 0.19339213
0.09618083 0.16532284 -0.101239234 -0.0018146634 0.09687737 -0.12271041 -0.089612305 0.16651309
-0.110554874 -0.18221866 -0.23481625 -0.02560249 0.23585758 -0.16212383 0.3386319 0.22434339
-0.22647339 -0.4524274 0.08044121 -0.07664728 -0.025329977 -0.4676341 -0.03837928 -0.18273532
-0.07334751 0.09870647 -0.11758453 0.014477015 0.16548193 0.17857268 -0.22644027 -0.1637058
0.23339933 0.0796337 0.0086302385 -0.10011247 0.2080538 0.2717042 0.06315467 0.16342726
-0.11330107 0.19524577 -0.22700328 -0.22402915 -0.004676223 -0.22262162 0.008755914 -0.1634498
0.21566638 0.20752913 0.23205131 -0.13004348 0.028257936 0.24607238 0.22373986 -0.09010109
-0.013082147 0.14666387 -0.07622102 0.008861244 -0.20459747 -0.13091418 -0.20980608 -0.07844305
-0.1473811 -0.022738934 -0.01089025 -0.16294286 0.20723441 -0.037427466 -0.01418972 -0.14327753
0.13398129 -0.123312354 -0.19660589 0.051658183 0.12610838 0.03671512 -0.24030675 -0.21821469
0.07993296 0.024576928 0.2272987 0.24816203 -0.18688184 0.45802444 -0.1555905 -0.19364375
-0.17967913 -0.19810748 -0.01800409 -0.16605404 -0.011466324 -0.03523934 -0.18851739 0.24077895
-0.13371608 0.335515 0.17126247 0.063583314 0.21270338 -0.016021477 -0.14815345 -0.11582044
0.14312097 0.07910916 0.012283176 -0.20487967 -0.010239929 -0.1791544 -0.16404605 -0.04484299
0.032408297 -0.14713171 0.10282478 0.16596925 -0.11029422 -0.18354389 0.036985546 0.14300668
0.12323588 0.030346852 -0.091986805 0.18575376 -0.07390192 -0.014412463 -0.5918202 0.1857304
-0.047699004 0.17112717 0.08647689 0.027841896 -0.15791288 0.20296668 0.16198632 -0.09032649
-0.014315784 0.09566912 -0.23227718 -0.06397933 -0.024434239 -0.07579303 -0.13517706 0.06610209
-0.13085875 0.044329427 -0.23713516 0.08484316 -0.2428528 0.19037524 -0.12631664 0.09020099
0.097222686 -0.029076023 -0.2084851 0.22050965 -0.115584224 -0.13616064 -0.08525354 0.027832806
-0.17612132 -0.15028414 0.033756584 -0.09178871 0.22574839 -0.031938337 -0.11556357 0.05032274
-0.008982182 -0.20294666 0.08653411 -0.2021594 -0.0061311126 0.18133375 0.1182263 -0.22464523
0.14582089 -0.13891676 0.113548875 -0.23797771 0.045206487 0.38494316 0.24934462 0.108051896
00000000: ac87 3b3e fc9f f13d 4805 21bd c228 7a3e
00000010: fa01 113e f0ed 48bd 14df 0abe 1623 083e
00000020: 585b 03bd 4a76 23be 94b0 64be 9066 e43d
00000030: 40ea a9bd 20af b93d a2c7 3ebe 342a 2abe
00000040: d0ab 1d3e ea0d 17be 5ef5 47be 7036 42be
00000050: 180b c03d 50b6 60bd 6dc7 4d3e a00d 213d
00000060: 225d 713e b500 0bbe 118e a0bd 64b6 36be
00000070: 24a5 303e 936f 293c b047 d1bc 102d d5bc
00000080: c48f e73d 3596 0d3e c4d9 80bd 84ce d1bd
00000090: a81f db3d d094 1c3e 0281 2a3e 4099 f43d
000000a0: 0cad aa3d 118f 823d 90ab f33d c661 70be
000000b0: 3604 1fbe 4a88 693e 10b2 5f3e 00e4 e2bb
000000c0: de22 5f3e f5c3 1b3e 00a8 653b e4ee 23be
000000d0: 905a 7bbd 161d 34be 67b6 96bd c48a 4dbe
000000e0: 542e e43d 3b2e 0b3d 28c3 a23e 8ca1 33be
000000f0: 3c24 163e 84bf a33e 00f0 6fbd b0b4 27bd
00000100: d897 1fbd 38c4 9a3d e04c 003d 3c26 503e
00000110: 10a3 cabc c07f e2bd 30ce 40bd 9608 463e
00000120: 74fa c43d 644a 293e 8456 cfbd 00da edba
00000130: a467 c63d 984f fbbd a886 b7bd 6882 2a3e
00000140: 986a e2bd 8797 3abe ac73 70be 50bc d1bc
00000150: a684 713e ca03 26be 2961 ad3e 46ba 653e
00000160: a4e8 67be 90a4 e7be 5cbe a43d 40f9 9cbd
00000170: d080 cfbc bd6d efbe 9833 1dbd f81e 3bbe
00000180: 3837 96bd 9e26 ca3d 28d0 f0bd 0031 6d3c
00000190: 1874 293e c2db 363e f5df 67be 7ea2 27be
000001a0: 3c00 6f3e fe16 a33d d865 0d3c c407 cdbd
000001b0: 0e0c 553e d01c 8b3e 3c57 813d 7a59 273e
000001c0: 640a e8bd 82ee 473e 8c73 68be e667 65be
000001d0: 003b 99bb ecf6 63be f774 0f3c 625f 27be
000001e0: a6d7 5c3e 8482 543e dc9e 6d3e 1e2a 05be
000001f0: 307d e73c 66fa 7b3e 101c 653e ec86 b8bd
00000200: 8056 56bc 0e2f 163e c419 9cbd c02e 113c
00000210: 0082 51be 5e0e 06be 68d7 56be c0a6 a0bd
00000220: 12eb 16be 0047 babc 056d 32bc 7eda 26be
00000230: 4235 543e 8b4d 19bd 007c 68bc 58b7 12be
00000240: 6432 093e 308b fcbd 0e53 49be 8897 533d
00000250: 8e22 013e 9862 163d f912 76be ac73 5fbe
00000260: e4b3 a33d 8e55 c93c fec0 683e 301e 7e3e
00000270: f45d 3fbe 2e82 ea3e 1e53 1fbe 8c4a 46be
00000280: cefd 37be b0dc 4abe 507d 93bc 120a 2abe
00000290: 40dd 3bbc 2057 10bd b40a 41be c28e 763e
000002a0: deec 08be 9fc8 ab3e 6e5f 2f3e f837 823d
000002b0: eace 593e 793f 83bc 8ab5 17be 4433 edbd
000002c0: 4e8e 123e fc03 a23d 603f 493c facb 51be
000002d0: 60c5 27bc 4074 37be b0fb 27be 48ad 37bd
000002e0: 90be 043d b2a9 16be cc95 d23d d8f3 293e
000002f0: f0e1 e1bd eef2 3bbe 287e 173d 5870 123e
00000300: 1863 fc3d f699 f83c 9463 bcbd 3c36 3e3e
00000310: e459 97bd 4022 6cbc 8781 17bf 1c30 3e3e
00000320: 0860 43bd f63b 2f3e cc1a b13d b014 e43c
00000330: eab3 21be 7fd6 4f3e bedf 253e 18fd b8bd
00000340: c08c 6abc 2cee c33d 12da 6dbe 9807 83bd
00000350: 502a c8bc 6039 9bbd db6b 0abe 8860 873d
00000360: d6ff 05be c692 353d 8fd3 72be 40c2 ad3d
00000370: 68ae 78be baf1 423e 2659 01be 4cbb b83d
00000380: b01c c73d d730 eebc 1e7d 55be 48cd 613e
00000390: 6cb7 ecbd b26d 0bbe 6899 aebd a001 e43c
000003a0: 2659 34be 16e4 19be 5844 0a3d b8fb bbbd
000003b0: 962a 673e c6d1 02bd 98ac ecbd 381f 4e3d
000003c0: 002a 13bc 40d1 4fbe cc38 b13d e002 4fbe
000003d0: 80e7 c8bb 8eaf 393e a120 f23d 6609 66be
000003e0: 1252 153e 3240 0ebe 508c e83d 6eb0 73be
000003f0: 702a 393d 4517 c53e 3254 7f3e 504a dd3d

hedge_q.0.linear_relu_stack.4.bias f4 [16]
-0.23200068 -0.080934934 0.07896238 -0.12551339 -0.15086228 0.045624312 0.15481915 -0.2771965
0.008288176 -0.19697754 0.18471092 -0.18269664 -0.14093117 0.15299843 0.008309793 0.10253851
00000000: 9691 6dbe 37c1 a5bd 07b7 a13d 9586 00be
00000010: a47b 1abe 8fe0 3a3d e988 1e3e b3ec 8dbe
00000020: 21cb 073c 7bb4 49be dc24 3d3e d414 3bbe
00000030: 4350 10be 9fab 1c3e cc25 083c b6ff d13d

hedge_q.0.linear_relu_stack.6.weight f4 [1, 16]
0.14589533 0.12892073 0.23445776 0.3666859 -0.1536543 -0.713044 0.1467907 0.14407736
-0.22386451 0.75225526 0.32604164 0.24730241 -0.64494854 -0.073240004 -0.08985031 0.1667754
00000000: 9665 153e cc03 043e b215 703e 41be bb3e
00000010: 8e57 1dbe 0d8a 36bf 4d50 163e 0489 133e
00000020: bd3c 65be cd93 403f eeee a63e d83c 7d3e
00000030: 591b 25bf dbfe 95bd 7003 b8bd 2cc7 2a3e

hedge_q.1.linear_relu_stack.0.weight f4 [16, 1]
0.8583287 -0.5013013 1.0688028 -0.70039064 -0.055084944 -0.48141897 0.69058007 -0.33849275
0.79398596 0.5795698 -0.6660727 0.9669714 -0.66681707 0.52753246 -0.2807144 0.4441377
00000000: 6ebb 5b3f 4855 00bf 88ce 883f cd4c 33bf
00000010: c0a0 61bd 8c7c f6be dbc9 303f ec4e adbe
00000020: aa42 4b3f b05e 143f be83 2abf 708b 773f
00000030: 86b4 2abf 5e0c 073f ccb9 8fbe 0466 e33e

hedge_q.1.linear_relu_stack.0.bias f4 [16]
1.002459 0.8719415 -0.11374195 0.6779093 -0.6106825 -0.6943772 -0.24031924 -0.31356156
-0.2766101 -0.60996675 -0.98630714 -0.28157276 -0.054140806 -0.5311389 -0.41018617 0.2511906
00000000: 9450 803f 8f37 5f3f 8af1 e8bd 778b 2d3f
00000010: b055 1cbf b4c2 31bf 3f16 76be 248b a0be
00000020: d79f 8dbe c826 1cbf a07e 7cbf 4e2a 90be
00000030: c0c2 5dbd b8f8 07bf ec03 d2be 0e9c 803e

hedge_q.1.linear_relu_stack.2.weight f4 [16, 16]
-0.23700175 -0.16284597 -0.00829795 0.03796071 0.07803804 0.12507531 0.1894086 0.038707286
-0.061128795 -0.020024389 -0.08325535 0.2040813 -0.09273049 0.1134007 0.12308201 0.13492683
0.16343889 -0.022890665 0.40693435 -0.29231915 -0.12843573 0.045143574 0.3721085 0.12622967
0.8951275 -0.0018899143 0.103912026 0.44550788 0.12489149 -0.08597508 0.1438711 -0.04819646
-0.20291916 -0.2418297 -0.022886246 0.094114065 -0.15761566 0.045374036 -0.05283594 0.19136706
-0.16488928 -0.0474419 0.12184283 0.07288784 -0.0466927 0.057078063 0.14127064 0.0017829239
-0.0036365092 -0.06344399 -0.1911313 -0.046307534 0.24240968 -0.14119709 0.1766757 -0.12632623
-0.0073741376 0.13588011 -0.19362995 0.06217158 0.20321241 0.11547527 0.18178543 -0.114539
0.076101646 -0.09907879 0.40344015 -0.14591582 -0.08382127 -0.056732357 0.46682507 0.035587013
1.2165284 -0.070079744 0.10373795 0.19892406 0.20458093 0.041573048 -0.07259238 0.120159745
-0.031229138 -0.04958734 -0.06792107 0.20239565 -0.24811909 0.24143657 0.09617841 0.03347826
0.20508474 0.009076297 0.102512896 -0.027909964 -0.13976076 0.1385701 -0.16908282 -0.002968967
-0.017925985 -0.07082869 0.35199362 -0.18703209 0.052235037 0.13256794 0.82771885 0.167642
1.3587323 0.0020612776 -0.20326751 0.6065209 -0.24833673 0.06413299 0.18091878 0.109422155
0.13623872 -0.013254044 0.3211046 -0.32528496 -0.21939564 -0.15003043 0.26214144 0.113571525
0.7829886 -0.074611425 0.12520784 0.06325718 -0.028621286 0.07692698 0.24572605 0.11119997
0.062343176 0.18161803 0.25908175 -0.21508029 -0.16908449 0.11535871 0.6960502 0.16327009
1.0654851 0.12560171 -0.044748574 0.50473917 0.20230672 -0.16842657 -0.0034471452 -0.04116603
-0.16323546 0.07191838 0.2897739 -0.11229894 -0.22670266 -0.015291661 0.22595783 -0.016992927
0.84799606 -0.025533587 0.0069234967 0.18705724 -0.095784396 0.09144086 0.1066089 0.18601125
-0.21443579 -0.005728483 0.12530097 -0.03202972 -0.10527107 -0.19056892 0.13765594 -0.026206374
0.05373785 0.11586663 0.002835095 -0.14730796 0.22697711 0.031646967 -0.09174818 0.19891694
0.2902044 -0.14519681 0.093023 -0.28870606 0.023751616 0.086427 0.30195 -0.15675324
0.91105175 -0.10482684 0.100370705 0.19698456 0.086707085 0.07577053 -0.11432639 -0.099576406
-0.1876745 -0.06323106 0.10122801 -0.12635015 -0.17821324 -0.20834896 0.540088 0.12972748
0.4841861 0.22906616 -0.03219512 0.37334672 -0.103652984 0.033678085 -0.07367757 -0.06963815
-0.09996801 0.15684897 0.05867774 -0.004303313 0.091501206 -0.069514215 0.15808839 0.16544542
0.12628822 -0.18827873 0.031107396 -0.015217596 -0.21006599 -0.11108968 -0.17725146 0.15988466
0.16674957 0.22490463 -0.008901898 -0.2603802 0.10358319 -0.22526836 0.438589 -0.053959876
0.89678365 -0.16854092 -0.13707289 0.14365727 0.18288577 -0.077649176 0.13517684 0.12251627
-0.1484816 0.018851846 0.19918036 0.23988464 -0.072262466 -0.15459797 -0.06301281 0.16382879
-0.2275599 -0.11887771 0.0491499 0.05152929 -0.15803635 0.12994626 0.09648827 0.17970386
00000000: 96b0 72be 18c1 26be 20f4 07bc b07c 1b3d
00000010: 68d2 9f3d be13 003e 54f4 413e 888b 1e3d
00000020: 3062 7abd 300a a4bc c881 aabd b0fa 503e
00000030: 7ce9 bdbd a03e e83d 6c12 fc3d 422a 0a3e
00000040: 865c 273e 3485 bbbc b359 d03e dbaa 95be
00000050: a884 03be 78e8 383d 0185 be3e 5a42 013e
00000060: 1327 653f 00b7 f7ba d4cf d43d 9c19 e43e
00000070: 1cc7 ff3d b413 b0bd f252 133e a769 45bd
00000080: 0aca 4fbe 34a2 77be f07b bbbc e0be c03d
00000090: 0066 21be 20da 393d 806a 58bd baf5 433e
000000a0: bcd8 28be 7052 42bd bc88 f93d 3846 953d
000000b0: d840 3fbd b0ca 693d 40a9 103e 00b1 e93a
000000c0: 8052 6ebb ecee 81bd ecb7 43be f8ac 3dbd
000000d0: 3e3a 783e f895 10be 7aea 343e aa5b 01be
000000e0: c0a2 f1bb 2824 0b3e ee46 46be a0a7 7e3d
000000f0: ea16 503e 4c7e ec3d f625 3a3e 6c93 eabd
00000100: 2edb 9b3d d2e9 cabd b58f ce3e f56a 15be
00000110: 7caa abbd 3060 68bd b203 ef3e b0c3 113d
00000120: 34b7 9b3f f885 8fbd 9074 d43d c0b2 4b3e
00000130: aa7d 513e 8048 2a3d 50ab 94bd 5016 f63d
00000140: 40d4 ffbc 181c 4bbd 341a 8bbd ce40 4f3e
00000150: ee12 7ebe 263b 773e 30f9 c43d 8020 093d
00000160: bc01 523e c0b4 143c 48f2 d13d 70a3 e4bc
00000170: 721d 0fbe 52e5 0d3e 0c24 2dbe 0093 42bb
00000180: 84d9 92bc a20e 91bd 8238 b43e 5785 3fbe
00000190: 68f4 553d e4bf 073e 62e5 533f 58aa 2b3e
000001a0: f1ea ad3f 8016 073b 5c25 50be f444 1b3f
000001b0: fc4b 7ebe 2858 833d c642 393e b918 e03d
000001c0: 2a82 0b3e 7d27 59bc d267 a43e c08b a6be
000001d0: 40a9 60be 94a1 19be 6737 863e 3098 e83d
000001e0: f171 483f e0cd 98bd 7c36 003e fb8c 813d
000001f0: 3077 eabc e48b 9d3d 9c9f 7b3e cfbc e33d
00000200: 8f5b 7f3d 14fa 393e 5da6 843e 023e 5cbe
00000210: 7c24 2dbe 3041 ec3d 5930 323f 4630 273e
00000220: d161 883f bc9d 003e 484a 37bd 9636 013f
00000230: 7e29 4f3e 0478 2cbe 80e9 61bb b69d 28bd
00000240: 3227 27be f249 933d 3f5d 943e fdfc e5bd
00000250: be24 68be e089 7abc 7d61 673e c034 8bbc
00000260: 4516 593f d02b d1bc 80de e23b ef8b 3f3e
00000270: 9c2a c4bd 5845 bb3d c455 da3d bc79 3e3e
00000280: 0e95 5bbe 00b6 bbbb e64e 003e 9831 03bd
00000290: 5c98 d7bd 8024 43be aef5 0c3e c0ae d6bc
000002a0: 381c 5c3d 7c4b ed3d 00cd 393b e6d7 16be
000002b0: b06c 683e 40a0 013d 78e6 bbbd e2b0 4b3e
000002c0: ac95 943e 79ae 14be d882 be3d 48d1 93be
000002d0: c092 c23c a400 b13d 3199 9a3e ec83 20be
000002e0: b03a 693f 74af d6bd 288f cd3d 52b6 493e
000002f0: 7c93 b13d 942d 9b3d f423 eabd b7ee cbbd
00000300: be2d 40be 497f 81bd a250 cf3d ef61 01be
00000310: 887d 36be 6e59 55be 3543 0a3f 48d7 043e
00000320: 3ee7 f73e 5290 6a3e 08df 03bd 4d27 bf3e
00000330: 0448 d4bd 08f2 093d 44e4 96bd 729e 8ebd
00000340: 07bc ccbd 049d 203e 1258 703d ce02 8dbb
00000350: fc64 bb3d 785d 8ebd ece1 213e 866a 293e
00000360: b351 013e 24cc 40be f0d4 fe3c 3953 79bc
00000370: 8a1b 57be fc82 e3bd 6881 35be ceb8 233e
00000380: 66c0 2a3e 664d 663e 44d9 11bc 8e50 85be
00000390: 6c23 d43d c0ac 66be bd8e e03e 0805 5dbd
000003a0: 9d93 653f fe95 2cbe d65c 0cbe e41a 133e
000003b0: 6846 3b3e 8806 9fbd cc6b 0a3e cfe9 fa3d
000003c0: 900b 18be 306f 9a3c f0f5 4b3e 52a4 753e
000003d0: 58fe 93bd ee4e 1ebe dc0c 81bd bcc2 273e
000003e0: 7605 69be 2876 f3bd 6851 493d 6010 533d
000003f0: 48d4 21be a210 053e a49b c53d 4a04 383e

hedge_q.1.linear_relu_stack.2.bias f4 [16]
0.016028702 0.29790032 0.22185537 -0.22140285 0.19579162 -0.109629095 -0.007865546 0.00420103
0.015464062 0.062498983 0.09912062 -0.10775652 0.06828354 -0.22640274 0.1796251 -0.18548489
00000000: a04e 833c 6486 983e 0e2e 633e 6eb7 62be
00000010: 997d 483e 3885 e0bd 7ede 00bc cba8 893b
00000020: fa5c 7d3c effe 7f3d c0ff ca3d 73af dcbd
00000030: 3ed8 8b3d 1fd6 67be a4ef 373e c0ef 3dbe

hedge_q.1.linear_relu_stack.4.weight f4 [16, 16]
0.11124244 -0.056507263 0.12968102 -0.08125469 0.18316796 -0.12511435 -0.47955018 -0.13618371
-0.12756057 -0.31022266 0.008332819 -0.39598852 -0.07120127 -0.13032681 0.14137094 0.010473937
-0.10930908 -0.06579512 -0.14310315 -0.008301884 -0.2223908 -0.021977186 -0.08371082 0.06913671
-0.19427752 0.13948718 0.0013867021 -0.010976672 0.08499029 -0.06566054 0.04583472 0.10833177
0.055642992 0.30899498 0.1019603 -0.2333296 0.3507843 0.21211085 0.3531462 0.14956878
0.37689272 0.208039 -0.24429971 0.35294744 -0.627837 -0.22724244 0.32982796 0.18139613
0.03136438 -0.11503869 -0.04992363 -0.21996075 -0.21353522 0.18555444 -0.12268284 0.016988248
-0.044174492 0.031099051 -0.16652581 -0.22695509 -0.1948908 -0.07285142 -0.11047283 -0.20481023
-0.13807201 0.15987642 0.10517803 0.039203763 -0.07414025 -0.114613295 -0.5204735 -0.21748148
-0.07822234 -0.20372452 0.035731852 -0.26546776 -0.120650195 0.04831475 0.20415355 0.11545336
-0.08644593 0.3870836 0.19015312 -0.055469453 0.37521425 -0.19455469 0.29803643 0.1705036
0.37240368 -0.11840421 -0.19750267 0.40271306 -0.5851453 0.16931981 0.124808 0.15575999
0.21400031 -0.13423783 -0.18114933 0.10880038 0.011106938 -0.11571422 -0.19814023 -0.20129281
0.20128298 0.1886794 0.01772213 0.08635977 -0.12846398 0.17822015 0.051199377 -0.095781535
-0.045832783 -0.049514115 0.08121288 -0.1561186 0.041502208 0.16409948 -0.032473028 0.13911489
0.0029275715 -0.14259192 0.063400954 0.010365099 -0.089576304 0.040459156 0.09530443 -0.00051388144
-0.02997008 0.009858429 0.055140316 -0.036238253 -0.15463936 -0.21491721 0.21434295 0.24996826
-0.21108145 0.04318124 -0.08256215 -0.125301 -0.017771065 0.17291224 0.09645775 -0.22780225
-0.17756769 -0.24141183 -0.016726196 -0.20253673 0.12482623 0.10373795 -0.06471331 -0.2766519
0.08840681 0.08474886 0.033581972 0.17182474 -0.12750316 0.19408762 -0.25138474 -0.022604585
0.03368798 -0.06207581 -0.1152834 -0.13040045 0.17140487 -0.13476685 0.33225483 0.041667182
0.112142175 -0.12666972 -0.094246626 0.08201171 0.5358816 -0.14012884 0.087291054 0.07965514
0.108465254 0.058171287 -0.018600494 0.00480628 0.10139931 0.1411072 -0.35153657 -0.22433259
-0.19896097 -0.3125132 0.0723536 -0.35295507 0.04907304 -0.14200494 0.0119541325 0.047127217
-0.17516536 0.044999648 0.123264134 0.14787519 -0.029977499 -0.10835013 0.29787743 0.24429707
0.20139404 -0.00058691564 -0.052982688 -0.03705432 -0.7097003 0.22142215 0.2846982 -0.09020996
-0.047772735 0.112914935 -0.19413874 0.06674826 0.025493752 0.16478467 0.0025061953 -0.024838148
0.18807092 -0.16499603 -0.22046325 0.1049809 -0.11509931 0.0843828 -0.24264236 -0.21001047
-0.010638058 -0.11088914 0.1247856 0.026356488 0.013904956 0.08601579 -0.24277358 -0.18207423
0.02795755 -0.1786603 0.18530494 -0.2569037 0.122704834 -0.051569104 0.11096436 0.01338762
-0.20962149 -0.003606379 -0.10956371 0.050446957 -0.1331808 0.05922985 -0.22120947 0.15450469
-0.19600222 0.24120343 0.11301908 -0.21284401 0.056680292 -0.112627804 -0.22054338 0.022678047
00000000: 14d3 e33d 2974 67bd 1acb 043e dc68 a6bd
00000010: 6290 3b3e fa1d 00be 9a87 f5be be73 0bbe
00000020: 3d9f 02be 81d5 9ebe 6086 083c 02bf cabe
00000030: f9d1 91bd 6474 05be 8bc3 103e e09a 2b3c
00000040: 70dd dfbd 98bf 86bd a289 12be a004 08bc
00000050: 6aba 63be 8009 b4bc 9470 abbd 8c97 8d3d
00000060: b0f0 46be bad5 0e3e 00c2 b53a 80d7 33bc
00000070: 640f ae3d 0879 86bd 30bd 3b3d 0cdd dd3d
00000080: e8e9 633d 9734 9e3e 90d0 d03d f4ed 6ebe
00000090: 009a b33e 9633 593e 94cf b43e 8f28 193e
000000a0: 15f8 c03e 2d08 553e b429 7abe 87b5 b43e
000000b0: edb9 20bf 3eb2 68be 36df a83e e8bf 393e
000000c0: f077 003d 6899 ebbd b87c 4cbd 643d 61be
000000d0: faa8 5abe fc01 3e3e 2441 fbbd f02a 8b3c
000000e0: 50f0 34bd 70c3 fe3c be85 2abe ea66 68be
000000f0: 7491 47be 2033 95bd 943f e2bd c6b9 51be
00000100: c062 0dbe a5b6 233e 9467 d73d 2094 203d
00000110: d8d6 97bd 60ba eabd c03d 05bf 77b3 5ebe
00000120: 0933 a0bd 299d 50be 905b 123d 64eb 87be
00000130: 7317 f7bd b0e5 453d a10d 513e d072 ec3d
00000140: 900a b1bd d22f c63e 80b7 423e f033 63bd
00000150: 151c c03e 5839 47be 3b98 983e 7f98 2e3e
00000160: b2ab be3e e87d f2bd 243e 4abe 6830 ce3e
00000170: 15cc 15bf 2c62 2d3e 569b ff3d 8c7f 1f3e
00000180: e622 5b3e a475 09be 367f 39be bcd2 de3d
00000190: e0f9 353c 94fb ecbd 46e5 4abe b41f 4ebe
000001a0: 201d 4e3e 2c35 413e 002e 913c 64dd b03d
000001b0: 108c 03be 587f 363e 70b6 513d 1c29 c4bd
000001c0: 28bb 3bbd 50cf 4abd f052 a63d 8edd 1fbe
000001d0: 38fe 293d b209 283e 7002 05bd 2274 0e3e
000001e0: 80dc 3f3b 9e03 12be 5cd8 813d 60d2 293c
000001f0: c873 b7bd 80b8 253d f82e c33d 00b6 06ba
00000200: d083 f5bc 4085 213c d0da 613d 906e 14bd
00000210: c859 1ebe 4213 5cbe b87c 5b3e aef7 7f3e
00000220: bc25 58be d0de 303d 5816 a9bd e84e 00be
00000230: a094 91bc e80f 313e a48b c53d fe44 69be
00000240: 4ed4 35be aa34 77be 6005 89bc ca65 4fbe
00000250: e5a4 ff3d 9074 d43d 6988 84bd 51a5 8dbe
00000260: a10e b53d cf90 ad3d 408d 093d d3f2 2f3e
00000270: 3090 02be e8be 463e 80b5 80be 402d b9bc
00000280: 68fc 093d 3443 7ebd b419 ecbd b287 05be
00000290: c284 2f3e 5200 0abe 4e1d aa3e 35ab 2a3d
000002a0: ccaa e53d b5b5 01be 6004 c1bd c1f5 a73d
000002b0: 892f 093f ef7d 0fbe a7c5 b23d 3c22 a33d
000002c0: 0823 de3d 0445 6e3d 1060 98bc 007e 9d3b
000002d0: 71aa cf3d 687e 103e 9afc b3be 71b7 65be
000002e0: 6dbc 4bbe bb01 a0be 202e 943d 87b6 b4be
000002f0: d000 493d be69 11be 44db 433c 7808 413d
00000300: 8c5e 33be 8d51 383d e871 fc3d 986c 173e
00000310: 5f93 f5bc ace6 ddbd 6483 983e 0329 7a3e
00000320: 3d3a 4e3e 3edb 19ba 6004 59bd 45c6 17bd
00000330: ebae 35bf 7dbc 623e f6c3 913e 00c0 b8bd
00000340: 58ad 43bd f23f e73d 4ecc 46be 50b3 883d
00000350: 46d8 d03c 50bd 283e fb3e 243b 5f79 cbbc
00000360: aa95 403e b8f4 28be 1ec1 61be 3a00 d73d
00000370: 30b9 ebbd e4d0 ac3d 3d77 78be fc0c 57be
00000380: 404b 2ebc d819 e3bd 988f ff3d 90e9 d73c
00000390: 9dd1 633c 0c29 b03d a399 78be ab71 3abe
000003a0: 3b07 e53c baf2 36be 94c0 3d3e e288 83be
000003b0: ac4c fb3d 203a 53bd 4841 e33d c057 5b3c
000003c0: 04a7 56be 0059 6cbb f062 e0bd 78a1 4e3d
000003d0: 8c60 08be 009b 723d bc84 62be 7a36 1e3e
000003e0: ceb4 48be 08fe 763e 8c76 e73d c8f3 59be
000003f0: 9829 683d 68a9 e6bd 20d6 61be 50c7 b93c

hedge_q.1.linear_relu_stack.4.bias f4 [16]
0.28675526 -0.10056433 -0.084171854 -0.24322659 0.16562615 -0.04185528 -0.22532952 -0.17211455
-0.17797765 0.1468192 -0.38631105 0.18611021 0.259525 -0.10892662 0.1366488 -0.15607446
00000000: 96d1 923e acf4 cdbd 4b62 acbd 6410 79be
00000010: e799 293e 7170 2bbd c8bc 66be cc3e 30be
00000020: c63f 36be c657 163e 90ca c5be ad93 3e3e
00000030: 76e0 843e eb14 dfbd aaed 0b3e fcd1 1fbe

hedge_q.1.linear_relu_stack.6.weight f4 [1, 16]
-0.2526826 -0.18002239 0.3281347 0.22293371 -0.36759925 0.2655786 -0.1906245 -0.16916901
-0.15213835 -0.0071183983 -0.6786852 -0.24646953 0.14886118 -0.095788576 -0.12885451 0.04607424
00000000: 9d5f 81be ca57 38be 4501 a83e bc48 643e
00000010: f835 bcbe ebf9 873e 1233 43be a43a 2dbe
00000020: 28ca 1bbe 7441 e9bb 50be 2dbf 8262 7cbe
00000030: 116f 183e cd2c c4bd 70f2 03be 58b8 3c3d

hedge_q.2.linear_relu_stack.0.weight f4 [16, 1]
-0.0065404177 -0.074807644 0.67831904 -0.11319648 0.79229116 -0.9819826 0.66891694 0.50096196
1.17768 1.1652185 0.5969003 0.023681965 -0.9022945 1.0563617 1.1693809 -0.9899827
00000000: 0051 d6bb c034 99bd 51a6 2d3f 8ed3 e7bd
00000010: 98d3 4a3f 3663 7bbf 243e 2b3f 0b3f 003f
00000020: 38be 963f e125 953f 75ce 183f ae00 c23c
00000030: c6fc 66bf dc36 873f 46ae 953f 826f 7dbf

hedge_q.2.linear_relu_stack.0.bias f4 [16]
-0.15864635 -0.97524154 0.80672574 0.69058645 -0.43184304 -0.8949636 0.29003286 0.63791513
-0.7009311 0.78920317 -0.20637377 0.8076088 -0.5470313 -0.12652266 -0.39555457 -0.92820513
00000000: 3074 22be 6ea9 79bf 9485 4e3f 46ca 303f
00000010: 881a ddbe 561c 65bf 307f 943e 684e 233f
00000020: 3870 33bf 3809 4a3f a553 53be 73bf 4e3f
00000030: 3e0a 0cbf 288f 01be 2186 cabe da9e 6dbf

hedge_q.2.linear_relu_stack.2.weight f4 [16, 16]
0.20294866 0.0021844208 0.18816984 0.09809737 0.023244768 -0.1335944 0.0049120802 0.15451509
-0.073922604 -0.21832685 0.029331135 -0.10204952 0.22761425 -0.15716437 -0.24547988 0.047370166
0.060892314 -0.0020061135 0.14121608 -0.26842922 -1.1593194 -0.1127702 0.010694307 -0.1100332
-0.47927848 0.1017589 0.6400492 -0.09881314 -0.06831139 0.3037265 0.7773361 -0.02004841
-0.16166326 -0.09332588 -0.05782989 -0.2268989 0.0902699 0.096912 -0.033303637 0.07538064
0.0062773824 0.11696914 -0.20095235 0.0041163997 0.029905498 -0.038047478 -0.18426947 -0.07937893
-0.05497551 0.00046756864 0.24328336 -0.0009357927 -0.7739978 -0.11512369 0.09411083 -0.071391724
-0.55014616 0.30273014 0.3454338 -0.09930155 0.026802361 0.39361697 0.5777048 -0.13596484
-0.2359319 0.11820498 0.16494687 -0.12289476 -1.0679734 -0.10321519 0.24036749 0.23065296
-0.293617 -0.07817536 0.6398834 -0.21759863 0.1763691 0.36908096 0.6313576 0.14946517
0.22131503 -0.05738163 -0.053696215 0.12663834 -0.22332682 -0.20053372 0.09205185 0.08672199
0.11481881 -0.20153968 -0.8142675 0.2681708 0.18222883 -0.35876426 -0.3402626 0.040970176
-0.08192173 -0.20531192 -0.22732893 0.011998922 -0.030338079 -0.096567035 -0.11695239 -0.023681134
0.20852107 -0.07399112 -0.21011114 -0.24855024 0.12488076 0.043920845 0.055392563 -0.090619236
-0.0388591 -0.016624272 -0.11347315 0.08388004 -0.039588064 -0.03167066 -0.0991832 -0.07964769
0.009217709 -0.2204381 0.14271602 0.16708767 0.12053886 -0.015609801 -0.13056174 0.013633549
-0.014502317 0.18772861 0.16889662 -0.11745479 -1.1811643 -0.05372888 0.073597506 -0.011438864
-0.5679735 0.017761093 0.2631765 0.099439345 0.0047292113 -0.011958109 0.3545391 0.13572189
-0.14374793 0.0034746528 -0.07203686 -0.24199855 -0.04362756 0.10657373 -0.13791278 -0.05775568
-0.18766496 -0.045686662 0.016929507 0.053543 0.23185256 0.11501369 -0.16275775 -0.18346909
0.039667398 -0.17985523 -0.06655614 0.26722902 0.8125393 0.0046657324 -0.12562397 0.17037714
0.32617998 -0.07077366 -0.0058261887 0.23743436 0.19527298 -0.08419249 -0.23839636 0.2040945
-0.1936172 -0.21242061 -0.12920776 -0.060156196 0.11903292 0.14430535 0.14766711 0.15041956
-0.23119357 -0.24129131 -0.02630186 0.04225591 -0.10751876 0.08211017 0.047988594 -0.14964554
-0.094718665 -0.08818841 0.16786322 -0.24781838 0.13699278 0.07716635 -0.23943275 0.098470986
-0.13811782 -0.24008304 -0.011679649 -0.21956351 -0.13375717 -0.100289255 0.1555821 0.07978889
-0.1753281 0.09912214 -0.23040748 -0.17067811 -1.2119095 0.13644955 0.009651079 -0.05691976
-0.31517082 0.3022201 0.31248072 0.06514586 0.038675427 0.5059407 0.4937403 -0.07340065
0.10169044 0.019602507 0.011875451 0.1633921 -0.10322356 -0.13422325 -0.02600804 0.24211508
-0.19298986 -0.036201984 -0.031377256 -0.2106907 0.01905927 -0.24318689 0.0544056 0.075950086
-0.24510384 -0.039051414 0.008170867 0.0034367752 -1.1397626 0.2313458 0.1032357 0.096030526
-0.32027888 0.18296544 0.62681895 -0.113101736 -0.18951306 0.27940136 0.46980032 0.1840814
00000000: c6d1 4f3e 8028 0f3b 98af 403e 46e7 c83d
00000010: d06b be3c f8cc 08be 84f5 a03b 3439 1e3e
00000020: bc64 97bd 1391 5fbe d947 f03c 57ff d0bd
00000030: b613 693e b2ef 20be 145f 7bbe 3807 423d
00000040: 386a 793d 0079 03bb f39a 103e 8e6f 89be
00000050: 9464 94bf 10f4 e6bd 2d37 2f3c 1659 e1bd
00000060: fd63 f5be f866 d03d 44da 233f 8b5e cabd
00000070: d8e6 8bbd 0a82 9b3e 80ff 463f 903c a4bc
00000080: 0e8b 25be a421 bfbd 09df 6cbd 2f58 68be
00000090: 6ddf b83d cc79 c63d 6569 08bd 2a61 9a3d
000000a0: 80b2 cd3b 848d ef3d 74c6 4dbe dde2 863b
000000b0: 60fc f43c acd7 1bbd 23b1 3cbe 6c91 a2bd
000000c0: 002e 61bd 0024 f539 461f 793e fc4f 75ba
000000d0: b824 46bf f8c5 ebbd 2ebd c03d d335 92bd
000000e0: 61d6 0cbf 72ff 9a3e b3dc b03e 9c5e cbbd
000000f0: a090 db3c 2a88 c93e 76e4 133f 5e3a 0bbe
00000100: 2298 71be 7415 f23d d5e7 283e 3fb0 fbbd
00000110: 5ab3 88bf 7c62 d3bd e522 763e 4a30 6c3e
00000120: f854 96be 671a a0bd 66cf 233f 2dd2 5ebe
00000130: 1a9a 343e 2ef8 bc3e a7a0 213f 660d 193e
00000140: 68a0 623e 0009 6bbd 90f0 5bbd 7bad 013e
00000150: c9af 64be b658 4dbe ae85 bc3d 4c9b b13d
00000160: 2026 eb3d 6b60 4ebe d673 50bf af4d 893e
00000170: 329a 3a3e f3af b7be e636 aebe 58d0 273d
00000180: 94c6 a7bd 4a3d 52be eac8 68be 2097 443c
00000190: 9087 f8bc f0c4 c5bd bc84 efbd f0fe c1bc
000001a0: 8c86 553e a888 97bd 6027 57be f483 7ebe
000001b0: 7cc1 ff3d 58e6 333d 50e3 623d 9496 b9bd
000001c0: b82a 1fbd a02f 88bc 9c64 e8bd 4cc9 ab3d
000001d0: 1827 22bd 18b9 01bd 9020 cbbd 541e a3bd
000001e0: e005 173c 86ba 61be 2624 123e 0819 2b3e
000001f0: 14dd f63d 40c0 7fbc fab1 05be 405f 5f3c
00000200: 209b 6dbc ee3b 403e 3cf3 2c3e 238c f0bd
00000210: 6430 97bf d012 5cbd 4aba 963d 136a 3bbc
00000220: b666 11bf b67f 913c 12bf 863e dba6 cb3d
00000230: 80f7 9a3b f2eb 43bc 2686 b53e aefa 0a3e
00000240: a832 13be 00b7 633b 1088 93bd 78ce 77be
00000250: d0b2 32bd 5443 da3d 0239 0dbe 3891 6cbd
00000260: 3e2b 40be f021 3bbd c0af 8a3c e84f 5b3d
00000270: c26a 6d3e 4c8c eb3d f8a9 26be 52df 3bbe
00000280: 487a 223d f82b 38be 964e 88bd 3ed2 883e
00000290: 9302 503f 00e3 983b 92a3 00be 5877 2e3e
000002a0: 1001 a73e c8f1 90bd 9de9 bebb fe21 733e
000002b0: a4f5 473e 1d6d acbd 2d1e 74be 26fe 503e
000002c0: 9643 46be ca84 59be 0a4f 04be 5866 76bd
000002d0: 88c7 f33d c8c4 133e 0c36 173e 9607 1a3e
000002e0: 02be 6cbe 1215 77be 0077 d7bc 8814 2d3d
000002f0: cc32 dcbd 6029 a83d b08f 443d ae3c 19be
00000300: dcfb c1bd 209c b4bd 56e4 2b3e 1ac4 7dbe
00000310: d647 0c3e 6409 9e3d dc2d 75be 28ab c93d
00000320: c26e 0dbe 54d8 75be 005c 3fbc 42d5 60be
00000330: a4f7 08be 7464 cdbd ea50 1f3e 5c68 a33d
00000340: 3689 33be 8c00 cb3d f0ef 6bbe 3ec6 2ebe
00000350: da1f 9bbf 6eb9 0b3e 8f1f 1e3c b224 69bd
00000360: 125e a1be 98bc 9a3e 79fd 9f3e 316b 853d
00000370: 206a 1e3d 5485 013f 87cb fc3e 1453 96bd
00000380: 1443 d03d 7095 a03c 4091 423c 4250 273e
00000390: e066 d3bd d271 09be d00e d5bc 04ed 773e
000003a0: 229f 45be 8848 14bd 7085 00bd 4ebf 57be
000003b0: 3022 9c3c fc05 79be 68d8 5e3d b88b 9b3d
000003c0: 80fc 7abe 60f4 1fbd 1adf 053c 853b 613b
000003d0: bee3 91bf eae5 6c3e 3d6d d33d a7ab c43d
000003e0: 98fb a3be 4b5b 3b3e 3577 203f e2a1 e7bd
000003f0: b60f 42be b20d 8f3e ab89 f03e d67f 3c3e

hedge_q.2.linear_relu_stack.2.bias f4 [16]
-0.060886044 0.036551047 -0.032186985 -0.06791934 -0.15332325 0.14818947 0.06713492 0.16276681
0.07065388 -0.1524772 -0.18380429 0.020713955 -0.034925193 0.16163132 -0.13464257 -0.12381785
00000000: a563 79bd 8db6 153d 80d6 03bd 4c19 8bbd
00000010: c500 1dbe fbbe 173e 087e 893d 58ac 263e
00000020: fbb2 903d fc22 1cbe 3137 3cbe 50b0 a93c
00000030: b80d 0fbd ae82 253e bedf 09be 3794 fdbd

hedge_q.2.linear_relu_stack.4.weight f4 [16, 16]
-0.19388753 0.050749015 -0.007444041 0.098954044 0.31247756 -0.859376 -0.07855064 0.24340847
0.2139993 -0.23652023 -0.039661646 0.1901342 -0.2276384 0.01317875 -0.22550872 0.33705914
-0.11079144 0.44743 -0.06904108 0.34035984 0.19175783 -0.87427807 -0.10289809 0.04695171
0.1021846 -0.055517733 -0.27971235 -0.12129441 -0.1909335 0.33017898 0.15050945 0.12072798
-0.1993815 -0.058244664 0.074434236 0.20085339 0.21455717 -0.08070183 -0.14100134 -0.12165597
-0.29143688 0.055179358 0.42578852 -0.14859 0.009673983 0.05828935 -0.13219476 -0.061983056
0.18708721 0.15201488 -0.1844024 -0.10058361 -0.016796947 -0.14086604 0.14325514 0.07632771
0.22557887 -0.2485379 -0.077230394 0.23436895 0.15259442 -0.18963417 -0.2131801 -0.02452913
-0.010906879 0.2123271 -0.20595469 0.22400458 -0.037597105 -0.6255496 -0.13514087 0.12330267
-0.19653274 -0.18728447 0.12188248 -0.1695821 -0.047002256 0.117970094 -0.11653888 0.3184374
0.21706113 0.08594251 -0.044394165 0.052033007 -0.16502601 -0.13571915 0.19048095 -0.08718932
0.022363901 -0.19792 -0.116916 0.059564233 -0.19787008 -0.063206434 0.005718291 -0.13524494
0.21383142 0.038444966 -0.04700792 -0.24498126 -0.1318773 -0.16823351 -0.034032136 -0.1569475
-0.18617986 0.14850539 0.015213031 -0.0778403 0.2488643 -0.007214174 0.10815129 -0.029987797
0.24153137 -0.00019268284 -0.034096826 0.16028066 -0.15823448 -0.1209337 -0.093678355 -0.0012717843
-0.20652041 0.00065997243 -0.29898304 0.21216157 0.21697098 0.17560726 -0.23032048 0.12809809
-0.0775821 -0.19636449 0.17125507 -0.028379045 -0.073202685 -0.20588703 0.095499665 4.4435263e-05
-0.06718585 -0.0035850108 -0.1920545 -0.23918557 0.21656466 -0.02593097 0.008684039 0.034143236
-0.16863766 -0.17663088 0.097031355 -0.1582897 -0.029667467 -0.19580552 0.1601811 -0.09429747
-0.15512457 0.06550032 0.22421354 -0.003035903 0.037184536 0.10620996 -0.052411944 0.12262353
0.09346405 -0.086711854 0.049390614 -0.025818914 -0.22041419 -0.01931119 -0.19251189 0.036013216
0.12021062 0.006988257 0.10347971 -0.20641685 0.11163369 -0.073262095 0.20048225 0.07384977
-0.12966743 0.12974727 -0.078451216 -0.1111781 -0.016019534 -0.13661644 0.031677485 -0.027237087
0.19969122 -0.20191026 -0.13969111 0.15668544 0.174977 0.10851811 0.22835222 -0.048438378
0.22759792 0.10799652 -0.124922544 -0.15249443 0.10670775 -0.031941354 0.2387152 -0.20973521
-0.17580044 -0.20523983 0.1921013 0.11911228 -0.14494911 -0.041655928 0.19662449 0.069453835
-0.19341087 0.38344404 -0.098412246 0.16401799 0.27583158 -0.43517795 -0.16452527 0.018710494
-0.019630574 0.023611575 -0.10631272 -0.0697214 0.039095044 0.3795563 -0.1204603 0.4692306
0.051113624 0.05975099 0.0863779 0.27447617 0.31708342 -0.89103246 -0.064858675 0.18941572
0.26180407 -0.06585151 -0.14537385 -0.21343789 0.19823954 0.18993618 -0.038618773 0.2727845
-0.12652338 -0.05744666 -0.23468122 0.02818358 -0.14776823 -0.21869814 0.073617935 0.091727704
-0.079464674 0.23871315 0.023759365 -0.23695311 0.2335212 -0.10900521 0.1772559 0.21371329
00000000: 748a 46be 33de 4f3d 24ed f3bb 6ba8 ca3d
00000010: 0ffd 9f3e 1100 5cbf 28df a0bd 1240 793e
00000020: a222 5b3e 5c32 72be 4074 22bd 8ab2 423e
00000030: 0a1a 69be afeb 573c c2eb 66be 0493 ac3e
00000040: 9fe6 e2bd 8c15 e53e 6965 8dbd a543 ae3e
00000050: 2a5c 443e b0d0 5fbf 3cbc d2bd 7050 403d
00000060: 2946 d13d 9066 63bd 7536 8fbe 3469 f8bd
00000070: 1284 43be 380d a93e 261f 1a3e 3b40 f73d
00000080: aa2a 4cbe f591 6ebd fa70 983d 83ac 4d3e
00000090: e0b4 5b3e 0047 a5bd a862 10be c426 f9bd
000000a0: 3737 95be c003 623d f400 da3e fa27 18be
000000b0: a07f 1e3c d0c0 6e3d 105e 07be f2e1 7dbd
000000c0: ca93 3f3e caa9 1b3e fcd3 3cbe c8fe cdbd
000000d0: c099 89bc 303f 10be 7ab1 123e b451 9c3d
000000e0: 26fe 663e b880 7ebe f82a 9ebd 6afe 6f3e
000000f0: b641 1c3e 762f 42be e24b 5abe 50f1 c8bc
00000100: c4b2 32bc 466c 593e c9e5 52be 7561 653e
00000110: 6cff 19bd 0524 20bf 5e62 0abe 1c86 fc3d
00000120: e13f 49be 80c7 3fbe 869d f93d eea6 2dbe
00000130: 7085 40bd 4e9a f13d f0ab eebd 3a0a a33e
00000140: 4645 5e3e a002 b03d a8d6 35bd 9020 553d
00000150: 94fc 28be f6f9 0abe 700d 433e 5090 b2bd
00000160: 8034 b73c 8aab 4abe a871 efbd a0f9 733d
00000170: 749e 4abe 6072 81bd 8060 bb3b a67d 0abe
00000180: a0f6 5a3e 7878 1d3d 608b 40bd 5edc 7abe
00000190: d80a 07be 6845 2cbe 4865 0bbd d8b6 20be
000001a0: efa5 3ebe cc11 183e 1440 793c bc6a 9fbd
000001b0: 48d6 7e3e e164 ecbb 6c7e dd3d f8a8 f5bc
000001c0: 0054 773e e80a 4ab9 1da9 0bbd 9d20 243e
000001d0: 3808 22be 16ac f7bd 70da bfbd 00b2 a6ba
000001e0: 167a 53be 0002 2d3a 4e14 99be e240 593e
000001f0: a42d 5e3e 64d2 333e 22d9 6bbe 252c 033e
00000200: 5de3 9ebd c613 49be 7d5d 2f3e 2c7b e8bc
00000210: 4aeb 95bd 0dd4 52be 5495 c33d 0060 3a38
00000220: bc98 89bd 80f2 6abb efa9 44be 10ed 74be
00000230: 20c3 5d3e 306d d4bc 8047 0e3c c7d9 0b3d
00000240: 5aaf 2cbe bade 34be 60b8 c63d b216 22be
00000250: 3009 f3bc 3e81 48be 8406 243e 081f c1bd
00000260: fad8 1ebe 0825 863d 3c98 653e 00f6 46bb
00000270: d04e 183d 9c84 d93d e8ad 56bd 0c22 fb3d
00000280: 146a bf3d fc95 b1bd d04d 4a3d 3082 d3bc
00000290: 42b4 61be 8032 9ebc d621 45be 9882 133d
000002a0: fc30 f63d c0fd e43b 2ced d33d f05e 53be
000002b0: 34a0 e43d 700a 96bd 384b 4d3e 8c3e 973d
000002c0: 8ac7 04be 78dc 043e 08ab a0bd 58b1 e3bd
000002d0: 663b 83bc 2ee5 0bbe 40c0 013d 5020 dfbc
000002e0: db7b 4c3e 90c1 4ebe 300b 0fbe 2672 203e
000002f0: 2c2d 333e be3e de3d 2ad5 693e 5267 46bd
00000300: 6e0f 693e 482d dd3d 64d7 ffbd 8027 1cbe
00000310: 9889 da3d f0d4 02bd c271 743e d4c4 56be
00000320: 0805 34be 642a 52be 34b6 443e 24f1 f33d
00000330: 8a6d 14be 689f 2abd ee57 493e d03d 8e3d
00000340: 800d 46be c752 c43e 5c8c c9bd 55f4 273e
00000350: cc39 8d3e a5cf debe 5079 28be c046 993c
00000360: 4cd0 a0bc 106d c13c 7cba d9bd 18ca 8ebd
00000370: 2022 203d 3455 c23e e4b3 f6bd fe3e f03e
00000380: 855c 513d 74bd 743d e5e6 b03d 2488 8c3e
00000390: c258 a23e b41a 64bf a0d4 84bd 32f6 413e
000003a0: 2f0b 863e 28dd 86bd e2dc 14be 768f 5abe
000003b0: 4eff 4a3e a17e 423e b82e 1ebd 69aa 8b3e
000003c0: 588f 01be 304d 6bbd 4650 70be 40e1 e63c
000003d0: 8e50 17be 68f2 5fbe 00c5 963d bcdb bb3d
000003e0: 60be a2bd 3871 743e 00a3 c23c d6a3 72be
000003f0: 2e20 6f3e 203e dfbd 9282 353e a8d7 5a3e

hedge_q.2.linear_relu_stack.4.bias f4 [16]
-0.04906307 0.16284025 -0.21787094 -0.10981727 0.2027216 -0.038513094 0.17199722 -0.14827076
0.090291895 -0.11910334 -0.20759988 -0.18703441 -0.23611966 -0.26240757 0.16254766 -0.1366438
00000000: 5cf6 48bd 98bf 263e 8f19 5fbe e0e7 e0bd
00000010: 4096 4f3e e8bf 1dbd 0a20 303e 4ad4 17be
00000020: f5ea b83d 74ec f3bd 1095 54be f385 3fbe
00000030: 5ac9 71be 495a 86be e572 263e 5aec 0bbe

hedge_q.2.linear_relu_stack.6.weight f4 [1, 16]
0.23978369 0.34618202 -0.56897134 -0.11294529 0.29618615 -0.18218577 0.101553075 -0.019248666
-0.103612974 -0.0754472 -0.037699074 -0.17806078 0.13422409 0.33680674 0.20922548 -0.15354994
00000000: db89 753e c53e b13e 1ba8 11bf dc4f e7bd
00000010: b6a5 973e e88e 3abe 0ffb cf3d 61af 9dbc
00000020: 0a33 d4bd 1084 9abd 586a 1abd 9155 36be
00000030: 0a72 093e ef71 ac3e 343f 563e 323c 1dbe

hedge_q.3.linear_relu_stack.0.weight f4 [16, 1]
-0.38734713 -0.61881244 -0.28593457 0.57905203 -0.35576314 0.48473492 -0.54064894 -0.50814164
0.84942335 1.0856308 -0.06413138 0.59004873 -0.84530556 0.528841 -0.23315229 0.5691166
00000000: 5d52 c6be 7e6a 1ebf 0466 92be c13c 143f
00000010: 9626 b6be 2d2f f83e f867 0abf 9215 02bf
00000020: cf73 593f f3f5 8a3f 5057 83bd 6f0d 173f
00000030: f265 58bf 2062 073f 79bf 6ebe a0b1 113f

hedge_q.3.linear_relu_stack.0.bias f4 [16]
0.6244277 -0.97598374 -0.14449787 -0.44790486 0.91641337 -0.044453066 0.6861111 0.56129545
-0.56068575 -0.36379826 -0.17705703 0.74008375 -0.42757285 0.84698755 0.44170895 0.594329
00000000: 7eda 1f3f 12da 79bf 40f7 13be c953 e5be
00000010: 119a 6a3f 6b14 36bd faa4 2f3f 0fb1 0f3f
00000020: 1a89 0fbf c443 babe 704e 35be 2176 3d3f
00000030: d4ea dabe 2dd4 583f ad27 e23e f225 183f

hedge_q.3.linear_relu_stack.2.weight f4 [16, 16]
0.1441815 0.15361488 -0.03428155 -0.12808612 0.19115677 -0.10796958 0.09120545 0.0733751
-0.14279443 -0.26135707 0.19933641 -0.08070972 0.13301271 -0.27253497 0.13645455 -0.18859665
-0.19659907 -0.03205833 0.10260868 0.06365016 -0.013221234 0.036100537 -0.015431225 -0.15382564
0.15656585 -0.024988264 -0.08395329 -0.04292512 0.18901682 0.21019796 -0.0014042258 -0.1609824
0.13119026 0.13922489 -0.010968685 -0.13746032 0.12655064 0.12742715 0.07152946 0.08404497
-0.20984246 0.4339276 -0.06975976 0.24414498 0.11868608 0.2402567 -0.17780049 0.2191573
-0.13119744 0.0060305595 0.059883952 -0.21790329 -0.19302332 0.4302116 -0.36602116 -0.3762223
0.08103109 0.64977247 0.07223895 0.17790917 -0.17472869 0.07205408 -0.1212194 0.28639153
-0.18541369 -0.14153427 0.24523419 0.13725409 0.10448778 -0.12201953 -0.19722825 -0.2196677
-0.1771462 0.18822387 0.23673046 -0.0076355934 0.21938261 -0.22620681 0.008905828 -0.15205926
-0.13335544 0.14488006 0.2335512 0.08599943 -0.11800158 0.10042894 -0.1301552 0.007163465
-0.22089371 0.1833322 -0.21129876 -0.00652197 0.1376619 -0.24565864 0.064831704 0.24684995
-0.08384089 0.19907883 -0.13859063 0.12843192 -0.2801364 0.5148331 -0.016925054 -0.29872155
-0.22161828 0.7621784 -0.143051 0.18659292 -0.085864544 0.25503215 -0.112184435 -0.026284391
-0.22486144 0.027714193 0.2482006 0.2283316 0.23538926 0.015167415 -0.046406835 0.15295464
0.0181683 -0.097421795 0.13406163 0.14651874 0.23102891 -0.12353507 -0.058615 -0.22268385
-0.1287087 0.03851837 0.18675032 0.09079781 0.00010412781 0.24087527 -0.026041267 -0.048319086
-0.12878053 0.58687663 0.09607762 -0.029533045 0.11024311 -0.01830058 0.11296748 0.044742074
-0.123308934 0.15644392 0.12804341 0.19759296 -0.13240992 0.42347723 -0.3863362 -0.016652606
0.302145 0.36371493 0.15262753 0.2751895 -0.2219229 -0.19815256 -0.13775441 0.23538025
-0.1624347 -0.17203224 0.15249935 0.1199981 0.12206204 0.1174723 0.14729935 0.21667969
-0.15677199 -0.23754692 -0.20826173 -0.17451186 0.1682508 -0.19371143 0.106539235 0.18821491
-0.08743809 -0.12788126 -0.15383294 0.048933737 0.08372845 0.24299379 -0.23445873 -0.1861469
0.031155782 0.9192858 -0.17525566 -0.16007434 0.090154976 0.27321267 -0.26753834 0.25840566
-0.139106 0.111830056 0.06614643 0.0789752 -0.09265691 -0.08878589 0.19461349 0.03940153
-0.14168468 -0.119916975 0.17709261 0.11898717 0.1575607 -0.19080985 -0.08817339 -0.0018619597
-0.15221411 -0.24286878 -0.06399709 0.072257295 0.23040827 0.26145107 0.08541671 -0.22203623
0.035540197 0.22260883 0.23573071 -0.11391786 -0.13764247 0.24185696 -0.14988028 0.29780906
-0.060100526 -0.109488964 0.14422476 -0.19855148 -0.18777537 -0.03489718 -0.20510873 -0.20313725
-0.16138262 -0.17692319 0.041668415 0.00889641 -0.22050002 0.041943967 0.19523433 -0.039455563
0.08739811 0.17321599 -0.22586939 -0.20463017 0.12144679 -0.093411446 -0.027488142 0.056642205
0.21917152 0.011358917 0.166484 -0.08400115 0.05455154 -0.06475979 -0.24571925 -0.15096766
00000000: 51a4 133e 384d 1d3e d06a 0cbd 0229 03be
00000010: 9abe 433e 281f ddbd ecc9 ba3d af45 963d
00000020: b438 12be 98d0 85be d81e 4c3e 234b a5bd
00000030: 7c34 083e b489 8bbe beba 0b3e 7b1f 41be
00000040: 4451 49be 984f 03bd 8024 d23d 045b 823d
00000050: e09d 58bc 28de 133d 40d3 7cbc 7884 1dbe
00000060: cc52 203e 30b4 ccbc b4ef abbd 40d2 2fbd
00000070: a08d 413e 223e 573e 000e b8ba 92d8 24be
00000080: bd56 063e f890 0e3e 00b6 33bc 66c2 0cbe
00000090: 7e96 013e 437c 023e 0a7e 923d c51f ac3d
000000a0: f1e0 56be c22b de3e 34de 8ebd 2401 7a3e
000000b0: b011 f33d da05 763e 5511 36be c56a 603e
000000c0: 9f58 06be 009c c53b e048 753d 0a22 5fbe
000000d0: e8a7 45be b244 dc3e 2067 bbbe 36a0 c0be
000000e0: a1f3 a53d 7d57 263f 04f2 933d d22d 363e
000000f0: 14ec 32be 1791 933d e041 f8bd e9a1 923e
00000100: 16dd 3dbe 5cee 10be ac1e 7b3e 568c 0c3e
00000110: b0fd d53d 60e5 f9bd 34f6 49be 92f0 60be
00000120: d065 35be c2bd 403e 7869 723e 0034 fabb
00000130: d6a5 603e c2a2 67be c0e9 113c 6cb5 1bbe
00000140: 548e 08be 705b 143e 0c28 6f3e 7820 b03d
00000150: d0aa f1bd b0ad cd3d 6847 05be 80bb ea3b
00000160: f631 62be 70bb 3b3e b45e 58be 40b6 d5bb
00000170: 3ef7 0c3e f08d 7bbe 7cc6 843d 3cc6 7c3e
00000180: c6b4 abbd 52db 4b3e b4ea 0dbe a883 033e
00000190: 0a6e 8fbe 1acc 033f 69a6 8abc 08f2 98be
000001a0: e7ef 62be 201e 433f f67b 12be 3712 3f3e
000001b0: c0d9 afbd 9393 823e f4c0 e5bd 5d52 d7bc
000001c0: 1442 66be e008 e33c 4c28 7e3e c2cf 693e
000001d0: e209 713e c080 783c 1815 3ebd 24a0 1c3e
000001e0: b0d5 943c 1485 c7bd 7447 093e 0209 163e
000001f0: d892 6c3e f4ff fcbd 4816 70bd 3c07 64be
00000200: 37cc 03be 70c5 1d3d 7a3b 3f3e 34f4 b93d
00000210: 315f da38 02a8 763e 7f54 d5bc 3cea 45bd
00000220: 0bdf 03be 8c3d 163f 58c4 c43d 49ef f1bc
00000230: 24c7 e13d 19eb 95bc 7f5b e73d 7743 373d
00000240: 6589 fcbd d632 203e d01d 033e cf55 4a3e
00000250: 7796 07be 02d2 d83e dccd c5be 0c6b 88bc
00000260: c0b2 9a3e d838 ba3e 644a 1c3e a3e5 8c3e
00000270: c23f 63be 81e8 4abe 7e0f 0dbe 8507 713e
00000280: 4855 26be 3829 30be ca28 1c3e 90c1 f53d
00000290: aafb f93d 5195 f03d a4d5 163e 48e1 5d3e
000002a0: d688 20be 803f 73be 9042 55be 3db3 32be
000002b0: f049 2c3e 4a5c 46be 3e31 da3d 69bb 403e
000002c0: be12 b3bd 4ef3 02be 6286 1dbe be6e 483d
000002d0: d279 ab3d 5dd3 783e f315 70be 4b9d 3ebe
000002e0: 693a ff3c 5056 6b3f 3876 33be 87ea 23be
000002f0: 2ca3 b83d 88e2 8b3e c9fa 88be bf4d 843e
00000300: ce71 0ebe 2807 e53d c877 873d c0bd a13d
00000310: e8c2 bdbd 60d5 b5bd c248 473e 8063 213d
00000320: ca15 11be 0897 f5bd c457 353e 8caf f33d
00000330: 9857 213e a863 43be 4094 b4bd 000d f4ba
00000340: 04de 1bbe 98b2 78be e810 83bd a2fb 933d
00000350: 25f0 6b3e eadc 853e f5ee ae3d 775d 63be
00000360: 9992 113d 92f3 633e 6463 713e c44d e9bd
00000370: 26f2 0cbe 5aa9 773e 377a 19be 6e7a 983e
00000380: f82b 76bd c03b e0bd a8af 133e 1451 4bbe
00000390: 3048 40be 58f0 0ebd 0608 52be 3603 50be
000003a0: 7c41 25be 5a2b 35be 80ac 2a3d 40c2 113c
000003b0: c2ca 61be 70cd 2b3d 82eb 473e 289c 21bd
000003c0: c8fd b23d 885f 313e 4e4a 67be 928a 51be
000003d0: 18b9 f83d 804e bfbd d02e e1bc a801 683d
000003e0: 806e 603e c01a 3a3c c87a 2a3e cc08 acbd
000003f0: 7071 5f3d c8a0 84bd d49d 7bbe 4497 1abe
