Models/BS/FFNN/Prop trans costs/BS_FFNN_CVaR_99_tc.pth (torch, 48779 bytes, 63 tensors)

hedge_q.0.linear_relu_stack.0.weight f4 [16, 1]
0	0x3f4d5f20	0.80223274
1	0xbeb94548	-0.3618567
2	0x3eb5ae1e	0.35484403
3	0x3e7b9f50	0.24572492
4	0x3f8a2f52	1.0795691
5	0xbf0bb830	-0.5457792
6	0xbf02c810	-0.5108652
7	0x3ee583fe	0.44827265
8	0x3f707c43	0.9393961
9	0x3f84c415	1.037234
10	0xbee1fd14	-0.44138396
11	0xbf677c58	-0.9042411
12	0xbd82dfd0	-0.06390345
13	0x3f1b57ab	0.60680646
14	0xbe906e04	-0.28208935
15	0xbed912b8	-0.42397094

hedge_q.0.linear_relu_stack.0.bias f4 [16]
0	0x3e87c9ec	0.26521242
1	0x3d0020e0	0.031281352
2	0x3f328667	0.6973633
3	0xbf0c5438	-0.5481601
4	0x3f0e07ae	0.5548047
5	0x3e339bf8	0.17539966
6	0x3f13d065	0.5773986
7	0x3ed5bb65	0.41744533
8	0xbef96918	-0.48712993
9	0x3d5834c0	0.05278468
10	0x3f44d261	0.7688351
11	0x3f1e046f	0.61725515
12	0xbf764828	-0.9620385
13	0xbea2381d	-0.31683436
14	0x3f44d787	0.7689137
15	0xbeb1aeec	-0.34703767

hedge_q.0.linear_relu_stack.2.weight f4 [16, 16]
0	0xbdc43f9c	-0.09582445
1	0x3cf0a360	0.029374778
2	0xbc0b3900	-0.008497477
3	0x3e6744b6	0.22584805
4	0xbe325526	-0.17415294
5	0x3d77cce0	0.06049812
6	0xbe539568	-0.20662463
7	0xbdd55d80	-0.10418224
8	0x3e7c9662	0.24666741
9	0xbe2a7b28	-0.16648543
10	0x3cae5e50	0.021285206
11	0x3dd838bc	0.10557696
12	0xbe124a18	-0.14286077
13	0xbe53f548	-0.20699036
14	0xbd460500	-0.048344612
15	0xbdd9229c	-0.10602304
16	0x3d8674e8	0.06565267
17	0x3c40ba80	0.011763215
18	0xbcb75cf5	-0.022383193
19	0x3e1a0eb6	0.15044674
20	0x3e9bff56	0.30468243
21	0xbe34b856	-0.17648444
22	0x3d9b3d43	0.07580044
23	0xbb38e528	-0.002821276
24	0xbec5c5a3	-0.38627347
25	0x3e88a265	0.26686397
26	0xbdd614d8	-0.104531944
27	0xbfa5ef7f	-1.2963713
28	0x3e30df5a	0.17272702
29	0xbec95225	-0.39320484
30	0x3dc3df19	0.09564037
31	0xbde60570	-0.11231506
32	0xbe554d6c	-0.20830315
33	0x3e500e04	0.20317847
34	0x3dd3e810	0.10346997
35	0xbe088a68	-0.13334048
36	0xbe147cae	-0.14500687
37	0x3df82a84	0.12117484
38	0xbe06f7e0	-0.13180494
39	0x3dcec978	0.10097021
40	0xbdcb4b28	-0.09926444
41	0xbe32ffde	-0.17480418
42	0x3db76fc4	0.089568645
43	0x3d575cb8	0.052578658
44	0x3e648622	0.22316793
45	0xbe7a60d2	-0.24450997
46	0xbdcd10b8	-0.100129545
47	0x3daaa054	0.083313614
48	0x3e0d5f66	0.13805923
49	0xbe3cdefe	-0.1844444
50	0x3dceeea7	0.10104113
51	0xbe7ad9f4	-0.24497205
52	0xbd9bf365	-0.07614783
53	0xbe5954fe	-0.21223828
54	0x3c70e998	0.014704131
55	0x3d0328db	0.032021385
56	0x3d7b6e70	0.06138462
57	0xbe37030d	-0.17872258
58	0x3d0cfe85	0.034422416
59	0x3d29d6b3	0.04146452
60	0x3e40c69e	0.18825766
61	0xbe302164	-0.17200238
62	0xbcf5a439	-0.029985534
63	0x3de56c68	0.112023175
64	0xbe31e256	-0.17371497
65	0x3dc55d7c	0.09636971
66	0xbdb07398	-0.08615798
67	0xbe4c8382	-0.19972041
68	0xbd209408	-0.039203674
69	0x3d8abe04	0.06774524
70	0x3e05cef8	0.13067234
71	0x3e0fe58c	0.14052409
72	0xbda9ae90	-0.08285248
73	0xbe505ed2	-0.20348671
74	0xbe0d4ac6	-0.13798055
75	0xbc336820	-0.010950118
76	0xbbc27880	-0.005934775
77	0xbe2f2f96	-0.17107996
78	0xbd4f77e8	-0.05065146
79	0x3e1849b8	0.14871871
80	0x3e8c320c	0.27381933
81	0xbe1d3092	-0.1535056
82	0xbd369248	-0.0445731
83	0x3d370e78	0.044691533
84	0x3ded1253	0.11575761
85	0x3cd16ed0	0.025565535
86	0xbbaeb381	-0.005331457
87	0xbd11aaa2	-0.03556312
88	0xbf14c674	-0.58115315
89	0x3e4e7470	0.20161605
90	0xbe07252a	-0.1319777
91	0xbfa24ef6	-1.2680347
92	0xbe03fc12	-0.12889126
93	0xbee891e8	-0.45423818
94	0x3e357157	0.17719017
95	0xbd8e8740	-0.06959391
96	0xbdbe962c	-0.09305987
97	0xbd15b0c0	-0.036545515
98	0x3dfe9c78	0.12432188
99	0xbde89bfc	-0.11357877
100	0xbe34adba	-0.17644396
101	0x3e062cce	0.13103029
102	0xbdc27418	-0.094947994
103	0x3d6bf410	0.057605803
104	0x3e66827a	0.2251071
105	0xbe54b484	-0.20771986
106	0x3e49009c	0.19629139
107	0x3e59cc9a	0.21269456
108	0x3e40baac	0.1882121
109	0x3df23130	0.11825788
110	0xbe15aee8	-0.14617503
111	0xbe500b28	-0.20316756
112	0x3d994d54	0.07485452
113	0xbe55f34a	-0.20893589
114	0x3d81385c	0.06309578
115	0xbc4e3ae0	-0.012587279
116	0x3ccfb6a0	0.025355637
117	0x3e08d878	0.13363826
118	0x3d62f8d8	0.055413097
119	0xbe3aa6da	-0.18227711
120	0xbde3f28c	-0.111302465
121	0x3e4459e2	0.19174913
122	0x3dcd05e4	0.10010889
123	0x3e6663ec	0.22499055
124	0xbdced7ac	-0.1009973
125	0x3dfe1684	0.12406638
126	0xbe534536	-0.2063187
127	0xbdc17c1c	-0.094475
128	0xbc285af4	-0.010275591
129	0xbdaa7dc0	-0.08324766
130	0x3d5f579d	0.054526914
131	0xbe5dbd14	-0.21654159
132	0x3cdbd4cc	0.026834868
133	0xbe5eea36	-0.21769032
134	0xbe35cedd	-0.17754693
135	0xbe44dbb5	-0.19224437
136	0x3d8e7d04	0.069574386
137	0xbc50bd93	-0.0127405105
138	0x3b9afe19	0.004729998
139	0x3d120fc8	0.03565958
140	0x3cb4e310	0.022080928
141	0x3e62bfac	0.2214343
142	0x3e4e4c5a	0.20146313
143	0xbd1e9b18	-0.038722128
144	0x3e730c4c	0.2373516
145	0x3d437210	0.0477162
146	0xbd1c9038	-0.038223475
147	0x3e674f30	0.22588801
148	0xbe678b62	-0.22611764
149	0x3cd68fe0	0.026191652
150	0x3c849a30	0.016186804
151	0xbd1c6cb0	-0.03818959
152	0x3df8aa84	0.12141898
153	0xbd6d9aa8	-0.05800882
154	0xbe014e5a	-0.12627545
155	0xbe2c131a	-0.16804162
156	0xbd81b8a8	-0.063340485
157	0xbd695010	-0.05696112
158	0x3e47593c	0.19467634
159	0x3dec66d8	0.115430534
160	0x3e824ab9	0.25447634
161	0x3dac8230	0.08423269
162	0x3e78add7	0.24285065
163	0xbdf9d1bc	-0.12198207
164	0x3b33450d	0.002735439
165	0x3e296fc8	0.16546547
166	0xbe88f787	-0.26751348
167	0xbdb094db	-0.08622142
168	0xbf4392b6	-0.7639574
169	0x3e08fdbb	0.1337804
170	0x3e0dffb4	0.13867074
171	0xbfa4293b	-1.2825083
172	0xbe0633d4	-0.13105708
173	0xbf066615	-0.52499515
174	0xbd83461a	-0.06409855
175	0xbd1c27c8	-0.038123876
176	0x3d3a4cf6	0.045483552
177	0xbc5f9140	-0.01364547
178	0xbe7e8314	-0.2485469
179	0x3e7dd984	0.24790007
180	0x3e63f335	0.22260745
181	0x3e7d85dc	0.24758095
182	0xbe58e8c7	-0.21182548
183	0x3e3c5c97	0.18394695
184	0xbd8a286e	-0.067459926
185	0xbe5f6913	-0.21817426
186	0xbdddb81b	-0.10826131
187	0xbd2ef981	-0.042718414
188	0xbde50658	-0.111828506
189	0x3d785329	0.060626183
190	0x3e3ef6ba	0.18648806
191	0xbdfbbb58	-0.12291592
192	0xbd8cf70c	-0.06883058
193	0xbe605382	-0.21906856
194	0xbe48af9a	-0.19598237
195	0xbe5901c4	-0.2119208
196	0xbde1326c	-0.10995945
197	0x3e0c36f0	0.13692832
198	0xbd719a50	-0.058985054
199	0x3da02e20	0.07821298
200	0xbe3501d8	-0.17676485
201	0xbe7e3676	-0.24825463
202	0x3e349750	0.17635846
203	0x3e4d8e1c	0.20073742
204	0x3cc22f40	0.023704171
205	0x3e4af75a	0.1982092
206	0x3d630540	0.05542493
207	0x3e76aabc	0.24088567
208	0x3d807a8c	0.06273374
209	0x3ce33780	0.027736425
210	0x3e16aaeb	0.14713638
211	0x3d860f7c	0.06545922
212	0x3e97a71e	0.29619688
213	0xbc32aa40	-0.010904849
214	0xbc7454eb	-0.014912824
215	0x3e9cb2fe	0.3060531
216	0xbef6c7dd	-0.4819936
217	0x3d1d550d	0.03841119
218	0x3cafc7e8	0.021457627
219	0xbf9222dd	-1.141689
220	0xbe57abe0	-0.21061659
221	0xbe10427a	-0.14087859
222	0xbdf20344	-0.11817029
223	0x3d5c1420	0.05373013
224	0xbe6f78fe	-0.23385999
225	0x3decea40	0.11568117
226	0xbe237072	-0.15960863
227	0x3da70924	0.0815604
228	0x3e52f0fc	0.2059974
229	0xbd1c37b8	-0.038139075
230	0x3da829ec	0.08211121
231	0xbd9869f4	-0.07442084
232	0x3d5671b0	0.052354515
233	0x3c6ee3e0	0.014580697
234	0x3dcd6ccc	0.10030517
235	0x3e146e2e	0.14495155
236	0x3e41321c	0.18866771
237	0x3b639700	0.0034727454
238	0xbda8a51c	-0.08234617
239	0x3e0413ac	0.12898129
240	0xbddd8134	-0.10815659
241	0x3e784d04	0.24248129
242	0xbdc2d254	-0.09512773
243	0x3d8a50ac	0.06753668
244	0xbe374e14	-0.17900878
245	0xbe6e4612	-0.23268917
246	0xbdcf6010	-0.10125744
247	0x3d880574	0.06641665
248	0xbe1ed536	-0.15511021
249	0xbe0a2b16	-0.13492998
250	0xbe1c5f78	-0.15270793
251	0xbe0dc226	-0.13843593
252	0xbe3378f4	-0.17526609
253	0xbdb2ec18	-0.087364376
254	0xbd32a928	-0.04361835
255	0x3d9cb304	0.07651332

hedge_q.0.linear_relu_stack.2.bias f4 [16]
0	0x3e3d585a	0.18490735
1	0x3e255957	0.16147362
2	0x3dc5230c	0.09625825
3	0xbdc61c7a	-0.096734
4	0x3deb0ac8	0.11476666
5	0x3e43936a	0.19099203
6	0x3dab3950	0.08360541
7	0xbe6ac988	-0.2292844
8	0xbdb75e95	-0.08953587
9	0xbe581834	-0.21102983
10	0x3da7f210	0.08200467
11	0xbe1cf7f9	-0.15328969
12	0xbe568b26	-0.20951518
13	0xbe06688d	-0.1312582
14	0xbe2943b2	-0.1652973
15	0x3e3f9f88	0.187132

hedge_q.0.linear_relu_stack.4.weight f4 [16, 16]
0	0xbdad85c8	-0.084727824
1	0x3dcd3944	0.10020688
2	0xbe4e5ffe	-0.20153806
3	0x3d5ee340	0.05441594
4	0xbe0f4958	-0.13992822
5	0xbe4c9d76	-0.19981942
6	0x3bcff940	0.0063468516
7	0x3db2f29c	0.0873768
8	0x3d9381c2	0.07202484
9	0x3e21990a	0.15781036
10	0x3dabbeda	0.083860114
11	0x3b889834	0.0041685347
12	0xbdfff264	-0.12497404
13	0xbda4cb71	-0.08046616
14	0x3e2ff69c	0.17183918
15	0x3e449cb6	0.19200405
16	0x3d880e00	0.06643295
17	0xbe1c69a0	-0.15274668
18	0x3ce79dd0	0.028273493
19	0x3e39137a	0.18073836
20	0x3db41da0	0.08794713
21	0x3e234f48	0.15948212
22	0x3d2bff10	0.041991293
23	0xbe61b27a	-0.2204074
24	0x3e0b2880	0.13589668
25	0xbdc4cb40	-0.09609079
26	0xbe7e54c4	-0.24837023
27	0xbe0ea630	-0.13930583
28	0xbcd990b0	-0.02655825
29	0x3dc89154	0.09793344
30	0xbddc55c0	-0.10758543
31	0xbe63afb4	-0.22234994
32	0x3e5895c2	0.21150878
33	0xbdb85f3a	-0.09002538
34	0xbd4e8c90	-0.05042702
35	0x3e17f641	0.14840032
36	0x3dfad198	0.12247008
37	0x3d38bb09	0.045100246
38	0x3daa32d8	0.08310479
39	0x3d185208	0.037187606
40	0x3e3d3d44	0.18480402
41	0xbe37f3be	-0.17964074
42	0x3d8fc1e2	0.07019402
43	0xbd5d308c	-0.054001376
44	0x3e4f99b2	0.20273474
45	0x3ec19953	0.3781229
46	0xbc9c16c0	-0.019053817
47	0x3e1b2446	0.15150556
48	0x3e69cda4	0.22832352
49	0x3e7c9116	0.24664721
50	0xbc8a4e10	-0.016882926
51	0x3e6e3116	0.23260912
52	0x3e6285c0	0.22121334
53	0xbe4b3b56	-0.19846854
54	0x3d743118	0.059617132
55	0xbdc38040	-0.09545946
56	0xbde8daac	-0.11369833
57	0xbd8febac	-0.07027373
58	0x3e0af236	0.13568959
59	0xbd23d8e0	-0.04000175
60	0x3dba31e0	0.09091544
61	0xbd82dfe4	-0.0639036
62	0x3d0e5c30	0.034755886
63	0x3e314ea6	0.17315158
64	0xbd5a0670	-0.053228796
65	0xbe95104b	-0.29113993
66	0x3d077d20	0.033078313
67	0xbd07e338	-0.033175677
68	0xbb02ae80	-0.0019940436
69	0xbe8b7618	-0.27238536
70	0x3e53364a	0.20626178
71	0x3e389b6e	0.18028042
72	0xbdd46d97	-0.10372465
73	0xbe0679ba	-0.13132372
74	0xbeb87859	-0.36029318
75	0x3e20346f	0.15645002
76	0x3e651aa0	0.22373438
77	0x3d8f0d14	0.06984916
78	0x3d99f6d4	0.07517782
79	0xbd77b4b0	-0.06047505
80	0x3b4b2500	0.0030997396
81	0xbc2cf8ce	-0.010557367
82	0xbe2dcef0	-0.16973472
83	0x3e228f43	0.15874963
84	0xbd14fe48	-0.036375314
85	0x3ea84849	0.3286765
86	0xbdccbe4c	-0.09997234
87	0x3dadd0f0	0.08487117
88	0xbe2813f2	-0.16413859
89	0x3e0ce458	0.13758981
90	0x3eb8a084	0.36059964
91	0x3d2b3a1d	0.041803468
92	0x3e696ab8	0.22794616
93	0x3e973e97	0.2953994
94	0x3d78e660	0.060766578
95	0x3e291ea2	0.16515592
96	0xbe709d10	-0.23497415
97	0xbe5c9488	-0.21541035
98	0xbdd5a054	-0.10430971
99	0x3e14383a	0.14474574
100	0x3d856a9c	0.06514475
101	0x3e34715c	0.17621368
102	0xbe6c7a6e	-0.23093578
103	0x3e393992	0.18088368
104	0x3e1cf6a4	0.15328461
105	0x3c811160	0.015755355
106	0xbc03c400	-0.0080423355
107	0xbe2de796	-0.16982874
108	0x3d55ff50	0.052245438
109	0x3e139e5c	0.14415878
110	0x3e7f61d0	0.24939656
111	0xbdbeca28	-0.09315902
112	0xbc5d98a0	-0.013525158
113	0xbd580410	-0.05273825
114	0x3e52e76a	0.2059609
115	0x3de4bf90	0.1116935
116	0xbe5f36b6	-0.21798214
117	0xbde3468c	-0.1109744
118	0xbd433368	-0.047656447
119	0x3e1c3ad8	0.15256822
120	0x3e65169c	0.22371906
121	0xbd196ee8	-0.037459284
122	0xbc3720a0	-0.011177212
123	0xbe2fac22	-0.17155507
124	0xbe01c082	-0.12671092
125	0x3de1c95c	0.110247344
126	0x3e0c5d44	0.13707453
127	0xbde3325c	-0.1109359
128	0xbe1f3d6c	-0.15550774
129	0x3ded5c72	0.11589898
130	0x3d5c7828	0.053825527
131	0x3db9484b	0.09046992
132	0xbc7bb280	-0.015362382
133	0x3e9ddade	0.30831045
134	0xbe765054	-0.2405408
135	0x3c2e4e60	0.010638803
136	0x3e513ca2	0.20433286
137	0x3e35a202	0.17737582
138	0x3e7a92e5	0.24470098
139	0x3d23fda3	0.04003681
140	0x3e4f2718	0.20229757
141	0x3e6b780f	0.22995017
142	0x3e188716	0.14895281
143	0x3e03f424	0.12886101
144	0xbdfdb10c	-0.12387285
145	0xbe104998	-0.14090574
146	0xbe6c76b6	-0.2309216
147	0x3defe43c	0.11713454
148	0xbe0e756c	-0.1391198
149	0xbe6fd686	-0.23421678
150	0xbd9965b8	-0.074901044
151	0x3e1e93ec	0.15486115
152	0x3d845a2c	0.064625114
153	0xbe03c74c	-0.12868994
154	0x3c83d2a0	0.016091645
155	0xbe06f162	-0.13178018
156	0xbe4ad212	-0.19806698
157	0xbe77b014	-0.24188262
158	0x3e7acbca	0.24491802
159	0xbe61c33e	-0.22047135
160	0xbd0b2c80	-0.033977985
161	0x3e6153f6	0.22004685
162	0xbd2e6e30	-0.04258555
163	0xbe6c3f96	-0.23071131
164	0xbc52cca0	-0.012866169
165	0x3e8e7419	0.2782295
166	0x3e5192a6	0.20466098
167	0x3e652512	0.22377422
168	0x3e61f3ac	0.2206561
169	0x3d9adae0	0.07561278
170	0xbde34c15	-0.11098496
171	0xbc82d374	-0.01596997
172	0xbdfc6858	-0.123245895
173	0x3e565303	0.20930104
174	0xbce7e810	-0.028308898
175	0xbd5eb0a8	-0.05436769
176	0xbdbc3f28	-0.091917336
177	0xbe5dc860	-0.21658468
178	0x3c2b9960	0.010473579
179	0x3e1eabee	0.15495273
180	0xbe425460	-0.18977499
181	0xbe3241ee	-0.17407963
182	0x3e4181d6	0.18897185
183	0x3e19fdde	0.15038249
184	0xbe6febf8	-0.23429859
185	0x3ca4d680	0.020121813
186	0x3d241e78	0.04006812
187	0xbe109c74	-0.14122182
188	0xbcd04640	-0.025424123
189	0xbe56a9cc	-0.2096321
190	0x3e3cdc68	0.18443453
191	0x3cdb2ca0	0.026754677
192	0x3de89aac	0.11357626
193	0x3e25988a	0.1617147
194	0x3e790308	0.24317563
195	0xbe15413f	-0.1457567
196	0x3e746568	0.23866808
197	0x3e356355	0.17713673
198	0x3e4b7c84	0.19871718
199	0x3d044c88	0.03229955
200	0x3e34a007	0.1763917
201	0xbe043cc4	-0.12913805
202	0xbdb5a547	-0.08869415
203	0x3e658e66	0.22417602
204	0x3e076e4e	0.13225672
205	0x3e6389e7	0.22220574
206	0x3e5842a8	0.21119177
207	0xbde46e80	-0.11153889
208	0x3deb56dc	0.114911765
209	0x3de2f1c3	0.11081269
210	0xbd6bdaa8	-0.057581574
211	0xbe511637	-0.2041863
212	0xbe15684a	-0.14590564
213	0x3e35dbeb	0.17759673
214	0xbd2928e0	-0.041298747
215	0x3e2af528	0.16695082
216	0x3e5f24a5	0.21791323
217	0xbd80a334	-0.062811285
218	0x3e7bf717	0.24605976
219	0x3e120653	0.14260225
220	0x3e0e4840	0.13894749
221	0x3ec8ae0c	0.39195287
222	0x3e60b744	0.2194491
223	0x3c197260	0.009365648
224	0x3d958290	0.073002934
225	0x3eb2428f	0.34816405
226	0xbe580150	-0.2109425
227	0xbe6d0d7c	-0.23149675
228	0x3e3c0204	0.18360144
229	0x3eae0b32	0.33992916
230	0xbd999720	-0.07499528
231	0x3dae0838	0.08497661
232	0xbd8d8131	-0.06909407
233	0x3e4bcae4	0.19901615
234	0x3decabb1	0.11556185
235	0xbe07f7a4	-0.13278061
236	0xbe2f15fc	-0.1709823
237	0x3e41ac41	0.18913366
238	0x3de9945c	0.114052504
239	0xbd7c9530	-0.061665714
240	0xbe752c5e	-0.23942706
241	0x3e046d8c	0.12932414
242	0xbdfbd254	-0.12295976
243	0x3e093ff9	0.1340331
244	0xbd89eab0	-0.06734216
245	0xbd81be8f	-0.06335174
246	0xbe6edfd6	-0.23327574
247	0xbd83cd08	-0.06435591
248	0xbe1fac2f	-0.15593027
249	0xbe6985d8	-0.22804964
250	0x3e813a64	0.2523986
251	0xbda4999b	-0.080371104
252	0xbdec5308	-0.115392745
253	0x3e314784	0.17312437
254	0xbde63e6c	-0.11242375
255	0x3d89aef8	0.06722826

hedge_q.0.linear_relu_stack.4.bias f4 [16]
0	0xbc945245	-0.018105635
1	0xbe6cb38a	-0.23115364
2	0x3e912fe5	0.28356853
3	0xbe4ed11a	-0.20196953
4	0x3e6186a5	0.22024019
5	0x3e501784	0.2032147
6	0xbe633648	-0.22188675
7	0xbdde4534	-0.10853043
8	0x3e071308	0.13190854
9	0xbdecda30	-0.115650535
10	0xbdc19387	-0.09451967
11	0x3cf0ba40	0.029385686
12	0x3e9408dd	0.28913012
13	0x3e1ce41e	0.15321395
14	0x3e49b691	0.1969855
15	0x3e218f6e	0.1577737

hedge_q.0.linear_relu_stack.6.weight f4 [1, 16]
0	0xbe4a1641	-0.19735052
1	0xbe231446	-0.15925702
2	0x3dea46ce	0.11439286
3	0xbc998650	-0.018740803
4	0xbf51522f	-0.8176603
5	0x3e5270cc	0.20550841
6	0xbd80c34c	-0.0628725
7	0x3dccb130	0.09994733
8	0x3e3abc11	0.18235804
9	0xbcaeab70	-0.021321982
10	0x3ea48a4b	0.3213676
11	0x3dba22d8	0.09088677
12	0x3e637909	0.2221414
13	0x3e614827	0.2200018
14	0x3ea4ebac	0.32211053
15	0x3e71bbb1	0.23606755

hedge_q.1.linear_relu_stack.0.weight f4 [16, 1]
0	0x3e17c228	0.14820158
1	0xbf8d63e9	-1.1046115
2	0x3f397157	0.7243857
3	0x3e44ca90	0.19217896
4	0xbeca49e5	-0.39509502
5	0x3e2b6efe	0.16741559
6	0x3e9547c0	0.29156303
7	0x3df8c4c3	0.12146904
8	0xbf800c4b	-1.0003752
9	0x3f8ff350	1.1246128
10	0xbf40a7b4	-0.75255895
11	0x3e9eae8e	0.3099255
12	0xbf16f6d0	-0.58970356
13	0xbf7d668a	-0.9898459
14	0xbf614a30	-0.88003826
15	0xbf6d9073	-0.92798537

hedge_q.1.linear_relu_stack.0.bias f4 [16]
0	0xbf1cd4be	-0.6126212
1	0x3f14ad61	0.58077055
2	0x3f19f055	0.6013234
3	0xbf31f9e0	-0.69521904
4	0x3f209c71	0.6273871
5	0x3ea246b7	0.31694576
6	0xbf42f7fc	-0.76159644
7	0x3e106624	0.14101464
8	0x3f2e2665	0.68027335
9	0x3f715edb	0.9428536
10	0xbf09fe38	-0.5390353
11	0x3f06ac1c	0.5260637
12	0x3f392589	0.723229
13	0xbf7160be	-0.9428824
14	0xbe5209f8	-0.20511615
15	0x3f5b1543	0.8557932

hedge_q.1.linear_relu_stack.2.weight f4 [16, 16]
0	0x3d8557e4	0.065109044
1	0xbf0458f1	-0.51698214
2	0x3d010015	0.03149422
3	0xbd6df730	-0.058097064
4	0x3da75567	0.08170586
5	0xbdbda1e7	-0.09259396
6	0x3e62800a	0.22119156
7	0x3e8a01e2	0.2695456
8	0xbf11b22c	-0.56912494
9	0x3e6e8c3b	0.23295681
10	0xbe41f500	-0.18941116
11	0xbba65f96	-0.0050773127
12	0x3e5e8985	0.21732147
13	0xbe208158	-0.1567434
14	0xbca563f0	-0.020189255
15	0x3e38dab6	0.18052182
16	0x3e5c626e	0.21521923
17	0xbc4c3fcb	-0.012466381
18	0xbd985aa0	-0.0743916
19	0x3e381728	0.17977583
20	0xbe86f463	-0.26358327
21	0x3cef2f75	0.029197434
22	0xbe4b63d2	-0.19862297
23	0x3d2a8598	0.04163131
24	0xbd04a6d9	-0.03238568
25	0x3dab93bd	0.08377788
26	0x3e430ef8	0.19048679
27	0x3d52677e	0.05136823
28	0xbe299438	-0.16560447
29	0x3cfe7ee0	0.031066358
30	0xbdc87b44	-0.09789136
31	0xbde55d3e	-0.11199425
32	0xbe1136b8	-0.1418103
33	0xbdb68fa8	-0.08914119
34	0x3d10b080	0.035324574
35	0x3e0a3524	0.13496834
36	0xbe4162ae	-0.188853
37	0xbde9d27c	-0.114171
38	0x3e13f85c	0.1445021
39	0x3d08d918	0.03341016
40	0x3cd14fe0	0.025550783
41	0x3d902568	0.07038385
42	0x3e179d46	0.14806089
43	0xbdb74568	-0.08948785
44	0xbe372b4e	-0.17887613
45	0x3e1ded16	0.15422472
46	0x3e702046	0.23449811
47	0x3e1c5136	0.15265355
48	0xbe36178a	-0.17782417
49	0xbf1fa432	-0.6235992
50	0xbe116090	-0.14196992
51	0x3dbe26d4	0.092847496
52	0x3e3ef4d8	0.18648088
53	0x3da3460c	0.07972345
54	0xbe69542c	-0.22786015
55	0x3dc1d6d7	0.094648056
56	0xbf5bd944	-0.85878396
57	0x3df99877	0.121872835
58	0x3b026700	0.0019897819
59	0x3e24ef8c	0.16107005
60	0xbe685529	-0.22688736
61	0xbe6102e0	-0.21973753
62	0x3e42c01c	0.19018596
63	0x3e1a9e5d	0.15099473
64	0xbe756722	-0.23965123
65	0x3e4e1426	0.20124874
66	0xbd2967b0	-0.04135865
67	0xbe7ab4c8	-0.24483025
68	0x3dc4618c	0.09588918
69	0xbe79db1c	-0.2439999
70	0xbd345ce0	-0.044033885
71	0x3e7d3888	0.24728596
72	0xbcfed080	-0.03110528
73	0xbe4cf32a	-0.20014635
74	0xbe7e5a08	-0.24839032
75	0x3e111190	0.14166856
76	0x3d904960	0.07045245
77	0x3dc26d68	0.09493524
78	0x3e46ab30	0.1940124
79	0xbe514522	-0.20436528
80	0xbe624aca	-0.22098842
81	0xbf099053	-0.53735846
82	0x3e7ea31e	0.24866912
83	0xbe07bb60	-0.13255072
84	0x3db48f50	0.08816397
85	0x3ca69e8b	0.020339271
86	0xbbc122c0	-0.005894035
87	0xbe0973b2	-0.1342304
88	0xbf4cd355	-0.8000997
89	0x3e34b581	0.17647363
90	0x3d141480	0.036152363
91	0x3e62ee55	0.22161229
92	0xbd142a48	-0.036173135
93	0x3e080100	0.13281631
94	0x3e2c2e36	0.16814503
95	0xbe5e19aa	-0.21689478
96	0xbe397d36	-0.1811417
97	0xbe3aeb98	-0.18253934
98	0xbe7dd0c4	-0.24786669
99	0xbd8f292c	-0.06990275
100	0x3b06fa00	0.002059579
101	0x3d8d6360	0.0690372
102	0x3e254534	0.1613968
103	0x3e4e6b82	0.20158198
104	0x3dfd6074	0.123719126
105	0xbe342fa8	-0.17596304
106	0xbdd37d20	-0.103266
107	0xbdda592c	-0.106615394
108	0xbd7f93d0	-0.062396824
109	0x3e468038	0.19384849
110	0xbdebe260	-0.11517787
111	0xbc9f5e40	-0.019454122
112	0x3b58dd00	0.003309071
113	0xbe54e76a	-0.20791402
114	0x3e2b6019	0.16735877
115	0x3e402824	0.18765312
116	0x3d168c08	0.036754638
117	0x3dad4235	0.084598936
118	0x3de82220	0.11334634
119	0x3e0d4486	0.13795671
120	0xbf83ff12	-1.0312216
121	0x3e9c3738	0.3051088
122	0x3e42aece	0.19011995
123	0xbe1a93ce	-0.15095446
124	0xbdb98cee	-0.09060083
125	0xbe5da3a2	-0.21644452
126	0xbcd6d8c0	-0.026226401
127	0xbe609792	-0.2193282
128	0xbe38ffe4	-0.18066365
129	0xbccf5979	-0.025311219
130	0xbd9f0012	-0.07763685
131	0x3e484d54	0.19560748
132	0x3db2a085	0.08722023
133	0x3e429839	0.19003381
134	0xbe6ff1c4	-0.2343207
135	0x3d811e90	0.063046575
136	0xbded15d2	-0.115764275
137	0xbe450509	-0.19240202
138	0xbd3012d0	-0.04298669
139	0x3e32ec75	0.17473014
140	0x3e58a690	0.21157289
141	0x3d9c73d8	0.07639283
142	0x3e677f46	0.22607145
143	0x3e0b9e7c	0.13634676
144	0x3caedad0	0.021344572
145	0x3bada839	0.0052995947
146	0x3e2372dd	0.15961786
147	0x3d8a8f54	0.06765619
148	0x3d97e3b7	0.0741648
149	0x3e40ee7e	0.18840978
150	0xbde360b0	-0.11102426
151	0x3da8eb40	0.082479954
152	0xbc85d803	-0.016338354
153	0xbdaaf02d	-0.08346591
154	0xbdb617dc	-0.088912696
155	0xbcf6462f	-0.030062763
156	0xbe3252e3	-0.17414431
157	0x3de9c104	0.11413768
158	0x3d985e3c	0.07439849
159	0x3e498825	0.19680841
160	0xbe587172	-0.21137026
161	0x3e3986b0	0.18117785
162	0xbc877880	-0.016536951
163	0xbe33bf2e	-0.17553398
164	0xbe212a00	-0.15738678
165	0xbc6dce40	-0.014514506
166	0xbe458b56	-0.19291434
167	0x3d2894b0	0.041157424
168	0x3e05b8ae	0.13058731
169	0xbe58f7fc	-0.21188349
170	0x3decef5c	0.11569092
171	0xbe01498a	-0.12625709
172	0x3e7a51e8	0.24445307
173	0xbd40fd60	-0.047116637
174	0xbe240c8a	-0.16020408
175	0xbdf1c2a8	-0.11804706
176	0xbe58db06	-0.21177301
177	0x3e666b08	0.22501767
178	0x3d6cee20	0.05784428
179	0xbdfeacfc	-0.12435338
180	0x3e493aea	0.1965138
181	0xbd9953fc	-0.07486722
182	0xbe34cb24	-0.17655617
183	0x3e67430c	0.2258417
184	0x3e3a52c6	0.18195638
185	0xbe6c6084	-0.23083693
186	0x3d011268	0.031511694
187	0xbe3a7034	-0.18206865
188	0x3e4b5546	0.19856748
189	0x3e31dfdc	0.17370552
190	0x3e083a6a	0.13303533
191	0xbe24e7f4	-0.16104108
192	0xbe2a0fe2	-0.16607621
193	0x3e43c060	0.19116354
194	0x3e0783e8	0.13233912
195	0x3e566db4	0.20940286
196	0x3e394068	0.18090975
197	0x3e6539c2	0.22385314
198	0x3deab89c	0.11460993
199	0x3dd152c0	0.102208614
200	0x3e3f5146	0.18683347
201	0xbe5cb70c	-0.21554202
202	0x3ce4e7a0	0.027942479
203	0xbd4a31a8	-0.049363762
204	0x3e26cb98	0.16288602
205	0xbe76fba4	-0.24119431
206	0x3bf4b980	0.0074684024
207	0xbe588398	-0.21143949
208	0xbe5657ca	-0.20931926
209	0xbe44586e	-0.19174358
210	0x3dc5c791	0.09657205
211	0x3e55e3fe	0.20887753
212	0x3d77f788	0.0605388
213	0x3e94b272	0.29042393
214	0xbe381d8c	-0.17980021
215	0x3e03d7e8	0.1287533
216	0xbf33649e	-0.70075405
217	0x3e897767	0.2684891
218	0xbc8fe240	-0.01756394
219	0xbdb4f9c8	-0.088367045
220	0xbe0d95c1	-0.13826658
221	0x3e109098	0.14117658
222	0x3d1bc348	0.03802803
223	0x3e2963dc	0.16542
224	0x3da1b0e4	0.07895067
225	0xbe342ad6	-0.17594466
226	0xbdcd3160	-0.10019183
227	0xbdc1afc4	-0.09457353
228	0xbdc68e44	-0.09695104
229	0xbc97a270	-0.018510073
230	0x3e1bb0be	0.1520414
231	0xbe471d06	-0.19444665
232	0xbe03e6c6	-0.12881002
233	0xbdfc7c94	-0.12328449
234	0x3e28b62a	0.1647574
235	0xbd4cd130	-0.050004184
236	0x3d63c3d8	0.055606693
237	0xbdf495e4	-0.11942652
238	0xbe1e71dc	-0.15473121
239	0xbdd1ae40	-0.10238314
240	0xbd655ab0	-0.05599469
241	0x3e4070fe	0.18793103
242	0xbdd69bf0	-0.104789615
243	0x3e451eca	0.19250026
244	0x3e18105e	0.14849994
245	0xbe3abb18	-0.18235433
246	0x3e725b0e	0.23667547
247	0xbda8f204	-0.08249286
248	0x3c6d2c80	0.014475942
249	0xbe1b8e38	-0.15190971
250	0x3d7725e0	0.060338855
251	0x3df09cd8	0.117486656
252	0xbb9a3140	-0.004705578
253	0x3e47d7c8	0.19515908
254	0x3e389d9e	0.18028876
255	0xbd815c70	-0.06316459

hedge_q.1.linear_relu_stack.2.bias f4 [16]
0	0x3e377c91	0.17918612
1	0xbd84ad68	-0.06478387
2	0xbe712060	-0.23547506
3	0x3e513dcc	0.2043373
4	0x3ccdea00	0.025135994
5	0xbd60aaeb	-0.0548505
6	0x3c4d2d40	0.0125229955
7	0x3d968a9d	0.07350657
8	0xbde8ec35	-0.11373178
9	0xbe43c3c4	-0.19117647
10	0xbe58245e	-0.21107623
11	0xbe3d1cca	-0.18468013
12	0xbe142d70	-0.14470458
13	0xbd876603	-0.06611254
14	0x3e5391a2	0.20661023
15	0x3e35e7e2	0.17764238

hedge_q.1.linear_relu_stack.4.weight f4 [16, 16]
0	0x3e0a272a	0.13491502
1	0xbcb6b180	-0.022301435
2	0xbe72e342	-0.23719504
3	0xbe606c6a	-0.21916357
4	0xbca494b0	-0.020090431
5	0xbdaa8638	-0.083263814
6	0xbe2b46ae	-0.16726181
7	0xbe6a3416	-0.22871432
8	0x3dc9fbe8	0.098625004
9	0x3e203048	0.15643418
10	0x3e4679fe	0.19382474
11	0xbe0b7ff4	-0.13623029
12	0x3db7da90	0.08977234
13	0xbbaac500	-0.0052114725
14	0xbdfff728	-0.12498313
15	0x3d475778	0.0486674
16	0xbe223c22	-0.15843251
17	0x3e035966	0.12827072
18	0x3d31be00	0.04339409
19	0xbdc1e08c	-0.09466657
20	0x3e0e3d88	0.1389066
21	0xbe51fd7a	-0.2050685
22	0x3dfa8060	0.12231517
23	0x3e3ab900	0.18234634
24	0xbdd53f34	-0.10412446
25	0xbe11c836	-0.1423653
26	0x3e02b3ac	0.12763852
27	0xbdd2bc70	-0.10289848
28	0x3c6bf340	0.014401257
29	0x3dc4bda4	0.096064836
30	0xbe793404	-0.24336249
31	0xbc448e60	-0.0119968355
32	0xbde908b6	-0.113786146
33	0xbdf70608	-0.12061697
34	0xbdd4b710	-0.10386479
35	0xbcefb9f1	-0.029263468
36	0xbc54f380	-0.012997508
37	0xbe7274c5	-0.23677357
38	0xbe7f8c98	-0.24955976
39	0xbd603185	-0.054734726
40	0x3bda8240	0.006668359
41	0xbe776a44	-0.24161631
42	0x3e750816	0.23928866
43	0x3dad39a0	0.08458257
44	0x3d844548	0.06458527
45	0xbe71a034	-0.23596269
46	0x3d0edec8	0.03488043
47	0x3e6d79e2	0.23191026
48	0x3e3d9679	0.18514432
49	0xbd939952	-0.07206978
50	0x3c5c38c0	0.013441265
51	0xbe9990fb	-0.29993424
52	0xbe026c8e	-0.12736723
53	0xbed6a470	-0.4192233
54	0x3de34950	0.110979676
55	0xbe8ddf00	-0.27709198
56	0x3e16a0bf	0.14709757
57	0xbc2225a7	-0.009896672
58	0xbdd02724	-0.101637155
59	0xbdd7dd90	-0.105403066
60	0x3e775c74	0.24156362
61	0xbc2f6cb9	-0.010707074
62	0xbbc57100	-0.0060254335
63	0xbd55c050	-0.052185357
64	0xbe6547c8	-0.22390664
65	0x3d9c79d8	0.07640427
66	0x3da5173c	0.08061072
67	0xbdcf9b44	-0.101370364
68	0x3dfed714	0.12443367
69	0x3e0f43b0	0.13990664
70	0xbbe5cd40	-0.007012993
71	0xbe0c35e6	-0.13692436
72	0xbdb90934	-0.090349585
73	0xbe560a3e	-0.20902345
74	0xbd710af0	-0.05884832
75	0xbe64f566	-0.22359237
76	0xbd970844	-0.073746234
77	0x3d1e9598	0.038716882
78	0x3d2c9df8	0.04214284
79	0xbe6d8d28	-0.23198378
80	0x3d7abaa0	0.061213136
81	0x3e83061b	0.25590596
82	0x3e3f7b6c	0.18699425
83	0x3c81c7ba	0.015842307
84	0x3e471592	0.19441822
85	0x3e808c1d	0.25106898
86	0x3e245ad8	0.16050279
87	0x3eb9baba	0.36275274
88	0x3e16641a	0.14686623
89	0x3e7a128e	0.2442114
90	0x3ce8e3a0	0.028428853
91	0x3e11ea8c	0.14249629
92	0x3d804098	0.0626232
93	0x3dd44c89	0.103661604
94	0x3dc7bc0c	0.09752664
95	0xbd9e468c	-0.077282995
96	0xbdd4a5aa	-0.103831604
97	0x3bce6cce	0.0062995916
98	0x3e2852aa	0.16437784
99	0x3e323fd1	0.17407157
100	0xbe5b685c	-0.21426529
101	0x3d59740a	0.05308918
102	0xbe3b40ac	-0.18286389
103	0xbe46c244	-0.19410044
104	0x3e19c567	0.1501671
105	0x3df24233	0.11829033
106	0x3d1588a0	0.03650725
107	0x3e6b01c2	0.2294989
108	0xbe4e1878	-0.20126522
109	0xbe88d22f	-0.26722857
110	0x3d6bb818	0.057548612
111	0xbd745a90	-0.05965668
112	0x3e8fdf3c	0.28100002
113	0x3dfbc6c4	0.12293771
114	0xbdd042c4	-0.101689845
115	0x3e9658f6	0.29364747
116	0xbe64969a	-0.22323075
117	0x3dd2bf65	0.10290412
118	0xbd850394	-0.06494823
119	0x3e5e0609	0.2168199
120	0xbe3862ae	-0.18006393
121	0xbe6451b1	-0.22296788
122	0xbcf47aa0	-0.029843628
123	0x3d739b38	0.0594742
124	0xbe636860	-0.22207785
125	0x3d2c5faa	0.04208342
126	0x3cabc2a0	0.020966828
127	0x3e182a9a	0.14860001
128	0xbdd7a96a	-0.1053036
129	0xbe38b162	-0.18036416
130	0xbd2c3728	-0.04204479
131	0xbdaaeb9a	-0.08345719
132	0xbe0bc54c	-0.13649482
133	0xbe2dbcaa	-0.16966501
134	0xbe6ec4ac	-0.23317212
135	0xbe4021d9	-0.18762912
136	0xbe721640	-0.236413
137	0xbdd848f4	-0.1056079
138	0x3d3eecc8	0.04661253
139	0x3d85f46c	0.065407604
140	0x3d7772c8	0.0604122
141	0x3e35f6dc	0.1776995
142	0xbe05521a	-0.130196
143	0x3ccc94a0	0.024973214
144	0x3dc3c5b5	0.09559194
145	0xbce40e6b	-0.027838906
146	0x3de84fe8	0.11343366
147	0x3e42c30a	0.19019714
148	0xbe248da2	-0.16069654
149	0x3eaf418d	0.342297
150	0xbdb00e70	-0.08596504
151	0x3eb41f43	0.351801
152	0xbd9e8184	-0.07739547
153	0xbdc0bc47	-0.09410911
154	0x3dbebc38	0.09313244
155	0xbe741e6e	-0.23839733
156	0xbe7df204	-0.24799353
157	0x3dc2895c	0.094988555
158	0xbe0ba354	-0.13636523
159	0xbe591044	-0.21197611
160	0xbe0cda69	-0.13755192
161	0xbdf5ac84	-0.11995795
162	0x3e27f03a	0.16400233
163	0x3e64b5f6	0.22335038
164	0x3d3cad90	0.04606396
165	0xbe824011	-0.25439504
166	0x3d8e5a58	0.069508255
167	0x3cc8ac91	0.024496349
168	0xbe5d6c98	-0.21623456
169	0xbdf12dd0	-0.11776316
170	0xbdd57c44	-0.104240924
171	0xbe1b88c6	-0.15188894
172	0x3cf9efc0	0.03050983
173	0x3e3b6f8e	0.18304273
174	0xbe68631a	-0.22694054
175	0x3cef7920	0.029232562
176	0xbe44086c	-0.19143838
177	0x3e497288	0.19672596
178	0x3e3789f0	0.17923713
179	0x3e12dcfc	0.14342111
180	0x3c3a7ec0	0.011382759
181	0x3cdcb930	0.026943773
182	0xbdbda240	-0.09259462
183	0xbd73b9c8	-0.059503347
184	0xbe1a78e8	-0.15085185
185	0x3e4ce338	0.20008552
186	0x3dcbba1c	0.09947607
187	0x3e190ea6	0.14946994
188	0x3e7b7da0	0.24559641
189	0xbe63930a	-0.2222406
190	0xbe722b04	-0.23649222
191	0xbe4427fc	-0.19155878
192	0x3ebbe43b	0.36697564
193	0xbb5d4796	-0.0033764592
194	0x3e23083a	0.15921107
195	0x3e8fe331	0.2810302
196	0xbe2c7020	-0.16839647
197	0x3e620648	0.22072709
198	0xbd956888	-0.072953284
199	0xbd7ebe7a	-0.06219337
200	0xbdebf58f	-0.11521446
201	0x3dc2ffbf	0.09521436
202	0xbe1c5d4a	-0.15269962
203	0xbe7fce54	-0.24981052
204	0x3e3a13ce	0.18171617
205	0x3e848cab	0.2588857
206	0xbd4cc478	-0.049992055
207	0x3e148338	0.14503181
208	0xbdd20494	-0.102547795
209	0x3cf62700	0.030047894
210	0xbe108f16	-0.14117083
211	0x3ddce9bc	0.10786769
212	0x3e5ef07e	0.21771428
213	0xbd876660	-0.06611323
214	0x3d81f7ac	0.06346068
215	0xbe03dc00	-0.12876892
216	0xbe6857ae	-0.22689697
217	0x3e649636	0.22322926
218	0xbe516fc6	-0.20452794
219	0xbe181496	-0.14851603
220	0x3c6bf8e0	0.014402598
221	0xbcd536c0	-0.026027083
222	0x3e5e57d4	0.21713191
223	0xbe6cffd6	-0.23144469
224	0x3e96dbab	0.29464468
225	0xbe5de26b	-0.21668403
226	0xbdf7f814	-0.12107864
227	0xbdf01dcd	-0.11724434
228	0xbd432240	-0.047640085
229	0x3d9585ee	0.07300936
230	0x3d08cc48	0.033397943
231	0x3e8e87a7	0.2783787
232	0x3ca5128a	0.020150442
233	0xbe49848c	-0.19679469
234	0x3de7cfec	0.11318955
235	0x3e508a64	0.20365292
236	0x3e6e6db4	0.23284036
237	0x3e5b7497	0.21431194
238	0x3e29a230	0.16565776
239	0x3b10dc80	0.0022104084
240	0x3e5a638f	0.21327041
241	0xbde43715	-0.111433186
242	0xbcf4dc90	-0.029890329
243	0x3cc88a18	0.02447991
244	0x3de6ccc8	0.11269528
245	0x3d5e4f9c	0.05427514
246	0xbdbb61b8	-0.09149498
247	0x3cadff47	0.02123989
248	0x3e5d1780	0.21590996
249	0x3ce3098e	0.027714517
250	0xbe3a6092	-0.18200901
251	0xbdb3a7d8	-0.08772248
252	0xbe3b2322	-0.18275121
253	0xbd01d530	-0.031697452
254	0x3d56a1b0	0.05240029
255	0x3e676904	0.22598654

hedge_q.1.linear_relu_stack.4.bias f4 [16]
0	0xbe105434	-0.14094621
1	0xbdc3ce30	-0.095608115
2	0x3da0421f	0.078251116
3	0x3e4b547b	0.19856445
4	0xbe64b10c	-0.22333163
5	0x3de7aadb	0.11311885
6	0x3d46e8be	0.048561804
7	0xbc932573	-0.017962193
8	0xbc8cd66c	-0.017192088
9	0x3d77b067	0.060470965
10	0xbd770267	-0.060305025
11	0xbdd92608	-0.10602957
12	0x3e917a3b	0.28413567
13	0xbe0144dc	-0.12623924
14	0x3e22fada	0.15916005
15	0x3e79e19f	0.24402474

hedge_q.1.linear_relu_stack.6.weight f4 [1, 16]
0	0x3e71df1e	0.23620269
1	0xbd169ee0	-0.03677261
2	0x3c652b43	0.013987365
3	0xbf398021	-0.72461134
4	0x3da4a828	0.08039886
5	0x3e007bb4	0.12547189
6	0xbe50ac75	-0.20378287
7	0x3e95f6e6	0.2928993
8	0x3d598b0f	0.053111132
9	0x3e8a6ba1	0.2703524
10	0xbe272c56	-0.16325507
11	0xbdd93c5c	-0.10607216
12	0x3e040c89	0.12895407
13	0x3e1fa3ba	0.155898
14	0x3e79ce6b	0.24395148
15	0x3eabc0fd	0.33545676

hedge_q.2.linear_relu_stack.0.weight f4 [16, 1]
0	0x3f898263	1.0742916
1	0xbed4483d	-0.41461363
2	0xbf13661a	-0.5757767
3	0x3f11c096	0.5693449
4	0xbf82c621	-1.0216714
5	0xbf22546a	-0.63410056
6	0xbf8d81be	-1.1055219
7	0xbf117bc2	-0.56829464
8	0x3f5649e5	0.83706504
9	0xbeec76ac	-0.4618429
10	0x3ededcfc	0.43527973
11	0xbf3a158c	-0.7268913
12	0x3f303ecc	0.6884582
13	0x3e411398	0.1885513
14	0x3eaea968	0.34113622
15	0xbe912d18	-0.28354716

hedge_q.2.linear_relu_stack.0.bias f4 [16]
0	0x3f52b9bd	0.82314664
1	0x3edd6423	0.4324046
2	0xbed1fbf0	-0.41012526
3	0xbf34bfb2	-0.70605004
4	0x3e83a43d	0.2571124
5	0xbf049cc0	-0.5180168
6	0x3f4ce4e3	0.80036753
7	0x3f819295	1.0122858
8	0x3ebbbbd2	0.36666733
9	0xbf5af0ec	-0.8552387
10	0x3f5e8898	0.86927176
11	0x3f075114	0.5285809
12	0x3f6450a4	0.8918555
13	0xbeec033c	-0.46096218
14	0x3f3f6f60	0.7477932
15	0xbef5f8a4	-0.4804126

hedge_q.2.linear_relu_stack.2.weight f4 [16, 16]
0	0x3cd13fe0	0.025543153
1	0x3bca4c40	0.0061736405
2	0xbde15cec	-0.110040516
3	0xbcecb7c0	-0.028896213
4	0xbe552c00	-0.20817566
5	0xbe16c32e	-0.14722893
6	0x3d888cf4	0.0666751
7	0xbd25ac08	-0.040447265
8	0xbe1fb092	-0.155947
9	0xbd5590d8	-0.052140087
10	0x3e5b0974	0.21390325
11	0xbe6dbff0	-0.2321775
12	0xbdf4dc10	-0.11956036
13	0xbd926450	-0.07148039
14	0xbe7d23d8	-0.24720705
15	0x3de3cc44	0.11122945
16	0x3de25aca	0.11052473
17	0x3d8153e1	0.06314827
18	0xbe54d6dc	-0.20785087
19	0x3df8e84c	0.12153682
20	0xbda333d7	-0.07968872
21	0x3d808d74	0.0627698
22	0x3eab525d	0.33461276
23	0x3e9e633f	0.30935094
24	0x3dbde6cd	0.092725374
25	0x3d633ed0	0.055479825
26	0x3de47f80	0.11157131
27	0x3d979265	0.074009694
28	0x3e6fbbb4	0.23411447
29	0xbd467038	-0.048446864
30	0xbb8a7578	-0.004225429
31	0x3ddb4938	0.10707325
32	0x3c711060	0.014713377
33	0x3d2817d0	0.041038334
34	0xbe3ff0b6	-0.18744168
35	0xbe3f0ab6	-0.1865643
36	0xbe1d3910	-0.15353799
37	0xbae50e00	-0.0017475486
38	0xbd933c78	-0.07189268
39	0xbe3327f6	-0.17495713
40	0x3e4ca3a4	0.19984299
41	0x3d5b5970	0.05355209
42	0xbe574e12	-0.21025875
43	0x3d85f158	0.06540173
44	0x3d96f148	0.073702395
45	0xbe2d0044	-0.16894633
46	0xbd9d4248	-0.07678658
47	0x3e7b36ea	0.24532667
48	0xbcd89f30	-0.026443094
49	0xbe0a5dd4	-0.13512355
50	0x3e218bae	0.1577594
51	0x3e04fb7a	0.12986556
52	0x3de5f148	0.11227661
53	0xbc5ba080	-0.013404965
54	0xbe5b1306	-0.21393976
55	0xbd0f5b18	-0.034998983
56	0xbe54a984	-0.2076779
57	0xbe44f18e	-0.19232771
58	0x3e4c7f60	0.19970465
59	0x3e193c4e	0.1496441
60	0x3d8fc7e8	0.07020551
61	0x3e23ba8a	0.15989128
62	0xbe01e028	-0.12683165
63	0xbd9c34b8	-0.07627243
64	0x3e8d5ff8	0.2761228
65	0xbd864eec	-0.06558022
66	0xbd129470	-0.035786092
67	0xbd325fe0	-0.043548465
68	0xbc9711e4	-0.018441148
69	0xbcdc39e0	-0.026883066
70	0xbef78778	-0.48345542
71	0xbeaa665b	-0.33281216
72	0x3e6a9071	0.22906663
73	0xbd724710	-0.0591498
74	0x3d91a7fc	0.071121186
75	0xbf22f0c5	-0.63648635
76	0x3d125444	0.035724893
77	0x3e5a9efc	0.2134971
78	0x3ddf5944	0.10905698
79	0x3dbbdb24	0.09172657
80	0x3e1c1895	0.15243752
81	0xbe111b39	-0.14170541
82	0xbe05d2f2	-0.1306875
83	0xbdc90a24	-0.09816387
84	0xbe19ca94	-0.15018684
85	0x3df4c61c	0.11951849
86	0x3e10c440	0.14137363
87	0x3e4159b5	0.18881877
88	0x3d1e625e	0.03866803
89	0x3e6dbdbc	0.23216909
90	0x3d2b2b8d	0.04178958
91	0x3e758166	0.23975143
92	0x3dddd2af	0.108312
93	0xbc871280	-0.016488314
94	0xbdfab555	-0.122416176
95	0xbe64af64	-0.22332531
96	0x3d8db23e	0.069187626
97	0x3c268acd	0.010164929
98	0x3e47e162	0.1951957
99	0xbe4e0486	-0.20118913
100	0xbe5c0ce0	-0.21489286
101	0xbd4655b8	-0.04842159
102	0xbd6d1e00	-0.05788994
103	0x3c47a768	0.012185909
104	0xbcc27645	-0.023738036
105	0x3dfbc93c	0.12294242
106	0x3e46f7b0	0.19430423
107	0xbeaab41f	-0.33340546
108	0x3e519377	0.2046641
109	0x3e68786e	0.2270219
110	0xbd00a24d	-0.031404782
111	0x3e64a13e	0.22327134
112	0x3dacf734	0.08445588
113	0xbe42a6e2	-0.19008973
114	0xbd39d1d0	-0.04536611
115	0x3bec9c00	0.007220745
116	0x3e2822e2	0.16419557
117	0xbd40fea0	-0.04711783
118	0x3e55ae50	0.20867276
119	0x3e027ab8	0.12742126
120	0xbd201cb0	-0.03908986
121	0xbd98a2b0	-0.07452905
122	0xbd57ada8	-0.052655846
123	0xbe5c591c	-0.21518368
124	0x3c2655c0	0.01015228
125	0x3e719e52	0.2359555
126	0xbe20504a	-0.15655628
127	0x3e1da9ca	0.153968
128	0xbe3a4514	-0.18190414
129	0x3e04437e	0.12916371
130	0x3b68de00	0.0035532713
131	0x3e68053e	0.2265825
132	0xbdfecdd0	-0.12441599
133	0x3e26ef1a	0.16302148
134	0xbd1dc5e8	-0.038518816
135	0xbd00eee0	-0.03147781
136	0xbc9001b0	-0.01757893
137	0xbe05dcd6	-0.13072523
138	0x3e272c70	0.16325545
139	0x3e25fbe2	0.16209367
140	0xbe5ab9b8	-0.21359909
141	0x3e2daa68	0.16959536
142	0x3e0c45e4	0.13698536
143	0x3ddad534	0.106851965
144	0x3ea536bf	0.3226833
145	0xbe8cde2a	-0.27513248
146	0x3db69ce8	0.08916646
147	0xbd55d2c0	-0.05220294
148	0x3ddee2d3	0.10883107
149	0xbc6ef0a0	-0.014583737
150	0xbefdd148	-0.4957373
151	0xbe7e1ff8	-0.24816883
152	0x3c268d18	0.010165475
153	0xbd6d5a80	-0.057947636
154	0x3e8de37c	0.2771262
155	0xbf015489	-0.50519615
156	0x3df93b38	0.12169498
157	0x3df4ef2c	0.11959681
158	0x3cc91649	0.02454676
159	0x3e04d75e	0.12972781
160	0x3dbce8ef	0.09224116
161	0xbe75cd0d	-0.24004002
162	0x3e071b9e	0.13194129
163	0x3d0213b8	0.031757087
164	0x3cf7f228	0.030266836
165	0xbd43e2f0	-0.047823846
166	0xbeeac0d7	-0.4585025
167	0x3dbe22d7	0.09283989
168	0xbe4fe455	-0.20301946
169	0xbd0aed98	-0.033917993
170	0x3e63e4b9	0.2225522
171	0xbe9fcb04	-0.31209576
172	0xbd685a08	-0.056726485
173	0xbbccb900	-0.0062476397
174	0x3e4228b7	0.18960844
175	0xbd9b5e08	-0.075862944
176	0x3e96cf83	0.29455194
177	0xbe147aaf	-0.14499925
178	0x3d78dc00	0.060756683
179	0x3c5f47c0	0.013627946
180	0x3bbddb5d	0.0057939724
181	0x3da4a47c	0.080391854
182	0xbeda72fc	-0.4266585
183	0xbeac915d	-0.33704653
184	0x3dd26f14	0.10275093
185	0x3da6edfc	0.08150861
186	0x3e430af5	0.19047149
187	0xbe77237d	-0.24134631
188	0x3de9b668	0.11411744
189	0x3e431a56	0.19053015
190	0xbe155ce4	-0.14586216
191	0xbd469db8	-0.048490256
192	0x3e4a4006	0.19750986
193	0x3e22ab67	0.15885697
194	0xbe4490ca	-0.19195858
195	0x3e4fa690	0.20278382
196	0x3d6208f8	0.055184335
197	0xbe116a7a	-0.14200774
198	0xbe4abf28	-0.19799483
199	0xbd6f3e4c	-0.05840902
200	0x3e8261d4	0.25465262
201	0x3cc4a410	0.024004012
202	0x3e1daa79	0.15397061
203	0xbe865813	-0.2623907
204	0xbd0e5672	-0.03475041
205	0x3e2a618c	0.16638774
206	0xbdc12e85	-0.09432701
207	0xbe5bb35a	-0.21455136
208	0xbda82319	-0.08209819
209	0xbeae5654	-0.34050238
210	0x3de2ce10	0.110744596
211	0x3dc75cdc	0.097345084
212	0x3e1908bc	0.14944738
213	0xbdd89ec0	-0.10577154
214	0xbf197f62	-0.59959996
215	0xbd5f135f	-0.054461833
216	0x3ec56de1	0.38560393
217	0xbe38b666	-0.1803833
218	0xbd270d7c	-0.040784344
219	0xbea9cbad	-0.33163205
220	0x3e8e7582	0.27824026
221	0x3e5bfd24	0.21483284
222	0x3e8805f7	0.2656705
223	0xbe0b7bc4	-0.13621432
224	0xbc6a407e	-0.014297603
225	0x3c957c24	0.018247671
226	0x3e663266	0.22480163
227	0xbdfa8b74	-0.1223363
228	0xbd8735f8	-0.066020906
229	0x3da33540	0.07969141
230	0x3d7aefbe	0.061263792
231	0xbd41a9b7	-0.047280993
232	0x3e0eba26	0.13938197
233	0xba901d00	-0.0010994971
234	0xbe479011	-0.1948855
235	0x3e672852	0.22573975
236	0xbd8bd223	-0.0682719
237	0x3e5fe4d6	0.21864638
238	0xbd74e903	-0.05979253
239	0xbe59c5fc	-0.21266931
240	0x3db0c418	0.08631152
241	0xbc22d3e0	-0.00993821
242	0xbb6fbd00	-0.0036581159
243	0xbca3c310	-0.019990474
244	0x3dbb7d04	0.09154704
245	0xbe151846	-0.14560041
246	0xbdc03528	-0.09385139
247	0xbd0b0878	-0.033943623
248	0x3de76d6c	0.113001674
249	0x3d6375a8	0.055532128
250	0x3e18f936	0.14938816
251	0x3d7e9a40	0.062158823
252	0xbdd3a980	-0.10335064
253	0xbd681360	-0.056659102
254	0xbe52a652	-0.20571259
255	0xbc460140	-0.012085259

hedge_q.2.linear_relu_stack.2.bias f4 [16]
0	0xbe157c20	-0.14598131
1	0x3e820526	0.25394553
2	0x3c580380	0.013184428
3	0x3d7d2638	0.061804026
4	0x3e2c3cb4	0.16820031
5	0x3ea1acf8	0.31577277
6	0xbd1a7be1	-0.037715796
7	0xbd193ee8	-0.037413508
8	0xbe15cba0	-0.14628458
9	0x3e01c473	0.12672596
10	0x3e009d2f	0.12559961
11	0x3caf2425	0.02137954
12	0xbc3b1ff3	-0.0114211915
13	0xbd9402e6	-0.07227115
14	0x3e094ca4	0.13408142
15	0xbe124a16	-0.14286074

hedge_q.2.linear_relu_stack.4.weight f4 [16, 16]
0	0xbd762cc8	-0.0601013
1	0xbd016a05	-0.03159525
2	0xbe22a822	-0.1588445
3	0xbde6b088	-0.112641394
4	0x3e319a4f	0.1734402
5	0xbe94b4c7	-0.29044172
6	0xbe899915	-0.26874605
7	0xbe2f6d7c	-0.17131609
8	0x3e30a232	0.17249373
9	0xbe1ad9d7	-0.15122162
10	0x3de6a131	0.112612136
11	0x3df9ad5b	0.12191268
12	0x3e3ec23a	0.18628779
13	0xbe81ccd5	-0.25351587
14	0x3e211e76	0.15734276
15	0xbe05a54a	-0.13051334
16	0xbd8f38c8	-0.06993252
17	0x3e720c48	0.23637497
18	0x3e79e7b4	0.24404794
19	0x3ddc6950	0.10762274
20	0xbe110d59	-0.14165248
21	0x3e1a89da	0.15091649
22	0x3d25cc99	0.040478323
23	0xbdae8b90	-0.08522713
24	0x3e399546	0.1812335
25	0xbed0e622	-0.40800577
26	0xbda2c961	-0.07948566
27	0xbeabecd3	-0.3357912
28	0x3d96810e	0.07348834
29	0xbf393475	-0.7234567
30	0xbdee2f65	-0.116301335
31	0xbe524768	-0.20535052
32	0xbe36eaec	-0.17863053
33	0xbd5dea28	-0.054178387
34	0x3df88964	0.1213558
35	0x3e7eb754	0.24874622
36	0xbdba9494	-0.0911037
37	0xbdd44e60	-0.10366511
38	0x3e38d622	0.18050435
39	0x3d1003b0	0.035159767
40	0x3d6f1060	0.058365226
41	0xbddca248	-0.1077314
42	0xbe18e1e8	-0.14929926
43	0x3df98c30	0.12184942
44	0xbe20764a	-0.15670124
45	0x3ba9b000	0.0051784515
46	0x3db85b70	0.09001815
47	0x3dde5c70	0.10857475
48	0xbe0be220	-0.13660479
49	0xbdca67ec	-0.09883103
50	0xbdacfa54	-0.08446184
51	0xbde3eaec	-0.11128792
52	0x3d8f0460	0.06983256
53	0xbdff1678	-0.124554574
54	0xbe00e5f8	-0.12587726
55	0xbe734eec	-0.23760575
56	0x3e2964ec	0.16542405
57	0xbdc0795c	-0.093981475
58	0x3dd0fca8	0.1020444
59	0x3cbae3f0	0.022813767
60	0x3e7f21d2	0.24915245
61	0xbe4ba21a	-0.19886056
62	0x3ce1aa60	0.027547061
63	0xbe0f8d04	-0.14018637
64	0xbe744b16	-0.23856768
65	0xbd291c28	-0.041286618
66	0x3ddc3768	0.107527554
67	0xbd5f93a8	-0.054584175
68	0xbe173c94	-0.14769202
69	0xbe66ba02	-0.22531894
70	0xbda8b520	-0.08237672
71	0x3dada904	0.08479503
72	0x3dbfcb10	0.09364903
73	0xbcd28fa0	-0.025703251
74	0x3e007310	0.12543893
75	0x3e52f1aa	0.206
76	0x3cc7c3f0	0.024385422
77	0x3d82e7d4	0.06391874
78	0xbe3cc62e	-0.18434975
79	0x3e26cfbc	0.16290182
80	0x3e7ebfa4	0.24877793
81	0x3d6b0ab7	0.057383265
82	0x3bd9a900	0.006642461
83	0x3e2b4288	0.16724598
84	0xbdcaf86c	-0.09910664
85	0xbe6b498b	-0.22977273
86	0xbe19f42f	-0.15034555
87	0x3d4bd600	0.049764633
88	0xbcfb7e20	-0.03069979
89	0xbe3b30d2	-0.18280342
90	0xbe5e64c4	-0.21718127
91	0xbcca62b0	-0.024705261
92	0x3e617d85	0.22020538
93	0xbe043086	-0.12909135
94	0x3cee0400	0.029054642
95	0x3de6b520	0.112650156
96	0xbe7d9f5a	-0.24767819
97	0x3e8fa72a	0.28057224
98	0x3dccaf64	0.099943906
99	0xbe6a35b4	-0.22872049
100	0xbd4f5453	-0.050617527
101	0x3eaa7578	0.33292747
102	0x3dc1df5a	0.09466429
103	0xbda1ae04	-0.07894519
104	0x3d8e8664	0.06959227
105	0x3ea89a2c	0.32930124
106	0xbe0dde3a	-0.13854304
107	0x3d93cf76	0.072173044
108	0x3ead73a8	0.338773
109	0x3e6bde4d	0.2303402
110	0xbd6ed93f	-0.05831265
111	0x3dc1d2dc	0.09464046
112	0x3e1a3bbc	0.1506185
113	0x3d4d7003	0.05015565
114	0x3dd76da8	0.10518962
115	0x3e521d1e	0.2051892
116	0x3e20d48b	0.15706079
117	0xbdfb25a1	-0.122630365
118	0x3e019252	0.12653473
119	0x3d741f88	0.059600383
120	0xbe1da51c	-0.15395015
121	0x3e96084f	0.29303214
122	0x3e23f8f1	0.16012932
123	0xbe11c185	-0.14233978
124	0x3e7e7b8a	0.24851814
125	0xbe0997f5	-0.13436873
126	0x3dba9112	0.09109701
127	0xbd3fdb58	-0.046840042
128	0xbe563594	-0.20918876
129	0x3e87bb1e	0.26509947
130	0xbe015c28	-0.12632811
131	0xbe4e7628	-0.2016226
132	0x3e9e966c	0.30974138
133	0x3da07276	0.07834332
134	0x3dbcdb4a	0.092215136
135	0x3d99f2f4	0.07517043
136	0xbd627d20	-0.05529511
137	0x3e8362d1	0.25661328
138	0x3e93a544	0.28837025
139	0x3e1d8725	0.15383585
140	0xbc2978db	-0.010343756
141	0x3c4c1d4b	0.012458156
142	0xbdceab04	-0.100912124
143	0x3da40500	0.08008766
144	0x3e42bf4a	0.19018283
145	0x3daf1371	0.0854863
146	0x3e0bd4b2	0.13655356
147	0xbe48d9ae	-0.19614288
148	0x3db8c15a	0.09021254
149	0x3e39553e	0.18098924
150	0xbe861dc1	-0.26194575
151	0xbd9cdae0	-0.076589346
152	0x3e4ab0e4	0.19794041
153	0x3ca5447a	0.020174254
154	0xbe514a0f	-0.20438407
155	0xbcbb8d12	-0.022894416
156	0x3e27d884	0.16391188
157	0xbded4907	-0.115861945
158	0x3e753726	0.23946819
159	0xbe661748	-0.22469819
160	0xbd96b46c	-0.073586315
161	0x3e8898a1	0.26678947
162	0x3d7c7f98	0.06164512
163	0xbe74b074	-0.23895437
164	0xbebfa9f7	-0.3743436
165	0x3e9152eb	0.28383574
166	0x3d645d1f	0.05575287
167	0x3e7924ee	0.24330494
168	0x3dddd6c4	0.10831979
169	0xbe1ac9d2	-0.15116051
170	0x3df628d7	0.12019508
171	0xbb8ce3eb	-0.004299631
172	0xbe39c042	-0.18139747
173	0xbeecb249	-0.4622977
174	0xbb25f902	-0.0025325422
175	0x3e01e7b8	0.1268605
176	0x3da0a180	0.07843304
177	0xbbbbd1c0	-0.0057317913
178	0xbe5fb722	-0.21847203
179	0x3daf8140	0.08569574
180	0xbe760bc4	-0.24027926
181	0xbdb9e700	-0.09077263
182	0xbe05962a	-0.13045564
183	0xbe66890a	-0.22513214
184	0xbd9897a4	-0.07450798
185	0x3de50f60	0.11184573
186	0x3dd46120	0.103700876
187	0xbe6d9696	-0.23201975
188	0x3e676d0a	0.22600189
189	0xbc10b2c0	-0.00883168
190	0xbe08e666	-0.1336914
191	0x3cdcd7b0	0.026958317
192	0x3d62c018	0.055358976
193	0x3dc3bb80	0.09557247
194	0x3d2e3f40	0.04254079
195	0x3dd21a9c	0.102589816
196	0x3d83b9c3	0.064319156
197	0x3e8af06a	0.27136546
198	0x3d30270b	0.043005984
199	0x3d8170b0	0.063203216
200	0xbe6ac336	-0.2292603
201	0x3d179ef0	0.03701681
202	0x3cdb380d	0.026760126
203	0xbd04af4b	-0.032393735
204	0xbdb11c3a	-0.08647962
205	0x3e352aba	0.1769208
206	0xbe7bf992	-0.24606922
207	0xbe773a66	-0.24143371
208	0x3e27e36c	0.16395348
209	0x3e223c78	0.1584338
210	0x3e38b9a8	0.18039572
211	0xbd970098	-0.0737316
212	0xbde32292	-0.11090578
213	0xbde580e5	-0.11206225
214	0xbe7ee5ff	-0.24892424
215	0x3dbc3f64	0.09191778
216	0x3e399936	0.18124852
217	0x3dd7ccdc	0.10537121
218	0x3de905c5	0.113780536
219	0xbe437bd7	-0.1909021
220	0x3e67fdae	0.22655365
221	0xbce73412	-0.028223071
222	0x3df7bd30	0.120966315
223	0xbe68e718	-0.22744405
224	0xbe36e352	-0.17860153
225	0xbe53f543	-0.20699029
226	0xbdd0de08	-0.10198599
227	0xbe49a43c	-0.19691557
228	0x3d377dc6	0.04479768
229	0x3d70ef4e	0.05882197
230	0xbd1c50ed	-0.038163114
231	0xbe6799ba	-0.22617236
232	0x3e443858	0.19162118
233	0xbda94a66	-0.082661435
234	0xbd6be163	-0.057587992
235	0x3e0e1585	0.13875397
236	0xbe06d1ed	-0.13166018
237	0xbc1b6a08	-0.009485729
238	0xbdcf0d2f	-0.101099364
239	0xbdd0b340	-0.10190439
240	0x3d7ed610	0.062215865
241	0xbd5ee515	-0.05441769
242	0x3e180698	0.14846265
243	0x3d98ee3c	0.074673146
244	0xbd2d6ba1	-0.04233897
245	0xbc6f949b	-0.014622833
246	0xbde8c7ca	-0.11366232
247	0x3dddb264	0.10825041
248	0x3dbde5fc	0.09272382
249	0x3d8b32bd	0.06796787
250	0xbe0966fe	-0.13418195
251	0xbdb56789	-0.088576384
252	0xbd44e2bf	-0.048067804
253	0xbd4b5b5f	-0.049647685
254	0xbe7e2a48	-0.24820817
255	0x3d0474d0	0.032337964

hedge_q.2.linear_relu_stack.4.bias f4 [16]
0	0x3e32672a	0.17422166
1	0x3e639c18	0.22227514
2	0x3deae978	0.11470312
3	0xbe51390e	-0.20431921
4	0xbe2b84d2	-0.16749886
5	0x3dc31175	0.09524814
6	0x3e83b1db	0.2572163
7	0xbe27848f	-0.16359161
8	0x3d8d7eee	0.069089755
9	0xbe951ef4	-0.29125178
10	0x3e41c97d	0.18924518
11	0xbe269adc	-0.16270012
12	0x3e16bfa1	0.14721538
13	0xbe1af530	-0.15132594
14	0x3d549fe7	0.051910307
15	0x3c683c07	0.014174468

hedge_q.2.linear_relu_stack.6.weight f4 [1, 16]
0	0xba896926	-0.0010483607
1	0xbf367547	-0.712727
2	0xbcb907e0	-0.022586763
3	0x3dcc4914	0.09974876
4	0xbe227bc4	-0.15867525
5	0xbe16112c	-0.14654988
6	0x3e5eeb56	0.21769461
7	0x3d1c7262	0.03819502
8	0x3e4b48d9	0.19852008
9	0xbd4dc6e8	-0.05023852
10	0xbebeba06	-0.372513
11	0x3c118080	0.008880734
12	0x3dff5f05	0.124692954
13	0x3d5dfd0a	0.054196395
14	0x3e5d6ae2	0.21622804
15	0xbe1dbf4b	-0.15405004

hedge_q.3.linear_relu_stack.0.weight f4 [16, 1]
0	0x3ec1ff49	0.3789008
1	0xbf55451b	-0.8330857
2	0xbed2b53c	-0.41153896
3	0x3e286119	0.1644329
4	0x3f45cde4	0.7726729
5	0xbf7b19ae	-0.9808606
6	0xbf1c0924	-0.6095145
7	0xbd0d7757	-0.03453764
8	0xbf0d4fd6	-0.55199945
9	0xbf5541d3	-0.83303565
10	0xbf650e3c	-0.89474845
11	0xbdb699a0	-0.089160204
12	0x3f68fe03	0.9101259
13	0xbf6c87b2	-0.92394555
14	0xbdfdf468	-0.124001324
15	0x3f612384	0.8794482

hedge_q.3.linear_relu_stack.0.bias f4 [16]
0	0xbc62b207	-0.01383639
1	0x3f13fe48	0.5780988
2	0xbd50cda0	-0.05097735
3	0xbe03b833	-0.12863235
4	0x3f7ccc0b	0.98748845
5	0x3efff88d	0.49994317
6	0xbe7511d0	-0.23932576
7	0x3f4ab4d6	0.79182184
8	0x3e8f5cfe	0.28000635
9	0x3edce2ff	0.43141934
10	0xbd5ebbc0	-0.05437827
11	0xbf41fbfe	-0.75775135
12	0x3cb39d0c	0.021925472
13	0x3f71f7bc	0.9451864
14	0x3ed75716	0.4205863
15	0xbec400c7	-0.38281843
