Models/BS/FFNN/Prop trans costs/BS_FFNN_MSE_tc.pth (torch, 48475 bytes, 63 tensors)

hedge_q.0.linear_relu_stack.0.weight f4 [16, 1]
-0.45841458 -0.0071377754 -0.99031854 1.1407852 -0.7913163 -0.67239916 -0.761325 -0.87349313
0.4340894 -0.26544055 -0.9126264 0.3884318 0.23156238 -0.65755963 0.90152967 0.35872436
00000000: 51b5 eabe 00e4 e9bb 8485 7dbf 4005 923f
00000010: b493 4abf 5a22 2cbf 32e6 42bf 3f9d 5fbf
00000020: f740 de3e d3e7 87be e2a1 69bf 88e0 c63e
00000030: b01e 6d3e d455 28bf a6ca 663f b8aa b73e

hedge_q.0.linear_relu_stack.0.bias f4 [16]
0.7287764 -0.78407514 0.20397246 0.37271938 -0.46535158 -0.14598238 -0.6709405 0.52457
-0.3072971 0.4247677 0.0098154545 -0.8757149 -0.2071861 1.001444 -0.7936541 -0.7165445
00000000: 1791 3a3f 26b9 48bf 28de 503e 13d5 be3e
00000010: 9042 eebe 687c 15be c2c2 2bbf 384a 063f
00000020: 0c56 9dbe 277b d93e 00d1 203c da2e 60bf
00000030: 9828 54be 512f 803f ea2c 4bbf 766f 37bf

hedge_q.0.linear_relu_stack.2.weight f4 [16, 16]
-0.2634528 -0.24330014 0.1535097 0.029012034 -0.19555041 -0.031470567 -0.13434193 -0.18137632
0.24207428 -0.24948548 0.14991736 -0.16954246 0.0020245314 0.07630986 -0.0014539659 -0.23667851
0.009474941 -0.04890132 -0.21634191 0.110036045 0.24961716 -0.021011889 0.17578739 -0.7372965
-0.008540208 -0.06305887 0.042719364 -0.100550234 0.19544655 0.09529785 -0.00025105476 0.09789395
0.13775581 0.08312619 0.1893948 -0.11905506 0.24332246 0.038335085 0.044573575 -0.22714028
0.070013344 0.0045600533 0.013304144 -0.13044566 0.12058619 0.00085914135 0.14375639 -0.15019795
-0.16651693 -0.04215786 0.08178839 0.23040846 0.20367578 -0.12021613 0.12838396 -0.12488219
0.03846425 0.1416136 -0.020145178 0.2182889 -0.12192452 -0.18869463 -0.17122546 -0.19416034
-0.0568511 0.2148684 -0.17132542 0.14184684 0.02325666 -0.1209577 -0.18024632 -0.062330864
-0.07786532 0.13981977 -0.063682824 0.05996114 0.14874458 -0.18052751 -0.14056483 0.24457645
-0.15307978 -0.042105407 0.14074254 0.3174816 0.045407146 -0.100224316 -0.14906651 -1.6463733
0.09350133 0.08218384 -0.16618511 -0.20680359 0.22585931 -0.10799188 0.2449978 -0.23541161
-0.005240592 0.056658 -0.006434053 0.21500406 -0.19361046 -0.13090709 -0.20723048 -0.575958
0.005186582 0.10940546 -0.13802195 -0.15217572 -0.18385401 -0.24364366 -0.02024585 0.1973277
0.0889997 -0.24110273 0.06874874 0.092787236 0.14683181 -0.16547361 -0.13772267 -0.06102006
-0.15894446 0.0075680595 -0.020292193 0.2404801 0.19646561 0.12830067 0.14498207 0.16471007
0.11901644 -0.072764575 -0.062500745 0.17910242 -0.23661259 -0.0095385015 0.12359059 0.034445435
0.009406328 0.049200773 -0.17707089 -0.018195748 -0.24200639 -0.11474851 0.21059465 -0.03808835
0.13540532 -0.051882178 -0.10977739 -0.00013474314 -0.08224261 0.21401212 -0.0153874755 -0.77058935
-0.15046546 0.19996749 0.10544664 -0.025401294 -0.21240628 0.14134839 0.0019892156 -0.021861672
0.08793196 0.020535856 0.20850793 -0.1810652 -0.023566693 -0.22751027 0.1306903 -0.007918984
-0.1834048 0.040173262 -0.1697639 0.10738623 0.20780185 -0.19793323 -0.17516279 0.1754652
-0.17930771 -0.13739172 0.18705222 0.11410063 -0.12526527 -0.06954917 -0.030404568 -0.7912059
-0.066586204 -0.023108322 0.10383797 0.023150086 -0.17951515 0.2185193 0.1790753 -0.040419757
0.09799946 0.07960454 -0.19489712 -0.012825396 0.22276363 0.09101698 -0.026040584 -0.2514369
0.10289515 0.19753383 0.11234602 0.24009293 0.19721138 0.25234792 0.05023676 -0.2286472
0.09219971 -0.22511697 -0.003289491 0.3292116 -0.08982372 0.03978491 -0.21577081 -0.6610044
-0.16412707 0.19116725 0.12541705 -0.24068108 -0.12970442 0.015046061 -0.056652457 -0.241638
0.24409674 -0.14108539 0.06584686 0.32314917 0.1358639 -0.03895822 0.07600403 -1.0335578
0.24300061 0.18863904 0.21155941 -0.17674947 -0.04955262 -0.14713916 -0.21750742 -0.027995259
0.12865187 0.029055 0.2454144 -0.06316393 -0.050608873 -0.075084 0.012341589 -0.21896559
0.12866408 0.06918062 -0.23873857 -0.23862362 -0.07950905 0.17347834 -0.12868911 0.14081079
00000000: 49e3 86be ac23 79be a631 1d3e a5aa ed3c
00000010: 5e3e 48be 48e7 00bd ee90 09be b7ba 39be
00000020: 52e2 773e 1f79 7fbe f083 193e 8a9c 2dbe
00000030: 00ae 043b 5848 9c3d 0093 beba da5b 72be
00000040: c83c 1b3c c04c 48bd bc88 5dbe 945a e13d
00000050: a49b 7f3e 2021 acbc 9c01 343e 77bf 3cbf
00000060: 3bec 0bbc 0225 81bd 80fa 2e3d 48ed cdbd
00000070: 2423 483e 852b c33d 00a0 83b9 a07c c83d
00000080: dc0f 0d3e 103e aa3d b6f0 413e 24d3 f3bd
00000090: 8629 793e 4005 1d3d c892 363d 7697 68be
000000a0: 2863 8f3d 806c 953b a0f9 593c 8c93 05be
000000b0: e4f5 f63d 0038 613a e034 133e 7ecd 19be
000000c0: 6a83 2abe b8ad 2cbd ac80 a73d 32f0 6b3e
000000d0: 6290 503e e033 f6bd 1677 033e 3cc2 ffbd
000000e0: b08c 1d3d 2803 113e 8007 a5bc 2087 5f3e
000000f0: 90b3 f9bd 2a39 41be ba55 2fbe f8d1 46be
00000100: b3dc 68bd 7606 5c3e ee6f 2fbe 4c40 113e
00000110: c084 be3c acb8 f7bd 7e92 38be a64e 7fbd
00000120: da77 9fbd ea2c 0f3e 246c 82bd d099 753d
00000130: 8050 183e 34dc 38be 3af0 0fbe 4072 7a3e
00000140: f2c0 1cbe b876 2cbd d01e 103e f38c a23e
00000150: d8fc 393d 6842 cdbd e4a4 18be 5cbc d2bf
00000160: a07d bf3d 0050 a83d 6e2c 2abe 52c4 53be
00000170: aa47 673e d92a ddbd b4e0 7a3e be0f 71be
00000180: 46b9 abbb 3812 683d c0d4 d2bb 062a 5c3e
00000190: d241 46be 820c 06be 3a34 54be fc71 13bf
000001a0: 34f4 a93b f80f e03d a055 0dbe f4d3 1bbe
000001b0: 3a44 3cbe b97d 79be a0da a5bc 4610 4a3e
000001c0: 7a45 b63d a2e3 76be 24cc 8c3d 3c07 be3d
000001d0: 145b 163e ea71 29be 2c07 0dbe 2cf0 79bd
000001e0: 56c2 22be 7cfd f73b d03b a6bc 6a40 763e
000001f0: 482e 493e 4061 033e 2e76 143e c2a9 283e
00000200: e4be f33d 9805 95bd 6400 80bd a066 373e
00000210: 924a 72be 6047 1cbc 101d fd3d a816 0d3d
00000220: 001d 1a3c c086 493d 1252 35be 400f 95bc
00000230: 86d0 77be 4401 ebbd 20a6 573e 8802 1cbd
00000240: b1a7 0a3e 6882 54bd f8d2 e0bd d649 0db9
00000250: d06e a8bd fe25 5b3e c01b 7cbc 5845 45bf
00000260: 9e13 1abe 47c4 4c3e 68f4 d73d 6016 d0bc
00000270: 0881 59be a2bd 103e 805d 023b 4017 b3bc
00000280: ac15 b43d d03a a83c 1a83 553e 2869 39be
00000290: f00e c1bc 74f8 68be aed3 053e a0be 01bc
000002a0: 78ce 3bbe b88c 243d 96d6 2dbe 50ed db3d
000002b0: 02ca 543e 02af 4abe e05d 33be 26ad 333e
000002c0: 719c 37be 6ab0 0cbe 9e8a 3f3e 97ad e93d
000002d0: 8a45 00be cc6f 8ebd 0013 f9bc 788c 4abf
000002e0: 595e 88bd aa4d bdbc 00a9 d43d 40a5 bd3c
000002f0: d2d2 37be 86c3 5f3e 845f 373e 308f 25bd
00000300: f1b3 c83d b407 a33d 1c93 47be 9c21 52bc
00000310: 261c 643e 1c67 ba3d 1053 d5bc 56bc 80be
00000320: b1ba d23d 4f46 4a3e ac15 e63d ecda 753e
00000330: c8f1 493e bf33 813e 10c5 4d3d 7e22 6abe
00000340: 34d3 bc3d 1085 66be 8094 57bb 6c8e a83e
00000350: 80f5 b7bd 80f5 223d 06f3 5cbe 9637 29bf
00000360: ed10 28be 59c1 433e 546d 003e 1a75 76be
00000370: 3cd1 04be c183 763c 680c 68bd f46f 77be
00000380: 7ff4 793e b078 10be b8da 863d cf73 a53e
00000390: e81f 0b3e a892 1fbd 00a8 9b3d 9f4b 84bf
000003a0: 27d5 783e 982a 413e 08a3 583e d0fd 34be
000003b0: b0f7 4abd a6ab 16be 44ba 5ebe 5056 e5bc
000003c0: 51bd 033e c004 ee3c ea4d 7b3e 175c 81bd
000003d0: 404b 4fbd a4c5 99bd 6034 4a3c 8438 60be
000003e0: 84c0 033e 92ae 8d3d e277 74be c059 74be
000003f0: a4d5 a2bd 4ea4 313e 14c7 03be b430 103e

hedge_q.0.linear_relu_stack.2.bias f4 [16]
0.08082491 0.13230474 -0.2272856 -0.18665117 -0.08113607 0.20139597 0.08323359 -0.232413
-0.21659744 0.1927911 0.021097958 0.16652183 0.0055009094 -0.008068463 -0.14903067 -0.18465257
00000000: 8887 a53d e57a 073e 8ebd 68be 7c21 3fbe
00000010: ab2a a6bd bf3a 4e3e 5f76 aa3d acfd 6dbe
00000020: b8cb 5dbe 086b 453e a0d5 ac3c b384 2a3e
00000030: f940 b43b 9631 04bc 7f9b 18be 9015 3dbe

hedge_q.0.linear_relu_stack.4.weight f4 [16, 16]
-0.023357809 -0.11817768 -0.11066386 0.09568083 -0.13888642 -0.16034007 -0.1233854 0.16497907
0.17246738 -0.10862258 0.10158053 -0.09167385 -0.029406786 -0.16593045 -0.057445228 -0.064789
-0.11180999 0.15630728 -0.004485488 0.2359699 -0.012410077 0.14421909 -0.06730401 -0.1740711
-0.13128832 -0.009895585 0.18809465 0.2959788 -0.03306476 0.29874697 0.2110982 0.028090633
-0.16383325 -0.11610097 -0.06892425 -0.21490487 -0.14704552 -0.6846208 -0.42320836 0.033688355
-0.1747841 0.049980327 0.15568084 -0.1273714 0.1467617 -0.17764866 -0.21416052 -0.042277254
-0.039632473 0.16069752 -0.17129087 -0.14598122 -0.021429475 0.56548876 0.07693508 -0.058754362
0.087952375 0.20505546 0.13206792 0.2889752 -0.14479001 0.26929355 0.3453166 -0.12055712
-0.13675153 0.06897363 0.14147174 -0.08213699 0.14715579 -0.10713968 0.21500853 0.23847178
-0.11049488 -0.19802356 -0.15682524 -0.23821008 -0.08794963 -0.24659768 0.09219813 -0.009003758
0.0019965942 0.20473917 -0.14771765 0.13719392 0.00729337 0.45903155 0.023472223 0.23345263
0.22673312 -0.1301258 0.06369448 0.11926177 -0.1608578 0.07939794 0.23281111 0.20777711
-0.09179047 -0.0048528314 -0.13413712 0.011159807 -0.24497801 -0.22510195 0.21467507 -0.016932577
-0.09668797 -0.11891168 0.11823493 0.1264314 0.060412765 0.21626589 0.21102905 0.1482512
-0.0050964653 0.019454181 0.13375574 0.17227584 -0.15600929 -0.22718841 -0.230515 0.01938638
-0.22822094 0.23576954 0.17944753 0.0018609464 0.06630486 -0.09394887 -0.18950355 -0.2080734
-0.21786334 0.26446968 -0.090732664 -0.21146172 0.0526181 0.12897989 -0.010896435 -0.16994978
0.20667642 0.2788127 0.02853173 0.26571593 0.24858455 0.2957407 0.28178364 0.10873062
-0.20100209 0.11589268 0.13749364 -0.16297114 -0.15698975 -0.15439934 -0.0626528 0.078838825
0.013126999 0.11416811 0.23477894 -0.04101345 -0.107676595 0.13792571 -0.22606468 -0.12703687
-0.028376937 -0.050900012 -0.026966244 0.13832831 0.10497475 -0.21109602 -0.2214694 0.08140206
-0.072460055 0.14915937 -0.056259125 0.001796931 0.102938086 -0.14347747 -0.23576176 0.1579476
-0.08004081 -0.053433627 -0.15075687 0.18042734 0.12935081 0.058882445 -0.08693379 -0.0051095188
-0.18136111 -0.22677734 0.20530751 0.19167358 -0.06363964 -0.051508754 -0.12632316 0.13307676
-0.1612018 0.03673419 0.08988875 0.1978276 -0.064548135 -0.06907225 0.14334218 -0.1975939
0.1751625 -0.13490088 0.2300264 0.1493659 0.016616656 0.23183198 0.13311431 -0.15535936
-0.16487151 -0.012066496 0.017375827 0.02363956 -0.0903492 0.4905482 0.32517314 -0.043734785
-0.11995146 -0.0047892435 0.03469196 0.2812185 0.21968424 -0.049883217 -0.015689934 0.032642752
0.17209448 0.0474303 0.08975598 -0.19423401 -0.052914523 -0.28379247 0.11600164 -0.2734675
-0.15848193 0.027147377 -0.23574221 0.1290746 -0.24067098 -0.062437817 -0.34858903 0.14831628
-0.09334009 0.07597481 0.10780048 -0.139999 0.06547697 -1.0719473 -0.15037583 0.027232016
-0.042568 -0.024846155 -0.15595597 0.064326644 0.31483802 0.18707258 -0.5057589 0.12088544
00000000: e058 bfbc 2407 f2bd bca3 e2bd 50f4 c33d
00000010: 3e38 0ebe 3030 24be 7cb1 fcbd 46f0 283e
00000020: 4a9b 303e 8475 debd 7409 d03d 80bf bbbd
00000030: 80e6 f0bc ace9 29be b04b 6bbd 18b0 84bd
00000040: a3fc e4bd 040f 203e 00fb 92bb 18a2 713e
00000050: a353 4bbc 2bae 133e afd6 89bd b23f 32be
00000060: 7270 06be 1721 22bc e29b 403e 898a 973e
00000070: ea6e 07bd 5df5 983e 202a 583e 541e e63c
00000080: e7c3 27be 58c6 edbd 2828 8dbd 0610 5cbe
00000090: 1a93 16be 4f43 2fbf c4ae d8be cdfc 093d
000000a0: 9afa 32be 2cb8 4c3d cc6a 1f3e a66d 02be
000000b0: b348 163e 88e9 35be e54c 5bbe ea2a 2dbd
000000c0: a955 22bd e48d 243e e066 2fbe 1a7c 15be
000000d0: de8c afbc dfc3 103f 2490 9d3d 6aa8 70bd
000000e0: 6020 b43d 0ffa 513e d03c 073e 8ff4 933e
000000f0: d543 14be d8e0 893e 56cd b03e a7e6 f6bd
00000100: 9808 0cbe 0c42 8d3d f8dd 103e 7037 a8bd
00000110: 02b0 163e 0c6c dbbd 322b 5c3e f231 743e
00000120: 244b e2bd b0c6 4abe cc96 20be 58ed 73be
00000130: f01e b4bd 1a84 7cbe 60d2 bc3d 8084 13bc
00000140: 4bd9 023b 25a7 513e 4c43 17be 907c 0c3e
00000150: 39fd ee3b 2f06 eb3e d248 c03c 350e 6f3e
00000160: ba2c 683e b33f 05be 4072 823d 843f f43d
00000170: e8b7 24be 639b a23d 0966 6e3e 86c3 543e
00000180: a4fc bbbd 8004 9fbb 3e5b 09be a0d7 363c
00000190: 84db 7abe 2081 66be c8d3 5b3e 30b6 8abc
000001a0: 5804 c6bd f887 f3bd 2825 f23d 3c77 013e
000001b0: 6073 773d ce74 5d3e 0018 583e 2acf 173e
000001c0: 4000 a7bb 605e 9f3c 44f7 083e 1469 303e
000001d0: e6c0 1fbe 14a4 68be 200c 6cbe 30d0 9e3c
000001e0: c0b2 69be 926d 713e 18c1 373e 00eb f33a
000001f0: d8ca 873d 4468 c0bd 380d 42be 3211 55be
00000200: 9117 5fbe 9268 873e 0cd2 b9bd 6c89 58be
00000210: 1486 573d 4e13 043e f686 32bc 5107 2ebe
00000220: fca2 533e 8ac0 8e3e 60bb e93c eb0b 883e
00000230: f38c 7e3e 536b 973e f245 903e 29ae de3d
00000240: 7ed3 4dbe 2459 ed3d 22cb 0c3e e8e1 26be
00000250: ecc1 20be dc1a 1ebe 1c50 80bd 4076 a13d
00000260: a012 573c f8d0 e93d e469 703e b8fd 27bd
00000270: 8c85 dcbd 663c 0d3e 807d 67be f415 02be
00000280: c076 e8bc 887c 50bd 50e8 dcbc f0a5 0d3e
00000290: 00fd d63d 8e29 58be e0c8 62be 20b6 a63d
000002a0: f065 94bd 3cbd 183e f86f 66bd 0087 eb3a
000002b0: 34d1 d23d c2eb 12be 886b 71be 04bd 213e
000002c0: 70ec a3bd 38dd 5abd 0260 1abe f2c1 383e
000002d0: 8a74 043e b82e 713d 580a b2bd c06d a7bb
000002e0: bab6 39be 5238 68be 223c 523e 1446 443e
000002f0: 8055 82bd d8fa 52bd dc5a 01be 4645 083e
00000300: 1612 25be 9776 163d 9817 b83d 5293 4a3e
00000310: d031 84bd c075 8dbd 4bc8 123e 0e56 4abe
00000320: cc5d 333e 7523 0abe 0a8c 6b3e 60f3 183e
00000330: a71f 883c 5d65 6d3e 1e4f 083e 8616 1fbe
00000340: 14d4 28be 8db2 45bc c057 8e3c c0a7 c13c
00000350: 0009 b9bd 2229 fb3e 187d a63e 3f23 33bd
00000360: 1ca9 f5bd 16ef 9cbb 2819 0e3d dffb 8f3e
00000370: e8f4 603e 5852 4cbd 2d88 80bc 68b4 053d
00000380: 8939 303e 4646 423d fcd1 b73d 48e5 46be
00000390: e6bc 58bd 3f4d 91be 4592 ed3d ef03 8cbe
000003a0: 1649 22be 2d64 de3c 6866 71be 222c 043e
000003b0: 7472 76be ccbe 7fbd 437a b2be 39e0 173e
000003c0: 1729 bfbd ae98 9b3d 80c6 dc3d e65b 0fbe
000003d0: ca18 863d 9235 89bf 1ffc 19be ad15 df3c
000003e0: c85b 2ebd 2a8a cbbc ecb2 1fbe b0bd 833d
000003f0: 7332 a13e f48f 3f3e 6a79 01bf c992 f73d

hedge_q.0.linear_relu_stack.4.bias f4 [16]
-0.20934656 0.20522156 0.2419872 -0.08496917 -0.017407 0.2493241 -0.23033395 -0.20145667
0.020045307 -0.2318421 -0.10891974 0.0014756918 -0.23176278 -0.017109338 0.16813159 0.22429396
00000000: f25e 56be 9a25 523e 7ecb 773e 5104 aebd
00000010: 2099 8ebc d14e 7f3e aadc 6bbe a84a 4ebe
00000020: 0e36 a43c 0468 6dbe 5011 dfbd 006c c13a
00000030: 3953 6dbe e228 8cbc b02a 2c3e 51ad 653e

hedge_q.0.linear_relu_stack.6.weight f4 [1, 16]
-0.108951986 0.26211932 -0.24600318 0.1461369 -0.013507068 0.269924 -0.030570358 0.0046269
0.28224912 -0.026031524 -0.2439735 -0.07346448 0.18915404 0.26064378 -0.15868036 -0.47273314
00000000: 3822 dfbd 8134 863e 42e8 7bbe e9a4 153e
00000010: c04c 5dbc 7b33 8a3e b06e fabc 409d 973b
00000020: f582 903e 1040 d5bc 30d4 79be 8c74 96bd
00000030: 99b1 413e 1a73 853e 1b7d 22be 140a f2be

hedge_q.1.linear_relu_stack.0.weight f4 [16, 1]
-0.6861081 1.1715646 -0.13520458 0.9677926 -1.1235268 -0.37357876 0.20411502 -0.30325633
-0.8990381 -0.15515585 -0.5063986 0.68831843 -0.8950696 -0.5551343 0.57221985 0.526526
00000000: c8a4 2fbf d4f5 953f 1273 0abe 41c1 773f
00000010: bacf 8fbf b745 bfbe 8703 513e 6a44 9bbe
00000020: 5c27 66bf 2de1 1ebe 57a3 01bf a335 303f
00000030: 4823 65bf 481d 0ebf 007d 123f 68ca 063f

hedge_q.1.linear_relu_stack.0.bias f4 [16]
0.5186658 0.9173164 0.8845769 0.46433395 0.7952104 1.0314968 0.5726788 0.522203
-0.5611882 0.6882421 0.55057573 -0.18876229 -0.9662869 -0.18917286 -0.5987253 -0.9539697
00000000: 48c7 043f 3fd5 6a3f a273 623f 2ebd ed3e
00000010: e992 4b3f 1608 843f 149b 123f 19af 053f
00000020: 08aa 0fbf a230 303f 88f2 0c3f e74a 41be
00000030: 945e 77bf 88b6 41be 1046 19bf 5c37 74bf

hedge_q.1.linear_relu_stack.2.weight f4 [16, 16]
0.19038378 -0.13205716 -0.12520562 0.127123 0.06318184 -0.023283955 0.10373593 -0.23411098
-0.06908873 0.2160056 -0.1389211 0.12104662 -0.24162045 0.119709104 0.21604288 -0.21660861
0.12719423 -0.036913127 -0.038182348 -0.18924454 -0.09734887 -0.07582003 0.1343323 -0.07948086
0.068748325 -0.20764336 -0.24724814 -0.1824626 0.16708115 0.007696539 -0.10219446 0.07044411
0.14283109 -0.10844873 -0.00025479717 0.32363263 -0.24375866 0.047976494 0.044609427 0.1159441
0.14524236 0.10070305 0.009787077 0.4872335 -0.12310156 -0.14571267 -0.21027872 0.18665707
-0.23712257 0.0226565 -0.07408196 -0.108493656 0.08884308 0.22622892 -0.024125278 -0.026601762
0.11393052 -0.14968467 -0.22801656 -0.11323133 0.017869115 0.11575696 0.23641178 0.2394565
0.0003338043 0.32071242 0.14121018 0.19381858 -0.08335235 0.10404949 0.18436645 0.05531535
-0.021840334 -0.10145291 -0.11697423 0.3015622 -0.036129862 0.0046711266 -0.21165645 0.20361066
-0.09720078 0.115988076 0.19849816 0.29554564 -0.24964204 0.19790497 0.25411785 -0.21964616
-0.107215434 -0.028402483 -0.077885866 0.75803566 0.17319965 0.07103044 0.13984427 -0.12639254
0.22803998 -0.07518071 -0.12828591 -0.16829506 0.08283645 -0.11691806 0.22517833 0.05414331
-0.031158537 -0.076690465 0.14848098 -0.2143378 -0.032363057 -0.07946542 0.20924506 -0.2249052
-0.063925 0.13650304 -0.25127962 -0.04613606 -0.058544554 0.19149408 -0.04843783 0.18654644
0.1041525 0.08688811 -0.19590867 -0.11357218 -0.05003327 0.19123596 -0.15640265 -0.036870986
-0.2347941 0.27245468 0.24535613 -0.101284996 -0.17581914 0.13633405 0.2507913 -0.11472935
0.02069524 0.23777767 0.11062171 0.3380545 -0.11418745 -0.111471206 -0.10192099 0.036026
-0.013555199 0.18013415 -0.22752005 -0.22329377 0.060437605 -0.14500032 -0.009795639 -0.1960105
-0.17057052 0.10038677 0.08907636 -0.09652451 -0.11689839 -0.074603796 0.08688861 -0.025693327
0.029650658 -0.20985541 -0.07633641 0.07730916 -0.120232016 0.106279105 -0.1893115 0.2097353
-0.09848198 0.046005458 0.21514377 -0.037685633 0.1761719 0.027686 0.22148055 -0.16075751
0.5084397 -0.13559642 0.24271901 -0.2210744 0.6985566 0.36073375 -0.09863766 -0.0373382
-0.000117868185 0.2747439 0.22974631 -0.7815349 0.042136192 -0.11663002 -0.12967944 -0.06265873
-0.08271469 0.32157624 0.007454482 0.19689517 0.12015826 0.23808558 0.30960068 0.13507146
0.11138785 0.19367705 0.078890085 0.67943114 -0.15735725 -0.08962202 0.099291384 0.06747976
-0.04482591 -0.23885855 -0.04312694 0.2260777 -0.03228575 0.13724759 -0.2349472 -0.015476763
0.03457403 -0.12464282 -0.104209185 -0.06963879 0.009699464 -0.22046691 -0.16509563 -0.15876037
-0.040855438 -0.17262796 0.094472915 -0.20232326 0.015594602 0.15424186 0.17990577 -0.07543892
0.05790901 -0.112401485 -0.018013805 0.08633977 0.025275677 0.14864904 -0.017740339 0.16318566
0.047756612 -0.23317522 0.12306297 0.02437219 0.13724059 -0.02293405 0.16188961 -0.23205996
-0.056763053 -0.15730292 0.20153314 -0.036777347 -0.09976369 -0.06643832 -0.19346097 -0.11965969
00000000: f7f3 423e fe39 07be e735 00be 882c 023e
00000010: 7b65 813d febd bebc 8173 d43d caba 6fbe
00000020: 647e 8dbd 9230 5d3e 5541 0ebe 4ae7 f73d
00000030: 5a6b 77be 0c2a f53d 583a 5d3e a6ce 5dbe
00000040: 343f 023e 3832 17bd 1865 1cbd 52c9 41be
00000050: d85e c7bd 8847 9bbd 688e 093e dcc6 a2bd
00000060: eccb 8c3d 76a0 54be 9e2e 7dbe 7ad7 3abe
00000070: 5217 2b3e 4033 fc3b 544b d1bd 0045 903d
00000080: 5042 123e 5e1a debd 4c96 85b9 2db3 a53e
00000090: df9b 79be 0083 443d 60b8 363d 1a74 ed3d
000000a0: 6aba 143e 673d ce3d fa59 203c ab76 f93e
000000b0: ac1c fcbd b435 15be 4e53 57be 0823 3f3e
000000c0: 42d0 72be 209a b93c 48b8 97bd ec31 debd
000000d0: 5cf3 b53d 8ea8 673e 60a2 c5bc f0eb d9bc
000000e0: 6854 e93d f046 19be 2c7d 69be d4e5 e7bd
000000f0: 4062 923c fc11 ed3d ee15 723e 1634 753e
00000100: 7402 af39 6b34 a43e 6799 103e 6178 463e
00000110: a3b4 aabd e617 d53d 8fca 3c3e 5992 623d
00000120: 80ea b2bc 8bc6 cfbd 2f90 efbd 5c66 9a3e
00000130: e8fc 13bd 4010 993b 78bc 58be 507f 503e
00000140: 3411 c7bd 288b ed3d 1a43 4b3e c251 973e
00000150: 2aa2 7fbe 9aa7 4a3e bc1b 823e ecea 60be
00000160: c493 dbbd 53ac e8bc a082 9fbd a00e 423f
00000170: 405b 313e 6878 913d 5633 0f3e 0c6d 01be
00000180: 5083 693e 58f8 99bd 625d 03be 8a55 2cbe
00000190: 28a6 a93d bc72 efbd 2695 663e 60c5 5d3d
000001a0: 3040 ffbc e40f 9dbd 660b 183e 5e7b 5bbe
000001b0: 208f 04bd c4be a2bd 5644 563e 8c4d 66be
000001c0: 1ceb 82bd 74c7 0b3e b9a7 80be 2af9 3cbd
000001d0: 6acc 6fbd 0617 443e bf66 46bd 0806 3f3e
000001e0: e84d d53d 65f2 b13d 489c 48be 8898 e8bd
000001f0: b0ef 4cbd 5cd3 433e 0428 20be 0806 17bd
00000200: dd6d 70be 2e7f 8b3e a33e 7b3e 826e cfbd
00000210: ef09 34be 279b 0b3e b867 803e 39f7 eabd
00000220: 1089 a93c fd7b 733e a38d e23d 7b15 ad3e
00000230: 1cdb e9bd 044b e4bd f4bb d0bd 0090 133d
00000240: a016 5ebc 1675 383e 04fb 68be 1fa7 64be
00000250: 6c8d 773d f77a 14be e37d 20bc fab6 48be
00000260: 0aaa 2ebe 9497 cd3d ab6d b63d a4ae c5bd
00000270: 6c68 efbd e0c9 98bd a8f2 b13d d07a d2bc
00000280: f0e5 f23c 56e4 56be 4456 9cbd 4454 9e3d
00000290: 343c f6bd dca8 d93d e0da 41be dac4 563e
000002a0: ecb0 c9bd 3870 3c3d a64e 5c3e 405c 1abd
000002b0: 6866 343e c0cd e23c cccb 623e 9e9d 24be
000002c0: 1b29 023f cad9 0abe 558b 783e 5461 62be
000002d0: 9bd4 323f 18b2 b83e 8b02 cabd f1ef 18bd
000002e0: 0030 f7b8 3cab 8c3e 9e42 6b3e ac12 48bf
000002f0: 0097 2c3d b8db eebd b0ca 04be 3853 80bd
00000300: 5266 a9bd a4a5 a43e ba44 f43b e39e 493e
00000310: 8915 f63d b5cc 733e fb83 9e3e 2c50 0a3e
00000320: 501f e43d 4753 463e 2091 a13d 33ef 2d3f
00000330: 4222 21be c08b b7bd 4859 cb3d d432 8a3d
00000340: 609b 37bd 5697 74be e0a5 30bd ea80 673e
00000350: 103e 04bd a28a 0c3e 0096 70be 4092 7dbc
00000360: 809d 0d3d bc44 ffbd a06b d5bd c89e 8ebd
00000370: 80ea 1e3c 14c2 61be d40e 29be 1492 22be
00000380: 0858 27bd 62c5 30be 047b c13d d42d 4fbe
00000390: 8080 7f3c 94f1 1d3e 3839 383e b87f 9abd
000003a0: 0032 6d3d c032 e6bd b091 93bc e8d2 b03d
000003b0: f00e cf3c 7437 183e 3054 91bc 241a 273e
000003c0: 709c 433d 7cc5 6ebe 7008 fc3d 30a8 c73c
000003d0: cc88 0c3e 30e0 bbbc 64c6 253e 20a1 6dbe
000003e0: 6080 68bd 0414 21be b45e 4e3e d8a3 16bd
000003f0: e850 ccbd d010 88bd a21a 46be 2410 f5bd

hedge_q.1.linear_relu_stack.2.bias f4 [16]
0.003750892 -0.14766634 0.31383064 -0.039310902 0.25035337 0.012630054 -0.0956853 -0.20227297
0.17132819 0.12577252 -0.075188965 -0.1305476 0.08482782 -0.051555634 -0.23349443 -0.028591901
00000000: 86d1 753b d835 17be 69ae a03e 7804 21bd
00000010: 512e 803e 49ee 4e3c a8f6 c3bd a520 4fbe
00000020: a870 2f3e 83ca 003e acfc 99bd 45ae 05be
00000030: 35ba ad3d 002c 53bd 2a19 6fbe 9039 eabc

hedge_q.1.linear_relu_stack.4.weight f4 [16, 16]
0.11719632 -0.15137294 0.14496136 -0.17138231 0.07513169 -0.17617169 0.14738718 -0.08115358
-0.007464206 -0.022236764 0.007070422 -0.18330611 -0.14461881 -0.014328629 -0.24504498 -0.03526929
-0.09826612 -0.19019789 0.34498316 0.005972445 0.10853596 0.10093117 -0.22303191 0.062148113
0.06905018 -0.049967505 0.24609163 -0.67337686 0.29027683 0.15850818 0.16785502 -0.22420478
-0.21068916 -0.05792865 0.0731529 -0.18171367 -0.1925346 -0.102220416 -0.034829408 -0.22806615
-0.23350036 0.18344712 0.078163475 0.21606797 0.10500166 0.07539898 0.21637979 0.10163331
0.14184172 -0.0585894 -0.1206841 0.14549541 -0.24000287 0.20409769 0.051482975 -0.1772576
0.05865612 0.109764814 0.04120201 -0.18789327 0.196295 0.010436058 -0.035196573 0.17214638
-0.06849611 -0.11337578 -0.10229418 0.10560468 -0.15807328 -0.118327856 -0.22528479 0.17455953
0.052672118 0.19386977 -0.12808093 -0.06754097 -0.057638288 0.1990355 0.24254748 0.02827409
0.11803141 -0.09426546 0.08474861 0.10830408 0.0332274 -0.22751755 0.060138434 -0.15742365
0.051296655 -0.12478688 -0.19494799 0.7725711 0.038750943 -0.028761357 0.06600395 0.13205063
0.15893008 -0.016885161 0.06099418 -0.20061836 0.24049726 -0.11544243 0.18939093 -0.052619494
0.08879308 -0.08860762 0.060324818 -1.1582531 0.08596674 0.17064232 -0.21882847 -0.22113979
0.09424711 0.17775664 0.24502222 -0.22396287 0.30644816 0.20340866 -0.105201155 0.1266598
0.33484048 0.17518787 -0.011612266 -0.704279 0.25097018 -0.14178216 0.018935472 -0.01663071
0.16035002 -0.18966904 0.08536757 0.14518577 0.261215 0.10265039 0.11622566 -0.17133859
0.13367648 -0.03559528 -0.22052526 -0.4847216 0.24413513 0.22438842 0.00079762936 0.20372477
-0.015842497 -0.10301012 -0.108712256 -0.15970045 -0.20270547 -0.13778871 0.19920287 0.24108157
-0.034476697 -0.013644755 0.032916874 -0.18430483 -0.11741394 0.22489172 -0.18670511 0.23467028
-0.013767779 0.1879597 0.043973982 0.22411731 -0.08923221 -0.12137872 -0.1322974 0.070990145
-0.21520212 -0.23358327 0.0928123 0.11311203 -0.20137069 -0.21167308 -0.20659763 -0.12897778
-0.039736092 -0.0861482 -0.16225436 -0.14831045 -0.033848673 0.062372148 0.2313287 -0.044056952
0.022647768 -0.21441129 0.07508117 -0.1936197 0.0045518875 -0.03816849 0.08084935 0.2249988
0.08640626 -0.17185953 -0.23354 -0.1807454 0.14797387 -0.24244493 -0.029954076 -0.14701638
-0.05549562 0.14780161 0.18146884 -0.1362657 0.008229345 -0.10490006 -0.111198485 0.21590179
-0.12677658 0.027815968 0.06248543 -0.029002845 0.0988015 -0.25458315 0.078364015 0.13673422
0.06953189 -0.10498482 0.18975961 0.91246796 -0.08877083 0.24526277 0.17406473 -0.07545796
0.10218033 -0.103417575 -0.12807706 -0.24657598 0.16453725 0.04466179 -0.11522061 0.020205706
-0.06872967 0.12053698 0.23569858 0.12713495 -0.11971295 0.07758084 0.081754774 0.09026185
0.14411569 0.08178002 0.20345557 -0.045171678 -0.22369501 -0.060025066 0.035954535 -0.06517035
-0.22276145 -0.15504926 -0.16213521 0.24802297 -0.036693156 -0.04268536 -0.06489253 0.030387193
00000000: a004 f03d 8201 1bbe c070 143e d87e 2fbe
00000010: a5de 993d 5a66 34be aaec 163e d933 a6bd
00000020: 4c96 f4bb e029 b6bc 00af e73b 99b4 3bbe
00000030: f416 14be a0c2 6abc 12ed 7abe 8876 10bd
00000040: bf3f c9bd 3cc3 42be a2a1 b03e 80b4 c33b
00000050: 1a48 de3d 00b5 ce3d 7a62 64be 058f 7e3d
00000060: 2e6a 8d3d baaa 4cbd 72ff 7b3e 6d62 2cbf
00000070: 2a9f 943e f84f 223e 30e2 2b3e f095 65be
00000080: e6be 57be 9846 6dbd 30d1 953d 2613 3abe
00000090: ca27 45be f058 d1bd 48a9 0ebd 2c8a 69be
000000a0: b81a 6fbe 90d9 3b3e 2c14 a03d ec40 5d3e
000000b0: 1c0b d73d c86a 9a3d aa92 5d3e 2025 d03d
000000c0: f53e 113e 70fb 6fbd 3a29 f7bd c0fc 143e
000000d0: 50c3 75be fcfe 503e d0df 523d 0483 35be
000000e0: 6641 703d 60cc e03d 70c3 283d 1867 40be
000000f0: 8e01 493e 00fc 2a3c 482a 10bd 2447 303e
00000100: b047 8cbd 9031 e8bd 9c7f d1bd 4447 d83d
00000110: f6dd 21be e055 f2bd 0eb1 66be bcbf 323e
00000120: b8be 573d cc85 463e a627 03be ec52 8abd
00000130: 2016 6cbd f6cf 4b3e 5e5e 783e 109f e73c
00000140: 74ba f13d 400e c1bd ae90 ad3d 88ce dd3d
00000150: 7419 083d 5cfa 68be b853 763d aa33 21be
00000160: 711c 523d 4490 ffbd 72a0 47be 38c7 453f
00000170: 4fb9 1e3d f09c ebbc 142d 873d 4838 073e
00000180: 91be 223e c052 8abc 09d5 793d e66e 4dbe
00000190: ea44 763e 156d ecbd b2ef 413e 8a87 57bd
000001a0: 25d9 b53d e977 b5bd 2817 773d a341 94bf
000001b0: 550f b03d dcbc 2e3e 9214 60be 7872 62be
000001c0: a104 c13d d605 363e 1be7 7a3e 8656 65be
000001d0: c6e6 9c3e 5c4a 503e b473 d7bd 1bb3 013e
000001e0: 3670 ab3e 7364 333e 6041 3ebc a14b 34bf
000001f0: 2a7f 803e 582f 11be 901e 9b3c 203d 88bc
00000200: cc32 243e 9a38 42be 31d5 ae3d 94ab 143e
00000210: f9bd 853e 5e3a d23d b807 ee3d 6273 2fbe
00000220: 7de2 083e 5bcc 11bd 60d1 61be 6e2d f8be
00000230: 8ffe 793e 14c6 653e 0018 513a 3a9d 503e
00000240: 20c8 81bc f8f6 d2bd 88a4 debd 8488 23be
00000250: 0692 4fbe 7c18 0dbe d6fb 4b3e 16de 763e
00000260: 7037 0dbd 408e 5fbc d8d3 063d 68ba 3cbe
00000270: b876 f0bd 044a 663e a02f 3fbe 684d 703e
00000280: 4092 61bc 8278 403e 101e 343d 027f 653e
00000290: 60bf b6bd 6895 f8bd f878 07be 4863 913d
000002a0: f25d 5cbe 7430 6fbe 6014 be3d 48a7 e73d
000002b0: 1e34 4ebe d4c0 58be 548e 53be c012 04be
000002c0: 50c2 22bd 786e b0bd 0226 26be b2de 17be
000002d0: e8a4 0abd f079 7f3d 6ee1 6c3e 1075 34bd
000002e0: d087 b93c a28e 5bbe 28c4 993d 3e44 46be
000002f0: 0028 953b 9056 1cbd 5894 a53d 1666 663e
00000300: c4f5 b03d f2fb 2fbe 1c25 6fbe 5215 39be
00000310: 7686 173e 7c43 78be 4062 f5bc 768b 16be
00000320: 604f 63bd 4e59 173e f8d2 393e 3c89 0bbe
00000330: 60d4 063c d8d5 d6bd 08bc e3bd 5c15 5d3e
00000340: b8d1 01be 50de e33c b9f0 7f3d 6097 edbc
00000350: 7158 ca3d b958 82be 507d a03d 0e04 0c3e
00000360: bc66 8e3d 4802 d7bd 5850 423e 8097 693f
00000370: 7bcd b5bd 2a26 7b3e 063e 323e b489 9abd
00000380: ec43 d13d 98cc d3bd a226 03be 6a7e 7cbe
00000390: 747c 283e 48ef 363d c8f8 ebbd 7086 a53c
000003a0: 24c2 8cbd 18dc f63d f85a 713e aa2f 023e
000003b0: 102c f5bd b4e2 9e3d 0c6f a73d 34db b83d
000003c0: 1093 133e 487c a73d a856 503e f005 39bd
000003d0: 4e10 65be d8dc 75bd 1045 133d 0878 85bd
000003e0: 941b 64be 3cc5 1ebe c606 26be bcf9 7d3e
000003f0: 904b 16bd d8d6 2ebd 60e6 84bd 90ee f83c

hedge_q.1.linear_relu_stack.4.bias f4 [16]
0.09025444 0.15617749 0.04625085 -0.14936078 0.11820844 -0.25789273 0.19149847 0.033713743
0.055328738 0.1268523 0.17917606 -0.10362062 -0.115118355 -0.030308537 -0.20565331 0.011308849
00000000: 52d7 b83d feec 1f3e 8871 3d3d 08f2 18be
00000010: 4417 f23d 840a 84be 2d18 443e 6c17 0a3d
00000020: 63a0 623d 92e5 013e ee79 373e 0c37 d4bd
00000030: 2cc3 ebbd 9c49 f8bc c896 52be c048 393c

hedge_q.1.linear_relu_stack.6.weight f4 [1, 16]
-0.043311052 0.2206669 0.000705719 -0.08362821 -0.21641096 -0.50574636 0.13951458 0.1388539
0.19689316 0.16160712 -0.1622344 -0.05934584 -0.23586375 -0.52968186 0.17642325 0.04045421
00000000: ee66 31bd 81f6 613e 0000 393a 4445 abbd
00000010: d69a 5dbe 9878 01bf e9dc 0e3e b72f 0e3e
00000020: 5c9e 493e 567c 253e c620 26be a014 73bd
00000030: 4486 71be 3b99 07bf 4ca8 343e 50b3 253d

hedge_q.2.linear_relu_stack.0.weight f4 [16, 1]
-0.8034517 0.43634224 0.57107353 0.84339494 -0.66889226 0.040622413 -1.1057348 -0.93773854
1.1567278 0.54912794 -0.19403434 -0.9407336 0.30664295 0.9134289 0.5026285 -0.3548268
00000000: 03af 4dbf 4068 df3e e031 123f bbe8 573f
00000010: 863c 2bbf b063 263d b888 8dbf a20f 70bf
00000020: a80f 943f a693 0c3f f0b0 46be ebd3 70bf
00000030: 4e00 9d3e 7ad6 693f 43ac 003f dcab b5be

hedge_q.2.linear_relu_stack.0.bias f4 [16]
0.69464135 -0.90668654 0.32235765 0.7681062 -0.78105974 0.5095112 0.9866786 -0.24608421
-0.35229674 -0.91852283 -0.81175196 0.8957093 0.13576953 0.4226116 0.2180527 -0.80483484
00000000: 04d4 313f 9c1c 68bf 100c a53e 9ca2 443f
00000010: 88f3 47bf 536f 023f f896 7c3f 80fd 7bbe
00000020: 3d60 b4be 5024 6bbf face 4fbf 344d 653f
00000030: 2b07 0b3e 8c60 d83e 3549 5f3e a809 4ebf

hedge_q.2.linear_relu_stack.2.weight f4 [16, 16]
0.46274504 -0.10277408 0.066046014 -0.111231744 0.237232 -0.049447857 0.46853593 -0.050349683
-0.35844365 0.04560727 0.17199308 0.32786363 0.034421965 -0.2667719 0.108582586 0.24890065
-0.21592517 -0.1472575 -0.093068175 -0.14723653 -0.20611584 -0.15383545 0.010650832 0.033058256
-0.029459113 -0.12483466 -0.2362386 0.043882105 -0.14090706 0.18511203 0.17106587 0.0057742
0.17415181 -0.18062481 -0.10672295 -0.16623366 0.005728662 -0.2352443 -0.06302711 -0.0068941116
-0.22142115 -0.23047355 0.1736511 0.024121791 -0.23968145 0.11964247 0.12632984 -0.1962173
0.10395425 -0.101255745 0.2763581 0.2537639 0.096378386 0.095062524 -0.25058463 0.066125035
0.42362157 -0.2233507 -0.1643711 -0.28312993 0.08539294 0.2794525 -0.01730064 -0.09554157
0.15644422 0.23166522 0.021429151 -0.11247605 -0.0926992 -0.06288761 -0.090254724 0.10525662
-0.2188892 -0.12686262 -0.21711239 -0.0013530552 0.045115024 -0.18328723 -0.07581118 0.21071437
-0.035234038 0.22465757 0.12447909 0.23012544 -0.03941524 0.11058391 -0.070586614 -0.20455652
0.40443757 -0.14417922 -0.2114043 -0.20619294 0.04590759 0.24891193 -0.09588311 0.20432633
-0.2994655 0.12219325 0.18438403 0.045363855 -0.019593418 -0.059908792 0.102247424 -0.18735841
0.10367121 0.15156731 0.16506612 -0.2564773 0.25216743 -0.13002528 0.28064543 -0.16405368
-0.24270329 -0.16131234 0.09154567 -0.21131012 -0.09628403 0.105112284 0.16509593 -0.022021145
-0.03824988 0.23194906 -0.21005654 0.1688323 0.13106441 0.14892614 -0.24083191 -0.116461605
-0.204616 0.133567 0.21686067 0.23369846 -0.14679259 -0.15797 0.081218876 -0.18457589
0.0595134 -0.12805462 -0.14078978 -0.19518669 -0.09508655 0.31967065 -0.06465955 0.15671492
-0.018187761 -0.08981976 -0.19384366 0.08181435 -0.17688084 0.038838714 -0.12692764 -0.22054419
0.073286414 -0.07753262 -0.048063874 0.08385676 -0.23143652 0.14666179 -0.055461556 0.015583128
-0.077514686 0.021073222 0.21657635 0.24430564 -0.24337319 0.16696846 -0.059769414 -0.050349504
0.42477173 -0.020237714 -0.054342628 -0.24246335 0.18768343 -0.092827976 -0.061033558 0.08407554
-0.04981607 0.20998871 -0.07356577 -0.118126795 0.018150777 -0.16188434 -0.16377506 -0.11367786
0.19044812 0.093188524 -0.19349033 -0.17194739 0.17546082 -0.17546643 0.18103383 0.057881385
0.079478845 0.15884802 0.24716958 -0.11233281 -0.10796127 -0.1375217 0.046253655 0.0035764575
0.2202131 -0.029582113 -0.1300666 0.14942904 -0.036203403 0.14160627 0.27886882 -0.2001859
-0.2794509 -0.05571401 0.27661923 0.14345863 0.18833232 -0.08816009 -0.2780841 0.04690188
0.43167007 -0.15711957 -0.2410869 0.0055065313 0.24059142 -0.05848201 0.20933771 0.11483392
-0.20996213 0.100456476 -0.2110156 0.03230713 0.057118535 0.033941127 -0.036987174 0.2367076
-0.0430826 0.062740415 -0.037623614 -0.26800394 -0.22661617 0.05327505 -0.11084532 -0.19596031
-0.23197636 -0.1601659 0.21097398 0.17703 0.010255992 0.23759381 -0.28927603 0.039128184
0.12066771 0.08030611 -0.11027777 -0.331971 -0.071284525 0.035950158 0.093238816 -0.14377025
00000000: ebec ec3e 387b d2bd 2243 873d 78cd e3bd
00000010: f2ec 723e d689 4abd f1e3 ef3e 783b 4ebd
00000020: ed85 b7be b0ce 3a3d f41e 303e bedd a73e
00000030: 0cfe 0c3d 5496 88be 8c60 de3d d0df 7e3e
00000040: 7d1b 5dbe acca 16be 879a bebd 2cc5 16be
00000050: 0810 53be 0a87 1dbe d480 2e3c 1868 073d
00000060: 3d54 f1bc 50a9 ffbd 88e8 71be b9bd 333d
00000070: f149 10be 028e 3d3e e42b 2f3e 8035 bd3b
00000080: da54 323e b6f5 38be 9091 dabd 2839 2abe
00000090: 80b7 bb3b e2e3 70be 5c14 81bd 00e8 e1bb
000000a0: 3abc 62be 4201 6cbe 98d1 313e 109b c53c
000000b0: 0e6f 75be 1c07 f53d 9c5c 013e 30ed 48be
000000c0: f7e5 d43d 2c5f cfbd cf7e 8d3e 58ed 813e
000000d0: 0862 c53d 24b0 c23d a14c 80be 906c 873d
000000e0: ede4 d83e 0cb6 64be e650 28be 68f6 90be
000000f0: 7ee2 ae3d 6614 8f3e 12ba 8dbc 4cab c3bd
00000100: ea32 203e a639 6d3e 308c af3c d859 e6bd
00000110: 14d9 bdbd 38cb 80bd 78d7 b8bd c890 d73d
00000120: 7e24 60be 46e8 01be b652 5ebe 0059 b1ba
00000130: 88ca 383d a6af 3bbe e442 9bbd 82c5 573e
00000140: 9151 10bd a20c 663e e5ee fe3d 01a6 6b3e
00000150: e071 21bd d179 e23d b78f 90bd 4477 51be
00000160: 7112 cf3e b8a3 13be 5e7a 58be 3e24 53be
00000170: 9909 3c3d c5e2 7e3e 5d5e c4bd ec3a 513e
00000180: 8b53 99be 7440 fa3d 2bcf 3c3e 73cf 393d
00000190: 6082 a0bc ec62 75bd 1967 d13d e2da 3fbe
000001a0: 9251 d43d 7634 1b3e 1807 293e fe50 83be
000001b0: 171c 813e 5925 05be c2b0 8f3e b0fd 27be
000001c0: 3687 78be 102f 25be 4c7c bb3d ae61 58be
000001d0: 9030 c5bd 1c45 d73d e80e 293e b065 b4bc
000001e0: e8ab 1cbd 0e84 6d3e 1019 57be 60e2 2c3e
000001f0: c035 063e 1880 183e a49c 76be 6c83 eebd
00000200: db86 51be cac5 083e b910 5e3e a64e 6f3e
00000210: cc50 16be e3c2 21be 1556 a63d 7601 3dbe
00000220: 53c4 733d c020 03be 322b 10be 05df 47be
00000230: bdbc c2bd dfab a33e 3a6c 84bd e079 203e
00000240: 80fe 94bc 6cf3 b7bd f47e 46be 488e a73d
00000250: 4020 35be 5815 1f3d 52f9 01be 56d6 61be
00000260: 3017 963d 6cc9 9ebd a0de 44bd 18bd ab3d
00000270: b2fd 6cbe 822e 163e a82b 63bd 6050 7f3c
00000280: 05c0 9ebd c0a1 ac3c 31c6 5d3e 422b 7a3e
00000290: d236 79be c8f9 2a3e c6d0 74bd 483b 4ebd
000002a0: ae7b d93e 90c9 a5bc 6096 5ebd 5048 78be
000002b0: 1630 403e 981c bebd 53fe 79bd cc2f ac3d
000002c0: ef0b 4cbd 4807 573e a7a9 96bd 76ec f1bd
000002d0: f0b0 943c 02c5 25be a6b4 27be f0cf e8bd
000002e0: d504 433e a0d9 be3d 5422 46be fa12 30be
000002f0: 00ac 333e 79ad 33be ef60 393e 0815 6d3d
00000300: cec5 a23d 0ea9 223e 061a 7d3e bf0e e6bd
00000310: cc1a ddbd 7dd2 0cbe 7974 3d3d 0063 6a3b
00000320: 8b7f 613e 3056 f2bc 2e30 05be ed03 193e
00000330: 054a 14bd 3c01 113e e5c7 8e3e 88fd 4cbe
00000340: 3014 8fbe 6034 64bd 09a1 8d3e d2e6 123e
00000350: 30da 403e 478d b4bd 0a61 8ebe 301c 403d
00000360: dc03 dd3e f4e3 20be 7cdf 76be 2270 b43b
00000370: 995d 763e d58a 6fbd a05c 563e 0c2e eb3d
00000380: 5000 57be 20bc cd3d 7914 58be 7b54 043d
00000390: 20f5 693d da05 0b3d dd7f 17bd 7a63 723e
000003a0: 6177 30bd 0c7e 803d 381b 1abd d037 89be
000003b0: 120e 68be f036 5a3d df02 e3bd d2a9 48be
000003c0: 368b 6dbe 8802 24be 9009 583e 5a47 353e
000003d0: c008 283c cb4b 733e fd1b 94be e044 203d
000003e0: a220 f73d 8877 a43d 50d9 e1bd 1af8 a9be
000003f0: 9ffd 91bd 7940 133d fef3 be3d 8238 13be

hedge_q.2.linear_relu_stack.2.bias f4 [16]
0.08147052 0.09050168 -0.07720226 -0.20529957 -0.17258117 0.17009676 -0.0040309126 -0.18446857
-0.13379522 -0.14007136 0.022424871 0.2081722 -0.21258219 -0.05508711 0.19022919 -0.23559006
00000000: 04da a63d f258 b93d 381c 9ebd 0d3a 52be
00000010: 1eb9 30be d82d 2e3e bf15 84bb 54e5 3cbe
00000020: 9d01 09be de6e 0fbe 5db4 b73c 182b 553e
00000030: 25af 59be 05a3 61bd 71cb 423e 853e 71be

hedge_q.2.linear_relu_stack.4.weight f4 [16, 16]
-0.22155422 0.04485163 -0.23504531 0.15778261 -0.054087758 -0.18008831 -0.12412277 -0.14776087
0.06029904 0.16415334 0.083094 0.10243711 -0.15983537 -0.05048263 -0.16274852 0.09193051
-0.047409862 0.083174594 -0.18464637 0.19308281 0.2184276 -0.055616986 -0.050005313 -0.044570923
0.042685278 -0.20671037 -0.0023759005 0.115732834 -0.14719869 0.11582802 -0.11210683 -0.06411287
0.5630352 0.05290587 0.04067272 -0.03941876 -0.07837263 0.09807568 -0.00075103284 -0.13796598
0.17060825 -0.0087637305 -0.01974762 -0.037823606 -0.01755043 -0.1061905 0.13443448 0.41351938
-0.4591749 -0.1556139 0.17595497 0.12787476 -0.1920501 -0.023750741 0.2396112 -0.12664324
0.02105954 0.23269978 0.095426515 0.14080073 0.06555962 -0.05337206 0.05573035 -0.21182808
-0.45133466 0.03140992 -0.23924315 0.3058602 -0.18104753 0.033379696 0.29305646 0.15815583
0.0037879199 -0.14614287 0.173268 0.20039532 -0.025832886 0.36906645 0.18992968 -0.124209225
-0.52158564 -0.17093569 -0.037018567 0.15225123 -0.17552415 -0.1324781 -0.16429166 -0.11247733
0.15708907 0.15692958 0.03929143 -0.090928674 0.10643376 0.3776687 0.046366032 -0.430709
-0.40578026 -0.05159424 0.038062513 0.15405293 0.046702385 -0.08375777 0.16811198 0.022587895
-0.076839074 -0.046153963 0.030243268 -0.2639276 -0.19958568 -0.02783505 -0.14510928 0.44434363
-0.4030296 0.21606196 0.104575306 0.2200713 0.14766324 0.038478676 0.18402345 -0.10102287
0.3266814 -0.16676348 0.121799655 -0.09785967 -0.087637365 0.30729288 0.1488388 0.4092348
0.15450478 0.031727284 -0.07904181 -0.0042188466 0.10145575 0.13978443 -0.03222105 0.18860877
-0.22653928 -0.13564232 0.000562191 -0.08353433 -0.20851624 0.1863302 -0.01928538 -0.17276978
-0.24398996 -0.20988904 0.1771476 0.11447084 -0.05436009 -0.004440638 0.13224362 -0.1034264
0.20694034 0.12546593 0.057221178 -0.1442634 0.0017152661 0.3365908 -0.18678193 -0.18963751
-0.17916536 -0.23548943 0.020125091 -0.1992136 -0.1627281 -0.13923445 0.06035596 -0.11994937
0.069078565 -0.023732781 0.04180947 -0.09497023 0.15033174 -0.13745981 -0.051751465 0.1646086
-0.0015981918 0.13594002 0.13892198 -0.19634266 0.011132598 0.16774935 -0.1611425 -0.17275137
0.0016475285 -0.096003115 0.057373326 0.23907398 0.059152868 0.22089045 -0.24142075 -0.053900234
-0.40315711 -0.1593902 -0.23001659 0.17687584 -0.10182476 0.19349122 0.14595114 0.08234736
0.19167246 -0.002227217 0.250855 -0.08575974 -0.07756181 0.14486334 -0.15191062 -0.350766
-0.29049864 -0.07155491 0.057397157 0.27133825 -0.061335057 0.3632791 -0.11875383 0.1778732
0.30028754 -0.073250294 0.020978501 -0.15517774 0.19018501 0.2511673 -0.06455327 -0.4868124
-0.26417914 -0.17079683 0.147217 0.30551982 0.03324327 0.096870124 -0.0005917815 0.08040655
0.1132072 -0.05069816 0.1909646 -0.18984751 -0.21715438 0.09638962 0.1768345 -0.5311179
-0.41143373 0.19146901 0.021462172 0.2993521 0.01829788 0.19324027 0.22375678 0.13660175
0.14049675 -0.15371558 0.23969705 -0.118607834 -0.018544765 0.22549292 -0.16251664 -0.16161714
00000000: 1cdf 62be 58b6 373d b8af 70be c491 213e
00000010: 208b 5dbd 1269 38be 1434 febd a04e 17be
00000020: 20fc 763d d017 283e 302d aa3d 8cca d13d
00000030: e2ab 23be e0c6 4ebd 8ca7 26be 1046 bc3d
00000040: d830 42bd 7157 aa3d f013 3dbe 80b7 453e
00000050: 7cab 5f3e a3ce 63bd 5fd2 4cbd 0090 36bd
00000060: c2d6 2e3d e2ab 53be ffb4 1bbb 5605 ed3d
00000070: 41bb 16be 3e37 ed3d 4498 e5bd 9c4d 83bd
00000080: 1323 103f d3b3 583d 7098 263d 9175 21bd
00000090: d481 a0bd e7db c83d f6e0 44ba f446 0dbe
000000a0: eeb3 2e3e c095 0fbc c3c5 a1bc edec 1abd
000000b0: ebc5 8fbc 687a d9bd 31a9 093e d0b8 d33e
000000c0: f918 ebbe 4059 1fbe 8a2d 343e 9af1 023e
000000d0: c8a8 44be ea90 c2bc a35c 753e c4ae 01be
000000e0: 0e85 ac3c da48 6e3e fa6e c33d 112e 103e
000000f0: 1f44 863d a99c 5abd 8245 643d 76e9 58be
00000100: 5615 e7be b0a7 003d 28fc 74be b599 9c3e
00000110: 8664 39be 26b9 083d 7f0b 963e 9af3 213e
00000120: c03e 783b 7aa6 15be 2b6d 313e 6e34 4d3e
00000130: 7d9f d3bc 47f6 bc3e ed7c 423e 6861 febd
00000140: a386 05bf c409 2fbe c8a0 17bd bfe7 1b3e
00000150: 9abc 33be 57a8 07be 133c 28be 845a e6bd
00000160: f5db 203e 26b2 203e 0df0 203d d038 babd
00000170: f1f9 d93d cb5d c13e 4fea 3d3d e485 dcbe
00000180: 6ec2 cfbe 7b54 53bd 70e7 1b3d 0dc0 1d3e
00000190: 004b 3f3d 3289 abbd 8c25 2c3e 400a b93c
000001a0: ce5d 9dbd f00b 3dbd bbc0 f73c 8521 87be
000001b0: 3060 4cbe 5506 e4bc 8797 14be 0281 e33e
000001c0: e559 cebe 593f 5d3e 942b d63d 5f5a 613e
000001d0: 0835 173e d19b 1d3d a570 3c3e 14e5 cebd
000001e0: c942 a73e 0cc4 2abe 1972 f93d a76a c8bd
000001f0: 387b b3bd 7e55 9d3e 3369 183e 3987 d13e
00000200: 8036 1e3e 78f4 013d ace0 a1bd 403e 8abb
00000210: 08c8 cf3d a623 0f3e 38fa 03bd a822 413e
00000220: eaf9 67be d2e5 0abe 0060 133a 0c14 abbd
00000230: 4885 55be 58cd 3e3e 60fc 9dbc 90ea 30be
00000240: 81d8 79be 27ed 56be 2e66 353e b06f ea3d
00000250: b0a8 5ebd c582 91bb df6a 073e 38d1 d3bd
00000260: 2be8 533e 247a 003e c160 6a3d c9b9 13be
00000270: c8d2 e03a a155 ac3e c343 3fbe 5630 42be
00000280: 2077 37be 2424 71be 60dd a43c a6fe 4bbe
00000290: 32a2 26be 7a93 0ebe d037 773d 04a8 f5bd
000002a0: 1079 8d3d 406b c2bc 6840 2b3d c07f c2bd
000002b0: 90f0 193e 44c2 0cbe 58f9 53bd 288f 283e
000002c0: 6b7a d1ba dc33 0b3e 9041 0e3e 0d0e 49be
000002d0: 8065 363c 7cc6 2b3e 8a02 25be bce5 30be
000002e0: e2f1 d73a 489d c4bd 4b00 6b3d cfcf 743e
000002f0: 474a 723d 1b31 623e 0037 77be 7ec6 5cbd
00000300: 9c6a cebe 2f37 23be 7889 6bbe f11e 353e
00000310: 8089 d0bd 9022 463e 3774 153e bca5 a83d
00000320: c945 443e 80f6 11bb 1170 803e cda2 afbd
00000330: bad8 9ebd 0e57 143e 758e 1bbe 9a97 b3be
00000340: 3dbc 94be 618b 92bd 4819 6b3d d9ec 8a3e
00000350: 783a 7bbd b8ff b93e 3535 f3bd 6424 363e
00000360: 4abf 993e 4004 96bd 1bdb ab3c eae6 1ebe
00000370: dcbf 423e 0099 803e 8134 84bd 7a3f f9be
00000380: 7d42 87be 5de5 2ebe 0ec0 163e 186d 9c3e
00000390: 182a 083d d863 c63d c921 1bba 30ac a43d
000003a0: 2dd9 e73d e0a8 4fbd 398c 433e 6367 42be
000003b0: b85d 5ebe ec67 c53d 1a14 353e 58f7 07bf
000003c0: 71a7 d2be 7410 443e 70d1 af3c ae44 993e
000003d0: 70e5 953c c7e0 453e 7f20 653e 54e1 0b3e
000003e0: 61de 0f3e 9e67 1dbe 2573 753e aae8 f2bd
000003f0: 31eb 97bc 9ee7 663e c36a 26be f77e 25be

hedge_q.2.linear_relu_stack.4.bias f4 [16]
-0.056356788 -0.19795349 0.20474416 0.19665958 0.14851595 0.22381055 0.029918984 -0.23176399
-0.18123904 0.1270144 -0.14952987 -0.16695042 -0.004715129 -0.19347084 -0.039921608 -0.13096435
00000000: 60d6 66bd 52b4 4abe 74a8 513e 2161 493e
00000010: 9114 183e 982e 653e a818 f53c 8a53 6dbe
00000020: ba96 39be 1010 023e 5c1e 19be 0df5 2abe
00000030: 5e81 9abb 381d 46be d784 23bd 851b 06be

hedge_q.2.linear_relu_stack.6.weight f4 [1, 16]
-0.2444987 0.13241848 -0.23577268 0.27580747 0.13416338 0.27084038 -0.22386512 -0.41830555
0.102440745 0.123828344 0.05623901 -0.13900495 0.17030518 0.45462957 0.31736222 0.41006428
00000000: de5d 7abe b698 073e 656e 71be a336 8d3e
00000010: 2062 093e 97ab 8a3e e63c 65be 252c d6be
00000020: 74cc d13d b799 fd3d e05a 663d 5057 0ebe
00000030: 7b64 2e3e 35c5 e83e 4d7d a23e f2f3 d13e

hedge_q.3.linear_relu_stack.0.weight f4 [16, 1]
1.0151029 -0.3293512 -0.4461916 -0.1671462 0.8834158 -0.4986955 -0.2734344 -0.32101172
0.44328392 -0.19339907 -0.2687105 -0.9965322 -0.50034976 0.82331705 1.1495106 0.61510944
00000000: e4ee 813f b8a0 a8be 3a73 e4be 6028 2bbe
00000010: 8a27 623f 0455 ffbe 98ff 8bbe a65b a4be
00000020: 1cf6 e23e 680a 46be 6c94 89be bc1c 7fbf
00000030: ec16 00bf e8c4 523f 2a23 933f d077 1d3f

hedge_q.3.linear_relu_stack.0.bias f4 [16]
0.9242765 -0.6366017 0.4591215 -0.79721665 0.59085506 0.104106665 0.3756843 1.0829074
-0.73052394 0.19289811 -0.11597288 -0.5738131 0.9684384 -0.097806625 -0.37880483 0.48792374
00000000: 629d 6c3f 54f8 22bf f911 eb3e 6416 4cbf
00000010: 4742 173f e035 d53d b159 c03e b69c 8a3f
00000020: 9e03 3bbf 1587 453e 3083 edbd 6ae5 12bf
00000030: 94eb 773f d74e c8bd b5f2 c1be 24d1 f93e

hedge_q.3.linear_relu_stack.2.weight f4 [16, 16]
0.08220255 0.24309033 0.29730195 -0.15216225 0.14756921 0.074531496 0.30910704 0.20815386
0.07238257 -0.01800341 -0.047259867 -0.009201437 0.17644109 0.04760892 0.02649297 -0.056626208
-0.19143094 -0.08134109 0.112605 0.20857942 0.07009096 0.0740481 0.17998053 -0.27128133
-0.21767494 0.06936139 0.11566162 -0.23232716 0.18895225 -0.17135125 -0.1643086 0.0356546
-0.21896636 -0.24452052 0.22363794 0.19671154 0.026759356 -0.0757598 -0.1514163 0.2195513
-0.20816302 -0.02173242 0.0006362498 0.12564722 -0.243595 0.1407268 -0.16246173 0.12165186
0.13110133 -0.23494208 0.43427753 0.032095015 -0.061703082 -0.15427938 0.14476201 0.26295772
-0.21503314 0.18426543 -0.049963713 0.15512347 0.08681696 -0.6290932 -1.2746284 -0.1872398
0.29392612 -0.12754032 -0.09067602 -0.06299117 0.04048876 0.24396807 -0.12160522 0.1551354
-0.12718347 0.31455767 -0.12937167 -0.22037962 0.19410565 0.10020778 0.32784036 -0.0012883464
0.16941059 0.055140167 -0.20932811 0.12822726 0.058444314 0.16485384 0.06489581 -0.089888744
-0.017103612 0.15943243 -0.22983491 -0.23098761 -0.09261701 -0.0904051 0.20374341 0.22159874
-0.053539842 0.11003551 -0.036172003 -0.14737567 -0.026558638 0.10764015 0.012580454 -0.18388891
-0.14731833 -0.1369851 -0.17950836 -0.044051737 0.14000401 0.15171012 -0.091400445 0.2045719
0.13004456 0.07493377 0.005587223 -0.15000018 0.18079975 -0.14140582 0.08940439 0.32781577
-0.13234195 -0.10168412 0.083605886 -0.18501902 0.23860535 0.31919542 -0.0798273 0.10413308
0.100126445 0.1412513 0.31542057 -0.14895713 -0.19739364 0.08167696 0.2000298 0.2596896
0.0036536753 0.030091235 0.07295674 -0.06796917 0.34982753 -0.1018857 -1.0831676 -0.24952407
-0.14634123 0.07283452 -0.0361771 0.23769811 -0.11478767 -0.05351755 -0.21194753 0.016008496
0.16667166 -0.13633162 -0.10038558 -0.21909499 0.0403412 0.08342174 0.24418119 -0.1184524
-0.13045835 -0.09417641 0.059552193 0.1836383 -0.053794354 -0.11458719 -0.17194453 -0.22105035
-0.044992983 -0.13353303 0.12724182 -0.15817127 -0.22817001 0.13889584 -0.17013761 0.029705971
-0.11408517 -0.0829826 -0.17983027 0.17525724 0.039149445 0.04842034 -0.0114607215 0.08647053
-0.2353642 -0.24077834 0.04372543 0.10418674 0.23931402 -0.23804374 -0.08685538 -0.17522183
0.29258972 0.12730718 0.14038391 0.019890249 0.2553848 -0.21896946 0.09320247 -0.14357588
-0.09139499 -0.13001707 0.025876492 -0.2177096 -0.15162988 -0.1559239 0.1444581 0.3006737
-0.17181307 0.11345291 -0.036346585 0.15670615 0.04558599 0.05325082 -0.005904913 -0.109873146
0.073100924 -0.2278234 0.15909532 0.21940064 -0.038644105 -0.03745243 -0.0147153735 -0.035436958
-0.12206799 0.0039973855 -0.045731723 0.036639124 0.13328233 -0.052702516 0.059651792 -0.2047284
0.24222904 -0.033020258 -0.19904742 -0.19402301 -0.02702257 -0.1861178 0.1572156 -0.18927208
-0.11382067 -0.13346317 0.016548127 0.08980337 0.08882481 -0.24913436 -0.16464826 0.093939096
-0.10869643 -0.2393108 0.17684564 0.20039898 0.014990747 -0.016926616 -0.1872007 -0.18106991
00000000: cf59 a83d acec 783e f637 983e 6cd0 1bbe
00000010: 621c 173e f8a3 983d 4743 9e3e 4926 553e
00000020: 503d 943d e37b 93bc 9093 41bd a0c1 16bc
00000030: f9ac 343e 9201 433d c907 d93c e2f0 67bd
00000040: 7906 44be 2896 a6bd 739d e63d d895 553e
00000050: d98b 8f3d 88a6 973d d14c 383e 63e5 8abe
00000060: 2ee6 5ebe 580d 8e3d 00e0 ec3d 2ce7 6dbe
00000070: b37c 413e b476 2fbe 8340 28be 8f0a 123d
00000080: b838 60be 9663 7abe 5801 653e c06e 493e
00000090: 7036 db3c f427 9bbd e00c 1bbe 0ed2 603e
000000a0: b028 55be 3008 b2bc 00ca 263a aaa9 003e
000000b0: f870 79be b01a 103e 5e5c 26be 9c24 f93d
000000c0: 6d3f 063e a894 70be a059 de3e 1076 033d
000000d0: 5fbc 7cbd 6afb 1dbe 7e3c 143e 65a2 863e
000000e0: a631 5cbe 14b0 3c3e c0a6 4cbd b0d8 1e3e
000000f0: 17cd b13d 410c 21bf 0627 a3bf cabb 3fbe
00000100: 7c7d 963e ee99 02be 59b4 b9bd 8401 81bd
00000110: 8bd7 253d c4d2 793e 280c f9bd d0db 1e3e
00000120: 623c 02be b40d a13e 027a 04be 32ab 61be
00000130: a2c3 463e bd39 cd3d b1da a73e bbdd a8ba
00000140: f879 2d3e a8da 613d 1c5a 56be 024e 033e
00000150: 4e63 6f3d 72cf 283e 18e8 843d 9717 b8bd
00000160: e01c 8cbc 4142 233e d859 6bbe 0488 6cbe
00000170: fdad bdbd 4f26 b9bd 1da2 503e c8ea 623e
00000180: 984c 5bbd 4c5a e13d 1829 14bd a6e9 16be
00000190: 8091 d9bc 7072 dc3d 401e 4e3c 604d 3cbe
000001a0: 9eda 16be d245 0cbe 0ad1 37be 986f 34bd
000001b0: 365d 0f3e e659 1b3e 2830 bbbd 4c7b 513e
000001c0: 672a 053e e076 993d 0615 b73b a699 19be
000001d0: 9223 393e b0cc 10be a619 b73d 78d7 a73e
000001e0: a684 07be c43f d0bd 9039 ab3d a075 3dbe
000001f0: f654 743e 956d a33e 7f7c a3bd b943 d53d
00000200: 180f cd3d 2ea4 103e ce7e a13e 3888 18be
00000210: 8f21 4abe 4046 a73d 9dd4 4c3e 09f6 843e
00000220: 8072 6f3b e581 f63c 586a 953d 6c33 8bbd
00000230: 981c b33e 73a9 d0bd 3ca5 8abf 3d83 7fbe
00000240: 7ada 15be 442a 953d 702e 14bd 2267 733e
00000250: cc15 ebbd 3835 5bbd c608 59be 4024 833c
00000260: faab 2a3e 849a 0bbe f496 cdbd 705a 60be
00000270: d03c 253d 04d9 aa3d a20a 7a3e 2c97 f2bd
00000280: e096 05be 90df c0bd 00ed 733d ae0b 3c3e
00000290: 7857 5cbd b0ac eabd 3a12 30be 065b 62be
000002a0: 904a 38bd e2bc 08be ae4b 023e a6f7 21be
000002b0: 66a5 69be b63a 0e3e 8e38 2ebe f059 f33c
000002c0: 7ca5 e9bd c8f2 a9bd 6d25 38be a276 333e
000002d0: 2b5b 203d 6854 463d c0c5 3bbc 7617 b13d
000002e0: 5003 71be 998e 76be 7019 333d dc5f d53d
000002f0: bc0e 753e bdc1 73be 3ce1 b1bd 5a6d 33be
00000300: 52ce 953e d05c 023e cdc0 0f3e e0f0 a23c
00000310: ccc1 823e 8839 60be f0e0 be3d 8e05 13be
00000320: 4c2d bbbd 3223 05be f0fa d33c 44ef 5ebe
00000330: dd44 1bbe 84aa 1fbe d3ec 133e e7f1 993e
00000340: c4ef 2fbe 005a e83d 28e0 14bd 9477 203e
00000350: 60b8 3a3d 881d 5a3d 007e c1bb 2c05 e1bd
00000360: f0b5 953d 8a4a 69be e2e9 223e 90aa 603e
00000370: 4849 1ebd b867 19bd c018 71bc 5826 11bd
00000380: c8fe f9bd 80fc 823b 3051 3bbd e812 163d
00000390: 2a7b 083e 98de 57bd 7055 743d 52a4 51be
000003a0: e40a 783e 4040 07bd 16d3 4bbe f8ad 46be
000003b0: 705e ddbc aa95 3ebe 20fd 203e 8ad0 41be
000003c0: d01a e9bd 92aa 08be f08f 873c d4ea b73d
000003d0: c8e9 b53d 141d 7fbe 8e99 28be 2463 c03d
000003e0: 3c9c debd e40d 75be 0617 353e 6435 4d3e
000003f0: c09b 753c b0a9 8abc 8ab1 3fbe 646a 39be
