Models/BS/SRNN/prop trans costs/BS_SRNN_CVaR_99_tc.pth (torch, 49355 bytes, 63 tensors)

hedge_q.0.linear_relu_stack.0.weight f4 [16, 2]
00000000: ef2c 873e 0fa1 153f 18e2 423d 1f55 433e
00000010: 0ea6 603d 7866 33bf 7431 383f c282 50be
00000020: 17b8 32bf eb2c 113f f186 dcbd d99e f53d
00000030: 2d74 893e e641 de3e 074f 2fbf 8c1e 263f
00000040: 0783 18bf a8ea 14bf 76f2 333f f53b e8bd
00000050: 16a6 b1be f42f c5bd b489 32bf 2fa0 523e
00000060: dc90 2cbf ec6a 4bbe 8f9c 443f 445c c23e
00000070: 84a8 893e cf0e 693e 573f cabe 09b4 06bf
0.2640147 0.5844888 0.0475789 0.1907544 0.054845862 -0.7007823 0.7195046 -0.2036238
-0.6981215 0.56709164 -0.107679255 0.119931884 0.26846448 0.43409652 -0.6847996 0.6489036
-0.5957493 -0.5817056 0.7029184 -0.11339561 -0.34697026 -0.09628287 -0.6974137 0.20568918
-0.6740854 -0.19865006 0.7680139 0.37961018 0.2688638 0.22759555 -0.3950145 -0.5261846

hedge_q.0.linear_relu_stack.0.bias f4 [16]
00000000: 3291 a6be d6ef e43e 5ae4 cebe 646e a3bd
00000010: ba08 ac3d dffe 393f a76c 93be 08b9 90ba
00000020: ed5a 4bbe 7f0e 12be 3ab1 c03e 3d3d 0f3f
00000030: 5cfe b7be d765 cf3d 46ab 853e d897 bf3e
-0.3253265 0.4471423 -0.40408593 -0.0798004 0.08400102 0.7265453 -0.28793833 -0.0011041472
-0.19858904 -0.14263342 0.37635213 0.5595282 -0.35936248 0.10126846 0.26107234 0.37420535

hedge_q.0.linear_relu_stack.2.weight f4 [16, 16]
00000000: 1eca 89be 605d 8a3b 288f 5b3d c583 333e
00000010: 5ae5 08be 6fc7 8bbe 0d48 973d 508e 01be
00000020: c428 213e 6e51 693e f16a 383e 086b 103e
00000030: c899 51bd 9905 54be 36db 083d 3846 05be
00000040: 580b a23d d328 85be dc9f 01be 108b d63b
00000050: 0ec5 27bf bc82 6b3d 2f14 46be d0e3 8b3c
00000060: acf3 603e 6feb da3e a0cb 593d 7ea5 4fbe
00000070: 306e a63c e4d0 663e e4a5 5b3c 0af6 533e
00000080: 30b1 e93d a012 00be cc10 e2bd 3050 e1bc
00000090: 0082 88bd 8006 b3bb 18be 7a3d 6446 db3d
000000a0: ec64 92bd 5c75 12be bcb0 34be b81a a33d
000000b0: b03b c2bd 5c5a 9c3d cc97 3bbe 505f 1a3e
000000c0: 3133 afbc 381c 40be 10c6 94bc 5cdf af3e
000000d0: fb84 87bf 4f7a 503e 6630 5e3e e3d7 cebe
000000e0: 0004 42bd c299 cb3e 33d9 50be b927 adbd
000000f0: a4e4 de3d 129e 323e 478a 823d 4049 b93b
00000100: 72de 7bbd 92bd f33d 840c 5a3e 68ed 04be
00000110: f0df 653e b8a8 33be be04 1e3d 8e04 6dbd
00000120: c4f0 223e 46f8 4f3e afdb df3d 0dc5 ccbd
00000130: b4fb c93d 6153 383e abd5 9bbc c6d3 193e
00000140: 066c b43d cb13 57bc a455 753e 80ff 8abc
00000150: ba07 773e 0ff1 e7bb 2a0a 163e 1610 32be
00000160: 3052 eebc 42c7 3e3d 8638 2d3e 6dac 22be
00000170: d4ae a83d f137 2cbe 9237 413d 1479 e13d
00000180: 5cce 3b3e 7004 a4bd e823 3fbd 96d6 3dbe
00000190: ea9b 013e 100b 0cbd a861 cabd a887 7f3e
000001a0: 3607 343e 405a 093e 78ba f83d 7266 44be
000001b0: 66cc 523e 6c5a c7bd 3086 cdbc d4f0 abbd
000001c0: 320b b8bd 8aed 173e bc5c a73d b31c 3b3e
000001d0: 7be4 68bf d2eb 6ebd f7d3 153e b064 403e
000001e0: ea8a 42be 7ca8 cb3c 201f 093d c8ab 853d
000001f0: 40e5 5abc bfda 7c3d b88c 473e 862a 463e
00000200: 58f0 2abd 949e 903d 52f6 7ebe 3629 4b3e
00000210: 5a5a 1dbe 40de e7bb 40e4 77bd b604 32be
00000220: f2aa 0ebe a28b 39be 9ec2 5c3e 306b 4ebd
00000230: ec5e 3dbe c203 72be a872 66be 7a8c 0ebe
00000240: cec4 76be ecc9 70be 9c98 4dbe 1281 123e
00000250: aa8b 793e 687d 15bd 040a b6bd 9661 48be
00000260: 225c 29be ec78 cd3d 8694 71be 40b2 8a3d
00000270: 5ab9 663e fc63 0d3e f0f7 a63d 0043 d6bc
00000280: 74d9 f8bd 788b 013e dcf4 93bd b00f 333d
00000290: f495 323e b855 373d 30df bf3c decc 493e
000002a0: a416 b83d c0b0 633d 786a 5a3e 102f 26bd
000002b0: c8b2 353d d058 0bbe 9044 a8bd ecfb a2bd
000002c0: e4b2 85bd 7835 543d 2e3f 003e ceff 4bbe
000002d0: 0096 293b c06e b6bb e6f9 333e 5279 113e
000002e0: fe75 52be 9e7c 45be 24f8 123e 2a40 79be
000002f0: b432 d1bd 705a 213d 5844 83bd 6070 f73d
00000300: 3606 c73d 7ea5 473e 604e 303e 9788 8e3d
00000310: 32f7 51be afe3 dbbd d70c 333e 3d2e 0dbe
00000320: 7093 c9bd 06f5 41be 800a 6bbe 1dd3 27be
00000330: 7a7f 303e 85d3 7dbe 1e25 d33d 68bc e23d
00000340: b83e 7a3d 40f1 6b3d b0d4 593e 253d c63e
00000350: 4a2f 8dbf 445c 753e 7e53 843e 0148 94be
00000360: 52a1 2dbe b9d9 fd3d cf88 7f3d b5c6 fd3c
00000370: 90cb cbbd 67c1 723e 1879 1a3e 7abb 6dbe
00000380: af9e 943e 3497 46be 581c e9bd 0765 4b3e
00000390: 78d8 43bf d51f 973d 3f33 043e 7734 e23d
000003a0: 3a6e 0fbe 3e6b 833e f847 40be cc1a 96be
000003b0: a452 563e 0f55 6f3e c19c 743d a02d 12bd
000003c0: 004d baba b823 0a3d 8067 59bb 3426 30be
000003d0: ba79 6e3e 902a f13d 005f 97bb 7c55 c63d
000003e0: 785b c7bd 2296 123e 8c4f b83d 88f4 a1bd
000003f0: c029 6b3e aa16 26be 2c42 b4bd 785c 453e
-0.26912016 0.004222557 0.05360332 0.17530735 -0.1336874 -0.27300593 0.073867895 -0.12651944
0.15738207 0.22784969 0.18009545 0.14103329 -0.051172048 -0.2070526 0.03341218 -0.13015068
0.0791232 -0.2600771 -0.12658638 0.0065473393 -0.65535057 0.057497725 -0.19343637 0.017076403
0.21967953 0.42757747 0.053172708 -0.20277974 0.020316213 0.22540623 0.013406251 0.20699325
0.11410749 -0.12507105 -0.1103836 -0.027504057 -0.066654205 -0.0054634213 0.061216444 0.10706785
-0.071481556 -0.14302582 -0.17645544 0.079640806 -0.09484041 0.07634422 -0.18319625 0.15075421
-0.021386715 -0.18760765 -0.01816085 0.34350097 -1.0587457 0.20359157 0.2169815 -0.40399083
-0.047367096 0.39765745 -0.20395355 -0.08454842 0.108834535 0.17443112 0.063740306 0.005654484
-0.061491437 0.11901392 0.21293837 -0.12981188 0.22448707 -0.1754483 0.03857874 -0.05786567
0.15912157 0.20309553 0.10930573 -0.09998522 0.09862462 0.18000557 -0.019022783 0.15022191
0.08809666 -0.013127278 0.2395845 -0.016967535 0.24124041 -0.007078297 0.14652315 -0.17388949
-0.029091924 0.046576746 0.16916093 -0.15886088 0.08236471 -0.16818215 0.047172137 0.11009422
0.18340439 -0.08008659 -0.046665102 -0.1853889 0.12657133 -0.034190238 -0.09881908 0.24954093
0.17580876 0.13413334 0.12144941 -0.19179705 0.20585784 -0.097340435 -0.0250884 -0.08395544
-0.0898651 0.14836708 0.081719846 0.18272667 -0.90973634 -0.058330365 0.1463164 0.18788409
-0.18998304 0.024860613 0.03347695 0.06526905 -0.0133603215 0.06173205 0.19487274 0.19352159
-0.041733116 0.070614964 -0.24898651 0.1983994 -0.15366498 -0.007076055 -0.06052041 -0.1738461
-0.13932398 -0.18119672 0.21558616 -0.05039519 -0.18493241 -0.23634246 -0.22504675 -0.13920775
-0.24098513 -0.23514527 -0.20077747 0.14307049 0.24369684 -0.03649655 -0.08888629 -0.19568476
-0.16539052 0.1003283 -0.23591813 0.0677228 0.22531644 0.13807672 0.08152759 -0.026154995
-0.12150851 0.1265086 -0.072244376 0.043716133 0.17440015 0.044759482 0.023421854 0.19707057
0.08988693 0.055588484 0.21329677 -0.040572226 0.044359952 -0.13608098 -0.08216202 -0.079582065
-0.06528261 0.051808804 0.12524101 -0.199218 0.002587676 -0.0055674016 0.17575797 0.14206436
-0.20552823 -0.19285819 0.1435247 -0.24340883 -0.10214749 0.03939289 -0.0640952 0.12081981
0.097179815 0.19496724 0.17217398 0.06959646 -0.20504454 -0.107367866 0.17485367 -0.1378717
-0.098425746 -0.18941125 -0.22953224 -0.16389127 0.17236128 -0.2478772 0.10309814 0.11071092
0.06109497 0.05760312 0.2127254 0.38718525 -1.1030056 0.23960978 0.2584495 -0.28961185
-0.1695607 0.12395043 0.06238633 0.03097854 -0.09950936 0.2370659 0.15085256 -0.23216048
0.29027316 -0.19393617 -0.11382359 0.19862758 -0.7650218 0.07379118 0.12910174 0.11045163
-0.14006892 0.25667757 -0.18777454 -0.2931732 0.20929962 0.23372291 0.059719805 -0.035688043
-0.0014213622 0.03372547 -0.0033173263 -0.17202073 0.23288622 0.11775696 -0.004619479 0.096842736
-0.09734243 0.14315084 0.08999547 -0.07907969 0.22965145 -0.16219583 -0.08801684 0.19273555

hedge_q.0.linear_relu_stack.2.bias f4 [16]
00000000: 6830 163e 7b4e 293e 383d 24bd c9cf 743e
00000010: 919c 3dbe 284b 993d 0cb1 22be 597d 6a3e
00000020: 984d 11be 1a54 42be 9029 aebd 58dc 8abd
00000030: 5f04 e13d ea51 bebb 9716 db3d 0439 f6bd
0.14666903 0.16533844 -0.040097445 0.23907389 -0.18516757 0.07485038 -0.1588785 0.22899379
-0.14189756 -0.18977395 -0.08504021 -0.067803085 0.10987162 -0.0058081048 0.10697668 -0.120225936

hedge_q.0.linear_relu_stack.4.weight f4 [16, 16]
00000000: 3a07 6abe 8f53 f63b c0a6 673e 64c8 a8be
00000010: 637b 3f3e a0c1 91bd c0c1 b03d 202c 62be
00000020: e674 483e 2811 783e a80b 40bd 268f 453e
00000030: 52e6 47be f224 27be 6534 80be c8b2 7d3e
00000040: 6536 34be 37a0 273e 9af6 463e 739a 833e
00000050: 535a 8cbc 4c17 65be 3c79 78be a35c 053d
00000060: 20b3 483c b03b 8dbd 987f 3a3e 80d8 683b
00000070: f020 fabd d4ad 813e 60d0 863e 4263 603e
00000080: 2037 46bc ba5f cebe 9219 2ebe c93e 80be
00000090: 01e4 823d f35e ae3d fc35 ee3d 5f88 753c
000000a0: dc05 93bd 2c20 87bd 0031 ca3c 5891 123d
000000b0: b110 593d ba66 393d ba90 debe c06e 103c
000000c0: 2b1f 603c b3f8 ebbd ec9f 8f3d 85f8 babd
000000d0: e1ba 973d 0d51 0a3e 46cf 203e 93a4 c13d
000000e0: c016 f33b 8602 4abe 1cea c23d 0c7a e83d
000000f0: a70e 21be b3fb 9bbd 86f7 163d d030 f23c
00000100: ea48 743e a391 7cbd 8029 57bd 58cb 3e3e
00000110: 6064 39be 40be 2fbc 3836 0d3d bb0a 463e
00000120: 4442 a0bd 7a88 0a3e 1c35 28be 0c82 aebd
00000130: b4ff f0bd 1814 d33c 7bf4 4e3c 2850 993d
00000140: c0f8 373c 94e6 85be c07a e63d d79e 33be
00000150: 8dbf e7bd 3fec 0bbe 401d efbd 43a1 583e
00000160: f0a2 a9bd 5065 1fbe d2ae 7f3e 9812 f5bd
00000170: fc93 d6bd 0c18 42be a3dc 09bf 741c 64be
00000180: 0615 563e d8e2 4abe 70e0 1e3d d82b f23d
00000190: 9018 17bd 02fe 56be 4a2e 63be f884 123d
000001a0: d8c5 e13d b04f 003d e4c9 8d3d 4c2a cbbd
000001b0: 2432 473e 30c1 06be 20e0 843d 16fb 77be
000001c0: a68c 233e b003 07be 0afc 5bbe cd90 e0bd
000001d0: 808c b83c 5086 9d3c 3e1c 1b3e f904 713e
000001e0: 90a7 8b3d 8824 18be 424d 51be 48e2 12be
000001f0: e8cc 73bd 52e1 033e 1da7 0a3e b673 74be
00000200: 37dc afbd 1d04 803e d048 dd3c 7b92 973e
00000210: 62aa 863d 83e0 b2bd 4ada 723e 47a3 313e
00000220: 5644 623e 8e36 7abe 80f3 d03c e0af 653e
00000230: 0e43 c9bd de9f c33d 74b4 3e3e 2eb9 1e3e
00000240: ae2a 243e 4cf7 babd cc95 493e fcdd aa3c
00000250: 9f50 823d d7b0 073e 9434 f0bd 3a9a 983d
00000260: 00ca 83ba 504e 19bd 564d 763e 26a1 15be
00000270: 6add 4a3d e24e 983d 64a1 d1bd f6f1 023e
00000280: e0b8 fd3c b88f 27bd c8b0 103d 903f 063e
00000290: 7065 5f3d 2055 543d fe3e 39be 346f a9bd
000002a0: eca9 c23d faed 69be 3e6d 47be 6022 26bd
000002b0: 74f3 dc3d 80aa 70bc ee38 3dbe 80e8 173e
000002c0: 4cc4 09bd b7de 0ebe ca58 773e d484 0abe
000002d0: b6f9 4fbe 9dae 17be 2099 04bc 7b54 783e
000002e0: 94f7 9b3d 7413 933d c611 5bbe b20f 323e
000002f0: cda0 3c3e 5b1f 3d3e 3bfe a33d 2a27 443e
00000300: aced 4bbe 10a2 07be 9ce3 c7bd b7bf e3be
00000310: 7d4d 1abe bad2 693c 7803 40bd 2cc3 fa3c
00000320: 982a 76bd 4674 5bbe a03d c93c 8c42 6d3e
00000330: aa68 8d3d d280 54be c85c 2bbe 0c91 2ebe
00000340: 7e13 803d d472 28be eecf 58be dc1a 643e
00000350: 4621 713e b97e e13d 806b 88bb 9743 563e
00000360: b07e eabc 4caa 163e e0b9 c83c 906e e8bd
00000370: 7de5 bdbd 3586 853e 6e8b 563e fc94 e63d
00000380: e8ff 423d eb05 003e d8ee f23d b914 04be
00000390: a760 ab3c 6d24 f73b 1221 013e 0819 86bb
000003a0: 7029 27be c05d 98bb 7cd5 70be b034 1fbe
000003b0: 24e7 733e 6254 48be a777 9d3d 68f6 05be
000003c0: b5a7 3e3e 21ae 883d b2bb 23be 6b62 a43e
000003d0: 4f15 66be 2323 0abe 2075 55bd ccbc 823e
000003e0: c477 a1bd cc2d d9bd 5eee 463e 2097 11bd
000003f0: a6b3 113e d430 a03e d0d6 183e 206f 133e
-0.22854319 0.007517285 0.22622204 -0.32965386 0.18699412 -0.07117009 0.08630705 -0.22087145
0.19575843 0.24225295 -0.046886116 0.19292888 -0.19521454 -0.16322687 -0.25039974 0.24775231
-0.17598875 0.16369711 0.19430009 0.25703773 -0.017132914 -0.22372168 -0.24264997 0.03255905
0.012249738 -0.0689615 0.18212736 0.0035529435 -0.122133136 0.25327933 0.26330853 0.21912864
-0.012098104 -0.4030741 -0.17001942 -0.250479 0.063911445 0.08514204 0.116313905 0.014986127
-0.07178852 -0.06597933 0.024681568 0.03578314 0.052994434 0.045263983 -0.43469793 0.008815467
0.013679306 -0.11522045 0.070129246 -0.091294326 0.07408691 0.13507481 0.15704069 0.09455218
0.0074184835 -0.19727525 0.09517309 0.113514036 -0.15728246 -0.07616367 0.03685715 0.029564291
0.2385594 -0.061662327 -0.05252981 0.18632257 -0.18104696 -0.0107265115 0.034475535 0.19340031
-0.07825139 0.13528624 -0.1642651 -0.08520898 -0.117675215 0.025766417 0.012631531 0.07485992
0.01122874 -0.2615248 0.112538815 -0.17541061 -0.11315832 -0.1366434 -0.11675501 0.21155266
-0.08283031 -0.15565991 0.24969032 -0.11966437 -0.104774445 -0.18954486 -0.5385229 -0.22276479
0.20906457 -0.19813097 0.03878826 0.11824769 -0.03688866 -0.20995334 -0.22185627 0.03577134
0.11024064 0.031325996 0.06923273 -0.09920177 0.19452721 -0.13159633 0.06488061 -0.24216875
0.15971622 -0.13185 -0.21482864 -0.109651186 0.022527933 0.019229084 0.15147492 0.23537053
0.068190694 -0.14857686 -0.20439628 -0.14344132 -0.059521586 0.12878922 0.13540311 -0.23872265
-0.085869245 0.25003138 0.027012259 0.29603943 0.06575467 -0.087342285 0.23716083 0.17347442
0.2209638 -0.24434873 0.025506735 0.22430372 -0.09827243 0.095519766 0.18623525 0.15500328
0.16031906 -0.091291994 0.19686049 0.020857804 0.063630335 0.13251053 -0.117287785 0.074512914
-0.0010054708 -0.0374282 0.24052939 -0.14612255 0.049527563 0.07436921 -0.10235861 0.12787613
0.030971944 -0.040908545 0.03532484 0.13110185 0.054540098 0.051838994 -0.18090436 -0.082731634
0.09505066 -0.22844687 -0.19475266 -0.040560126 0.107886225 -0.014689088 -0.18478748 0.14834785
-0.03363447 -0.13952146 0.24154964 -0.13527232 -0.20310101 -0.14812703 -0.0080931485 0.24250977
0.07615581 0.07181445 -0.21393499 0.173888 0.18420716 0.18468992 0.08007475 0.19155565
-0.19914883 -0.13245416 -0.0976021 -0.44482204 -0.15068622 0.0142714325 -0.046878308 0.030610643
-0.060099214 -0.21431074 0.024565518 0.23169917 0.06904729 -0.20752266 -0.16734612 -0.17047518
0.06253718 -0.16450053 -0.21173069 0.22275871 0.23547849 0.110104986 -0.0041632056 0.20924221
-0.028624862 0.147134 0.024502695 -0.11349213 -0.09272287 0.26078954 0.20951626 0.11258885
0.047607332 0.12502258 0.11861962 -0.1289853 0.02092011 0.007542184 0.12610272 -0.0040923394
-0.16324401 -0.0046498477 -0.23518938 -0.15547442 0.23818642 -0.1956344 0.076888375 -0.13082278
0.18618663 0.066738375 -0.15989569 0.32106337 -0.22469066 -0.13489966 -0.052113652 0.25534666
-0.078841716 -0.10604438 0.19426867 -0.035544515 0.14228687 0.31287253 0.14925694 0.1439786

hedge_q.0.linear_relu_stack.4.bias f4 [16]
00000000: c45b 8c3e 1752 fb3c 9578 8f3d a6f0 043e
00000010: 78c7 92be 3b1c 8a3d 7077 73be 9528 68be
00000020: 6dc5 99bc 01e6 413e 542c 27be 3c88 2c3e
00000030: 6e0a 923e 61a1 953e 4540 1e3e 52ec 053c
0.27413762 0.030678792 0.07005421 0.12982425 -0.28667808 0.06743666 -0.2377603 -0.22671731
-0.018770898 0.18935396 -0.16325504 0.16848844 0.28523582 0.29224685 0.15454204 0.008174019

hedge_q.0.linear_relu_stack.6.weight f4 [1, 16]
00000000: 0d65 cfbe 9efe 4a3e ac09 3ebf 4992 e5bd
00000010: 6899 c2bc 933c 16bf 188f 923d 55b8 cabd
00000020: b64b 8a3e 2c51 4a3e b45f 5bbe 5508 833e
00000030: 2c60 17bf 70af 903e f29e 81bd ec29 443e
-0.40506783 0.19823691 -0.7423351 -0.11209542 -0.02375479 -0.5868618 0.07156199 -0.0989844
0.27010888 0.19757527 -0.21423227 0.25592294 -0.5913112 0.28258848 -0.063291445 0.19156617

hedge_q.1.linear_relu_stack.0.weight f4 [16, 2]
00000000: 8eb7 2fbf 43ff 183f c517 733f e347 fcbe
00000010: 9cb8 b9be 720e 88bd a09b 51bf ce5a 2cbe
00000020: 7d09 9abe c3ee 0d3f fc20 033f e750 cf3e
00000030: 3754 483d fab2 af3e 1081 a0be f80a c13e
00000040: 8acd 443f e615 943d 852d 893e b463 ecbe
00000050: 61c4 d6bd 192c 5c3d 5f12 2ebf 2304 043f
00000060: 9241 2c3f 1dcc 0abe eea6 16bf a36d 18bd
00000070: 1525 1e3e b3cf 203f f737 9bbe 12af 2abf
-0.6863946 0.597645 0.94958144 -0.49273595 -0.36273658 -0.0664338 -0.8187809 -0.16831514
-0.30085364 0.55442446 0.51222205 0.4049141 0.04890844 0.34316236 -0.31348467 0.3770368
0.7687613 0.07230739 0.2679254 -0.46169817 -0.10486675 0.053752992 -0.6799678 0.5156881
0.6728755 -0.13554426 -0.58848464 -0.037213933 0.15443833 0.62816924 -0.30316135 -0.66673386

hedge_q.1.linear_relu_stack.0.bias f4 [16]
00000000: 1634 cfbe 13f7 933d 55fb 743d fc8d 093f
00000010: 4a30 803e 17ae 483d 1c5a 2b3d 1b83 af3e
00000020: 1adc 4cbe fe64 1b3f c30b 11bf 36d0 ab3d
00000030: dcae 06bf 9658 da3e f61d 243f 861d 1b3d
-0.40469426 0.0722486 0.05981 0.53732276 0.25036842 0.04899415 0.041833982 0.34279713
-0.20005837 0.60700977 -0.5665857 0.083893225 -0.52610564 0.4264571 0.64108217 0.037869953

hedge_q.1.linear_relu_stack.2.weight f4 [16, 16]
00000000: 18c9 6dbd f824 6e3d 8870 90bd 8a13 173e
00000010: ace4 bcbd b836 37be 20d3 5f3c 16c6 44be
00000020: 12ee 46be 6808 3cbe 102c e9bd 78f3 b53d
00000030: 685b 6bbd e245 623e 5cc2 f7bd 18d6 4a3e
00000040: 1ada 133e 9135 0c3f a861 763e 4827 1dbf
00000050: f051 37bd 01d2 1b3e 096f 38bd e978 2abd
00000060: 4a36 fc3e 0ceb 47be b8af 5b3d 0b65 72be
00000070: f08e e5bd 9f1a 30bf 8338 ab3d 20e8 09bd
00000080: 280a 2e3d 7af3 4b3e 568b 0f3e 20a5 f2bd
00000090: 0882 273d 4037 d0bd 30f6 8b3c 2ce4 c6bd
000000a0: e818 6dbe 4008 01be aa61 6bbe 5c22 0fbe
000000b0: 9439 42be 8cbd 52be 6a2d 4cbe 702b a13d
000000c0: 18f7 31be b7a0 88bd 6eda 473e 2993 6dbd
000000d0: e59f 00bd 5891 70be 0eb4 543e 8d3f 0cbe
000000e0: 9889 8bbd d49e a93d da24 073e 5272 7fbe
000000f0: 7e52 4d3e d5fa d0bd a746 4d3d b088 023d
00000100: 9037 a0bd b0cf 92bc e695 053e 80d9 ae3b
00000110: 0287 523e fc75 0fbe 4c14 b73d ca13 3c3e
00000120: 2204 51be 8c56 01be 6e91 033e ae3d 54be
00000130: 06b4 2abe fa36 46be a0a9 57bc 4005 e23c
00000140: d400 b8bd 0b9c cf3e 2c2a 0b3e 52ec 00bf
00000150: 342e eabc 122d 89bc a8d2 003e 30b4 923e
00000160: ab94 1a3e e0ff 65bc 70fb 853c 27b4 253e
00000170: 96a4 64be 4fa7 22bf a188 2d3e 8e93 62be
00000180: 50bb 32be 66de 603e ee49 5cbe 58fb 3bbe
00000190: f692 0c3e 7834 6abd 1c0b 1b3e 545f b6bd
000001a0: 1451 61be 8422 e0bd 2893 5d3e b85a 0bbd
000001b0: 20d4 7c3d c453 533e 6a4a 0dbe c065 c0bb
000001c0: a684 5e3e e82c 28be 724f 4e3e 50cc 583e
000001d0: 7c3e d23d 5aa3 61be a0e3 763e 7c71 553e
000001e0: 7e51 33be 8879 9e3d 0897 68bd 1833 bf3d
000001f0: b4f3 57be fce6 643e 06cd 28be 4842 14bd
00000200: 7027 423d f2e8 313e 907d e4bd a01d 3f3c
00000210: 0489 ca3d 18b3 a13d 3ca6 39be fc8b 51be
00000220: a051 dd3c d45f ddbd 0cf9 0d3e 80f2 813d
00000230: ae30 143e 144c 003e acdc 20be e24e 63be
00000240: 1bc8 78bd d973 b23e 70a6 4c3d 5342 43bf
00000250: de6f 2dbe d6b9 853d a72d 13be 733b 40be
00000260: b0cd 223e 66af 363e 10ec 703d 6611 bbbd
00000270: 2883 acbd dd64 05bf 5449 ca3c dab3 3fbe
00000280: e41c 733e 11bf 1c3e 9067 d1bc 0cdc 2fbf
00000290: 8fba 933e f168 a73e ee3b 8c3e 6cfb b8bd
000002a0: 3694 ebbc 8265 563e f8aa db3d 8375 153e
000002b0: ba70 67be 167d 82be 1429 413e b02a 48be
000002c0: 8007 5cbc b6f0 7fbe 38ce 4c3d 520c 41be
000002d0: 1064 e13c 20f2 76bd 7ade 3ebe e83d 5ebe
000002e0: 1ea7 673e 400b e23d e4a4 11be f097 64be
000002f0: 2096 48bc 2c36 5abe c272 5dbe 48ca 29be
00000300: 7855 01be 1ce3 ed3d cad9 773e efba 66be
00000310: de02 80be 2730 5dbe a8d9 8bbe aa01 77be
00000320: 4959 88bd 54d0 fc3d 7cd0 743e 04a0 433e
00000330: b8dc a8bd 2c1e 16be ef7e fa3d 5269 373e
00000340: 7fb4 80bd d557 163f 5038 193e 5023 5cbf
00000350: 1230 e3bd 2999 0e3e 1a92 173e 1938 943d
00000360: 6c7f 373e 077f 5c3e 80bc d43b dc33 d63d
00000370: ccb2 9fbd 6bc2 1cbf 46c3 ef3c 80b7 09bb
00000380: 51cc 20be f589 c53d 585c 0f3d 532a 5dbf
00000390: 3aaf 05be e246 353e e6a9 a23d 6b9a 2f3e
000003a0: 4c1e 953e 0186 afbd c4bc c8bd 0c35 5d3d
000003b0: 9411 813d c4cf 12bf ec6c 263e 4254 623e
000003c0: dcd1 e93d b4e3 e43d 8094 96bb 00eb ca3c
000003d0: 6cca 823d 125c 423e 409d ac3c 5cfc d63d
000003e0: e257 6fbe a432 233e d003 54be 627d 3bbe
000003f0: 004d 9cba 00c9 553e 70c0 38be 005e dfbc
-0.058053106 0.058140725 -0.07052714 0.14753547 -0.09223303 -0.17891967 0.013661176 -0.19216189
-0.19426754 -0.18362582 -0.113853574 0.088843286 -0.05746022 0.2209697 -0.12097618 0.19808233
0.14438668 0.54769236 0.2406069 -0.61388063 -0.044755876 0.15216829 -0.045027766 -0.041619215
0.4926017 -0.19523257 0.053634375 -0.23671357 -0.11208904 -0.6879062 0.08360388 -0.033668637
0.042490155 0.19917098 0.14017996 -0.11847901 0.04089549 -0.10166788 0.017085165 -0.09711489
-0.23154032 -0.12600803 -0.22986475 -0.13977951 -0.18967277 -0.20580119 -0.19939199 0.07869613
-0.17379415 -0.06671279 0.19516918 -0.05800167 -0.031402487 -0.23492944 0.2077181 -0.13696118
-0.06813353 0.08282247 0.13197652 -0.24945953 0.20051 -0.102040924 0.050116207 0.031868637
-0.07823098 -0.017921299 0.13045463 0.0053359866 0.20559314 -0.14009851 0.08939418 0.18366924
-0.20411733 -0.12630671 0.12848446 -0.20726654 -0.16670236 -0.1935691 -0.013163 0.027590394
-0.08984533 0.4054874 0.13590306 -0.50360596 -0.028586484 -0.016745124 0.12580359 0.28653097
0.15095775 -0.014038056 0.016355246 0.16182004 -0.2232841 -0.6353654 0.16946651 -0.221266
-0.17454267 0.21959838 -0.21512577 -0.18357599 0.13727936 -0.057178944 0.15140957 -0.08904901
-0.22003585 -0.10944083 0.21638167 -0.034022063 0.061725736 0.20637423 -0.13797918 -0.0058715045
0.21730289 -0.1642338 0.20147493 0.21171689 0.10265824 -0.2203497 0.2411027 0.20844072
-0.17511556 0.07738024 -0.05678466 0.09335917 -0.21089059 0.22353739 -0.1648446 -0.036196023
0.04740089 0.17374018 -0.11156762 0.011664778 0.09889415 0.078954875 -0.1812982 -0.20463556
0.02701646 -0.108092934 0.13864535 0.06345081 0.14471695 0.12529022 -0.1570918 -0.2219806
-0.06073771 0.3485401 0.049963415 -0.7627308 -0.16937205 0.06529586 -0.14372884 -0.18772678
0.15898776 0.17840347 0.058818877 -0.09134178 -0.084234536 -0.5210703 0.024693169 -0.18720952
0.2374149 0.15307261 -0.025562078 -0.6869514 0.2885327 0.3269725 0.27389473 -0.0903233
-0.028757196 0.2093716 0.10725969 0.14595608 -0.22601596 -0.25486058 0.18863326 -0.19547534
-0.0134295225 -0.24994168 0.050001353 -0.18852356 0.027513534 -0.060289502 -0.18639556 -0.21703303
0.22622344 0.11037302 -0.14223057 -0.22323585 -0.012242824 -0.21309727 -0.21625808 -0.1658107
-0.1263026 0.11615583 0.24204174 -0.22532247 -0.25002187 -0.216004 -0.27314496 -0.24121729
-0.06657655 0.12344423 0.23907655 0.1910401 -0.08245224 -0.14659947 0.12231242 0.1791127
-0.06284427 0.5872777 0.14962888 -0.8599138 -0.11093153 0.13925613 0.14801827 0.07237262
0.17919701 0.21532832 0.0064921975 0.1045911 -0.07797775 -0.6123416 0.029267918 -0.0021013916
-0.1570294 0.09645454 0.035000175 -0.86392707 -0.13055125 0.17702821 0.07942562 0.1714875
0.29124677 -0.08570481 -0.09801629 0.054005668 0.06302181 -0.57348275 0.16252488 0.22102454
0.114169806 0.111762434 -0.0045953393 0.02477026 0.06386265 0.18980435 0.021071076 0.104973525
-0.23373368 0.15937287 -0.2070458 -0.18309548 -0.0011924803 0.20877457 -0.18042159 -0.027266502

hedge_q.1.linear_relu_stack.2.bias f4 [16]
00000000: c0fa 81bd 2b54 343e 40f9 e23d c3fd 2f3c
00000010: c01e 31be d224 253d 40ef fcbc ca60 0fbe
00000020: 8067 183b 4b88 8a3e d675 083d ec1c ca3d
00000030: 2037 b8ba e379 edbc d511 853e 16b7 77be
-0.06346655 0.17610233 0.11082697 0.010741654 -0.17296886 0.040318318 -0.030875802 -0.14001766
0.002325505 0.27057108 0.033315502 0.09868798 -0.0014054514 -0.028988784 0.25990167 -0.24190935

hedge_q.1.linear_relu_stack.4.weight f4 [16, 16]
00000000: 50e3 323e 1c83 00be 78a7 e3bd bbc6 b03d
00000010: fa99 3e3e a05e 03be e8d5 afbd 5860 9abd
00000020: aa3c 15be 3336 4a3e 2586 553d c4b8 333e
00000030: 71ad 43be 4b3c 58be 0d17 ce3d a079 1a3e
00000040: 5041 793d cc88 b73d 5224 1b3e 1ffc 0fbe
00000050: c8f0 093e c2bd 683d 7ab2 7ebe 3c3b 95bd
00000060: 28dd c1bd 5df7 223e 5af7 4bbd 8e26 3b3e
00000070: 89c7 12be 346a 983e 347e 953e 20b4 a3bd
00000080: d4eb 6b3e 1f08 26be e607 003e 28c2 99bd
00000090: d8b3 583e a2d2 143d c886 51be 44ee 9d3d
000000a0: 54f6 be3d 810c 5c3e a6d9 8dbe 3c9f 773e
000000b0: 001c 5cbe d202 1e3e aaa3 023e b88a 093d
000000c0: 306f 54be 37cb cf3e f07f 30bd 9841 a53d
000000d0: 268f 2cbe 8d20 a23d 1288 1e3e c6d3 02be
000000e0: c0b4 7abd 6614 033e 8958 84bc 4467 a9bd
000000f0: 7b55 3abe b560 b33e c989 633e d8cd 123e
00000100: e017 f0bd 8678 57be 0460 953d f8ec 8bbd
00000110: 0823 f33d 7041 a93d 0856 f1bd 2c24 043e
00000120: a8d3 7abe dc79 f43d f898 74bd 06c3 75be
00000130: f279 1f3e 0a58 633e f423 0ebe 8e4e 4dbe
00000140: 1070 cbbd f852 fc3d b08d 0e3e 70f1 773d
00000150: 6834 e8bd 396e 483d a858 2fbd f64b 493e
00000160: c88f b83d 5204 4c3e ac0b e43d d0e4 7fbe
00000170: f444 6dbe 287a 7a3e 6ece f5bc d0f8 ac3d
00000180: c896 1dbd b45e 0bbd 7a1a 013e 3581 583e
00000190: 36a6 463e 7b55 05be 8026 88bb 88f0 4cbe
000001a0: 3c3f 81bd bfdb d13d 7ead a73e 5845 253d
000001b0: ac26 163e 6b99 88bd 33e5 0f3d 2ee3 2fbe
000001c0: 460e 60be 4015 5abe 04b2 913d 94e2 ce3d
000001d0: 22d9 2c3e 58b3 3dbd 6c2a 82bd e066 9abc
000001e0: 00db b03c 04ca 5fbe 28e5 78bd 3aad 7a3e
000001f0: 9820 d13d 1c7f e63d 1ce0 353e be57 3a3e
00000200: ba7b 0abe 3080 843e 60ba af3d 0b96 2abd
00000210: 9c6b 203e 34ba dbbd 9657 6e3e 5c02 77be
00000220: 204a 093d 5ef9 793e 72ab a53e a865 e03d
00000230: 9935 163e dc01 213e 72c3 7c3e 8041 60bd
00000240: 20e5 af3c 489c 1a3d 0048 c53d 4c49 2cbe
00000250: e0b0 053e a0f2 373c a8ef a33d c8e0 13be
00000260: 128e 49be 8044 58bc fa4c 47be b064 2c3e
00000270: ece8 703e 7c86 d23d a449 e1bd 788b 123d
00000280: 7837 e33d baa8 c9be 5891 693d bb3c aa3d
00000290: a093 123c 13e6 e43a 5c91 52be 0c9f e43d
000002a0: 388a dfbd 5138 0ebf aae8 483e 08af 3b3e
000002b0: 4a2e e53c 2a5e f2be 5725 303c e0de 723d
000002c0: 8092 67be 705c 1a3d f4c6 52be 1441 be3d
000002d0: 0ebd 44be 80e9 87bc 5ec2 3ebe 96f8 4ebe
000002e0: 9c10 4f3e 7e19 02be c0e2 0dbc 2036 f7bd
000002f0: 50d5 ca3c 1029 f1bd a01c 64bd 74f9 593e
00000300: f085 0e3e ec28 f33d b434 683e 187f 213e
00000310: c01f e43d 0d13 0c3d dcca 5d3e 20bd e1bd
00000320: c046 04bc 15ae 68be 2450 a2bd 4e2e 003e
00000330: 58b7 49be 20cf c0bd 3b89 39be 9eb8 4c3e
00000340: 9082 133d d9dc 4f3e 529c 34be 8c06 23be
00000350: 50b7 46bd 5b2d f33c d475 37be 08f7 113d
00000360: ceae 02be ca91 a73e 2792 8f3e f4ae 4cbe
00000370: 9f20 113e f4e1 3a3e 6f7c 653e e2ce 2f3e
00000380: ae89 1a3e 2973 3f3e b0f4 c5bd 2cb4 61be
00000390: 50e8 97bc 1648 7f3e 10cb 3c3d 2e54 7bbe
000003a0: e0b0 1b3d 06b5 bd3e 258d 8a3e 089e 78be
000003b0: 3db2 09be f26a 943e 5d4d b63e 9e43 2b3e
000003c0: 60c2 1fbd f5c6 c73e b832 2e3d 6c56 60bd
000003d0: 5636 43be f212 b53e 2445 9cbd 1698 21be
000003e0: bc3e 22be 9f32 83bd b9eb 583e e084 61bc
000003f0: dba5 863d 3dc9 c13e aaf4 5d3d 1402 463e
0.17469525 -0.12550014 -0.111159265 0.08631655 0.18613425 -0.12829065 -0.08585721 -0.07537907
-0.14573923 0.19747238 0.052129883 0.17550951 -0.19109131 -0.2111675 0.1006299 0.15085459
0.060853302 0.08961639 0.15150574 -0.1406102 0.13470757 0.056821592 -0.24872771 -0.07286689
-0.0946601 0.15914674 -0.04979644 0.18276426 -0.14333929 0.29768527 0.29197848 -0.079933405
0.2303918 -0.16214035 0.12503013 -0.075077355 0.21162355 0.036333688 -0.20461571 0.07711461
0.09324327 0.21489145 -0.27705115 0.24181837 -0.21495056 0.15430763 0.12757745 0.033579558
-0.2074554 0.40584728 -0.04309076 0.08069152 -0.16851482 0.07916365 0.15481594 -0.12776098
-0.061207533 0.1280075 -0.016155498 -0.082716495 -0.1819667 0.3503472 0.2222053 0.14336336
-0.11723304 -0.2104207 0.07293704 -0.068323076 0.11871916 0.08264434 -0.11783987 0.12904423
-0.24494803 0.11937305 -0.059716195 -0.24000177 0.15573862 0.22201553 -0.13880903 -0.20049497
-0.099334836 0.123205125 0.13921237 0.060532987 -0.11338121 0.04893324 -0.04280916 0.19657883
0.09011799 0.19923523 0.11135039 -0.24989629 -0.23170835 0.24460661 -0.03000566 0.08445895
-0.038473874 -0.034025863 0.12607756 0.21143039 0.19399342 -0.1302089 -0.00415498 -0.2001363
-0.06310889 0.10246991 0.32749552 0.040349334 0.1466319 -0.06669887 0.03513069 -0.17176506
-0.21880445 -0.21297169 0.07114032 0.1010181 0.16879705 -0.046313614 -0.063557476 -0.018847883
0.021588802 -0.21854407 -0.060765415 0.24480143 0.10211295 0.11254713 0.17761272 0.18197533
-0.1352376 0.2587905 0.0858047 -0.041647 0.1566605 -0.10728875 0.23275599 -0.24121994
0.033517957 0.24411532 0.32357365 0.109568894 0.14668883 0.15723366 0.24683931 -0.054749966
0.02147156 0.037746698 0.096328735 -0.16824836 0.13055754 0.01122728 0.08004695 -0.14441216
-0.19683102 -0.013199925 -0.19462958 0.16835284 0.23526353 0.10279557 -0.11000374 0.03577754
0.11094564 -0.3938654 0.057023376 0.08312365 0.008946329 0.0017463587 -0.20563263 0.11163148
-0.10915035 -0.5555468 0.19620004 0.18328488 0.027976174 -0.47337466 0.01075109 0.05929458
-0.22614479 0.03768581 -0.20583707 0.092897564 -0.19212744 -0.016590834 -0.18628833 -0.20212016
0.2022118 -0.12705037 -0.008660018 -0.120708704 0.024759918 -0.1177541 -0.05569136 0.21286565
0.1391828 0.118730396 0.22676355 0.15771139 0.11138868 0.034197856 0.21659416 -0.11022401
-0.008073509 -0.22722657 -0.07925442 0.12517664 -0.19698846 -0.09414506 -0.18118756 0.19992301
0.036013186 0.2029909 -0.17637756 -0.15920466 -0.048514664 0.029684713 -0.17916042 0.035635978
-0.12761995 0.32728416 0.28041193 -0.19988614 0.141726 0.18250257 0.22410749 0.17168763
0.15091583 0.18696274 -0.09665811 -0.22041386 -0.018543392 0.24929842 0.046092093 -0.24543831
0.038010478 0.37052172 0.2706081 -0.24279034 -0.13446899 0.28987843 0.35605898 0.16725013
-0.03900373 0.3901898 0.042528838 -0.05476992 -0.19063696 0.35366017 -0.07630375 -0.15780672
-0.15844244 -0.064061396 0.21183671 -0.01376459 0.06574603 0.37848845 0.054188408 0.1933673

hedge_q.1.linear_relu_stack.4.bias f4 [16]
00000000: 3bec 5abd 844d 263e 1d91 cebd 0a72 863e
00000010: 88e8 3dbe 8aae 89be ddc5 253e cab8 2fbe
00000020: 1dfa 913d d83f fdbd e8e9 323e 7238 50be
00000030: c903 3a3d 498e 7a3d 8c3c 453d 8169 383e
-0.053447943 0.16240507 -0.10086272 0.2625888 -0.18545735 -0.26890975 0.1618876 -0.17160335
0.071277834 -0.12365693 0.1747204 -0.20334032 0.045413766 0.06117085 0.048153445 0.18008997

hedge_q.1.linear_relu_stack.6.weight f4 [1, 16]
00000000: 4a79 6dbe 5255 9e3e d2a9 1ebe 2ad5 7a3e
00000010: 3404 553e 59e9 89be a9ad fa3d 8c7a 7b3e
00000020: 7c3a e33d 4613 51be 7aa7 d3be b458 423e
00000030: b860 62bd 8ade cc3d ed38 343e 7ae6 703e
-0.231908 0.3092447 -0.15494469 0.24495378 0.20802385 -0.26935843 0.12240154 0.24558467
0.110951394 -0.20417508 -0.41338712 0.1897915 -0.05526802 0.100033835 0.1759984 0.2352542

hedge_q.2.linear_relu_stack.0.weight f4 [16, 2]
00000000: 61ad 583f 428b 553e 5f23 35be 2339 31bf
00000010: 02ee b53d fd67 143f e2ed 6d3f d738 a6be
00000020: a2b7 0bbf 482c b3be a28f 2c3f fd3c b9be
00000030: 1b29 cf3c 41e2 05bf 107a 263f 2e47 fa3e
00000040: 32b4 1bbf c495 97be ea9f 25bf c02f af3e
00000050: 16da 0f3f 75aa e5be 555f 75be 5442 cabc
00000060: d59d d23e 7f2a 323f fb27 b3bd c0df 3b3c
00000070: c225 213e 584a 22be 2915 cbbe 1965 99be
0.84639555 0.20853904 -0.17689274 -0.6922781 0.08883287 0.57971174 0.92941105 -0.3246524
-0.54577076 -0.3499472 0.67406666 -0.36179343 0.025288155 -0.5229836 0.6503 0.4888243
-0.6082183 -0.2960645 -0.64697134 0.34216118 0.5619215 -0.4485661 -0.23962148 -0.02468983
0.4113604 0.69596094 -0.0874786 0.01146692 0.1573706 -0.15848672 -0.3966458 -0.29959944

hedge_q.2.linear_relu_stack.0.bias f4 [16]
00000000: c179 a1be 0275 a03e a892 ab3e edd1 92bd
00000010: a6a3 ecbe eccd c43e 197f e93e bcc9 113d
00000020: 5172 043f 0a76 513e ae71 2abf e18f a93e
00000030: 3626 28be e87d 143f 1fe1 f7be b1c4 303f
-0.31538203 0.3133927 0.33510327 -0.071689464 -0.46218604 0.38438356 0.4560478 0.03559278
0.51736933 0.20455185 -0.6657971 0.33117583 -0.16420826 0.5800462 -0.4841394 0.6905013

hedge_q.2.linear_relu_stack.2.weight f4 [16, 16]
00000000: e283 0bbe 28c8 b73d 8188 77bd 0c62 c3be
00000010: 34ab 9f3d 7b89 463d 999d fbbc a0b9 9ebd
00000020: 853f 9ebd 5220 803e 70aa 893d 3bef f43d
00000030: ebeb 28bd 6ce8 493e 6c62 28be 5305 943c
00000040: ff02 2dbf cb26 ca3e a54b d93d 2a96 3dbf
00000050: 5842 09bd 7305 91be fac8 003e 0b0a 21ba
00000060: 3e0b 2f3f 91cd 683e 08ec 2cbd 92da b03e
00000070: 31cc 3f3e c74a 913e e07b 09be 63c6 aa3e
00000080: deae 8d3e b5d9 a0bb 027d a93e 207a fe3e
00000090: 5883 353d cbb8 803e a665 0e3e ee5a 633d
000000a0: f468 2dbe 2ec0 70be 5452 5ebe be01 403e
000000b0: 82bd 9a3e 53b3 0d3e 00e6 b03b 65ce a33d
000000c0: e20d aa3d 51c1 e7bc 4a2e 03be 36e1 7fba
000000d0: 2cf9 563e 7e82 9dbd 0c44 00be eb88 a83c
000000e0: e389 3ebe 9d51 a53c 80b4 cabb ed38 f2bd
000000f0: b3c2 133e 3bb0 42be 4869 a53d 9010 b43d
00000100: 1cc7 2e3e 5c1a e23c a8f8 673d 9c85 9d3e
00000110: b2c9 183e 93da 693e 8512 64be 8dfd fa3d
00000120: 137f 5dbe c627 5fbe 7051 83bc 1f83 1f3e
00000130: 1691 99bd b099 773e e878 543d 741e 35be
00000140: e5bb 213e f68a 673e fabf 3e3e 3eff 753d
00000150: 0087 b33c 968b 42bc 8435 083d c6db bbbd
00000160: 0f8f dcbe 2b9e 08bc 5012 c03c e627 70be
00000170: 3bab 61bd f061 6b3e f03f 9f3d 6e87 76be
00000180: 6457 1ebd 67a8 163a 98f8 8c3d 0d13 9d3e
00000190: b89d 9dbd 0580 773d b3ed 9fbe 7f05 143e
000001a0: 58dc 013e 90f9 b7be 9875 8abd 2f88 a3be
000001b0: 6858 4e3e aca2 4cbe e888 7b3e c329 ebbe
000001c0: b03d d5bd a877 a6bd 1040 b1bd b0fb a4bc
000001d0: 40d0 9c3d e248 283e 802e 42bb 8e3e 0ebe
000001e0: 0815 57be 58cb c4bd 0060 1b3b d0e2 75be
000001f0: ac1d dbbd f2e6 3e3e dc1b 393e 30fb 21be
00000200: a487 81be 0c3b 2e3e 2cf4 71bd f48b 2c3e
00000210: 80e2 153b 7f8c 26be 1a2b e83c 2ca4 81bd
00000220: f811 3dbe 801c 70bd 0e9a 323e 77d5 46be
00000230: 31cc 6f3e 4138 f7bd 6e88 173e 5969 71bd
00000240: 1edc 273e 8465 2abe a288 19be 8032 51bb
00000250: 1e76 01be f0cf 0e3d a8d7 8ebd 9874 43be
00000260: 1ce1 5bbe de8f 1f3e 964f 203e 3ce1 4d3e
00000270: ced2 43be 600a 9b3c 20cf 02bc 0458 9fbd
00000280: a818 e53e 1779 58be e5b6 533e cd10 933e
00000290: 0e6f 3fbe 6493 c03e 9375 203d 51a3 7b3e
000002a0: ea04 22be 3d67 41bd 58d5 0e3d 6bc1 5cbe
000002b0: acfa 673d 4382 2f3e e48c 14be d2fe 3cbe
000002c0: d6ef 1d3e cfa5 57be f2f3 bebc c441 eb3d
000002d0: 4672 053e c2c1 90be 89fd 2bbe ad38 dfbd
000002e0: 507a f1bd e074 c2bc 1c4c 053e ba03 73be
000002f0: 523d c5bc e633 53be 309c 6cbd fefa 1a3c
00000300: e60e 9a3e c4d1 bd3d da85 ac3e 238d ef3e
00000310: 44c5 a53d a1c1 763e dd4a 48be 0cee 663d
00000320: cd44 fdbd 8de7 abbe 567e 743e 28a7 f83d
00000330: 75cd d13c 35f9 f0bd 0007 cd3a 6d3b 193e
00000340: 924f 6cbd 6a3b 633e 16a8 37be 208d cd3d
00000350: 549a f5bd b0b7 623c 5ce7 08bd f94e 1bbe
00000360: d23b 383e 4a7f 2f3e 4093 97bb 8940 a93d
00000370: 2784 083d a5d8 6abe c888 023e 53e0 853d
00000380: 42da 3a3e 44e0 6dbd 31cd 5cbe 9c5d 27be
00000390: c08b 93bb 35aa bcbd ac5b 60bc 4a1a 59be
000003a0: ea1d b03d 8a01 0f3e d887 60be 87a5 583d
000003b0: 28c6 70bd ae34 e4bd e00c bcbc 36ca 423e
000003c0: 02e2 193e 48af 3abd 1436 2ebe b41b e93d
000003d0: 5044 aebc e859 fcbd 38cf 28bd 1888 1abe
000003e0: 94e7 b73d b0e0 453d 0a8b 2a3e 0406 4a3e
000003f0: c4d8 57be 40ed 7e3c 3054 473d 8467 88bd
-0.13624528 0.08973724 -0.060432915 -0.3816074 0.07796326 0.048470955 -0.030714797 -0.07750249
-0.07726959 0.25024658 0.067219615 0.11959692 -0.041240614 0.19717568 -0.16443795 0.018068945
-0.67582697 0.39482722 0.10610131 -0.7405726 -0.033510536 -0.2832447 0.12576666 -0.0006143159
0.6837653 0.22734667 -0.042217284 0.34541756 0.18730237 0.28377363 -0.13426161 0.33354482
0.27672476 -0.004908765 0.33103186 0.4970255 0.044314712 0.25140986 0.13905963 0.05550664
-0.16934568 -0.2351081 -0.21711093 0.18750665 0.30222708 0.13837938 0.005398512 0.07998351
0.08303429 -0.028290423 -0.12810627 -0.0009761037 0.20993489 -0.07690905 -0.12525958 0.0205731
-0.18607287 0.020180518 -0.006186068 -0.11827264 0.1442974 -0.19012539 0.080767214 0.087922215
0.17068142 0.02760046 0.05663362 0.30765998 0.1492069 0.22837286 -0.2227269 0.12255392
-0.21630506 -0.21792516 -0.016030043 0.15577362 -0.07498376 0.24179721 0.051873118 -0.17687398
0.15794332 0.22611603 0.18627921 0.06005787 0.021914959 -0.0118741 0.03325416 -0.09172778
-0.43077895 -0.008338491 0.023446232 -0.2345272 -0.05509494 0.22986579 0.07775867 -0.240751
-0.03865756 0.000574714 0.06883353 0.30678597 -0.07696098 0.060424823 -0.31236038 0.14455222
0.1268171 -0.3593259 -0.067607105 -0.31939837 0.20150912 -0.1998393 0.24563944 -0.459303
-0.104121566 -0.08128291 -0.08654797 -0.020139545 0.07656908 0.16434053 -0.0029629767 -0.1389105
-0.21004117 -0.09609097 0.0023708344 -0.24012303 -0.10699019 0.18642786 0.18077034 -0.15818477
-0.25298798 0.17014712 -0.05907075 0.16850263 0.00228706 -0.16264533 0.028340865 -0.063301414
-0.18463886 -0.05862093 0.1744158 -0.19417368 0.23417737 -0.120712765 0.14798138 -0.058938358
0.16392562 -0.16640288 -0.14993528 -0.003192097 -0.12642714 0.034866273 -0.06974727 -0.19087446
-0.21472591 0.15582225 0.1565536 0.20105451 -0.19123384 0.018925846 -0.007983953 -0.077804595
0.44745374 -0.21139942 0.20675237 0.28723755 -0.18694708 0.3761245 0.039174628 0.24574019
-0.15822187 -0.047217596 0.03487143 -0.21558158 0.056635544 0.17139535 -0.1450687 -0.18456581
0.15423521 -0.21059345 -0.023309682 0.11487153 0.13031873 -0.28272825 -0.16795935 -0.10899482
-0.117909074 -0.023737371 0.13017315 -0.2373189 -0.024077091 -0.20625266 -0.05776614 0.009459255
0.30089492 0.09268525 0.3369587 0.46787366 0.08094266 0.24097301 -0.19559808 0.056379363
-0.12366638 -0.33575097 0.23876318 0.121412575 0.025610665 -0.117662825 0.0015642345 0.14964075
-0.05769307 0.22190633 -0.17935213 0.10036683 -0.119923264 0.01383774 -0.033423766 -0.15166844
0.1799157 0.171384 -0.004625708 0.08264262 0.033329155 -0.22934206 0.1274749 0.06536927
0.18247321 -0.058075204 -0.2156265 -0.16344303 -0.0045027435 -0.09212152 -0.013693731 -0.21201435
0.08599456 0.13965431 -0.2192682 0.052892234 -0.058782727 -0.1114286 -0.022955358 0.1902245
0.15027621 -0.045577317 -0.17012817 0.11382237 -0.021272808 -0.12321836 -0.041213244 -0.15090978
0.08979717 0.04830998 0.16654602 0.19728857 -0.21078783 0.0155594945 0.04866427 -0.06660369

hedge_q.2.linear_relu_stack.2.bias f4 [16]
00000000: c89b 053e c4f6 efbd d48c e1bd e5ef 603d
00000010: bf5f aa3d 6af4 123e 5205 50be 6093 883c
00000020: 5892 473d 70d2 72be 3aa5 5f3e 124e 593e
00000030: 75ef 3fbd 18d3 e5bb a2f7 cf3d 009c 86b9
0.13047707 -0.11716989 -0.11013189 0.05491628 0.08319043 0.14351049 -0.2031453 0.016671836
0.04872355 -0.23713088 0.21840373 0.21221188 -0.046859223 -0.0070136897 0.10154654 -0.000256747

hedge_q.2.linear_relu_stack.4.weight f4 [16, 16]
00000000: 22a9 0dbe 00c8 0dbc f05e eabc 5ea3 48be
00000010: a096 0fbe 6432 553e 786c 0e3d f8ac 333d
00000020: fc65 9a3d c478 9dbd 2464 e13d 72f2 343e
00000030: 104a 85bd 90c2 c5bc 289c f9bd d07a 40bd
00000040: 8119 ff3c ccb6 44bf ddf3 a23e 6478 443c
00000050: 9cd0 2bbd 1da8 22bd 5929 9bbe d062 223e
00000060: da71 d3bd 08d6 7bbd ab1f a13e 7834 33be
00000070: 89e6 de3d 8bb3 b0bb 6f15 7f3d 74b3 2f3e
00000080: 0675 e4bd 0fef 0bbf df86 3b3e d7dc abbd
00000090: 019a e63d f96a 593d 6913 b6be 9ee8 5e3e
000000a0: 70a4 c7bc 0a1b 74be 2289 943e e79a 4a3e
000000b0: 06ec b23e 8267 02be 68ee 3e3d 2818 18be
000000c0: 0c57 4c3e e6d0 3dbe 1fe0 b33d e2b1 56be
000000d0: 19c7 a4be b6a2 d83d 9c4a e4bd 88c5 05be
000000e0: 77a1 e23c a029 0a3d f20e 27be 306b cdbc
000000f0: 2180 66be 250d 343e f44c d13d 8a72 59be
00000100: 58aa 2e3e b4f4 84bd 3fc9 90bd 103a fb3d
00000110: 0cff 37be f8a8 823d abf7 05bd 7e7e 103e
00000120: b8af 5a3e e2f7 45be 57bc 0a3e 5c4c 2f3e
00000130: 8a4e acbd 6f31 2ebe 036a 38be c0f1 153e
00000140: edad a43d 03c0 103f 1191 dfbd f0fd 0b3d
00000150: 1c84 9abe 7c55 66bd fc2e 97bd fa60 273e
00000160: 4835 3abe c026 3ebe 8643 53be 5ee4 473e
00000170: 27ef 9a3d 88eb a1bb 9e52 9fbd 7cd3 b23d
00000180: 3f6f 353d 9054 cd3d ec36 75be fc29 793e
00000190: 908c e83a b9bd 07be eed3 75be 6807 12be
000001a0: 9e68 38be f208 6f3e 54cc 853d 8845 1c3d
000001b0: c4a0 cebd 539e 03be 9025 0f3e 04e3 53be
000001c0: 408c 2abd 30d1 0b3e c03e 0c3e e8c5 f4bd
000001d0: c03f b53c f886 07bd 0863 e33d 268a 5fbe
000001e0: 58f7 60be 387a 67be deeb 33be 8c15 a73d
000001f0: 8edc 09be 8a31 5b3e 7c74 c0bd 3ad6 7a3e
00000200: d8f2 713e a0c3 733e 5cf0 6dbe 4c2e 9e3d
00000210: a40c 90bd cc78 bfbd 62c6 1b3e e61b 62be
00000220: 50d9 28bd 4030 703d b4f0 f8bd 4068 bc3b
00000230: 681c 833d be53 23be 9aea 73be c8fb 37bd
00000240: 426c 17be 008c 76bc 7447 d33d b2b2 663e
00000250: 1861 6a3e 00ae 35be b825 673e 105c 973c
00000260: 3a10 703e 2453 653e 74ce dcbd c85d c23d
00000270: d843 27bd c4b7 86bd 6058 eabd f4fe 82bd
00000280: acf2 ef3d 9ae3 29bf 925e 723e e96c aebd
00000290: d8bd bcbd c8f1 9b3d 9e66 f8be b8a9 1d3d
000002a0: cc66 b13d b495 18be e1bb a53d 472b 4e3e
000002b0: d6e9 7ebd c7c0 023e b7cf 9abd 6a6c 7cbe
000002c0: 8ee2 21be 9121 2fbf 7e81 b43e 8675 31be
000002d0: 7528 533e a2a5 813e ecf3 1cbf f02b d43d
000002e0: aa02 cb3d 5eb2 3d3e 1fd7 b5bc 0499 b1bd
000002f0: a2ed 3b3e cef8 cc3d f2f9 553e 486e 5b3e
00000300: d4f5 e23d c844 613e 32b2 14be 6c11 3f3e
00000310: 64c2 1d3e 3cb3 b4bd d2a7 49be ac45 a53d
00000320: 3411 343e 500b c5bc 9cbb d83d f88e 6b3d
00000330: eece 67be f093 763d 4857 d23d c43b 553e
00000340: 00d2 5ebb c7a2 3bbf af10 d83c 70c4 a7bd
00000350: fec8 5abd 6252 8dbd 0225 b6bd c06c 2dbe
00000360: 18ad 3d3e 38ca 9d3d 1d60 3b3d 8033 9bbd
00000370: 8929 e7bd b8ef e8bd 1f74 7e3e 8e80 403e
00000380: 753a 5c3e d0cd b3bd b9f5 97bc 45db c93d
00000390: 2eea 93be 33dc 183d e50d d3bd 2407 1e3e
000003a0: bf53 3f3e 8050 f53c 73cf 69be 40d4 cabd
000003b0: 22af 6cbe 01d1 563e d18a ab3d 40f1 e1bb
000003c0: b403 6bbe 7da6 4cbf 8e55 0a3c 15e8 f93c
000003d0: 146d 6d3e 8ff0 8fbd ecdd 12bf e4f0 213e
000003e0: 0bed 60be e40e ff3d 01d7 943e 7dea 56be
000003f0: 1235 52bc 9088 c8bd 459a eabd da92 53be
-0.1383405 -0.008653641 -0.028609723 -0.1959357 -0.14022303 0.20820004 0.034771413 0.043866128
0.07538983 -0.0768905 0.110054284 0.1767061 -0.06508267 -0.024140626 -0.121879876 -0.046992123
0.03114009 -0.76841426 0.31826678 0.011991594 -0.041946992 -0.039711107 -0.30304983 0.15858006
-0.1032445 -0.061483413 0.31469473 -0.17500484 0.10883815 -0.005392497 0.0622763 0.171583
-0.11155133 -0.5466165 0.18313168 -0.08391731 0.11259843 0.053080533 -0.35561684 0.21768424
-0.024370402 -0.2383844 0.29010874 0.19785653 0.34945697 -0.12734798 0.04661408 -0.14852965
0.19955081 -0.1853672 0.08782982 -0.20966294 -0.3218315 0.1057791 -0.11147043 -0.13063633
0.027664883 0.033731103 -0.16314295 -0.025075525 -0.22509815 0.17583139 0.10219756 -0.212351
0.17057168 -0.06491986 -0.07069635 0.12266934 -0.17968386 0.063798845 -0.032706898 0.14110753
0.21356094 -0.19332841 0.13548408 0.17118973 -0.08413418 -0.17011045 -0.1800919 0.14643002
0.08040986 0.56542987 -0.10916341 0.03417772 -0.30178916 -0.056233868 -0.073820084 0.16345587
-0.18184388 -0.1856947 -0.20631227 0.19520709 0.07565146 -0.0049414076 -0.0777943 0.08731744
0.044295546 0.10025895 -0.23946732 0.24332422 0.0017742086 -0.13255967 -0.24006626 -0.14260638
-0.18008658 0.23343256 0.06533113 0.038152248 -0.10089257 -0.12853365 0.13979173 -0.20692068
-0.04163766 0.13654017 0.13695812 -0.1195181 0.022125125 -0.0330877 0.11102873 -0.21830043
-0.21969354 -0.22605217 -0.17570445 0.081584066 -0.13463041 0.21405616 -0.09397218 0.24495783
0.23627794 0.23805094 -0.23236221 0.07723674 -0.07033661 -0.09349212 0.15212396 -0.22080955
-0.04122287 0.058639765 -0.121552855 0.0057497323 0.064019024 -0.15949914 -0.23819962 -0.04491785
-0.14787391 -0.015048027 0.10316363 0.22529104 0.22888601 -0.17742157 0.22572982 0.018476516
0.2344369 0.22394997 -0.10781565 0.094905436 -0.040836185 -0.06578019 -0.114426374 -0.06396285
0.11716208 -0.6636292 0.23668888 -0.08516867 -0.09215897 0.076144755 -0.4851579 0.038491935
0.08662185 -0.14900857 0.08092476 0.20133696 -0.062234722 0.12768851 -0.0755915 -0.24650732
-0.1580908 -0.68410593 0.35255045 -0.17329988 0.20620902 0.2532168 -0.61309695 0.10359943
0.099126175 0.18525073 -0.022197304 -0.086717635 0.18352368 0.10008393 0.20896128 0.21428788
0.11082044 0.21998894 -0.14521101 0.1865899 0.15406185 -0.08823249 -0.19692925 0.080699295
0.17584687 -0.024053246 0.10582659 0.057509392 -0.22637531 0.060199678 0.10270554 0.2082358
-0.0033999681 -0.73295254 0.026375143 -0.08191764 -0.053414337 -0.06900479 -0.088937774 -0.16936016
0.18523061 0.07704586 0.045745958 -0.07578182 -0.11287219 -0.11373848 0.24848984 0.1879904
0.21506675 -0.0877949 -0.018549787 0.098562755 -0.28889602 0.037319373 -0.103053845 0.15432411
0.1868429 0.029945612 -0.22833042 -0.09903765 -0.23113683 0.20978166 0.083760865 -0.0068952143
-0.22950631 -0.7994154 0.008443249 0.030506173 0.23186141 -0.07028305 -0.57369876 0.15814549
-0.21965425 0.12454012 0.29070285 -0.20987888 -0.012830036 -0.09791672 -0.11455206 -0.20661488

hedge_q.2.linear_relu_stack.4.bias f4 [16]
00000000: f443 9ebd 2c39 da3c c5e3 0cbe ca8d 103e
00000010: dfd8 0fbd f85c df3d b389 19bd 04dc 3dbe
00000020: 6061 45be 3418 febd 003f 153e f7e4 8d3d
00000030: 3233 67be c220 2e3d 80e6 c63d 090a 553e
-0.07727805 0.02663859 -0.13758762 0.14116588 -0.035118934 0.10906404 -0.037484836 -0.1854096
-0.19275427 -0.1240696 0.14574814 0.06928437 -0.22578123 0.04251171 0.09711933 0.2080461

hedge_q.2.linear_relu_stack.6.weight f4 [1, 16]
00000000: fa57 413e ae39 ab3e 3457 4e3e 1724 45be
00000010: 0e79 87bd c133 3fbe 5e14 9abd fc98 373e
00000020: 367e 553e ecb9 a03d a2b2 8f3d e0a1 aa3e
00000030: f29e 2e3e 8b13 01ba 77a3 18be a443 a93e
0.18881217 0.33442444 0.20150453 -0.19252048 -0.06614886 -0.18672086 -0.07523416 0.17929453
0.20848927 0.07847962 0.070164934 0.33326626 0.1705282 -0.00049238716 -0.14906107 0.33059418

hedge_q.3.linear_relu_stack.0.weight f4 [16, 2]
00000000: aec7 3ebf e9d8 22be 8d0f 883e ae35 18bb
00000010: 0c5d 29be e679 9fbd 92a4 aebe ae1a bcbe
00000020: 8f93 05bf 9d27 003f c29b fbbe 44e8 debd
00000030: 587d c3be fe5f 2a3f 07ce 323f c986 adb9
00000040: 0583 6d3f 4cf4 aa3e 1cdc 233f 7919 ad3e
00000050: 8907 babd ad2f db3e 604f 16bf 359b 7dbe
00000060: e0dd c73e f894 ad3e ef9f 643d baa4 b2be
00000070: 013c 9abe b5d2 10bf 19bb ac3c 8aed 81be
-0.7452344 -0.15903057 0.26574364 -0.0023225355 -0.16539401 -0.07786922 -0.34109932 -0.36739105
-0.5217828 0.50060445 -0.4914227 -0.10884145 -0.38181567 0.6655272 0.6984562 -0.00033097554
0.92778045 0.3338951 0.64007735 0.33808497 -0.090834685 0.4280981 -0.58714867 -0.24766238
0.39036465 0.33902717 0.055816587 -0.348913 -0.30123904 -0.56571513 0.021085309 -0.2537654

hedge_q.3.linear_relu_stack.0.bias f4 [16]
00000000: 4aa2 233f 8b18 a3be b146 633e 9b2f c0bd
00000010: 155d 413d 7fe7 55be 69aa 7b3e 01bf 6b3a
00000020: 5fbc a2be a52d 70bd f692 363e 3822 113d
00000030: 9fec 0a3f ac7a dbbe e42a 11bf 48c9 08bf
0.6391951 -0.31854662 0.22194935 -0.0938408 0.04720791 -0.2088909 0.24576725 0.00089930004
-0.3178434 -0.05863728 0.17829499 0.035433024 0.54267305 -0.4286703 -0.5670607 -0.5343213
