Models/BS/SRNN/prop trans costs/BS_SRNN_CVaR_50_tc.pth (torch, 49355 bytes, 63 tensors)

hedge_q.0.linear_relu_stack.0.weight f4 [16, 2]
00000000: 150d e53e 72cb d3be b1a0 353e 2115 02bf
00000010: 67e5 eb3e fac8 1b3e 8402 573d 6fe0 b03e
00000020: aa2a bf3e 9647 9b3e 57c8 823f 5257 01bd
00000030: e22e bfbd a390 b9be 8323 913e 55f8 1bbf
00000040: b9e9 1bbf 2ce4 343f 4585 8e3d 0677 c73e
00000050: f2bd 18bf 15e5 973d 34f8 29bf 44c6 50be
00000060: 106b 54bc f0fe 3dbb e117 643f 3bbf 52bf
00000070: 0b2d 6c3f c90c 133e 3cdc 2ebe 5356 193b
0.44736543 -0.41366154 0.1773708 -0.5081349 0.46073458 0.15213385 0.052492633 0.3454623
0.37337238 0.30328053 1.0217389 -0.031577416 -0.09335114 -0.36243162 0.28347406 -0.609258
-0.6090351 0.7066066 0.06959013 0.38957995 -0.59664834 0.07416741 -0.6639435 -0.20388132
-0.012964979 -0.0028991066 0.89098936 -0.82323045 0.9225623 0.14360346 -0.170762 0.00233974

hedge_q.0.linear_relu_stack.0.bias f4 [16]
00000000: 318a 79be b44a debe 2e39 aabd cf70 e7be
00000010: 5e83 a83e 2b0f 29bd a6a8 6b3e 2b51 cdbe
00000020: e582 423e 11fe 7abe ac6b 71be 1f94 acbe
00000030: 6c83 083f 3645 9f3e dea8 e73e af10 09bf
-0.24369122 -0.4341637 -0.083116874 -0.45203254 0.32912725 -0.04127423 0.23013553 -0.4010099
0.18995245 -0.24510981 -0.2357623 -0.33706757 0.53325534 0.3110749 0.45246023 -0.5354108

hedge_q.0.linear_relu_stack.2.weight f4 [16, 16]
00000000: 30ed 92bd fc82 0a3e f23f 42be e019 063d
00000010: 0c97 ddbd e8c7 563e 860e 393e b419 0b3e
00000020: 2096 7bbd 9828 54be 10cd b23d 2615 3d3e
00000030: 9e30 5dbe 144c 18be 1090 0d3d c0a2 113e
00000040: 2037 5dbc 403e d13c 87e1 be3e f036 0e3d
00000050: 224b 123e 3076 b23e 8e8b 17be c887 31bd
00000060: f8c7 c7be 37d9 323e 82f6 6c3e 3ce5 643e
00000070: 201c fc3d 6529 223f 9c37 f63d c46e 59be
00000080: 8c5a 38be 78fd 5d3d 1ddc b93d 3cf3 79be
00000090: 45db f6bc ce3a ad3d b433 c0bd 0c11 92bd
000000a0: c93c aebd 2218 2bbd 18d8 7dbd 126d 663e
000000b0: 7246 cc3d 0cd7 b0bd 24d4 043e 501e f7bc
000000c0: b4cd 593e 025a 66be 94f6 783e f83b d03d
000000d0: 0d9f 533e 2839 5f3e 2846 f63d 4cd1 df3d
000000e0: df70 80be bfa1 a8bd eec3 06be 0a42 7d3e
000000f0: 9b25 cb3d 35ca e13e 9ba7 3f3e 807a 1fbd
00000100: f8a7 463d ee79 06be a83f 17be a821 863d
00000110: 74ac 0a3e c035 b83c fc7c 873d 7496 a63d
00000120: 84e6 183e 3454 b1bd 40b4 593c 8095 f2bd
00000130: 083f 683d 4278 5a3e 78d4 0ebd 50df a3bc
00000140: 1811 3c3d 3aab 6f3e 6064 77bd 001c 79ba
00000150: 386c 30bd 4801 afbd 54ff 1a3e c6a9 193e
00000160: 4216 1b3e a82d 893d 90ff 77bd e645 6ebe
00000170: 1402 8a3d cacb 0c3e 78c4 9abd 80e2 263e
00000180: 48e9 f8bd b0f8 68be cd42 39bc 60ae b9bc
00000190: 066f 913e c59c 883e 52c5 343e 10c2 ce3c
000001a0: 8339 b7bc af53 743e 12de 21be a038 35bd
000001b0: 32d8 0cbe b572 fd3e 54eb 5e3e 6891 4d3e
000001c0: ac43 2c3e dc4e fd3d f31f 4c3d 4c43 0dbe
000001d0: d5a5 5bbe 905e 88bd d8e3 2dbd 6e13 7ebe
000001e0: 88a8 9d3e cfcc 843d ce51 0bbe d061 cf3d
000001f0: 3f85 dfbc e1b4 51bf f938 e83d d417 7cbe
00000200: d67e 083e 2ada 78be ab38 833e ba9d 633e
00000210: 4c10 e4bc a4ed f43e 803a 04bb 52fd 613e
00000220: 0718 a4bd 70ff 32be e46e e7bd 1c46 a9bd
00000230: 05be b33d 5f4b 543f 5a02 b33e 4006 c43b
00000240: 264e 2cbe 24cd 6dbe a0eb d33d dc62 603e
00000250: f641 7fbe c7ce 6c3e e0d5 693c d0d2 cebc
00000260: 9075 13be a564 8abd b023 c23d 80ec 42bb
00000270: 7a50 3e3e ab91 17bd 6c63 6ebe e61b 00be
00000280: 809c 113b 9816 ae3d f888 003e 94be 5c3e
00000290: e006 0d3e 7490 c9bd c097 43bc 302b 12bd
000002a0: a854 153e 4897 bebd b0b4 a83c 3092 053e
000002b0: 98d8 1bbd dc70 0d3e 2cc9 bbbd be47 4b3e
000002c0: cca2 1e3e 7001 1a3e 3d69 22be 348a b33d
000002d0: 1213 d1bc c064 68bc fce6 9fbd f45b d73d
000002e0: 67dd 11be 7175 fa3d 7023 f0bc 6a93 633e
000002f0: bfcf b53d 5338 1d3f 3da6 c23d 88ac d63d
00000300: e04b 113e 0432 ce3d 428f 173e 5c60 a93d
00000310: 2c98 ddbd 90ed 28bd 082b cfbd 6021 9b3c
00000320: 00e1 e73b 281c 15bd 7884 c83d b0d9 a9bc
00000330: ee17 1bbe 042a 683e 78d0 64be e01a 1abe
00000340: 2821 2b3e 7899 07be f025 45bd 60b8 eb3d
00000350: a05a 44bd e007 ffbd 2083 42bc 1854 93bd
00000360: 68d0 c53d 00b4 4ebd b096 413d e2f4 523e
00000370: eaa1 15be a0a9 953c 8451 9ebd 6818 81bd
00000380: a40c fbbd b434 d2bd b549 c7bd a8bf 52bd
00000390: c3cf 6ebd d399 fc3e 56cd 6b3e 8055 9dbc
000003a0: d425 a3be e4e4 d4bd b823 1dbd ee1d 36be
000003b0: 12b7 69be 2eb3 313f 95fb 033d d858 58be
000003c0: daf4 053e ea91 14be 42bb 61bd d21d 44be
000003d0: f3dc 5fbb 30e0 dabe 324a 69be 207a cbbc
000003e0: 45f9 143f a34c 8bbd f897 3a3d 26cd 46be
000003f0: 550d 123e ee58 52bf e0d1 253e 243a 6ebe
-0.07174146 0.13526529 -0.18969706 0.03273952 -0.108198255 0.20974696 0.18071947 0.13584024
-0.061422467 -0.2071861 0.08730519 0.18465099 -0.21600577 -0.14872772 0.034561217 0.1422224
-0.013501912 0.025542378 0.3728144 0.03472036 0.14286473 0.34855795 -0.1479933 -0.04334238
-0.39019752 0.17465673 0.2314091 0.22353071 0.12310052 0.63344413 0.120223254 -0.2123366
-0.18003291 0.054196805 0.090751864 -0.24409193 -0.030133853 0.08458482 -0.093848616 -0.07132158
-0.085076876 -0.04177106 -0.06197366 0.22502545 0.09974374 -0.08634767 0.1297155 -0.030165821
0.21269876 -0.22495273 0.24312812 0.10167688 0.20666142 0.21799147 0.120251 0.10928592
-0.25086114 -0.082339756 -0.13160679 0.24732223 0.09919282 0.44099584 0.1871628 -0.038935184
0.04850003 -0.1313245 -0.14770377 0.06549388 0.13542348 0.022486567 0.06615636 0.081341654
0.14931685 -0.086586386 0.013287604 -0.11844921 0.056700736 0.21334937 -0.034870595 -0.020003945
0.04591474 0.23405161 -0.06039846 -0.00095027685 -0.043071955 -0.08545166 0.15136462 0.1500617
0.1514521 0.06698161 -0.060546458 -0.23268852 0.067386776 0.13749614 -0.07557005 0.1629734
-0.1215387 -0.22751117 -0.01130743 -0.022666156 0.28405017 0.26682106 0.17653397 0.02523902
-0.02236629 0.23860048 -0.1580737 -0.044243455 -0.13754347 0.49501577 0.21769458 0.20075
0.1682269 0.12368557 0.049835157 -0.13795203 -0.21449979 -0.06658661 -0.042453617 -0.248121
0.30792642 0.06484377 -0.13605425 0.10126078 -0.027285216 -0.81916624 0.11338992 -0.24618465
0.13329634 -0.24301973 0.25629172 0.22228137 -0.027839802 0.47837555 -0.002017647 0.2206929
-0.08012395 -0.17480254 -0.113004476 -0.082653254 0.08776478 0.8292751 0.34962732 0.0059821904
-0.16826686 -0.23222786 0.10347676 0.21912712 -0.24927506 0.23125754 0.014272183 -0.025247008
-0.14400315 -0.06757478 0.09479463 -0.0029743016 0.18585387 -0.037004154 -0.23280114 -0.12510642
0.0022218525 0.08500403 0.1255225 0.21557075 0.13772154 -0.09842005 -0.0119380355 -0.035685718
0.14583075 -0.09306198 0.020593971 0.13044047 -0.038048357 0.13812584 -0.0916923 0.19851586
0.1549179 0.15039611 -0.15860458 0.087665945 -0.025521789 -0.014184177 -0.07807729 0.105155855
-0.14244615 0.122294314 -0.029313773 0.22224203 0.08877515 0.6141407 0.09504364 0.104821265
0.141891 0.100681335 0.14800742 0.08270332 -0.1082004 -0.041242182 -0.101156294 0.018936813
0.0070763826 -0.036403805 0.097908914 -0.020733684 -0.15145847 0.22672278 -0.2234515 -0.15049314
0.16711867 -0.13242137 -0.048131883 0.11509776 -0.04793799 -0.12452674 -0.011872083 -0.07193774
0.09658891 -0.05046463 0.047262847 0.20601228 -0.14612547 0.01826936 -0.077303916 -0.06303483
-0.122582704 -0.102639586 -0.097308554 -0.05145231 -0.058303606 0.4933611 0.23027548 -0.019205809
-0.31864798 -0.1039522 -0.038364142 -0.17784855 -0.22823742 0.6941403 0.03222235 -0.21127641
0.13081685 -0.14508787 -0.055110224 -0.19152 -0.0034158796 -0.42749166 -0.2278221 -0.024838507
0.58192855 -0.06801727 0.045555085 -0.19414195 0.14262898 -0.82166946 0.16193342 -0.23264366

hedge_q.0.linear_relu_stack.2.bias f4 [16]
00000000: d019 c5bd 5dd0 1abe 8e0d 75be 6696 8dbb
00000010: baac 40be dce0 38be d9cf 4ebe 36b3 383e
00000020: 8645 893d 84f7 403e 304f 26be 29bb 703d
00000030: 30d2 46be b87c e0bd a510 1f3e 9036 a33e
-0.09624064 -0.15118547 -0.23930952 -0.0043209074 -0.1881589 -0.18054527 -0.20196475 0.18037114
0.06702714 0.1884442 -0.16241145 0.05877224 -0.19416118 -0.10961288 0.15533693 0.31877565

hedge_q.0.linear_relu_stack.4.weight f4 [16, 16]
00000000: 802e 9a3d dd75 c73d 5f2d 853d 6b07 78bc
00000010: d841 3cbd c83d d33d d8b2 3e3e 0572 553e
00000020: b641 2dbe f870 c33d 1c2f 9ebd 10ce 5e3c
00000030: e8ca 1e3e fce8 193e 31e2 73be b713 5ebe
00000040: ce56 22be 3e06 8dbe 5b35 763d 2113 46be
00000050: 4e94 4e3e 0400 68be 7b4c febd 3e22 073e
00000060: b6fb 0b3e 5ed3 67be 00dc b939 a577 98bc
00000070: 848b 95bd 883a b03d 3289 4bbe 89a5 523e
00000080: 54df 893d d1d6 793d 51ed 18be adcc a1bd
00000090: 10b4 22be 1e16 683e 62d3 11bd 98a9 913b
000000a0: f550 1ebb a03c 46bd b8ef 2a3e edaa 1f3e
000000b0: 14d5 74be e4a3 493e cbd7 bfbb bda8 e53b
000000c0: a803 233e 3021 893d 0a97 52be a68f 2cbe
000000d0: 66ed 573e cc19 75be 50a5 73bd b046 5ebe
000000e0: 4a49 6abe 3063 f0bd 9ccd 1fbe 34ea e1bd
000000f0: 1078 3bbe 6ad1 08be d803 febd f065 28bd
00000100: 44f5 473e b90e d93e 1bc3 dd3d 59bc 823e
00000110: 48b3 853d 74b2 a53d dd61 853c 523a 98bd
00000120: 7a6f e33c a627 71be 449b a13d b7b1 da3d
00000130: 14a2 7cbe b8ad 413e d790 043e b1a3 c63c
00000140: 8024 e83b c2be 11bc d9f2 5abe 522a 6f3e
00000150: 062a 093e d822 d8bd 53ee c73e 1523 9cbe
00000160: 5d97 9f3e 1b63 ae3d 4e51 1e3e 7fee 0f3d
00000170: 809a a5bc e205 44be efdf 8a3e c360 c4be
00000180: 8017 bdbc b4ff e03d c06e 633e b03e 02be
00000190: 44af 853d c47d ff3d 9616 6fbe 640b 98bd
000001a0: 0860 8f3d f014 d83c 7ebe 4abe 8089 643e
000001b0: 0002 96bb 005a a2bd 2877 35bd 2063 f7bc
000001c0: 801d 013b a8b7 5e3e 3896 cabd ae8c 6cbe
000001d0: c8fa 443e e861 04bd e6d3 293e ca01 403e
000001e0: 003d 353c 7ae9 7c3e 144b 74be b41a b93d
000001f0: 6243 2abe e420 3d3e 8050 043b e897 05be
00000200: b66a 1cbe b63f d5bc d872 79be c01f 4fbd
00000210: 2c92 97bd 240a 95bd ed2c fdbd bcfb 3abe
00000220: e4d7 a63c d832 3bbd 886e fc3d aee9 68be
00000230: 44e0 d1bd 9e4e 18be 90ab 02be c131 b03c
00000240: 6a4c 32be 6146 e43d 14ce d9bd 42fc 30be
00000250: 3681 4f3e 081f 69be 2697 82be d9e5 6c3e
00000260: f984 ffbd e085 003d d478 ee3d 3c8c ff3d
00000270: 2863 06bd 2c81 e2bd e8e8 47be 1946 82be
00000280: d637 2a3e 4535 59bd bd5c d83d c6e0 86bd
00000290: ae2d 6e3e 54b7 bebd a850 83bc de90 68bd
000002a0: c710 e0bd c648 74be 0eb8 20be a4b0 383e
000002b0: 6076 1a3d 8058 163e ec36 60be 6398 57bd
000002c0: ec06 3bbe 4471 9c3e c4ee 37be afcf e1bb
000002d0: 6cd6 79be 0ed4 3bbe 18d6 ba3e 1660 12be
000002e0: 1085 b63e 76a2 0cbd 5a26 2e3e 3e9b 7bbd
000002f0: 4668 6bbe aaee 7ebe 914a 613e d4bf a4be
00000300: b0fe dfbc 50a1 3a3e 8c6c ba3d 3cb6 28be
00000310: e872 9f3d 8ce1 dd3d 08c9 03bd 6c96 aabd
00000320: fe15 7e3e 54d3 6d3e 967c 5cbe 80aa 30bc
00000330: 8022 65bc 543c 13be 3c2c 57be f07c 023d
00000340: 74dd bdbd 5b1e 03be ff22 41be 77a9 7a3d
00000350: a04e 273c 8883 2dbd 0777 afbc c94f 9e3d
00000360: 2d90 c1bd 949f d63d e866 2e3e db13 133d
00000370: 8089 ff3c 1a31 2fbe fa92 eabe c26d d93e
00000380: ac75 e5bd b01e ed3d 44fd 89bd b0d9 7ebe
00000390: 10ed 4bbe e2ec 643e 78d5 8dbd 5024 153d
000003a0: 3a3b 2a3e f669 7bbe 6221 02be e68e 3abe
000003b0: f648 723e c036 bfbd 368a 19be 3015 12be
000003c0: 1e2f 7cbe f33b f03e a120 ec3d df62 3dbc
000003d0: 242d 6f3e b457 2dbe 6152 893b 507f aebe
000003e0: 7b73 df3e b785 c7bd 9ed1 683e fe45 b33e
000003f0: dc16 583e 9ee3 303e e43b 083f 659c a1be
0.075284004 0.097392775 0.065027945 -0.015138487 -0.04596123 0.10314518 0.18622911 0.20844276
-0.16919598 0.095430315 -0.07723829 0.013598934 0.1550709 0.15030283 -0.23816754 -0.21687208
-0.15853426 -0.27543825 0.060109477 -0.19343235 0.20173761 -0.22656256 -0.12416931 0.13196656
0.13670239 -0.22639224 0.00035449862 -0.018611738 -0.07302001 0.08604914 -0.19876555 0.20570959
0.067320496 0.06099588 -0.14934279 -0.07900367 -0.15889001 0.22664687 -0.03560198 0.004445266
-0.002415714 -0.04839766 0.16693008 0.15592547 -0.23909408 0.19691426 -0.005854582 0.0070086406
0.15919363 0.06695783 -0.2056543 -0.16851673 0.21086654 -0.23935622 -0.059483826 -0.21706653
-0.2287952 -0.117376685 -0.15605778 -0.11030999 -0.18307519 -0.13361135 -0.12403077 -0.04111284
0.19527155 0.42394045 0.10828229 0.25534323 0.06528336 0.08090678 0.016282016 -0.07432999
0.027763117 -0.23550281 0.07890943 0.10678428 -0.24671203 0.18913925 0.12945877 0.024247976
0.0070844293 -0.008895578 -0.21381702 0.23355988 0.13394937 -0.10553521 0.39049014 -0.30495515
0.3117017 0.085149966 0.15460703 0.035139557 -0.020215273 -0.19142869 0.27123973 -0.38355073
-0.023082495 0.109862715 0.22210217 -0.12719226 0.0652757 0.1247516 -0.2334846 -0.074240476
0.070007384 0.026377171 -0.1979923 0.22318077 -0.004577875 -0.079273224 -0.04430309 -0.030198634
0.0019701421 0.21749747 -0.09891933 -0.2310054 0.1923629 -0.032319933 0.16584739 0.18750682
0.011061907 0.24698439 -0.23856765 0.09038296 -0.16627267 0.18469578 0.0020189583 -0.13046229
-0.15275082 -0.026031356 -0.24360216 -0.05056739 -0.07400927 -0.07277325 -0.123620845 -0.18260092
0.020366617 -0.045702785 0.1232577 -0.22745392 -0.102478534 -0.1487374 -0.12760758 0.0215081
-0.17411962 0.11146236 -0.106350094 -0.17283729 0.20264134 -0.22765744 -0.25505942 0.23134555
-0.124765344 0.031377673 0.1164414 0.124779195 -0.032809407 -0.11059794 -0.1952244 -0.25444105
0.16622862 -0.053029317 0.105645634 -0.06585841 0.23259613 -0.09312311 -0.01602967 -0.05677878
-0.109407 -0.23855886 -0.15695211 0.18036133 0.037710547 0.14682198 -0.21895951 -0.05263556
-0.18264359 0.30555165 -0.17962176 -0.006891213 -0.24398202 -0.18342611 0.36491466 -0.14294466
0.35648394 -0.034334622 0.17006817 -0.061427347 -0.22988996 -0.2489573 0.22001101 -0.32177603
-0.027343124 0.18225598 0.09102735 -0.16475767 0.077855885 0.10834035 -0.03217414 -0.08329472
0.24813077 0.23225147 -0.21531901 -0.010782838 -0.013985276 -0.14378482 -0.21012968 0.03185743
-0.092707545 -0.12804548 -0.18861006 0.06119677 0.010211617 -0.042361766 -0.021419061 0.077300616
-0.094513275 0.10479656 0.17031443 0.035907608 0.031193495 -0.17108575 -0.4581526 0.4246655
-0.11204085 0.11578119 -0.0673776 -0.24887729 -0.19914651 0.22355989 -0.069254816 0.036411583
0.16624156 -0.2455214 -0.12708047 -0.18218574 0.23660645 -0.093366146 -0.1499413 -0.14265895
-0.24627349 0.46920738 0.11529661 -0.011559217 0.23357064 -0.16927987 0.0041907285 -0.34081507
0.43642792 -0.09742301 0.22736213 0.35014337 0.2110247 0.17274329 0.53216386 -0.31564632

hedge_q.0.linear_relu_stack.4.bias f4 [16]
00000000: f5c5 913d 45d1 a63c 8fab 06bd d49b c63d
00000010: 6293 5b3e 8eb7 0e3e cc47 3bbe 4c35 6ebe
00000020: 860e de3c cc66 103e 124c f43d 5dfe 4c3e
00000030: 6c90 6dbe cefc 72ba e06c c33c b5e1 3fbd
0.071178354 0.02036346 -0.032878455 0.096976906 0.21442941 0.13937208 -0.18289107 -0.23262519
0.027106535 0.14101714 0.11928572 0.20018907 -0.23199624 -0.0009269238 0.023855627 -0.04684611

hedge_q.0.linear_relu_stack.6.weight f4 [1, 16]
00000000: 4ca0 2bbe 833c 1fbf c892 5abd 167a 163e
00000010: 0dcf 453e fa61 6a3e e8be 793d e4f4 aa3d
00000020: 8c45 fe3d e3b9 cdbd 05bb 3ebe dc88 7a3e
00000030: 406a 97bc 5d71 57bf 0831 01bd 005f 7a3e
-0.16760367 -0.6220171 -0.053362638 0.1469501 0.19317265 0.22888938 0.060973078 0.083474904
0.12415609 -0.10045221 -0.1862603 0.2446627 -0.018483281 -0.84157354 -0.0315409 0.24450302

hedge_q.1.linear_relu_stack.0.weight f4 [16, 2]
00000000: 090c 313f 70a1 093f 734e f73c 64c6 f1be
00000010: 8cf9 0fbf c4ea a53e 314a 15be 045e 69be
00000020: 2932 973f d5fb 13bf 2ec3 3abe c3b1 00be
00000030: 7f4c a83e ad30 213f 12cc 263f abfd 103f
00000040: 2e86 123f 9613 143f 546a a9be a069 033f
00000050: f79f 30be 6542 1fbf aa47 a13e 9c9b b7be
00000060: 4429 9f3e ec3d ef3e 65b9 f6be dbeb 18bf
00000070: 93b4 203f bf50 bb3e fcdb 883e 013f fe3d
0.6915899 0.5376196 0.030188775 -0.47221673 -0.56240153 0.32405674 -0.14579083 -0.2278977
1.1812183 -0.5780614 -0.18238518 -0.1256781 0.32870862 0.629649 0.65155137 0.56637067
0.5723599 0.57842386 -0.33088934 0.51333046 -0.17248522 -0.62210685 0.31499988 -0.35860908
0.3108617 0.4672693 -0.4818832 -0.59734887 0.62775534 0.36585042 0.26730335 0.12414361

hedge_q.1.linear_relu_stack.0.bias f4 [16]
00000000: 0e1c d2be 9378 7abe 7d84 90be d4b2 23bf
00000010: 9ad8 10bd 763c 1ebf 1195 c63e 66e7 20be
00000020: 9025 8a3d 01ea 14bf b2f0 82be 5a12 b1be
00000030: aedd 8fbe d117 25bf 347a a0bd a147 d53e
-0.4103703 -0.24460058 -0.2822608 -0.63944745 -0.035362817 -0.61811006 0.38785604 -0.15713271
0.06745446 -0.5816956 -0.2557426 -0.34584314 -0.28098816 -0.64489466 -0.078358084 0.4165621

hedge_q.1.linear_relu_stack.2.weight f4 [16, 16]
00000000: 2e56 f3bd b609 6b3e 985c 153e e875 aebd
00000010: cd01 243f 7a74 4e3e 1e6f bf3d 5783 5f3d
00000020: b12c 643e f251 023e 0004 de3b cc79 8e3d
00000030: 3c71 05be 64d0 18be de4d 593e feb5 1b3e
00000040: 066c 943e 346a acbd 504f eebc 503c 47bd
00000050: a375 3b3f 2a9c 503e 3eb1 7c3e eb92 b03e
00000060: 1c8e 723e a8c6 33bd 505e db3c 7e0a 2abe
00000070: 9737 823e 5a2c 3cbe 5af6 0d3e c61d 983d
00000080: 0bd7 533e 6022 43be 38a8 bdbd a804 5fbe
00000090: 8800 543e 5672 3cbe 9d0f 5fbe 0e56 c4bd
000000a0: 42f1 98bd bcea 81bd 6400 a5bd 00c8 09bc
000000b0: 22bb 5bbe e89b 1d3d 32b7 0b3d f4bf 5cbe
000000c0: d414 1cbe 908d a1bd 0258 7bbe d251 74be
000000d0: 64fe 14be fa0b 0fbe 600a 9ebc 92f6 7b3e
000000e0: e04b 3c3d 8ac7 6bbe d4c1 3e3e fe57 403e
000000f0: bee0 1e3e 10b4 c23d 54c9 cabd 083a d7bd
00000100: 8030 45bb fc9c 88bd 68b7 86bd 4065 42bd
00000110: a06e e2bc d85d 59be 3034 83bc 9e89 15be
00000120: 341e e43d 08bc c8bd 0cc8 febd d00a dd3c
00000130: be12 763e e4e4 783e d463 e1bd b49d debd
00000140: 2293 7d3e 4eec 32be 8004 8cbc 3ae7 243e
00000150: 38e1 083d 10bb 853c a08a 86bc f065 ffbd
00000160: 2c50 523e 88e9 9dbd b4c3 f5bd 4a84 783e
00000170: a065 5fbc 9833 10be 54c9 c0bd 0030 d1b9
00000180: e600 903e 588a 753d 2e99 4cbe 008c b23c
00000190: 2267 643f 1cd9 c5bd 9861 013e 269d c23e
000001a0: 541c 12bc c45a 443e 4c53 cb3d 6095 133e
000001b0: 25d1 253e 3e3e 2a3e 5d4e b63e ca1c 2a3e
000001c0: 46bd eabd 70fc 703d 5a56 4cbe 5825 323d
000001d0: 012d 1cbd a062 cf3c 733a 88be a050 383e
000001e0: 2f5f f83d ce27 163e b019 cb3c 84f3 57be
000001f0: 80d5 e9bd 34d2 f4bd a6d2 063e c9f5 71be
00000200: 6860 b7bd bcf1 5ebe 30a1 ee3d 1ea9 073e
00000210: 0c3f 713e 8087 163d f424 9abd c08a 3dbe
00000220: c0ec 82bb fc6c b4bd 20ed 8f3d 0403 443e
00000230: 1898 d2bd e88a 62be b060 03bd 30bb 13be
00000240: a434 603e 9aac 54be f873 41be 7a82 083e
00000250: 2700 783f c088 19bd 45c2 4cbe 5aaa d8bc
00000260: cf07 ac3d 681c 22be 7815 f1bd 4827 853d
00000270: 49a3 a23e ea2c 57be fe91 9c3d a71a a9bd
00000280: 9f53 1bbe d050 3a3e a09f 23be d2d3 613e
00000290: ea8b 5a3e d025 4cbe 7ae2 b1bd 621d debd
000002a0: 99b1 073e b486 b13d 5078 cbbd a039 35bc
000002b0: 0e25 3cbe 5088 ebbc 7cc5 77be f5fc 8d3d
000002c0: ae27 22be 1a0c 0d3e b84f a83d 1033 483d
000002d0: 4439 95bd 6c8d 913d 92da 79be a082 4fbc
000002e0: c040 c9bd 9897 8d3d 80e4 4bbe 40df dabc
000002f0: 6607 6ebe 44dc 7a3e ae46 1cbe 0800 8b3d
00000300: 2a9a 693d 7494 9a3d a033 3abd 5041 cabc
00000310: 4c36 283f 5061 d63c dabd 00be a595 f23d
00000320: 8c9c 4a3e ac26 c6bd 32c7 1abe a078 debc
00000330: 6756 6ebe a068 46be b735 d9bd 59b0 a23e
00000340: 6033 60bd f86e 323d 4011 77bd f0f7 c6bd
00000350: f4f2 d2bd 18e3 b53d 80b9 3d3e c214 41be
00000360: bcb5 ab3d 8299 403e 000f c0ba 3041 52be
00000370: 388e ecbd d0da c0bd b298 63be 941c 53be
00000380: ea83 f33d d017 3cbe 847b 183e 3a5e 6ebe
00000390: 2144 293f e664 173e 1877 203e c32b b1bd
000003a0: 79da ec3d d2ec 51be b6f3 0fbe e0e3 e23d
000003b0: 3229 d03e 00ec 3abe 126a a03e 835d 52be
000003c0: 30fc 903e 9e66 18be 5a80 2c3e 10ff 523d
000003d0: 5b51 713f 6072 56bd 66fd 18be 4812 7e3e
000003e0: 5e1f c73d dcff ecbd 6427 fabd 544c c93d
000003f0: 6367 0b3f 64be 7bbe 5aa4 423e d698 3e3d
-0.11881672 0.22952923 0.14586103 -0.085185826 0.6406525 0.2016162 0.09347366 0.054568615
0.22282673 0.12726572 0.006775379 0.06956825 -0.13031477 -0.14923245 0.2122111 0.15206143
0.28988665 -0.08418694 -0.029090554 -0.048641503 0.73226374 0.20372072 0.24676988 0.3448709
0.23687023 -0.043890625 0.02677837 -0.16605565 0.25433037 -0.18376294 0.13863507 0.07427554
0.20687501 -0.19056082 -0.09260601 -0.2177912 0.20703328 -0.1840299 -0.217833 -0.09586726
-0.07467891 -0.063436 -0.08056715 -0.0084095 -0.21458104 0.038478762 0.034110256 -0.215576
-0.1524232 -0.07888329 -0.24545291 -0.23859337 -0.14550167 -0.13969412 -0.019292057 0.24605778
0.045970798 -0.23025337 0.18628627 0.18783566 0.1551542 0.095070004 -0.099016815 -0.105091155
-0.0030088723 -0.066705674 -0.06577951 -0.04745984 -0.02764064 -0.21227205 -0.016016096 -0.14603278
0.11138573 -0.09801489 -0.124405 0.026982695 0.24030587 0.24306065 -0.11005369 -0.10869923
0.24763158 -0.17472956 -0.01709199 0.16103831 0.03341791 0.01632455 -0.016423523 -0.12470615
0.20538396 -0.07710558 -0.12000218 0.24269214 -0.013635069 -0.14082181 -0.094134 -0.0003989935
0.28125685 0.059946388 -0.19980308 0.021795273 0.8921987 -0.09660551 0.12634885 0.3801052
-0.008917887 0.1917525 0.09927997 0.14412451 0.16193064 0.16625306 0.3560666 0.16612545
-0.11461882 0.058834493 -0.19954816 0.043492645 -0.038128857 0.025315583 -0.26607093 0.17999506
0.1212753 0.14663622 0.024792522 -0.21088988 -0.11417675 -0.119541556 0.13166294 -0.23628916
-0.08953935 -0.21771902 0.11651838 0.13248107 0.23559207 0.036750317 -0.075265795 -0.1850996
-0.003995508 -0.088098496 0.0702765 0.19141775 -0.10282916 -0.22123301 -0.03207463 -0.14426875
0.21895081 -0.20768967 -0.18891895 0.13331023 0.9687523 -0.03748393 -0.19995983 -0.026448417
0.08399927 -0.15831149 -0.11771673 0.06501633 0.31765202 -0.21013227 0.07645033 -0.08257037
-0.15168618 0.1819489 -0.15978861 0.2205346 0.21342435 -0.199363 -0.08685775 -0.10845448
0.13251342 0.08668271 -0.09935057 -0.011061102 -0.1837351 -0.028751522 -0.24196428 0.06933013
-0.15835449 0.13774148 0.0821833 0.048876822 -0.07286313 0.07107052 -0.24399784 -0.012665421
-0.09826803 0.0691368 -0.19911385 -0.026717782 -0.2324501 0.24498087 -0.15261337 0.06787115
0.057031788 0.075478464 -0.04545939 -0.024689347 0.6570785 0.02616945 -0.12572423 0.11844949
0.1978628 -0.09675345 -0.1511505 -0.027157128 -0.23275147 -0.19375849 -0.106059484 0.31775168
-0.054736495 0.04356286 -0.060319185 -0.09715259 -0.10300246 0.08881205 0.18527794 -0.18855575
0.083842725 0.18808559 -0.0014652908 -0.2053268 -0.115505636 -0.09416735 -0.22226217 -0.2061637
0.11890395 -0.18368459 0.14890867 -0.23278132 0.6611958 0.14784583 0.1567043 -0.08650925
0.11565108 -0.20500496 -0.14057812 0.1107862 0.4065643 -0.1825409 0.31330925 -0.20543484
0.28317404 -0.14882895 0.16845837 0.051512778 0.94264764 -0.05235517 -0.14940414 0.24811661
0.0972278 -0.11572239 -0.122145444 0.098290116 0.5445463 -0.24584347 0.19008008 0.046532474

hedge_q.1.linear_relu_stack.2.bias f4 [16]
00000000: 1dd1 2b3d 69c1 e3bd 6502 3c3e ee0c 36be
00000010: f06a d13c 32b6 7dbe 0e9e 3fbe f51c 103e
00000020: f88b 4c3d e85b 193d 44cc bbbc feed 0a3e
00000030: 0e18 9f3e 0869 cebd ab36 07be 8c67 82be
0.041947473 -0.111208744 0.18360288 -0.1777837 0.025563687 -0.24776533 -0.18712637 0.14073546
0.049938172 0.037441164 -0.02292455 0.1356735 0.3107304 -0.10078627 -0.13204448 -0.25469625

hedge_q.1.linear_relu_stack.4.weight f4 [16, 16]
00000000: 860d 6c3e 03a4 45be 2a28 863d e069 99bd
00000010: 06cb 323e 00bd 70be f51c 70be 6d43 823d
00000020: 80ee 44bb 363f 09bf 3dab 45be c6de 5c3e
00000030: 556f 0a3d f0a4 6dbe 7bac adbd 313a 68be
00000040: 9419 983e b816 ba3e e903 a73d e26c 723e
00000050: 180f 6bbe c400 6ebe 5878 123e 7735 ffbd
00000060: a8ac 183e aebf 3a3e 1416 da3c 6049 63bd
00000070: 96a8 ac3e a04e c3bd 78c0 943e 8c19 b93e
00000080: dcf7 5fbe 31e4 8cbe 5856 98bd 9a50 683e
00000090: 809b 27bc 6898 0fbe e2c8 193e 4733 15be
000000a0: c26b 41be 37ca 1e3e 033c c0bd 7a33 25be
000000b0: 9773 e6bd 80cf a43d 309e 54be 878f 013e
000000c0: 155a c03d d25a 153d bb3d 883d 00c8 3cbe
000000d0: d8bb 11be e67f 4abe 3089 90be 7594 e43d
000000e0: 4a54 53be da05 14bf 69ad 51be 4c90 253e
000000f0: 9d80 943e 20d0 283e 64a4 a9bd 34ab 2cbf
00000100: dc2a bb3d c082 3a3c 407b 3bbe c4a0 aa3d
00000110: 220d 303e 3204 15be e237 5abe 3814 8abd
00000120: 90ba 62bd b013 97bc 343f b8bd e25a 413e
00000130: d681 5abe 4ebf 14be c44c 3cbe 9a0e 7b3e
00000140: a98f 433e 4ddf 493e bbd4 1ebe 2ea2 383e
00000150: 0e50 2bbe 6654 15be 07a1 923e 1326 39be
00000160: 28c3 2a3d de1b d23e b86b 95bc 0495 8c3d
00000170: d7bb 093e c0ef afbc bd8e 413e 6fc9 393e
00000180: 983e 0bbe 823f 0dbe 84e6 6fbe b2cd 13be
00000190: 4070 f23d 1423 c53d 129a 533e 90a5 0dbe
000001a0: a089 c63c cc3f d3bd 800d 25be f0bf f4bc
000001b0: b0aa f9bc b405 72be 8600 58be 20e1 12bd
000001c0: 9241 4ebe e3cd 3bbd 7f63 58bc e01f 5e3c
000001d0: e6ed 78be 2cee 32be 8fa7 063e bb41 2dbc
000001e0: d08d 03bd d4fa c23e af8a 98be 1c5c 773e
000001f0: 3a64 07be c040 f33d 9ac5 903e 6cde c43e
00000200: d3fc 993e d5f3 d63e 2140 04be fa5e 5abe
00000210: 6050 81bd 3266 1e3e f5a4 c63e b8fc 62bd
00000220: 1481 d8bd d992 b13d 1a3f c53c 9c54 f13d
00000230: 8371 ae3e 10e9 d3bd 8a9f 433e a1a9 5c3d
00000240: 9adb 533e 9ed3 393e c434 043e ea5c 0c3e
00000250: d017 0e3e c0a1 9b3c c0df 5bbe c8bd 133e
00000260: 8076 f9bd 30c6 adbd 989a 1abe 0061 cc3b
00000270: 108c 57be 363c 26be 7a79 76be 7050 03be
00000280: 1d4c e33d 89cc 17be aa9d 463e 7c43 cc3d
00000290: 5617 3a3e baec 7f3e 0b70 93bd a06f b03d
000002a0: 2034 593c fbbf aabc 3790 893d de9b 4bbe
000002b0: fd03 5c3d 449b 6e3e 3440 843d 0268 3a3e
000002c0: d6ff 1d3e 4e62 9cbe 336c bd3d 80a3 8f3d
000002d0: 20d1 3ebe 08c3 2f3d 5eda 933c 2fb4 fbbd
000002e0: 900c 7bbe 25a5 0ebf e97d b33d f8de 76be
000002f0: 9ea2 233e 7a9d 233e fde2 94bd 927b 2fbf
00000300: a8f3 71be 0a41 13be 16f2 563e 0088 68b9
00000310: 181b 5ebd 0e80 733e 0805 943d c0cc b0bd
00000320: 7eef 7ebe 1039 7ebd 18e0 503d f8f8 00bd
00000330: d8e0 66be e438 6e3e 8a70 49be d038 0dbd
00000340: cd81 433d 13b8 c23e b9aa f1bd 404b 3f3c
00000350: 540f 453e 20a7 f3bc df9b c63e fd3b c53d
00000360: 6030 e93d c106 a13d 7e6c 83be d2dd 6d3e
00000370: b2d5 3c3e e0d0 023d c41e 703e 9ac5 e8bb
00000380: 987d c2bd 5825 ba3d d05c 97bd 88bf b6bd
00000390: a0b7 fbbc 0080 af38 00e4 dfba 0eb5 38be
000003a0: 387e 683e 30c4 95bc 2651 01be ea4d 633e
000003b0: a2db 443e 00e0 db3a cc0e 8fbd 30e8 9dbc
000003c0: ac22 8a3d 4b80 2dbe 6e61 6c3e f8ec 12be
000003d0: e83c 743e 484b f33d c7cd 3dbe 60bd 873c
000003e0: 0e51 1bbe a889 653e daae d83d 7801 4e3e
000003f0: 3fb7 003e 9cff af3d c144 5ebd e700 4bbe
0.23052034 -0.19300847 0.065506294 -0.07490897 0.1746026 -0.23509598 -0.23448546 0.06360517
-0.0030049384 -0.5361208 -0.19303603 0.21569356 0.03379758 -0.2320745 -0.08480164 -0.22678448
0.29707015 0.36345458 0.08155043 0.23674348 -0.22954977 -0.2324248 0.1430372 -0.124613695
0.14909613 0.18237182 0.026621856 -0.055489898 0.3372237 -0.09536481 0.29053092 0.36152303
-0.21871895 -0.27517846 -0.07438344 0.22686997 -0.010229945 -0.14022982 0.15018037 -0.14570342
-0.18888763 0.15506826 -0.09386446 -0.16132918 -0.11252516 0.0804739 -0.20763469 0.12652408
0.09392182 0.036463566 0.06652399 -0.18435669 -0.14231813 -0.19775352 -0.28229666 0.111611284
-0.20637622 -0.5782143 -0.20476307 0.16168326 0.29004374 0.16485643 -0.08283308 -0.67448735
0.09139034 0.011383712 -0.18308735 0.08331445 0.1719251 -0.14552382 -0.2131038 -0.06742138
-0.0553537 -0.018442005 -0.0899643 0.18882325 -0.21338591 -0.14526102 -0.18388659 0.24517289
0.19097771 0.19714089 -0.15510838 0.18030617 -0.16729757 -0.14582977 0.2863848 -0.1808093
0.04169002 0.41036886 -0.01823984 0.0686436 0.13450561 -0.021476626 0.18902107 0.18143247
-0.13598096 -0.13793758 -0.23427778 -0.14433935 0.11837816 0.09625831 0.20664242 -0.13832688
0.024235547 -0.10314903 -0.16118431 -0.02987668 -0.030476898 -0.23634988 -0.2109395 -0.035859227
-0.201422 -0.045850646 -0.0132073155 0.013557404 -0.24309501 -0.17473668 0.13149856 -0.010574753
-0.032117665 0.38081992 -0.29793307 0.2415623 -0.13221827 0.118775845 0.28275758 0.38450944
0.30075702 0.41982904 -0.12915088 -0.21325293 -0.063141584 0.15468672 0.38797727 -0.055416793
-0.10571495 0.08670587 0.02407794 0.11783716 0.34070978 -0.103471875 0.19103828 0.05387271
0.2068924 0.18147132 0.12910753 0.13707319 0.13876271 0.018998027 -0.21472073 0.14427865
-0.12180805 -0.08485067 -0.15098035 0.0062371492 -0.21049523 -0.16233906 -0.24069777 -0.12823653
0.11098502 -0.14824118 0.19396082 0.09973809 0.18172964 0.24992648 -0.07199105 0.08615041
0.0132570565 -0.020843497 0.0671696 -0.19883677 0.05371474 0.23301417 0.06457558 0.18203738
0.15429625 -0.3054375 0.09249153 0.07013607 -0.18634462 0.042910606 0.018048462 -0.12290227
-0.24516511 -0.5572074 0.0876425 -0.24108493 0.15980002 0.15978041 -0.07269857 -0.6854793
-0.23628104 -0.14380279 0.20990786 -0.00022175908 -0.054225057 0.23779318 0.07227522 -0.08632803
-0.24896047 -0.062066138 0.050994962 -0.031487435 -0.22546709 0.2326389 -0.19671836 -0.03447801
0.04773121 0.38031062 -0.11800141 0.011675656 0.19244128 -0.029742777 0.38790795 0.096305825
0.1138618 0.07862616 -0.2566871 0.23229149 0.18440893 0.03193748 0.23449236 -0.007103634
-0.09496611 0.09089154 -0.073907495 -0.089232504 -0.030727208 8.368492e-05 -0.0017081499 -0.18037817
0.22704399 -0.018282026 -0.12628612 0.2219769 0.19224408 0.0016775131 -0.06985244 -0.019275755
0.067448944 -0.16943471 0.23084041 -0.14348209 0.23851359 0.11879593 -0.18535529 0.016569793
-0.15167639 0.22415793 0.10580225 0.20117748 0.12569903 0.085936755 -0.054264788 -0.19824563

hedge_q.1.linear_relu_stack.4.bias f4 [16]
00000000: 9873 733e 01c8 6a3e f399 e23d be14 9c3e
00000010: f07d 11be 8faa 773e 8a50 0dbe f1d8 60be
00000020: 1725 c13d 8ea3 7dbe ee11 01bd ab8b a43e
00000030: 40fa 8dbd e436 893d 7cad 54be 413f abbd
0.23774564 0.22927858 0.1106452 0.30484575 -0.14208198 0.24186157 -0.13800254 -0.21957757
0.094309025 -0.24769422 -0.03151124 0.32137808 -0.06932497 0.06699923 -0.20769304 -0.08361674

hedge_q.1.linear_relu_stack.6.weight f4 [1, 16]
00000000: 4149 95be a3d2 ff3d 3c1c 24be 4b44 19bf
00000010: 904d cc3d 120a 683e 1870 6cbd df20 15bf
00000020: 3635 663e b072 1fbe b740 7bbd 285a 01bf
00000030: 8011 ebbd 8e17 1b3e 96f4 293e 3ff3 5fbe
-0.2915745 0.12491348 -0.16026396 -0.5986983 0.099757314 0.22660092 -0.05772409 -0.5825328
0.22481236 -0.15571094 -0.061341014 -0.5052819 -0.11477947 0.15145704 0.16597208 -0.21870135

hedge_q.2.linear_relu_stack.0.weight f4 [16, 2]
00000000: 6baa 6e3e e5a1 4d3d 6a85 063f 4ef8 9fbd
00000010: 56f2 3f3f 17d6 7d3e 0d7b 88bc 6425 33bf
00000020: 9c48 333f b224 a3be ccbb 3d3f f6e7 9e3e
00000030: f8b7 483e e47a 02bf b185 7cbe b513 253e
00000040: bc8d 253f bea3 ae3e d8e4 383e ed86 f8be
00000050: b58c b3be 3197 d73e c037 8f3d f60a 0fbe
00000060: 7c8c e1be ae94 b73d 26e0 0a3e 606b 673e
00000070: 7b84 c83e 7285 fbbe 421d cd3e 7d0b e6be
0.23307197 0.050203223 0.52547324 -0.07811032 0.7497915 0.247887 -0.016660238 -0.6997893
0.7003267 -0.31863934 0.7411468 0.31036347 0.19601429 -0.50968766 -0.24660374 0.16120799
0.64669394 0.341093 0.18056047 -0.4854044 -0.35068288 0.42107537 0.06993055 -0.13969025
-0.44052494 0.08963905 0.13562068 0.22599554 0.39163575 -0.49125248 0.40061384 -0.4493064

hedge_q.2.linear_relu_stack.0.bias f4 [16]
00000000: e689 3b3e c1e1 b93e a05b aabe f5ad 333e
00000010: d678 65bd 90d6 273d bc8c 29bf a5da cfbe
00000020: 2aee e23e dcf5 2bbf 5d64 b4be 737e 1fbf
00000030: 545c ca3e a498 cd3e 491a 89be 5412 bb3e
0.18314323 0.3630505 -0.3327303 0.17546828 -0.05602344 0.040976107 -0.6623037 -0.405965
0.4432233 -0.67172027 -0.3523282 -0.6230232 0.39523566 0.40155518 -0.26777866 0.3653742

hedge_q.2.linear_relu_stack.2.weight f4 [16, 16]
00000000: e1f8 10be e161 443e 7b81 d03e 4848 73bd
00000010: 61ea 7d3e 47c5 17be 6ce6 b33d 806f 8c3b
00000020: 4cba 223e fe36 67be b900 b53d 80ff 26be
00000030: 45e1 c2be 645e 033e 124f 23be d994 13be
00000040: 02c0 6dbc 86d5 febd b37d dc3e 7325 233e
00000050: 27a5 e83e f3c1 5d3e 00b6 39bd a607 64be
00000060: bb0e 0e3e f431 9ebd 32ce dfbd e837 c5bd
00000070: 5e3c ec3d 324f bf3d 9d53 873d c575 103d
00000080: a07b e33d a010 7cbc 105a 27bd f25c 783e
00000090: 705a 04be 80aa 003b 74ed 16be 7439 7dbe
000000a0: 2c93 5bbe 5c27 39be dc0f 463e 2cbc 00be
000000b0: f02c 57be c4b6 18be aa98 643e c025 5cbc
000000c0: c4dd 1f3e d88c 47be 0639 66be 1291 7e3e
000000d0: 5c5c 623e 9864 9cbd 6cf4 fbbd fa45 6dbe
000000e0: a08a 6e3d 5c27 dfbd d038 febd 8088 6bbd
000000f0: 2066 493e 305c 3e3d 50e8 88bc f00f 59bd
00000100: d79e acbd d688 233e e601 d63e 8698 d1be
00000110: 525b e93e d316 023e 7c4a abbd 0a64 2dbe
00000120: 753a 043e 5c89 8ebd d62a c0bd 78fa a93d
00000130: eb10 85be 09e0 e03b 5f8e 243d 4516 1fbd
00000140: 775b 463e 52b1 3abe 7b45 563f f59c 98be
00000150: bab3 fe3e 8db3 4a3d 5a03 0a3e 203b 20bd
00000160: fffa 12be a86a a7bd 5147 193e 1c33 e33d
00000170: 40b5 8dbe 7fea e3bc 5a50 62be 5b92 a33e
00000180: bc3f 903d b86c 5abe 703c 42bd 7863 ccbd
00000190: 4ad6 2dbe 1299 01be e674 7ebe 50db 96bc
000001a0: 26e0 1bbe 0065 3b3b d245 0fbe c8e3 663d
000001b0: 809f a13d 9c01 f23d fc0b 88bd e25a 333e
000001c0: ace4 89bd 7cd1 a43d d8d9 07be 70a0 23bd
000001d0: c898 75be 6c9f 44be f2b0 6cbe 5897 ab3d
000001e0: c077 1cbc 9ac4 61be 2408 cb3d 046f 733e
000001f0: 10e7 33bd 1866 df3d 9c20 79be f0c1 ddbc
00000200: adbb fbbd 6853 213e 11dc 5a3f e338 e7be
00000210: ebf1 0c3f b968 4abd 1ed8 683e d460 233e
00000220: 53ea 533e 9040 afbd 07a1 80be c04f 803c
00000230: d567 7dbe cb8f fa3d 9b25 4bbe 968f 1e3e
00000240: 2911 26be dab1 98be d09f 12be 8505 a4b9
00000250: 66ac cb3d 84e2 99bd 665e 7f3e d0f7 22bd
00000260: 1209 a53d 78be 363d 9c73 8e3d daa1 513e
00000270: 9f01 63be 2c8a 1e3e c3e5 8cbe b30e 7c3d
00000280: 467a 393e df86 dc3d b9eb a93e d65c cc3c
00000290: b864 8d3e 29a6 983e 5089 643d 56cf 7a3e
000002a0: 53f0 0c3e ac40 acbd 9558 78bd 3670 093e
000002b0: 1c9e 79be 3f79 723e 118c ea3c 620b 8d3e
000002c0: 79bf 25be de33 59bd c3b1 523f 7543 78be
000002d0: b605 e33e f70f 8d3e 5268 16be 2211 58be
000002e0: 03f0 783e 20e3 b1bc fb7d 3fbe 8060 0abc
000002f0: e11e bebd bbfb 253e 633f 39be ba99 3ebd
00000300: 7e32 413e b3f6 2bbe 48e6 8f3d 77fc a43d
00000310: d2aa 3ebe bddf 0d3d e4cd 323e a6aa 093e
00000320: 9fd8 0dbe 7623 38be 80f0 5a3b 3a40 4cbe
00000330: d276 80bd 8100 57be 0c3a ebbd 9692 de3d
00000340: 743c 513e 4acb 763d e73b 723f f748 72bf
00000350: 1414 ac3f 59b1 d43e 7c16 24be 4804 3a3e
00000360: 3d10 8a3e a274 393e 4c3c 76be b0c1 55be
00000370: ded9 24bf 06a2 0abe 1c20 883d a378 01bb
00000380: 1176 f43d b6b0 21be 54fc 0d3e 09b7 10be
00000390: e3a9 313e 55df 0c3d 6060 efbd 36b4 16be
000003a0: c25e fcbd e020 1c3c 62cb 3b3e 108a 4abe
000003b0: 0732 a9be 988f 033e 22c9 1d3e fbbe 63be
000003c0: 0811 ff3d 7695 50be c097 463e 98aa 273d
000003d0: 5029 e9bc 8a76 29be 1840 2b3e a402 073e
000003e0: 5c71 dfbd b013 9bbc 54c8 85bd 82b4 2abe
000003f0: 46af 7abe 1c67 ffbd ae72 313e 88e9 513d
-0.1415744 0.19177963 0.40723786 -0.059395105 0.2479644 -0.14821349 0.08784184 0.004285753
0.15891379 -0.22579572 0.088380285 -0.16308403 -0.38062492 0.12828976 -0.15948132 -0.1441225
-0.01451111 -0.1244307 0.4306465 0.15932254 0.454385 0.21656017 -0.045339584 -0.22268543
0.13872807 -0.077243716 -0.109280005 -0.09629804 0.115349516 0.09341277 0.06607745 0.035268564
0.11107564 -0.015384823 -0.040857375 0.24254206 -0.12925124 0.0019632876 -0.14739019 -0.24728948
-0.2144286 -0.1808142 0.19341987 -0.12571782 -0.21013236 -0.1491347 0.22323862 -0.013436735
0.1561194 -0.19487321 -0.2248269 0.24860027 0.22105545 -0.07636374 -0.12302479 -0.23171225
0.05823767 -0.10896179 -0.1241318 -0.057503223 0.19667864 0.046474636 -0.016712338 -0.052993715
-0.08428734 0.15970168 0.41798323 -0.4093668 0.45577484 0.12704019 -0.08363816 -0.16932693
0.12912925 -0.06959793 -0.0938317 0.08299726 -0.2598947 0.0068626446 0.04017484 -0.038839597
0.19370829 -0.18231705 0.8369977 -0.2980725 0.49746495 0.04948764 0.13477841 -0.039118886
-0.1435356 -0.0817464 0.14968611 0.11093733 -0.27677345 -0.027821777 -0.22100964 0.31947598
0.07043406 -0.21330535 -0.04742092 -0.0997991 -0.16976276 -0.12656048 -0.2484928 -0.018415123
-0.15222225 0.0028594136 -0.13991478 0.056369573 0.0789175 0.11816713 -0.06642911 0.17515138
-0.06733069 0.080477685 -0.13266695 -0.039947927 -0.23984063 -0.1920144 -0.23114374 0.08378476
-0.009550035 -0.22047654 0.09913662 0.23772818 -0.04392153 0.10908145 -0.24328846 -0.027070016
-0.12291656 0.15754473 0.85492045 -0.4516059 0.5505664 -0.049416278 0.22738692 0.15954906
0.20694856 -0.08557236 -0.25122854 0.015663028 -0.2474664 0.122344576 -0.19838564 0.15484461
-0.16217484 -0.2982319 -0.14318776 -0.0003128463 0.09944992 -0.075139076 0.24938354 -0.039787114
0.08058371 0.04461524 0.069556445 0.20471898 -0.22168587 0.15482396 -0.27519044 0.061537456
0.1811305 0.10767912 0.33187655 0.024946611 0.27615905 0.2981427 0.055795014 0.24493155
0.13763551 -0.08410773 -0.060631353 0.13421711 -0.2437672 0.23679064 0.028631242 0.27547747
-0.16186322 -0.05302798 0.8230249 -0.24244483 0.44340295 0.27551243 -0.14688233 -0.21100286
0.24310307 -0.021714747 -0.18700401 -0.008445859 -0.092832334 0.16209309 -0.18090586 -0.046533324
0.18866917 -0.16793327 0.070263445 0.08055966 -0.1861985 0.0346372 0.17461354 0.13444003
-0.13852166 -0.17982277 0.003340751 -0.19946375 -0.06272663 -0.20996286 -0.11485681 0.10867803
0.20433217 0.060252465 0.94622654 -0.94642586 1.3443627 0.41541556 -0.16024202 0.18165696
0.26965514 0.18110898 -0.24046439 -0.20874667 -0.6439494 -0.1353837 0.066467494 -0.0019755743
0.11936582 -0.15790066 0.13865787 -0.14132322 0.17349963 0.034392674 -0.11688304 -0.14717183
-0.12322761 0.009529322 0.18339303 -0.19779229 -0.3304598 0.12847745 0.15408757 -0.22240822
0.1245442 -0.20369515 0.19393826 0.040934175 -0.028462082 -0.16549125 0.16723669 0.13184601
-0.109102935 -0.018930286 -0.0653235 -0.16670421 -0.24480924 -0.124708384 0.17328903 0.051248103

hedge_q.2.linear_relu_stack.2.bias f4 [16]
00000000: bf8d 253e 4a6e a03e 002c babb d460 06be
00000010: f222 bb3c a0bd cd3d ec05 f6bd a625 07be
00000020: b90d 30be 71a1 773d eb32 1ebe 12a7 c23d
00000030: fcbc 2b3e d0b1 9abe 46d6 f83d 78db b03d
0.16167353 0.31334144 -0.0056815147 -0.13122874 0.022843812 0.10045934 -0.12012848 -0.13197955
-0.17192735 0.060456697 -0.15449111 0.095045224 0.1677131 -0.30213785 0.121502444 0.0863561

hedge_q.2.linear_relu_stack.4.weight f4 [16, 16]
00000000: 4a92 b63d 4f81 933e 1c3c db3d 2ce3 983d
00000010: c7af 38bc 56b3 8fbe dca4 df3d 209d 513c
00000020: d10c 18be f2fe b8bd c103 1e3e 5a71 0cbe
00000030: 8f68 343d bc79 e6be 4b96 17be 00cb a4bd
00000040: 83ac de3b 202f 913b 80b3 8a3d 1cb9 563e
00000050: 685a c63d bca6 793d 7086 7b3d 7608 363e
00000060: 38b3 703d 0e8b 73be c485 72be 5477 653e
00000070: f0d4 4cbd d6f2 1cbe 5e62 01be 3844 593d
00000080: f35c 313d 4b89 a83d c6b3 1b3e 2862 23bd
00000090: dbb7 583e b076 293e 38a4 ac3d 6022 61bc
000000a0: 035e 753e 60fe 76bc e959 80bb 55db 803e
000000b0: a065 77bc 677f 593f 0158 4cbe 8ecf 733e
000000c0: 7042 36be b103 613e 50f8 69be e03c 7fbc
000000d0: 3595 6ebe e1e6 68be 68f5 d4bd 22f5 163e
000000e0: 9a22 51be 34e2 07be c005 30be fffa c5ba
000000f0: 1af3 21be 648d 923d b847 263e b071 53bd
00000100: 00fa c13b a8f5 57bd 2084 c3bc 48fe 693d
00000110: da08 47be 1a43 64be 5076 123d 2c95 283e
00000120: 505c d7bc eac8 0dbe be97 4ebe 4086 de3c
00000130: d077 57be a0b3 3b3c e0f4 a63d a056 20bd
00000140: 9070 9e3c 6169 59be 0cc2 c3bd 2091 d53d
00000150: 212a fa3d 0772 143d 7ca3 63be 1060 81bc
00000160: ae89 793e 50a7 e23c 17fb 213c 8619 433e
00000170: 70e7 313d cab4 0d3f 236a 913d 3822 413e
00000180: afd5 833e 2a37 863e bc89 8e3d ee56 5f3e
00000190: a72b b4bc 2a25 b63e 9010 023e ccf4 bfbd
000001a0: 9940 373d 207b 3dbe b918 663e 8828 443e
000001b0: c6a2 debd da7f 253f b1c6 da3d 6c09 62be
000001c0: b632 853e 68f4 c7bb e2ef 153e dcf1 7abe
000001d0: bd09 0e3e 03f7 193e c054 5abc 36fb 7ebe
000001e0: 879f ff3d 54e4 a63d 84ac 953e d6fa 943e
000001f0: c4a7 1cbc 1039 053f e185 903d 1016 76bd
00000200: 3e02 9bbd b37d ffbd f846 413e cca3 93bd
00000210: a2c0 91be e1b5 453e 3ad5 18be 34a5 d7bd
00000220: 7cfe c23d 8f8a f0bd e751 5abe 0780 5abd
00000230: b93b 38be d81f 20be fa7e 583e ee0d 68be
00000240: 5f93 403e 403f a03e ca62 04be 24d4 1f3e
00000250: bc9b e83a f55a 04bd 4256 30be 00fb cf3b
00000260: 444c 843e 66df 41be 8b97 8b3e da14 fb3c
00000270: 23f5 a03d b0f7 663f 08e7 333e c0ea ff3b
00000280: 7c8e 37be 90f9 b63d d641 6f3e 1855 29bd
00000290: f07c d6bc cea5 28be 38a5 c13d 4086 d3bd
000002a0: 58eb 3abd 8414 053e ba46 003e 0440 2cbe
000002b0: 64dc 7dbe d07e 5cbd 681d cd3d 3c00 51be
000002c0: fa10 323e 90ab 52be 38b1 333e e41d 723e
000002d0: 3287 07bc fc56 1a3e 6e97 573e 36ae 35be
000002e0: 6ca5 693e 759f 61be 21a7 22be 548c 643e
000002f0: 6c6a cc3d 1dc3 e63e 1465 c73c fef1 33be
00000300: ae89 c5bd 76e4 32be 9801 7d3d 205a 333e
00000310: 32f0 2bbe 172b c63d eca0 33be b61a 0a3e
00000320: d66e 003e 3f8f 0e3e bcea 293e 5bd6 c53c
00000330: 15ce 553e 953d b6bd 10bb 3cbe ac41 cdbd
00000340: 862b 53be 8088 32bb f411 8c3d ac02 b63d
00000350: d057 e9bd f480 743e 4ce2 2dbe 3882 77bd
00000360: 1e6d 03be b8d9 53be 3065 29bd 30a6 33bd
00000370: 40f0 c1bb 0423 d63d 04f0 943d 5e6f 76be
00000380: 707a 46be f058 93bd 707b 9a3d 64a9 0f3e
00000390: e024 7fbe 0497 cf3d c0bb 993d 4070 b63c
000003a0: fe2c 013e 788b d9bd 32f6 18be 0c27 9bbd
000003b0: a0c9 3abe f837 c53d 3093 693d 9a49 223e
000003c0: 4df2 bd3c fa3c 1ebe d4f8 0ebe 240a 233e
000003d0: ae8f f4bd fe5f ff3d 9007 9a3d 604b 2b3d
000003e0: 3ab2 c53d e830 efbd 16fa 5bbe cd60 e13d
000003f0: 0d6e b0bd 7c14 c23e 91b7 823e 2085 cc3d
0.08914621 0.28809592 0.10704824 0.074652046 -0.011272377 -0.2806651 0.10920116 0.012793809
-0.14848639 -0.09033002 0.1543112 -0.13715115 0.044045027 -0.4501475 -0.14803426 -0.08046532
0.0067954673 0.0044306666 0.06772518 0.20969051 0.096852124 0.060950026 0.061407506 0.17776665
0.058764666 -0.23783514 -0.2368384 0.22408801 -0.05000776 -0.1532701 -0.1263518 0.053043574
0.043301534 0.082293116 0.15205297 -0.03988853 0.21163885 0.16549182 0.0842976 -0.013741106
0.23961644 -0.015075296 -0.003916968 0.25167337 -0.015099913 0.84960026 -0.19955446 0.23809645
-0.17798781 0.21974064 -0.2284863 -0.015578479 -0.23299105 -0.22744323 -0.1039837 0.14741948
-0.20423356 -0.13269883 -0.17189693 -0.001510471 -0.15815392 0.07155874 0.16238296 -0.051622093
0.005919695 -0.05272451 -0.023866713 0.057127267 -0.1943697 -0.22291222 0.035757363 0.16463155
-0.026289135 -0.13846174 -0.20175073 0.027163625 -0.21041799 0.0114564 0.08152175 -0.039145112
0.019340783 -0.21231605 -0.09558496 0.10428071 0.12215067 0.036241557 -0.22230333 -0.015792876
0.24368927 0.027667671 0.009886525 0.19052705 0.043433607 0.5535399 0.07100322 0.1886071
0.25748965 0.26213962 0.069598645 0.21810505 -0.021993471 0.3557523 0.1270163 -0.09372863
0.04473934 -0.18504 0.22470368 0.19156086 -0.1087089 0.6464821 0.10682429 -0.22073907
0.26015252 -0.0061021335 0.1464229 -0.24506325 0.13870902 0.15035634 -0.01332587 -0.24900517
0.12481599 0.08149019 0.2923318 0.29097623 -0.009561483 0.52040195 0.070567854 -0.060079634
-0.07568787 -0.12475147 0.18874729 -0.07208976 -0.2846728 0.19307663 -0.1492509 -0.10529557
0.09521195 -0.11745178 -0.21320306 -0.053344753 -0.17991532 -0.15637147 0.21142188 -0.22661564
0.18806218 0.31298256 -0.1292831 0.15608269 0.0017746608 -0.032313306 -0.17220405 0.00634706
0.25839436 -0.18932876 0.27264056 0.030649591 0.07859256 0.9022169 0.175686 0.007809967
-0.17925447 0.08934319 0.23364958 -0.041340917 -0.026182622 -0.164695 0.09455341 -0.103283405
-0.045634598 0.12996107 0.1252698 -0.16821295 -0.24791104 -0.053831875 0.100153744 -0.20410246
0.17389289 -0.20573258 0.17548072 0.23644215 -0.008271979 0.15072244 0.2105386 -0.17742237
0.2281701 -0.22033484 -0.15884067 0.22319156 0.09981236 0.45070735 0.02434019 -0.17572781
-0.09645401 -0.17469963 0.061769098 0.17514849 -0.16790846 0.096761875 -0.17541856 0.13486752
0.1254228 0.13921832 0.1659345 0.024150064 0.20879395 -0.088984646 -0.18430734 -0.100222915
-0.20622072 -0.0027242005 0.06839362 0.08887228 -0.11393702 0.23877317 -0.16980857 -0.06042692
-0.12834594 -0.20688522 -0.041356266 -0.04385966 -0.0059185326 0.104558975 0.07272342 -0.2406592
-0.19382644 -0.07194698 0.07543075 0.14029461 -0.2491641 0.10136226 0.075065136 0.022270322
0.1261482 -0.10622305 -0.14937666 -0.07575807 -0.18240976 0.09629816 0.057025135 0.1584839
0.023186827 -0.15452948 -0.13962108 0.15921837 -0.11941467 0.12469481 0.07520974 0.04181993
0.09653135 -0.1167925 -0.21482119 0.110047914 -0.086147405 0.37906253 0.25530675 0.09986329

hedge_q.2.linear_relu_stack.4.bias f4 [16]
00000000: 7835 263e d2f9 30be 896b 8ebe 0a2b 31bd
00000010: a8a1 dbbd 183d 94be b5af 3c3e 7528 cc3d
00000020: 5686 f53d 0908 833e 16ae 40be a094 a9be
00000030: 7617 9ebd ac0b 06be 2023 76be 45a7 4fbe
0.16231334 -0.17282799 -0.27816418 -0.043253936 -0.10724193 -0.2895286 0.18426402 0.09968654
0.11988513 0.25592068 -0.18816409 -0.33121204 -0.077193186 -0.1309039 -0.24036837 -0.20278652

hedge_q.2.linear_relu_stack.6.weight f4 [1, 16]
00000000: 38da 14bf 2e76 0f3d fc53 1a3f ceca af3d
00000010: 1c3f ddbd 9f01 31bf d5e7 903e c58a 083e
00000020: c5d8 f4bc 52d5 333e cef2 7cbe a263 83bf
00000030: 0b3f 54bd 38f6 893d 20a2 7e3c 3ef7 18bf
-0.58145475 0.035024814 0.602844 0.08583604 -0.10803053 -0.691431 0.28301874 0.13334186
-0.02988852 0.17561844 -0.24701998 -1.026478 -0.051817935 0.067364156 0.015541583 -0.5975226

hedge_q.3.linear_relu_stack.0.weight f4 [16, 2]
00000000: 3687 3fbe e654 823e 4775 bcbe 5dd1 9bbe
00000010: 527f 8d3f a8f3 d839 e5a2 bb3e 8736 283f
00000020: d7c4 9dbe 0d55 333f 9741 6b3f a974 b8be
00000030: 27d0 21bf 2c01 4ebd 566a 843f d7d9 febe
00000040: d188 503f f902 093f b5a3 1ebe 42b4 693f
00000050: 6e4a 183f 12e8 cfbe fff0 c73f 7286 f43d
00000060: d107 6d3e 99d1 7bbd 8ded 823e b9ac 2f3f
00000070: 472a 0e3e 3dcb 2abc 96fc 923e dc52 75be
-0.18703923 0.25455397 -0.36808226 -0.3043317 1.105448 0.00041380269 0.36647716 0.657082
-0.3081424 0.7005165 0.9189696 -0.36026505 -0.6320824 -0.050294086 1.0344951 -0.49775574
0.81458765 0.5352016 -0.15492137 0.91290677 0.5948857 -0.40606743 1.5620421 0.11939706
0.23147513 -0.061479185 0.25571862 0.6862293 0.13883315 -0.010424432 0.28708333 -0.2395739

hedge_q.3.linear_relu_stack.0.bias f4 [16]
00000000: d6b1 b33e e869 81be 13f5 9fbe 04e1 5b3e
00000010: 38e3 d93e d03d 9f3d 739d 14bf d19a d23e
00000020: 569e b4be 5ae8 093f bff5 1cbf 6892 0dbf
00000030: a97e 1fbf 67b7 c23d 3934 2dbf e495 e8be
0.35096616 -0.25276113 -0.31241664 0.21472555 0.42556167 0.07775462 -0.5805275 0.4113374
-0.3527705 0.53870165 -0.6131248 -0.55301523 -0.62302643 0.095076375 -0.6765781 -0.45426857
