Models/BS/SRNN/prop trans costs/BS_SRNN_MSE_tc.pth (torch, 49051 bytes, 63 tensors)

hedge_q.0.linear_relu_stack.0.weight f4 [16, 2]
000000 2f c0 51 bd 2d ee 1d bf 23 8a 3c be fe 34 18 3f
       -0.05120867 -0.6169155 -0.1841207 0.5945586
000010 3e 52 72 3e 24 a0 17 3f e8 5d 6d 3e 5d 93 22 3f
       0.23664185 0.5922873 0.23180354 0.6350611
000020 92 2e 02 bf a6 5d 41 be 90 ad 54 3e 78 61 19 bf
       -0.5085231 -0.1888338 0.20769334 -0.5991435
000030 cf 1d 33 3f 3f 71 5d 3e 58 56 8d bd ba e8 2d 3f
       0.6996736 0.21625231 -0.069012344 0.6793324
000040 01 d8 40 bf 7f 64 c1 3e 46 f2 10 3f 7e de 13 bf
       -0.75329596 0.37771985 0.5661968 -0.5776137
000050 2b 5b ea be e8 83 55 3e 47 56 86 3f f6 41 fb be
       -0.4577268 0.208511 1.049508 -0.49073762
000060 72 2f 8e bd 24 8c 39 3f 4c 3f b3 3e d0 e8 66 3e
       -0.06942643 0.7247946 0.3500923 0.22549748
000070 d4 1e 4e be aa 07 4f be 4a 12 07 3f 08 f4 e9 be
       -0.20128947 -0.20217767 0.5276228 -0.45693994

hedge_q.0.linear_relu_stack.0.bias f4 [16]
000000 82 82 3d bd a9 f0 23 bf 52 b7 bf 3e be a3 4c 3e
       -0.04626704 -0.64039093 0.3744455 0.19984338
000010 bf ad 19 bf f1 e5 f2 be 86 5c 26 3d 63 21 25 bf
       -0.6003074 -0.47441056 0.04061558 -0.6450407
000020 95 f2 a9 3e 3c dc 47 3e fc 78 12 bf 6d 44 93 bd
       0.33192888 0.19517606 -0.5721586 -0.071907856
000030 0c 8b 92 be 0d fd ea be b7 2a 0d bf d8 02 a5 be
       -0.2862171 -0.45896187 -0.551433 -0.32228732

hedge_q.0.linear_relu_stack.2.weight f4 [16, 16]
000000 98 94 6a bd 94 ad bc 3d e6 26 80 3d aa b7 e3 bc
       -0.057270616 0.09212795 0.06257419 -0.027797539
000010 42 7d 42 3e 30 81 b6 bd 6a ff c3 3c 39 88 35 be
       0.18993095 -0.08911359 0.023925502 -0.17727746
000020 7c 8f c4 bd 95 c8 7a 3f c6 01 2b 3e 9d 44 3e 3f
       -0.0959768 0.97962314 0.16699895 0.74323446
000030 0c 76 08 be 18 d1 19 3e a8 cc 2e 3d 68 c2 98 3d
       -0.13326281 0.15021169 0.042675644 0.07458955
000040 00 6a af 3c f2 94 02 be 70 e1 bb 3d 9e d6 0f be
       0.02141285 -0.1275213 0.09173858 -0.14046714
000050 6c 1b 44 3e 56 9e 07 3e e0 ac 61 be f2 07 2f 3e
       0.19151086 0.13243994 -0.22038603 0.17092875
000060 72 46 3b be 58 98 28 3d c0 de 4e be 60 cc 00 be
       -0.18288592 0.04116091 -0.2020216 -0.12577963
000070 80 20 f6 3c 20 7a af bc 00 c9 e4 bd f6 f2 15 be
       0.030044794 -0.021420538 -0.1117115 -0.14643463
000080 bc fd 5f be 0a 9c 1e 3e 4e ed 4a be d8 3b 9f bd
       -0.21874136 0.15489212 -0.19817087 -0.07775086
000090 a0 bc 67 bc 54 48 77 be 00 b0 d7 b9 70 28 9d 3c
       -0.014144093 -0.24148685 -0.00041139126 0.019184321
0000a0 f8 cf 2d be f4 06 4b 3e 30 99 ab bc 2c b4 44 3e
       -0.16973865 0.19826871 -0.020947069 0.19209355
0000b0 c0 ac aa bb 5a 74 5d 3e 78 bd 3f bd 28 12 36 bd
       -0.0052085817 0.21626416 -0.04681155 -0.04445091
0000c0 fc 37 e2 bd 72 a5 31 3e 9d 23 c1 bd 3a 8f 63 3e
       -0.110458344 0.17348269 -0.09430621 0.22222605
0000d0 e0 d5 5c 3e 40 d9 69 bd f7 96 7e 3e 9c e3 16 3b
       0.21565962 -0.05709195 0.24862276 0.002302385
0000e0 0c 22 8e be 0d 57 60 3f 80 b1 53 be 07 8b 49 3f
       -0.2776035 0.8763283 -0.2067318 0.78727764
0000f0 b2 50 23 3e ce f3 6f 3e 56 24 37 be 68 5b 3f be
       0.15948752 0.23432848 -0.17884955 -0.18687212
000100 28 6d bd bd 28 42 ed bd d2 49 83 3d 4f 7f 6b 3e
       -0.092493355 -0.11584884 0.064105645 0.22997783
000110 08 73 8a 3d 68 c4 a6 3d d0 84 4f 3e 52 86 42 be
       0.06760222 0.0814293 0.20265508 -0.18996552
000120 d3 68 5a be 83 af 5d 3f 40 47 7e 3c 45 b1 15 3f
       -0.2132905 0.86595935 0.015519917 0.58473617
000130 47 52 02 3d 7a 3b 66 bd 80 dc 1f bb aa 86 6e be
       0.031816747 -0.056209065 -0.0024392903 -0.23293558
000140 fc 4b 6a be 24 76 51 3e 84 62 89 3e 0e 57 47 3e
       -0.22880548 0.20455223 0.26832974 0.19466802
000150 4a bd 18 be 74 7d e1 3d b6 da 8d 3d 1e 26 a2 bd
       -0.14915958 0.110102564 0.069264814 -0.079174265
000160 91 a3 4a be c0 7b 71 3f d0 12 e8 bd d0 d7 24 3f
       -0.19788958 0.9432945 -0.11331713 0.64391804
000170 5e e2 86 3e 0a c4 78 3e c2 cc 60 3e dc 11 61 be
       0.2634458 0.24293533 0.21953109 -0.21979469
000180 60 b1 42 bd de af 70 be 50 d5 73 be 40 c5 c6 bd
       -0.04753244 -0.23504588 -0.23811841 -0.09705591
000190 80 16 5f 3d dc 85 d8 bd 3e 4f 51 be b0 e9 ec 3d
       0.054464817 -0.10572407 -0.20440385 0.1156801
0001a0 ac 3a 8d 3d 64 b5 2b 3e 08 7e 21 be c8 86 2c 3e
       0.068959564 0.16768414 -0.15770733 0.1684829
0001b0 ae c8 79 3e ee eb 6b 3e f0 8a 4c 3e ac a8 49 be
       0.2439296 0.23039219 0.19974875 -0.1969325
0001c0 96 ef 6e be f0 23 15 be 3f 6f 31 3e 4d 2e 44 be
       -0.23333582 -0.1456449 0.17327593 -0.19158287
0001d0 20 98 15 be a8 c8 d8 bd b0 40 69 3e 46 71 45 3d
       -0.14608812 -0.10585147 0.22778583 0.04820373
0001e0 14 21 0a 3e cd a1 39 3f b8 bc 1b 3e 9d ee 2b 3f
       0.13489181 0.72512513 0.15208709 0.6716097
0001f0 44 7e e9 bd f5 03 c6 3d a2 38 16 be fa e1 31 3e
       -0.114010364 0.096687235 -0.14670041 0.1737136
000200 98 6a 38 3d 8a 38 70 be dc 21 66 be b8 6c 07 bd
       0.04502353 -0.23459068 -0.22473854 -0.033062667
000210 34 cc 00 3e 7c 83 b9 bd a8 79 6a 3e 08 f1 03 3d
       0.12577897 -0.09058282 0.2289797 0.032212287
000220 80 ce 8e bc 04 d3 3b be 10 f0 98 3d f4 5f 06 3e
       -0.017432451 -0.18342215 0.07467663 0.1312254
000230 b0 2d 8c bd 80 28 5d bd 58 9d 3a be 80 20 32 3c
       -0.06844652 -0.053993702 -0.18224084 0.010872006
000240 ba 5a 25 3e 64 62 43 3e b6 38 44 3c 21 d7 0e be
       0.1614789 0.19080502 0.011976412 -0.13949253
000250 70 cd af 3c e8 8b 87 3d 51 e6 54 3e a9 54 36 3d
       0.021460265 0.06618482 0.20790984 0.044514332
000260 76 88 e3 be 60 68 3f 3f 40 15 ac bb cf 80 51 3f
       -0.4444005 0.7476864 -0.0052515566 0.8183717
000270 97 bb 28 be e0 a0 4e be b0 91 84 bc 4a 15 3a be
       -0.1647781 -0.20178556 -0.01618275 -0.18172184
000280 5e a1 21 be 90 83 30 3e 70 db 95 bd e0 e2 48 3c
       -0.15784213 0.17237687 -0.07317245 0.012261122
000290 88 e3 49 3d 1c a6 dd 3d 3c 99 7a 3e f6 bc 30 3e
       0.049289256 0.108226985 0.24472517 0.17259583
0002a0 a4 27 db bd 86 db 72 be 70 a7 1b be bc b3 cb bd
       -0.1070092 -0.23716554 -0.15200591 -0.09946391
0002b0 b8 5d c9 bd 92 05 52 be 10 75 ed bc c0 d2 03 3d
       -0.098323286 -0.20509937 -0.028986484 0.03218341
0002c0 00 93 fd bd a4 a5 b2 3d c0 1d f9 bc b0 49 f0 bc
       -0.12381554 0.08723 -0.030409694 -0.029332012
0002d0 cc 38 3a be 50 68 c9 3c c0 cd bd 3d 72 13 0d be
       -0.18185729 0.024585873 0.09267759 -0.13776949
0002e0 1c 3c 87 bd fa 00 4a 3e ac bc 48 3e 70 d7 80 bc
       -0.06603262 0.19726935 0.19603223 -0.015727729
0002f0 52 b9 1c be f8 2c ea bd 46 6e 18 3e 40 78 17 bc
       -0.15305069 -0.11434358 0.14885816 -0.009244978
000300 4a 84 18 3e e2 f2 5a be 27 b9 b7 3c 0a 99 09 3e
       0.14894214 -0.21381715 0.022427155 0.13437286
000310 f0 bd 11 3e 90 82 08 3d ae 1f 85 be cc ee 61 bd
       0.14232612 0.03332764 -0.26000732 -0.055159375
000320 b9 29 4d 3e f1 6e 29 3e 70 cd 63 bd 75 52 12 3e
       0.20035447 0.16546227 -0.055615842 0.14289267
000330 27 85 14 be c4 7c 65 3d 88 16 1b be 4c fc e2 bd
       -0.14503919 0.05602719 -0.15145314 -0.11083278
000340 00 61 41 bc 00 2e 69 be fc 98 d4 3d 6c c4 82 bd
       -0.011802912 -0.22771454 0.10380742 -0.06385121
000350 e4 37 0d 3e 28 7b 0e bd f6 1c 3e be b6 e6 19 3e
       0.13790852 -0.03478542 -0.18565735 0.15029415
000360 84 67 da 3d e2 e8 0b be c0 f7 bf 3b 90 ec 32 3e
       0.10664275 -0.13663056 0.0058583915 0.17473054
000370 cc 59 35 be f2 b7 53 3e 80 3a 47 bb 50 4c e2 3d
       -0.17710036 0.20675638 -0.003039986 0.11049712
000380 c2 70 72 be 90 cd 0e 3d 94 82 9a bd 2e dd 4e 3e
       -0.23675826 0.03486401 -0.07544437 0.20201561
000390 ec 0e 19 be 80 1a f3 3c 42 cb 31 be 4e db 52 3e
       -0.14947098 0.029675722 -0.17362693 0.2059147
0003a0 92 65 68 be 2c ea 6f 3e 20 45 e9 3d 3a 53 3a be
       -0.22694996 0.23429173 0.11390138 -0.18195811
0003b0 06 b3 24 3e a2 24 0e be c2 74 39 be 06 2d 1c 3e
       0.16083917 -0.13881162 -0.18110946 0.1525155
0003c0 a6 28 48 3e 9c 7f 27 be af 6a 45 3e 08 64 11 be
       0.19546756 -0.16357273 0.19278978 -0.14198315
0003d0 88 15 06 3d f2 c7 4d 3e c7 3d 07 3e fa 71 54 be
       0.032735378 0.20095804 0.1320716 -0.20746604
0003e0 f5 9b 27 bf 2c 66 d8 3f 9c 19 c2 3d d9 2d c7 3f
       -0.65472347 1.690618 0.09477541 1.5560867
0003f0 f4 95 8c 3d 7c cc 7b 3e a2 41 19 be 40 fc 95 3d
       0.06864539 0.24589723 -0.14966443 0.073235035

hedge_q.0.linear_relu_stack.2.bias f4 [16]
000000 b5 42 07 3e 74 06 9e 3d a8 97 29 be 5b 58 00 be
       0.1320904 0.077160746 -0.16561759 -0.12533705
000010 c0 71 17 3e 1b 19 73 3e e8 07 d9 3d d4 cb fd ba
       0.14789486 0.23740046 0.10597211 -0.0019363114
000020 c8 7e 59 be 8a d3 c1 bd 2c 49 46 be 04 82 8f bd
       -0.2123977 -0.09464176 -0.1936385 -0.070072204
000030 a4 d8 0a bd 08 96 c1 bd 44 c6 fb bd 68 72 97 3d
       -0.03389801 -0.09452444 -0.122936755 0.07394868

hedge_q.0.linear_relu_stack.4.weight f4 [16, 16]
000000 5a 5d 1c 3e 78 40 12 3d d6 79 27 3e c4 0e ba bd
       0.15269986 0.035706013 0.1635507 -0.090848476
000010 b0 5f 73 be 2c bc ff 3d 20 9e c1 bc b8 ac 13 be
       -0.2376697 0.12487063 -0.02363497 -0.14421356
000020 d4 44 b7 3d 48 6c 12 be b8 02 fe 3d 00 3e 27 3c
       0.08948675 -0.14299119 0.12402862 0.010207653
000030 08 3e f1 3d 94 58 a6 bd 26 78 70 be aa 8b 0c 3e
       0.1177941 -0.08122364 -0.23483333 0.13725153
000040 a0 2c 7a bd 30 68 8f bd 38 aa 81 bd b0 c1 7f bd
       -0.061077714 -0.07002294 -0.06331295 -0.062440574
000050 bc 37 00 3e c0 5b 40 bd 4e dd 60 be 34 aa a8 bd
       0.12521261 -0.0469625 -0.21959421 -0.08235589
000060 44 39 b5 bd a2 e5 56 be a2 ad 7b 3e 94 3a 77 be
       -0.08848813 -0.20986035 0.24577954 -0.2414344
000070 2e be 18 be 80 ac 9d 3d 5c f7 ea 3d 42 82 2a be
       -0.14916298 0.076989174 0.11472961 -0.16651252
000080 74 f5 e1 bd a0 df 76 3e 7e 58 1b 3e aa 10 63 3e
       -0.110331446 0.24108744 0.15170476 0.22174326
000090 94 ef 7d be 34 43 1e be 2c 99 0e be 8a bb 05 be
       -0.24798423 -0.15455323 -0.13925618 -0.13059822
0000a0 a4 ba 33 be b0 eb 8e 3d a6 39 4e be c0 e4 27 3d
       -0.17551666 0.069785476 -0.20139179 0.040989637
0000b0 c8 92 fc 3d 40 b1 9f bc 90 10 af bd 80 8e 28 3e
       0.12332684 -0.0194937 -0.08548081 0.1646061
0000c0 db c4 83 be 68 c7 f9 3d c0 5d b9 bd df cc b1 be
       -0.25736126 0.12196237 -0.090510845 -0.34726617
0000d0 95 9c 4d 3d 17 b3 61 3d 92 42 15 be 78 0a 08 3e
       0.050198156 0.055102434 -0.14576176 0.13285244
0000e0 60 4f 72 3d 06 fe a6 3c 56 71 1e be 0c a7 1c be
       0.05915773 0.0203848 -0.15472922 -0.15298098
0000f0 e2 e3 f5 3d 20 78 45 bd 52 b2 1a be e6 d3 d4 be
       0.12006356 -0.048210263 -0.15107086 -0.41567916
000100 77 f0 a0 3e 40 43 eb bd d4 4a d9 bd ff b6 b3 3e
       0.3143346 -0.11487436 -0.106099755 0.35100552
000110 29 c2 9a 3e 8d 8b 9b 3e b0 82 99 bc ec 0c ae 3e
       0.30226257 0.30379906 -0.018739074 0.33994234
000120 46 f2 0b 3e 0a 84 55 bf 38 be 66 3d 30 03 1c be
       0.13666639 -0.834046 0.05633375 -0.15235591
000130 d1 d4 2c 3d 80 ec 38 bc da 45 4c be 4d 26 2b 3f
       0.042195145 -0.011286855 -0.19948521 0.6685532
000140 44 2f c2 3d 00 13 34 bd 20 94 7c bc d4 38 c8 3d
       0.094816715 -0.043963432 -0.015416175 0.09776464
000150 10 b9 13 3d e8 dd 7f be b0 66 32 3e e8 96 3d 3d
       0.03606516 -0.24986994 0.17421985 0.046286494
000160 b0 b4 63 be bc b6 5e be 38 50 72 be d8 15 6f 3d
       -0.22236896 -0.21749395 -0.23663414 0.05837044
000170 90 81 85 bc a0 b0 15 bd 40 db 9a bb e4 dd 4f be
       -0.016297132 -0.036545396 -0.0047258437 -0.20299488
000180 18 eb 30 bd 9c 29 6b 3e d4 a8 e1 bd 6c 81 64 3e
       -0.043192953 0.22965091 -0.110185295 0.22314996
000190 dd 67 4e 3e 15 e7 46 bd 90 7c c4 3d e2 a2 c3 ba
       0.20156808 -0.04856022 0.09594071 -0.0014925862
0001a0 2c db e0 bd d4 8b ab bf 08 cf 55 3d 00 34 3b 3c
       -0.10979304 -1.3402047 0.052199394 0.011425972
0001b0 07 8f 63 3e 28 4e a0 3d 1c fa ef 3d e1 76 a1 3f
       0.2222253 0.07827407 0.117176265 1.2614404
0001c0 2f 83 52 be e2 fd 30 be 48 be 9b bd 47 7f b8 3c
       -0.20557855 -0.17284349 -0.07604653 0.022521628
0001d0 8a 96 cc bd 92 4d eb bd 10 30 7d be 86 b2 27 bd
       -0.099896505 -0.11489405 -0.24725366 -0.040941738
0001e0 08 1f 6c be cc 62 e0 3d b8 e8 a5 3d 5a ec 21 be
       -0.23058712 0.10956344 0.08101028 -0.15812817
0001f0 ce 01 90 3d 4c 05 d9 3d e0 f7 1a bd b7 01 c4 3e
       0.07031594 0.105967134 -0.03783405 0.38282558
000200 90 87 fa 3d e0 92 ba bc c8 7a fd 3d 90 69 2a 3e
       0.12232888 -0.022775114 0.12376934 0.16641831
000210 8c 40 14 3e 18 a3 4d be a8 be 65 bd b8 92 12 bd
       0.14477748 -0.20081747 -0.056090027 -0.035784453
000220 00 77 ae bd 4e b3 5a 3e 88 4e 35 be fe c1 1b 3e
       -0.08518791 0.21357462 -0.17705739 0.15210721
000230 b0 68 e7 bd 76 07 2c 3e 0e 17 4a 3e 34 b3 39 be
       -0.112992644 0.16799721 0.19735357 -0.18134767
000240 69 1b 4b be ac 0b 28 be b8 d8 29 3e d9 5e 7e be
       -0.19834675 -0.16410702 0.16586578 -0.24840869
000250 21 bd 25 3e 46 80 bd 3d 4a b7 3d be d8 9c 1b 3e
       0.16185428 0.09252982 -0.1852695 0.1519655
000260 80 b1 2e 3e 75 d3 5f 3d 0a 26 0d 3e 42 36 57 be
       0.17059898 0.05464502 0.13784042 -0.21016791
000270 69 a1 34 3e 40 7b 51 3e 40 ad 75 bc be 27 98 be
       0.17639698 0.20457172 -0.014994919 -0.2971782
000280 f2 9d 34 be 2c 72 70 be a4 01 05 be 36 60 06 3e
       -0.17638376 -0.23481053 -0.12988907 0.13122639
000290 74 f2 7a be 84 30 0d 3e 80 d2 ad bb 00 43 e7 ba
       -0.24506551 0.13788038 -0.0053046346 -0.0017643869
0002a0 44 98 bf bd dc 35 4f be 90 8f 1c be da 19 78 be
       -0.09355214 -0.2023539 -0.1528914 -0.24228612
0002b0 88 75 30 bd f2 33 56 3e 00 04 e6 3b 80 85 ed 3d
       -0.043080837 0.20918253 0.00701952 0.11597729
0002c0 15 96 fc 3d 64 3a 05 be 56 5f 7f 3e 5e bc c6 3d
       0.123333134 -0.13010556 0.24938712 0.09703897
0002d0 15 5e 67 be 6d ee c9 bc 40 e8 5c be a2 21 8f be
       -0.22594483 -0.024649823 -0.21572971 -0.27955347
0002e0 44 3a f7 bd 52 db 65 be 50 af 86 bd bc a1 fb bd
       -0.1207166 -0.22446945 -0.06576407 -0.12286708
0002f0 1b 5a 51 3e 48 4a d9 bd 8a 3a 46 be 43 e0 1b 3d
       0.20444529 -0.10609871 -0.19358268 0.03805567
000300 c7 b9 04 b9 80 f2 47 3c ce 1b 67 3e 10 c1 88 bd
       -0.00012657708 0.012203813 0.225692 -0.06677449
000310 5d 86 35 3e 41 de 90 bd 4a 17 18 3e 8f 43 68 be
       0.17727037 -0.070736416 0.14852634 -0.22682022
000320 20 b2 df bc 76 12 73 3e 8e 72 02 3e 50 16 ec bd
       -0.027306616 0.23737511 0.12739012 -0.11527693
000330 df 43 44 be c8 81 17 bd fc a7 20 3e 4f 3f 1b 3e
       -0.19166516 -0.036989003 0.15689081 0.15160869
000340 94 e5 29 be 4c 39 26 be 88 5b 5b bd 30 4b dc bd
       -0.16591483 -0.16232795 -0.053554088 -0.107565284
000350 6e 26 7b bc 51 eb 57 be be 79 45 be b7 dd a2 3c
       -0.015328987 -0.2108586 -0.19284722 0.019881113
000360 48 97 34 be 5c 5e 6c 3e 68 e5 fd bd f4 85 ee 3d
       -0.17635834 0.2308287 -0.123972714 0.11646643
000370 ee 1b c1 3d 92 9b 24 be 88 ec 36 be 1d 5b 2f be
       0.09429155 -0.1607497 -0.17863667 -0.171246
000380 b0 59 46 bd 78 aa a5 3d 78 69 0d 3e e4 d3 e0 bd
       -0.048425376 0.08089155 0.13809764 -0.10977915
000390 68 7b 21 be f6 2c 00 3e f0 35 06 bd 80 da 6a be
       -0.15769732 0.12517151 -0.032766283 -0.22934914
0003a0 30 09 5b be 8a 0f 1a 3e 46 ab 15 be f2 0e 52 3e
       -0.21390224 0.1504499 -0.14616117 0.20513514
0003b0 14 bc ce bd 94 46 40 be ea 4e 2c 3e f4 a6 ad bd
       -0.10094467 -0.18776923 0.16826978 -0.084791094
0003c0 d2 05 64 bd 6e 55 35 3e 92 54 60 3e 0a 67 68 3e
       -0.055669613 0.1770837 0.21907261 0.22695556
0003d0 ad ad 95 3e b9 6c 53 3e 3c 53 74 be e7 68 3b 3e
       0.29234067 0.20646943 -0.23859876 0.18301736
0003e0 94 a5 05 3e 76 bf a9 bf 08 6d 26 3d 50 be 6e 3e
       0.13051444 -1.3261554 0.040631324 0.23314786
0003f0 e2 a4 03 be 54 86 fd 3d f0 16 3f 3d 87 b3 8e 3f
       -0.12855867 0.12379137 0.046652734 1.1148537

hedge_q.0.linear_relu_stack.4.bias f4 [16]
000000 b6 6e 74 be e6 20 46 be 78 b8 48 be 64 cd 18 3e
       -0.23870358 -0.19348487 -0.19601619 0.149221
000010 9d 12 3b 3e 04 34 dc 3d f2 77 24 3d 66 18 90 3d
       0.18268819 0.10752109 0.04015345 0.07035904
000020 64 ea c5 bd f9 63 ab bd d8 79 20 be aa 00 cc 3d
       -0.09663847 -0.08368678 -0.1567148 0.09961064
000030 d0 7e 69 be 34 12 57 3e 00 9d 31 be ee 74 39 be
       -0.22802281 0.21003038 -0.17345047 -0.18111011

hedge_q.0.linear_relu_stack.6.weight f4 [1, 16]
000000 b0 1c 1b be 00 bb a9 ba 60 77 90 bd f9 04 c5 be
       -0.15147662 -0.0012949407 -0.07054019 -0.38480356
000010 f0 6a 13 3e da e1 1a 3e 89 9f 40 3e 6b e7 b6 bd
       0.14396262 0.15125218 0.18810858 -0.08930858
000020 3c e5 f7 3d c3 17 51 bd e0 5f 7a bc ff da fa bc
       0.1210427 -0.05104805 -0.015281647 -0.030622004
000030 8b 82 e7 3d 3d f8 f4 bd 60 2a 53 3d 3d 61 88 3e
       0.11304196 -0.1196141 0.051554084 0.26636687

hedge_q.1.linear_relu_stack.0.weight f4 [16, 2]
000000 31 17 0c be 87 28 44 3f a7 f2 c8 3e 2e 65 ed 3e
       -0.13680722 0.7662434 0.3924763 0.46366256
000010 74 ef 20 bf 4d 4f 3a 3e 06 bd 2f 3f d5 6a be 3e
       -0.62865376 0.18194313 0.686478 0.3719088
000020 f5 45 7d be c7 47 66 be 82 e9 e6 be df eb d5 3d
       -0.24733718 -0.22488318 -0.45100027 0.104453795
000030 41 87 d0 3e 8b 90 20 bf 53 41 5f 3f 37 0b 2c bd
       0.4072819 -0.62720555 0.8720905 -0.042002883
000040 7b 37 54 3f 01 8d ed 3d ae 53 e6 3e 8b 32 8e be
       0.82897156 0.1159916 0.44985718 -0.27772936
000050 08 1a 2a 3f 8c 12 2a be 19 c9 03 3f 58 bf 23 bf
       0.6644597 -0.16608638 0.51478726 -0.6396384
000060 77 4d 4d 3e 61 7d d9 3e f4 91 fe be 80 da 86 be
       0.20049082 0.4247847 -0.49720728 -0.26338577
000070 7b bf d5 be c9 ad 13 bf d7 10 6f 3f f4 f9 41 3e
       -0.4174765 -0.5768705 0.9338507 0.18943006

hedge_q.1.linear_relu_stack.0.bias f4 [16]
000000 0c f9 95 bd d1 5f 5f be fd dd 20 be fb d5 cc be
       -0.073228925 -0.21813895 -0.15709682 -0.40007004
000010 a3 fb 33 bf 85 f3 22 bf 43 bc a6 3e 1e e3 db 3e
       -0.7030584 -0.6365283 0.32565507 0.42946714
000020 68 2a 50 be af 38 b8 be e1 5f 05 be a4 ae 17 bf
       -0.20328677 -0.35980746 -0.13024856 -0.59250855
000030 c4 3f 80 be 08 59 45 be 8a 0c 37 3e 28 2c a5 be
       -0.2504865 -0.19272244 0.17875877 -0.3226025

hedge_q.1.linear_relu_stack.2.weight f4 [16, 16]
000000 91 b4 0d bd 71 0c c1 3d a4 a9 41 3e 91 cc 82 3e
       -0.03459603 0.09426201 0.18912369 0.25546697
000010 b0 7c eb 3d 00 3b 7d bd 2e ce 9e ba 5e 30 57 3e
       0.11498392 -0.061823845 -0.001211589 0.21014544
000020 ad 77 a9 3e 78 d0 83 3d 76 95 c9 3e e2 bc 73 be
       0.33099118 0.06436247 0.39371842 -0.23802522
000030 e2 69 48 be 34 38 f4 bd 7a cb 68 be b1 60 87 3c
       -0.19571641 -0.119247824 -0.2273387 0.016525598
000040 88 30 9b bd c2 74 b3 bd fe 10 40 3e 51 90 f8 3e
       -0.07577616 -0.08762504 0.18756482 0.48547605
000050 a0 12 dd 3d 28 5a 1c 3e 01 86 93 3e 03 ba 96 3e
       0.10794568 0.15268767 0.28813174 0.2943879
000060 c5 28 c0 3d ae 2d 3a 3e de 9d 82 3d c0 3e 79 bd
       0.09382776 0.18181488 0.06377767 -0.06085086
000070 27 b6 56 3e 4a 33 4e 3e ec de 12 3e 1b 1b a0 3d
       0.20967923 0.20136753 0.1434285 0.0781767
000080 3b bb 37 be a3 03 83 3e e0 18 18 3d 7f 29 c4 3e
       -0.17942517 0.25588712 0.037133098 0.3831291
000090 0c ce aa 3d cc 5f cf bd d9 a1 dc 3c a1 5c 54 3e
       0.083400816 -0.10125694 0.026932644 0.2073846
0000a0 27 da b4 3e 7a f0 33 be 1a 69 d1 3e 00 5e 59 3e
       0.35322687 -0.17572203 0.409005 0.21227264
0000b0 b5 8a 65 3e e0 83 53 3c b2 20 47 be 93 41 e8 3e
       0.22416194 0.012909859 -0.19446066 0.4536253
0000c0 6c 3d d9 bc 30 c3 13 be 7c ca 0e be 55 f8 0b 3f
       -0.026518546 -0.14429927 -0.13944429 0.546758
0000d0 b8 e5 45 3e 40 9b 93 3d ea bb 16 3e a5 cf b0 3e
       0.19325912 0.07207346 0.14720121 0.3453342
0000e0 64 6c b6 3e c0 e3 2a bc 7c 9a dc 3d 88 d4 6c 3d
       0.3562957 -0.010430276 0.10771653 0.057819873
0000f0 91 f4 16 3e 78 73 45 be 14 41 77 3e af 29 87 3d
       0.14741732 -0.19282329 0.24145919 0.065997474
000100 f7 8d 9e 3e 47 d5 8c 3d d8 7f d6 bd 4a 5f 90 bf
       0.30967686 0.06876617 -0.10473603 -1.127908
000110 14 bb e4 bd bc d9 bd 3d 64 08 3d be c7 e6 f3 3d
       -0.11168495 0.09270045 -0.18460232 0.11909252
000120 34 29 e1 be 88 8a 7e 3d db fd b3 be 92 65 25 be
       -0.43976748 0.062143832 -0.35154614 -0.16152027
000130 3a 8a 83 39 10 a8 d9 bc 0e 32 10 be 09 36 08 bf
       0.00025089254 -0.026569396 -0.14081594 -0.5320745
000140 0c b5 ac 3d 8c 80 5e be 68 ff d2 3d b8 fc 09 3e
       0.084329695 -0.21728724 0.10302621 0.13475311
000150 ca e8 12 3e 0c 35 a3 3d c4 ca e6 bd 70 37 c8 3c
       0.14346614 0.07969102 -0.11269143 0.024440497
000160 c2 3e 1c 3e 9c 4f a6 3d 74 46 0f 3e 20 2e 52 bc
       0.15258315 0.08120653 0.1399172 -0.01282838
000170 dc 21 df bd b0 20 d5 bc 7c 0b 82 3d a0 b1 9b 3d
       -0.1089513 -0.026016563 0.06349847 0.07602239
000180 06 99 39 3f 77 48 0b bd f2 02 29 3e ac 08 2a bf
       0.7249912 -0.034004655 0.1650503 -0.6641948
000190 4a ba 3e 3e d8 8f 30 3e c9 0b de bd df a8 fb 3d
       0.18625751 0.17242372 -0.108420916 0.12288069
0001a0 a5 37 03 bf f2 d5 7d 3e 72 a3 5f bf e0 a7 2e be
       -0.5125678 0.24788645 -0.8735877 -0.17056227
0001b0 2b a9 9f 3e e4 a0 be 3d e6 ad 44 be 61 e3 5f be
       0.31183752 0.09308031 -0.19206962 -0.21864082
0001c0 e0 ce 9b bd 5e 07 43 3e 8c 8d a0 bd 89 07 eb 3e
       -0.07607818 0.19045779 -0.07839498 0.45904186
0001d0 60 47 c1 bc 9a 30 50 3e 42 8f a5 3e bc ca a6 3e
       -0.023593605 0.2033104 0.3233586 0.3257655
0001e0 52 92 65 3e 60 30 7f bc cf 29 cf 3e 04 b1 44 3e
       0.22419098 -0.015575498 0.40461585 0.19208151
0001f0 7a a1 9c ba 5c ec 14 3e a0 a7 65 be fe 1b 5f 3e
       -0.0011949979 0.14543289 -0.22427225 0.21788022
000200 23 4a a1 bd 98 3a 3f 3e 74 9f fd 3d 55 51 5b 3e
       -0.078754686 0.18674695 0.12383929 0.21417744
000210 f4 88 a5 3d b0 81 d9 3d 70 05 15 bc 08 c7 ad 3d
       0.08082762 0.10620439 -0.009095535 0.08485228
000220 56 c6 66 3e f6 5c 29 3e cf 5a 16 3c 80 f7 f1 3b
       0.22536597 0.16539368 0.009176924 0.0073842406
000230 13 93 a7 bd 40 1b c8 bc 9c de 28 be 4c 1b a7 3e
       -0.08182349 -0.024427056 -0.16491169 0.32638013
000240 c4 67 10 be 94 5d c1 bd e0 fa 01 3d 04 eb 46 be
       -0.14102083 -0.09441677 0.031733394 -0.19425589
000250 00 f3 52 bc 80 0f 39 bd b8 71 b9 bd f4 80 bb bd
       -0.0128753185 -0.045180798 -0.09054893 -0.09155455
000260 50 d8 a0 bc bc 5f 80 bd c8 f4 2a 3d c0 64 50 3e
       -0.019634396 -0.0626826 0.041737348 0.20350933
000270 64 aa 86 3d 70 a2 3d be e8 88 16 3e 30 05 a4 bd
       0.06575468 -0.18518996 0.14700663 -0.08008802
000280 12 18 2f be b0 5d 0e be 8c da 0b 3e a8 20 70 bd
       -0.17099026 -0.13902926 0.13657588 -0.058624893
000290 ac 13 df bd a8 f5 c1 bd 16 e8 2b be 34 65 b4 bd
       -0.10892424 -0.09470683 -0.16787753 -0.088083655
0002a0 4c e7 7b be 34 81 43 3e ac 91 2d be 58 f5 2f 3e
       -0.24599952 0.19092256 -0.169501 0.17183435
0002b0 6c 9a 60 3e 78 c6 42 be 7e 7a 2c be 60 64 bf bc
       0.21933907 -0.19021022 -0.16843602 -0.023363292
0002c0 4a 87 32 3e 38 4c 00 be 02 f6 03 3e 64 5a df bd
       0.17434421 -0.12529075 0.12886813 -0.109059125
0002d0 50 87 19 3d d0 23 74 bd c0 62 44 3e 10 a4 f8 3c
       0.03748256 -0.059604466 0.19178295 0.030351669
0002e0 30 42 a8 3c 9a fb 25 3e be 34 65 3e 40 2b e0 3b
       0.020539373 0.1620926 0.22383401 0.0068410933
0002f0 cc bc ce 3d fa 23 4d 3e 50 4d 32 be 40 e6 10 be
       0.10094604 0.20033255 -0.17412305 -0.14150333
000300 9e e3 0e be 6e 6d 16 3e 38 ee 82 3d 8d e4 28 3f
       -0.13954017 0.14690182 0.06393093 0.6597374
000310 9c 94 bf 3d 90 41 7d bd 21 f9 92 3e 4b 16 11 bc
       0.09354517 -0.061830103 0.28705695 -0.008855413
000320 db 07 00 3f b8 fc b8 bd 72 a7 0d 3f a4 e0 88 bd
       0.50011986 -0.09032577 0.55333626 -0.06683472
000330 bf d5 55 3d 78 ec 1f be b4 75 e4 bd 7b 81 4a 3e
       0.052205797 -0.1561755 -0.111552626 0.19775955
000340 73 2b a4 3d 75 c0 ed bd 24 ef a0 bd d6 ce 0d 3e
       0.080161 -0.11608974 -0.078581125 0.13848433
000350 98 77 c5 bd 44 9a 80 3d d5 2d 8d 3c 1b ea 1d be
       -0.09641951 0.06279424 0.017233768 -0.15421335
000360 6b 0a 11 3e c8 89 57 be d2 47 47 3c 46 ac 7f 3e
       0.1416413 -0.21048653 0.012163119 0.24968061
000370 70 e1 4f be 88 75 15 3e b0 c2 b4 bc b0 7a 9f 3d
       -0.20300841 0.14595616 -0.02206549 0.07787073
000380 4b 7b 32 3e f5 8e 83 bd d8 36 30 bd 02 4a 68 be
       0.17429845 -0.06423751 -0.043021053 -0.22684482
000390 54 96 9d bd 98 0e 18 3d 69 9c 59 3d 2b 7c af 3b
       -0.076946884 0.037123293 0.05312768 0.005355378
0003a0 fe 26 02 bd 40 ed 81 3b 7a 42 15 3e 88 71 b5 bd
       -0.031775467 0.00396505 0.1457614 -0.08859545
0003b0 1b 65 2b be a0 5a a0 bc 20 e0 78 bc 16 e1 1b 3d
       -0.16737787 -0.019574463 -0.015190154 0.038056456
0003c0 bc f8 5e 3e 08 21 29 be 40 2a 50 3e 78 9b d1 bd
       0.21774572 -0.16516507 0.20328617 -0.102347314
0003d0 74 19 b2 bd 78 11 4f 3d 7c 51 14 3e 8e 6a 79 be
       -0.08696261 0.05055377 0.14484209 -0.24357054
0003e0 58 15 81 bd ec 3e 0b 3e 00 26 42 bc 3c 80 31 3e
       -0.06302899 0.13598222 -0.01184988 0.17334074
0003f0 90 4a bb 3c 48 dc 45 3e a2 98 21 3e 7c 07 f0 bd
       0.022862703 0.19322312 0.15780881 -0.117201775

hedge_q.1.linear_relu_stack.2.bias f4 [16]
000000 d3 ba f7 3d ae d8 fb 3d f6 72 00 3e d2 e9 f5 3c
       0.12096181 0.12297188 0.12543854 0.03001872
000010 de 7d 8b 3e f8 16 49 be c9 cf 8d 3e 9d cc fa bd
       0.27244467 -0.19637668 0.2769759 -0.12246058
000020 ec 20 54 3e 00 29 85 bc 48 a9 d9 3d ec 23 39 be
       0.20715684 -0.016254902 0.10627991 -0.1808011
000030 41 c2 2a be ce 4c 24 3d 9d 05 c0 bd 50 a2 d0 3c
       -0.16675664 0.04011231 -0.09376071 0.025468022

hedge_q.1.linear_relu_stack.4.weight f4 [16, 16]
000000 58 b0 7e bd 00 ff 6b bb 0c 62 da 3d a6 bf 38 be
       -0.062179893 -0.0036010146 0.10663232 -0.18041858
000010 8c 80 67 be 40 26 62 3e 48 0e 15 bd e8 06 4f be
       -0.2260763 0.22084904 -0.036390573 -0.20217478
000020 22 65 7c be d6 e5 76 3e 60 a1 ec 3c 50 32 78 bd
       -0.24647954 0.24111113 0.028885543 -0.060594857
000030 00 c4 f7 3c 3e c8 7f 3e a0 da 10 3d a0 4d 59 bc
       0.030244827 0.2497873 0.035364747 -0.013263136
000040 7c 57 08 be 84 e9 41 be e4 36 8a bd 84 4e 3b be
       -0.13314623 -0.18936735 -0.06748751 -0.1829167
000050 00 1d dd bd 20 7f 5b bd aa 00 1b be 78 d8 77 3e
       -0.10796547 -0.053588033 -0.15136972 0.2420367
000060 34 d4 71 3e 3c a8 fb bd a0 51 2b 3d be 36 3c 3e
       0.23616105 -0.122879475 0.04182589 0.18380257
000070 ee c6 35 be 0a 55 25 be 28 45 c9 3d 04 b4 cb 3d
       -0.17751667 -0.16145721 0.09827644 0.09946445
000080 bf 30 15 3e 91 f7 40 3e 30 70 8d 3d ea 5f d7 3d
       0.14569376 0.18844439 0.06906164 0.10516341
000090 e5 6c af 3d fa 6c 4a 3e fe 59 47 be 6c c2 3b be
       0.08565692 0.19768134 -0.19467923 -0.18335885
0000a0 81 72 10 3e b6 38 36 be fe be 08 be c6 1d 24 be
       0.1410618 -0.17795071 -0.13354108 -0.16026983
0000b0 6f b5 fb 3e 89 b7 5b 3e 32 07 06 be 94 65 8c bd
       0.4916186 0.21456732 -0.13088682 -0.06855312
0000c0 c0 0d 2b 3c 24 0b b6 bd 5c 36 22 3e d0 44 72 3d
       0.01044029 -0.08888844 0.15841049 0.059147656
0000d0 00 e7 2d be d8 6d 39 bd d8 1f ec bd 92 01 44 be
       -0.16982651 -0.04527077 -0.11529511 -0.19141224
0000e0 7c e4 5c be 9a 12 4f be 30 3b cb 3c 9e fd 3f be
       -0.21571535 -0.2022194 0.024808496 -0.18749091
0000f0 0c 18 9b bd f0 5d 95 bc 36 aa 00 3e 6a 95 70 3e
       -0.07572946 -0.01823327 0.1256493 0.23494497
000100 d0 1d 84 be 22 61 0f bd f0 c0 16 be e6 f8 5f be
       -0.25803995 -0.035004742 -0.14722037 -0.21872291
000110 36 70 32 3e f0 9c c0 bc 74 11 44 3e 62 6e d3 bb
       0.17425618 -0.023512334 0.19147283 -0.0064523676
000120 ab f1 e7 bd 42 74 29 3e c4 6d 73 3e 7c 31 fd 3d
       -0.113253914 0.16548255 0.23772341 0.12362954
000130 ea e2 1e be 8e 30 c7 bd e4 34 f0 3d 30 ea b5 bc
       -0.15516248 -0.09726058 0.11728838 -0.022206396
000140 e8 13 94 bd a8 9d 9e bd 00 bf 88 3b 64 ea 9d bd
       -0.07230359 -0.07744914 0.0041731596 -0.07710722
000150 00 2c 61 be 10 b2 a4 bc 20 f8 9c bc 64 af b1 3d
       -0.21989441 -0.020104438 -0.019161284 0.08676031
000160 4c ae a9 bd 20 dd 56 3c 52 f4 62 be 80 75 bd bb
       -0.082851976 0.013114244 -0.22163513 -0.0057818294
000170 6e 5a 1a 3e 94 79 1e be 24 79 84 bd 68 df 22 3d
       0.15073559 -0.15476066 -0.06468418 0.039763838
000180 b0 cb f2 bc a0 83 54 bc 00 ce 84 ba d4 38 66 be
       -0.029638141 -0.012970835 -0.0010132194 -0.22482616
000190 12 1e 7b 3e 00 28 37 b9 40 db ae bd bc 95 a8 3d
       0.2452319 -0.00017467141 -0.08537912 0.082316846
0001a0 68 95 8b bd 00 94 38 3c 14 4c fb 3d 08 b6 3c be
       -0.06815606 0.011265755 0.1227037 -0.18428814
0001b0 b8 d3 60 3e f0 2a 4a 3d 70 18 7b bd 3a 9d 21 be
       0.21955764 0.049357355 -0.061302602 -0.15782633
0001c0 67 6b a8 3e db 9c 99 3d 5a 1a 16 3e f1 2e a1 3e
       0.3289444 0.07500621 0.1465849 0.31481126
0001d0 58 56 92 be 98 a9 18 be c4 7a 31 be a3 d0 82 3e
       -0.285815 -0.14908445 -0.17331988 0.25549802
0001e0 63 6f b7 3d 4c be d4 bd f4 8b 41 be fe 33 63 3e
       0.08956792 -0.10387859 -0.18901044 0.22187802
0001f0 05 a8 af 3e 4d 7e 16 bc 19 4a 6f 3d ac 42 b5 3d
       0.34307876 -0.009185386 0.058420274 0.08850607
000200 ce e0 98 be ae d9 d5 3c 46 0e 32 3e 8c 2a 4f 3d
       -0.29859012 0.026104774 0.17388257 0.050577685
000210 05 c7 a1 3d 40 ae 6e 3e 5d 97 1d 3e 4c 56 ec bd
       0.07899288 0.23308659 0.15389772 -0.11539897
000220 98 0b 36 3c 50 02 63 3e d2 61 76 be e0 e7 1e 3c
       0.011111163 0.22168851 -0.24060753 0.009698838
000230 9f 12 89 be a7 00 5c 3e 84 89 9b 3d d8 29 dd bd
       -0.2677202 0.21484624 0.075945884 -0.10798997
000240 4c ca 29 3e 22 ae 18 3d 01 8f b7 3e cc 0f 86 3e
       0.16581076 0.03727544 0.3585129 0.26183927
000250 90 48 cf be 82 cc 70 3e 81 ff 5b 3d d0 5c a0 3e
       -0.40485048 0.23515514 0.053710464 0.3132081
000260 ad 43 9c 3e 68 05 31 bd ec 00 09 3e bc 8c 15 3e
       0.30520383 -0.043218046 0.13379258 0.14604467
000270 91 b2 89 3e ca a0 9b 3d c9 90 0d 3d 6c c4 40 be
       0.26894048 0.075990275 0.034561906 -0.18824929
000280 1b eb a9 3e 71 59 ac 3e ee 9a 8d 3e dc 54 45 3d
       0.33187184 0.33661988 0.27657264 0.04817663
000290 ce b7 19 bf b0 e0 52 be a5 01 dc be 6b 82 cb 3e
       -0.6004609 -0.20593524 -0.42970005 0.3974794
0002a0 62 fb db bc 40 d3 a4 bd e4 15 48 3e ec ff 0a 3e
       -0.026853267 -0.08048105 0.195396 0.13574189
0002b0 0f fa cb 3e c6 83 44 be fe 0d 46 be 50 d9 3e bd
       0.39839217 -0.19190893 -0.19341275 -0.046593964
0002c0 94 7c 1b be 11 60 33 3e 28 02 d8 bd a1 59 52 3e
       -0.15184242 0.17517115 -0.10547286 0.20542003
0002d0 94 d6 2a 3e 14 d8 b8 3d fa 97 20 3e 42 95 11 be
       0.16683418 0.09025589 0.15682974 -0.14217094
0002e0 96 84 67 3d 40 5b d7 bd 78 53 72 3d 20 69 7c 3e
       0.05652293 -0.105154514 0.059161633 0.24649477
0002f0 db ab 10 3e 58 3d 5e bd ba 8d 29 be 16 95 7c be
       0.14128058 -0.05425772 -0.1655797 -0.24666247
000300 ea c8 81 be 28 c4 1d 3e 86 d6 89 3d 4b 4f 37 bd
       -0.25348598 0.15406859 0.0673037 -0.044753354
000310 8d e8 de 3d 24 38 b2 bd b0 3a a6 3d 87 6a 63 be
       0.10884199 -0.08702114 0.081166625 -0.22208606
000320 da 9f 98 3d c0 bc ab bd 74 d8 ea bd ec a2 67 3e
       0.07452364 -0.083856106 -0.114670664 0.22620744
000330 61 a2 e2 bd 28 7a 1e 3e 2a 4f f4 bd e8 0d 80 bd
       -0.110661276 0.15476286 -0.11929162 -0.062526524
000340 68 47 8b bd 7c d1 82 bd d8 b4 0e 3d 70 72 ac bc
       -0.06800729 -0.06387612 0.034840435 -0.021050662
000350 1e 07 48 3e e8 2c 7c 3e b4 a8 8a bd 00 40 30 bd
       0.19533965 0.24626505 -0.06770459 -0.043029785
000360 c0 49 9b 3d 42 d5 67 3e 06 e8 16 3e 00 45 a0 bd
       0.07582426 0.22639945 0.14736947 -0.07825661
000370 38 3c 6d bd b8 d1 2a 3e e8 7c 18 bd c0 15 54 3e
       -0.057918757 0.16681564 -0.037228495 0.20711422
000380 ce 71 29 3e 3e 10 83 be 46 2c 85 3d 9b e3 10 bd
       0.1654732 -0.2559833 0.06502585 -0.03537331
000390 38 26 86 be a6 37 15 be 52 3c 5d be 24 c6 24 3d
       -0.26201034 -0.1457201 -0.21605042 0.040228024
0003a0 04 f0 3e be a8 79 42 3e ea 8d 6e 3e 30 fb 83 3c
       -0.18646246 0.1899172 0.23296323 0.016110986
0003b0 6a 4f 05 3f b2 80 91 bd a8 1a d5 3d d8 3d c4 bd
       0.520743 -0.07104625 0.10405475 -0.09582108
0003c0 27 85 56 3e 1b ca 9b 3e 90 28 4a bc 7f b7 25 bc
       0.20949231 0.30427632 -0.012338772 -0.01011455
0003d0 a7 76 50 be c6 7b 1f be 5e 9e ce be fc b7 da 3d
       -0.20357762 -0.1557456 -0.403552 0.106796235
0003e0 08 12 b4 3c e2 f2 36 be e4 e1 e1 bd 08 38 09 3e
       0.021981254 -0.1786609 -0.11029413 0.1340028
0003f0 f7 b5 a8 3e 0e 55 89 3e 4e 6d f3 bd 90 d4 a0 bd
       0.32951328 0.26822704 -0.118860826 -0.07853043

hedge_q.1.linear_relu_stack.4.bias f4 [16]
000000 30 ff 89 bd 1a 54 1a be 8c 02 c2 be 70 5f 47 3d
       -0.06738126 -0.15071145 -0.37892568 0.048675
000010 b4 23 10 3d 20 fa 5e 3c 90 fc 5c be 15 19 de 3d
       0.0351903 0.013609439 -0.2158072 0.10844628
000020 77 df 90 3c 11 7e 43 3e 48 15 a0 3b aa 28 7c be
       0.017684681 0.1909106 0.0048853494 -0.24624887
000030 96 35 4e 3d d4 af aa bd e8 76 aa bd 86 7f bb 3d
       0.050344072 -0.08334318 -0.08323461 0.091551825

hedge_q.1.linear_relu_stack.6.weight f4 [1, 16]
000000 e4 1d 44 be d4 7b 7d 3e 3a b8 74 bf 5c a6 70 3e
       -0.19152027 0.24754268 -0.9559361 0.23500961
000010 57 e0 01 be e0 c7 4d bc c0 22 b9 3c 44 de b5 3e
       -0.12683235 -0.012559861 0.022599578 0.35521138
000020 01 f9 15 be 92 83 ac 3e b2 55 9f 3e f9 b1 7c 3e
       -0.14645769 0.3369413 0.31120068 0.24677266
000030 37 93 ea bd b0 f7 26 be 69 f0 5e bf cc ef 6f 3e
       -0.1145386 -0.16305423 -0.87085587 0.23431319

hedge_q.2.linear_relu_stack.0.weight f4 [16, 2]
000000 f5 d1 e0 bf a2 ae 40 3d 41 7d cc be 94 2b b5 be
       -1.7564074 0.047041543 -0.3993931 -0.3538481
000010 21 61 a8 3e 32 2b 12 3f d1 c5 cf 3d fc 9a 49 3e
       0.32886603 0.5709716 0.10145152 0.19688028
000020 b2 94 02 bf 96 27 1e bf 39 c4 69 3f 54 86 d0 3e
       -0.5100814 -0.61779153 0.91315037 0.40727484
000030 59 e4 79 3e 50 65 68 3d 93 f8 36 3f 6c 7a e7 be
       0.24403514 0.056737244 0.71473044 -0.45210588
000040 3a 56 83 3f b7 6b d3 3e f2 32 0f 3f f5 24 a4 be
       1.0260689 0.41293117 0.5593711 -0.32059446
000050 f6 f8 08 3f 99 c8 b3 be 0a 17 e7 be 47 fb 95 3d
       0.53504884 -0.3511398 -0.45134765 0.07323318
000060 76 46 e1 be c9 56 44 be 74 a9 bd be 23 0b 2f bf
       -0.4399907 -0.19173731 -0.37043345 -0.6837637
000070 b7 a0 9d be 2c c8 02 3f 05 21 36 3f d3 ba 18 3f
       -0.30786678 0.5108669 0.71144134 0.5966007

hedge_q.2.linear_relu_stack.0.bias f4 [16]
000000 0d a4 6e 3f c4 15 bc 3d 87 32 09 3f b4 d8 dd 3e
       0.9321907 0.09183839 0.53592724 0.43329394
000010 8c bc d2 be 4a 74 17 3f 7c d9 b8 be 84 46 99 3e
       -0.41159475 0.5916182 -0.36103427 0.29936612
000020 94 54 7b be ac c8 1d bf 6b fe 32 bf 71 cf b2 bc
       -0.24543983 -0.61634326 -0.6991946 -0.021827431
000030 ba aa 0e 3e ce 54 80 3d ed 69 ef 3e 85 13 3e 3f
       0.13932315 0.06266175 0.46760502 0.74248534

hedge_q.2.linear_relu_stack.2.weight f4 [16, 16]
000000 e8 79 88 bd e4 9a 7b 3e 98 ca f5 3d 88 00 f3 3d
       -0.06663877 0.24570805 0.12001532 0.11865336
000010 50 e2 ca bc dc d5 bf 3d f8 43 7d 3e 6e 0d 72 be
       -0.024766117 0.09366962 0.2473296 -0.23637936
000020 48 aa 92 bd 5c 4e 43 3e 88 10 bc bd 56 ff 44 3e
       -0.07161385 0.1907286 -0.091828406 0.19238028
000030 c4 38 06 be 3a a5 27 be 68 13 c6 bd 1e b0 7e be
       -0.13107592 -0.16371623 -0.0967167 -0.24871871
000040 f4 cb 3b be 14 9a 59 be 8c 38 12 be 24 9a 0e be
       -0.1833952 -0.21250182 -0.14279383 -0.13925987
000050 a0 95 4c be 28 94 a5 3d 5e 8c 28 be 20 e8 3e bd
       -0.19978952 0.08084899 -0.16459796 -0.04660809
000060 dc b2 f7 3d e8 50 50 be 38 27 16 bd 6e 72 51 be
       0.120946616 -0.20343363 -0.036658496 -0.20453808
000070 68 02 cc 3d f8 09 08 3d 64 94 4b be a4 72 9d bd
       0.099613965 0.033212632 -0.19880825 -0.076878816
000080 20 1d 52 3d 90 1c ab bc 30 66 cc bc dc 03 ab bd
       0.051297307 -0.020887643 -0.02495107 -0.083503455
000090 68 51 5e bd e0 84 7b 3d 74 be 9b 3d 20 3d ec 3d
       -0.054276854 0.061406016 0.076046854 0.11535096
0000a0 20 97 8b bc d0 cd 10 3e 26 d7 43 be c0 a4 88 3c
       -0.017039835 0.14141011 -0.19125041 0.016680121
0000b0 94 10 9a 3d 90 6b d5 3d ac 2c cc bd d0 fa e2 bd
       0.07522693 0.104209065 -0.09969458 -0.11082995
0000c0 3e 42 95 bf 39 75 07 3e 71 85 19 3d 07 5a f9 3c
       -1.166084 0.1322831 0.037480775 0.030438436
0000d0 98 d1 9d bd e8 1b 40 3e 90 d7 4a 3e 08 e6 9f 3d
       -0.077059925 0.18760645 0.19808793 0.07807547
0000e0 7d 23 d9 3e 64 68 7e 3e ea 4d 6b be c8 cf 3e 3e
       0.42409888 0.2484451 -0.2297894 0.1863395
0000f0 65 99 04 be 77 8a 77 be 24 e8 39 be b7 e7 01 3e
       -0.1294914 -0.24173914 -0.18154961 0.12686048
000100 ca 91 40 bf 7a a7 33 be db 40 cf 3c 2b 7c 48 be
       -0.75222456 -0.17544356 0.02529948 -0.19578616
000110 14 57 0a 3e c7 7d 17 3d 90 29 a9 3d a8 ed 76 3e
       0.1350978 0.036985185 0.082598805 0.24114096
000120 52 c2 58 b9 80 62 80 bc 0c 0d aa bd 30 22 f2 3d
       -0.00020671755 -0.015671968 -0.0830327 0.11822927
000130 6a b9 0f 3e 2e f6 71 3e 9d cf 1a be e8 5e 6d 3e
       0.14035574 0.23629066 -0.1511826 0.23180735
000140 3c 25 a8 3d d0 be 43 3d 52 45 27 3e 0c e0 4f be
       0.08210227 0.047789395 0.16335037 -0.20300311
000150 90 5c f9 3d 2a 95 44 be 44 30 e9 bd 00 81 e6 bd
       0.12175858 -0.19197527 -0.11386159 -0.112550735
000160 e8 2d 26 be b2 5f 5d 3e 80 c9 04 bc 9a 89 0c be
       -0.1622845 0.21618536 -0.008104682 -0.13724366
000170 80 a0 61 bd 94 b3 05 be f0 ea b6 3c 76 4c 21 be
       -0.055084705 -0.13056785 0.022328824 -0.15751824
000180 de ae 00 3e c0 34 96 3c c0 ce db bb b0 d2 62 be
       0.12566707 0.0183357 -0.006707996 -0.22150683
000190 92 1b 4b 3e 50 d8 bf 3c dc a0 45 3e 1c 42 ae 3d
       0.19834736 0.023418576 0.19299644 0.08508703
0001a0 40 7f e5 bd b0 1d 64 bd de d8 59 3e 76 4b 11 3e
       -0.11205912 -0.055692375 0.21274135 0.14188942
0001b0 e6 a2 48 3e a0 e0 19 be 48 06 3f 3d b8 58 cc bd
       0.19593391 -0.15027094 0.04663685 -0.09977859
0001c0 3a ea a5 be e1 48 05 3e c9 03 45 3e 11 e8 0f 3e
       -0.32405263 0.13016082 0.19239725 0.1405337
0001d0 9a 0a 57 be b5 03 0a bc c6 b5 63 be 8f 7d 9d 3e
       -0.21000138 -0.008423735 -0.2223731 0.30759856
0001e0 94 50 4e 3e f8 1e 13 bd 3e 88 49 3e 3a 4c 0e 3e
       0.20147926 -0.035918206 0.19680879 0.13896266
0001f0 aa 85 47 be e1 22 4d 3e 0c 90 ba bc 9e d7 84 3e
       -0.19484583 0.20032836 -0.022773765 0.25945753
000200 f9 20 85 bf 9a 18 dd 3d 40 7e 87 3e 1d 1b 8a 3e
       -1.0400687 0.10795708 0.2646351 0.2697381
000210 d8 96 13 be f2 45 b8 3e 34 a1 6b be 30 9d 92 3e
       -0.14413011 0.35990864 -0.23010713 0.2863555
000220 9b bd 0a 3e d6 60 37 3e ea d8 04 3e 78 54 59 bd
       0.13548891 0.17908034 0.12973371 -0.05305907
000230 80 7f cd 3d 1c 6e d3 bd 17 98 98 be d1 42 9a 3e
       0.10034084 -0.10323736 -0.29803535 0.30129102
000240 b3 ab 83 bf 4f 8e 6d 3d 5b 1d d4 bd 8a 0b 0c be
       -1.0286773 0.057997044 -0.103571616 -0.13676277
000250 c8 e6 4e 3e 21 b8 ea 3d 7e c9 20 3e 68 5a a8 3e
       0.20205224 0.11460901 0.15701863 0.32881474
000260 50 94 eb 3e 20 41 24 be 4c 80 fc 3d 1c 57 65 3e
       0.4601159 -0.16040468 0.12329158 0.22396511
000270 7b 6b a7 bd 78 d3 ba 3d 3a f9 23 3d 69 d6 4c 3e
       -0.08174797 0.09122366 0.040032603 0.20003666
000280 44 1c 50 3e 72 b4 02 be 7c 8b ce bd 20 db a9 3c
       0.20323282 -0.12764147 -0.10085198 0.02073437
000290 10 dd 47 3e 94 24 5f be a0 f6 14 bc 12 57 25 be
       0.19517922 -0.21791297 -0.009092003 -0.16146496
0002a0 6c c2 ae bd 46 97 3b 3e 36 d3 56 3e dc df 45 3e
       -0.08533177 0.18319425 0.20979008 0.19323677
0002b0 04 38 ab bd 68 b9 30 bd 34 e4 b5 3d 80 7b 4c 3e
       -0.083602935 -0.043145567 0.08881417 0.19968987
0002c0 e8 35 c1 bf ee 3e 5a bd 30 c6 7e 3e 57 aa 38 3e
       -1.5094576 -0.05328267 0.2488029 0.1803373
0002d0 f6 2c 61 3e cf 42 7b 3e 84 79 60 3e f4 e7 cf 3e
       0.21989807 0.24537204 0.21921355 0.40606654
0002e0 61 a2 31 3e 14 fa bf 3d c0 79 b4 3b 60 08 f3 bd
       0.17347099 0.093738705 0.005507678 -0.11866832
0002f0 a4 4c 5e bd cb 75 be 3c 6e 6f d4 bd 11 0f 90 3d
       -0.05427231 0.023249527 -0.10372816 0.07034124
000300 57 ea aa be ba 96 5a 3d b8 55 7b 3e 9e 76 1e 3c
       -0.33381912 0.0533664 0.24544418 0.009671835
000310 78 68 7c 3d a5 2e 8b 3e 34 62 0a be d9 81 85 bd
       0.061623067 0.27184024 -0.13514024 -0.06518907
000320 ce 3d d3 3e d2 53 5d 3e 0c 6e 13 be d2 f2 45 3e
       0.4125809 0.21614006 -0.14397448 0.1933091
000330 e8 9e 23 3e 28 36 e4 bd cd 6b fc 3d 08 98 2b be
       0.15978587 -0.11143142 0.12325249 -0.16757214
000340 dc 08 62 be c4 3e 32 3e a2 7b 44 be f4 84 bd 3d
       -0.22073692 0.17406756 -0.19187787 0.092538744
000350 00 42 7e bb 4c 95 3b 3e 78 9a bd bd 30 5d ad bd
       -0.0038796663 0.18318671 -0.09257978 -0.0846504
000360 10 07 e5 bc 9e 52 2b be 1e c4 5a 3e 52 79 21 3e
       -0.02795747 -0.16730735 0.21363875 0.15768936
000370 d8 40 8d bd 16 fa 66 3e a8 08 17 3e 6a f8 0d be
       -0.068971336 0.22556338 0.14749396 -0.13864294
000380 4d 77 b1 bf a1 b2 08 bd 38 ad 19 3e 24 bd 08 3b
       -1.3864533 -0.03337348 0.15007484 0.002086469
000390 a0 34 51 3c f4 0d 8d 3e 78 ef 19 be 70 fe b3 3e
       0.012768894 0.27549708 -0.15032756 0.35155058
0003a0 07 d3 95 3e a8 01 38 be 82 32 4d be 94 36 ed bd
       0.29262564 -0.17969382 -0.20038798 -0.115826756
0003b0 88 d0 73 3e 7d 0f 58 3d 2a fd a6 be 13 bc 05 bd
       0.23810017 0.052749146 -0.32615024 -0.032650065
0003c0 87 d3 d7 be 61 57 22 3a 09 ea 87 bd 72 e3 fb bd
       -0.4215357 0.000619283 -0.066364355 -0.12299241
0003d0 f8 a7 29 be 18 32 44 bd 46 99 48 3e 61 71 f3 3d
       -0.16567981 -0.047899336 0.19589719 0.1188686
0003e0 cf 9c 83 3e f0 d0 c2 bd c0 1d 6b bc 8c 63 5e 3e
       0.25705573 -0.09512508 -0.014350355 0.21717662
0003f0 0d 93 b0 3c 54 87 4f be 18 b2 f3 3d 56 ac 94 3d
       0.021554494 -0.20266467 0.11899203 0.07259433

hedge_q.2.linear_relu_stack.2.bias f4 [16]
000000 80 73 48 3d 50 59 d9 3d 8e b1 63 be 09 db 45 be
       0.048938274 0.10612738 -0.222357 -0.19321837
000010 81 24 09 3e 00 be b7 bc 84 f7 b7 bd e9 52 d6 bc
       0.13392831 -0.022429466 -0.08982757 -0.026162582
000020 17 fe 1a bd d1 df 48 bd 64 87 5d be ef ff c9 3d
       -0.037839975 -0.049041573 -0.21633679 0.098632686
000030 fd 8a 06 3c 4c 1c 3c be 07 98 3d 3d c1 b7 67 3e
       0.008211848 -0.1837017 0.046287563 0.2262869

hedge_q.2.linear_relu_stack.4.weight f4 [16, 16]
000000 c8 b5 21 3e 20 4e 84 3d d0 e0 03 be 44 28 60 be
       0.15792 0.06460214 -0.12878728 -0.2189036
000010 71 04 ee 3d 40 a7 66 bd c2 1d 41 be b2 21 18 3e
       0.11621941 -0.056311846 -0.18859008 0.14856604
000020 94 69 95 bd f0 a8 ac 3d ae cc 77 be f2 a5 14 be
       -0.07295528 0.0843066 -0.24199173 -0.14516428
000030 8d fa 84 3d 14 20 ff 3d 04 d1 3a 3e a4 9a 62 3e
       0.06493101 0.1245729 0.18243796 0.22129303
000040 48 e0 3a be b0 52 7f be 2a 63 52 3e 55 0e 63 3e
       -0.18249619 -0.24933887 0.2054564 0.22173436
000050 57 52 6d be 9a 5a 64 3e c8 ec e3 bd a5 49 1a be
       -0.23175941 0.22300187 -0.11129147 -0.15067156
000060 5f 75 66 be 6b 2f 3d 3e 84 e8 91 3d be 34 1e 3e
       -0.22505711 0.1847512 0.07124427 0.15449807
000070 ef 36 bf 3d 08 27 f4 bd 9e 34 15 be 4a ee 5b bd
       0.093366496 -0.11921507 -0.14570853 -0.053694047
000080 2c 76 3e 3e 26 d3 5a be 10 a1 82 3d 30 c0 87 3e
       0.18599766 -0.21369609 0.063783765 0.26513815
000090 06 f5 26 3e d4 2e 8e bd 1c 53 83 bd f3 b0 82 3e
       0.16304407 -0.069425255 -0.06412336 0.25525627
0000a0 55 a2 aa 3e 99 75 96 3e 40 7b 18 bc ff 51 a3 3e
       0.33326975 0.29386595 -0.009306729 0.31898496
0000b0 8f f4 c4 3d f8 34 b9 3d 0c de 1e 3e 5a 24 60 3e
       0.09616958 0.09043306 0.15514392 0.21888867
0000c0 44 28 39 3e 58 c7 2f 3e c0 e9 b5 3b 76 f6 8d be
       0.18081766 0.17165887 0.005551547 -0.27727097
0000d0 75 b8 64 be 5c 65 8b 3d 42 46 04 be 7c 5b 55 3e
       -0.2233599 0.06806442 -0.12917426 0.2083568
0000e0 62 18 4b 3e a0 b2 bf be 10 7f fa bd 69 71 7d bc
       0.1983352 -0.37440968 -0.122312665 -0.015468934
0000f0 6d 10 20 bd 80 5b d1 bd d6 6f 60 be 86 1c a5 3c
       -0.039078165 -0.1022253 -0.21917662 0.020155203
000100 00 c0 0c 39 60 f7 72 bc 38 44 a8 3d 80 14 d3 bb
       0.00013422966 -0.014829487 0.08216137 -0.006441653
000110 dc a5 c5 bd fc 7c 0b 3e fc 49 81 bd b2 b2 25 be
       -0.09650776 0.13621897 -0.063129395 -0.16181448
000120 ee c2 63 be 70 83 2f 3d 54 df be bd 60 72 36 3e
       -0.22242329 0.042849958 -0.0931994 0.17817068
000130 10 6f c8 bd f6 11 0a 3e 1c c8 f2 bd 50 25 3b 3e
       -0.097868085 0.13483414 -0.11854574 0.18275952
000140 34 d4 18 3e dc 51 b3 3d a2 88 59 3e 2f 8a a2 3c
       0.14924699 0.08755848 0.21243528 0.019841282
000150 92 9d 67 bd 06 63 5e 3e d6 32 75 be 37 36 fb 3d
       -0.056546755 0.21717462 -0.23945174 0.122662
000160 64 86 d0 ba a4 2c ff 3d 40 14 65 be f2 67 58 be
       -0.0015909192 0.124596864 -0.22371006 -0.21133402
000170 ce 1b 13 be 18 cb 7d bd a9 ce 5a 3e 8e f4 76 be
       -0.14366075 -0.061961263 0.21367897 -0.24116728
000180 cc 02 88 3d a4 84 13 be 68 88 5c be 00 74 49 be
       0.066411585 -0.14406067 -0.2153641 -0.19673157
000190 a2 75 65 3e 00 59 57 bb b0 07 8a bd 14 a1 03 be
       0.22408155 -0.0032859445 -0.067397475 -0.12854415
0001a0 a0 61 c0 3c 74 c2 d8 bd 74 fa 9f bd 40 6d 51 3c
       0.023484051 -0.10583964 -0.07811442 0.012782395
0001b0 f6 b4 0e be 06 ac 15 3e ec 16 db bd 80 c9 e2 bb
       -0.13936219 0.14616403 -0.106977314 -0.0069209933
0001c0 c4 73 ea 3d ce e2 64 3e 3a d4 29 3e 06 64 49 3e
       0.11447862 0.22352144 0.16584864 0.19667062
0001d0 1a 1a 7f be a0 00 7b be 6c ed 24 be 20 84 36 be
       -0.249123 -0.24511957 -0.16106194 -0.17823839
0001e0 40 ec d3 3c e0 92 79 3e 08 4a 3b bd 18 a1 4b 3d
       0.025869489 0.24372435 -0.0457249 0.049714178
0001f0 24 3f 4b be 8c 09 1d 3e 26 2e 5b be 36 b1 00 be
       -0.19848305 0.15335673 -0.21404323 -0.125676
000200 18 3e 19 be 9c df 48 3e a0 aa 93 3c 74 2f 2f be
       -0.14965093 0.1961655 0.018025696 -0.17107946
000210 68 3c 7c bd f4 51 e8 bd ce c8 11 be 18 89 1e be
       -0.061581045 -0.11343756 -0.14236757 -0.15481985
000220 90 f8 ff bd f4 9b a3 bd da 50 5b 3e 8e 95 3a 3e
       -0.124985814 -0.0798873 0.21417561 0.18221113
000230 18 ac c5 3d e8 9f 18 3e b8 0e 2e be d4 51 ee 3d
       0.09651965 0.1490475 -0.16997802 0.11636701
000240 b4 dd 73 be 48 74 3b be 5a ed 1f 3e 17 ef f0 3d
       -0.23815042 -0.18306077 0.15617886 0.11764353
000250 fe bc a5 3e bc 1a a8 3d d0 6e 5f bd 86 bf ac 3d
       0.32370752 0.08208224 -0.05454904 0.08434968
000260 c8 24 99 3e 8d a8 8e 3e a4 20 e2 3d 0d e4 6f 3e
       0.29910874 0.2786297 0.11041382 0.23426838
000270 9b d6 9d bd 0c b5 73 be c9 e1 e9 3e da fc 9f bd
       -0.07706948 -0.23799533 0.45680073 -0.078118995
000280 4e 5b 62 be c0 ab 37 3d 92 bd 19 be be 11 00 be
       -0.22105142 0.044841528 -0.15013722 -0.12506768
000290 a0 55 a8 3c 00 14 92 3d d0 74 2f 3e 18 89 29 bd
       0.020548642 0.07132721 0.17134404 -0.04139051
0002a0 fc 0d c5 bd a6 84 16 be 40 35 e2 bc 6c e2 0c be
       -0.09621808 -0.14699039 -0.027613282 -0.13758248
0002b0 58 fe bf 3d 4c 75 6c 3e 48 6b 02 be 82 d5 2a 3e
       0.09374684 0.2309162 -0.12736237 0.1668301
0002c0 da af 5f 3e 90 84 a6 3d 10 90 63 be 07 dd ff bc
       0.21844426 0.08130753 -0.22222924 -0.031233324
0002d0 32 57 a1 bd 5c b4 55 be f4 c6 5f 3e ad bf 64 be
       -0.07877959 -0.20869583 0.21853238 -0.22338744
0002e0 1f 73 41 3e 86 aa 18 be b4 e8 0b be a8 56 20 be
       0.18891571 -0.149088 -0.13662988 -0.15658057
0002f0 4e 26 26 3e d0 36 47 be f1 e2 df 3d 6e af 43 3d
       0.1622555 -0.19454503 0.109319575 0.047774725
000300 da ce 35 3e c8 50 ed bd 14 b7 f5 bd ef 34 bc bd
       0.17754689 -0.115876734 -0.1199781 -0.09189784
000310 f6 db 67 3b 68 2a df bd 6a d8 7e 3e a7 8e 82 bd
       0.003537891 -0.1089676 0.24887243 -0.06374865
000320 23 85 17 be 1e b5 06 3e 8c fd 98 3d 08 d7 0d bd
       -0.14796881 0.13155028 0.07470235 -0.034628898
000330 de 91 b8 bd c0 c5 a6 bb 87 37 b9 bd 16 54 44 be
       -0.09012197 -0.0050894916 -0.09043794 -0.19172701
000340 70 d1 a7 3c 88 b6 50 3e d4 27 a2 3d 36 97 76 3e
       0.02048561 0.2038213 0.07917753 0.2408112
000350 bb 13 89 be c8 f6 fd 3d c6 48 3b be 92 e1 a5 3d
       -0.26772866 0.124005854 -0.1828948 0.08099665
000360 70 f8 6e 3d 8b 55 b5 bc 2c a2 e7 3d 8d e6 21 be
       0.058342397 -0.022135517 0.11310229 -0.15810604
000370 69 99 84 3e 78 38 05 be da 14 46 be ec 3f f7 3d
       0.25898293 -0.13009822 -0.19343892 0.12072739
000380 10 c7 5f 3d 74 1a c6 3d f4 c8 53 3e b7 14 73 bd
       0.0546332 0.09673014 0.20682126 -0.059345927
000390 1f c9 4f be 0e ee 69 3e 20 69 9a bd d1 db 83 be
       -0.20291565 0.22844717 -0.07539582 -0.25753644
0003a0 a1 80 3b 3c 40 f8 7c be 90 9a 9b bd 92 7e 11 3c
       0.011444242 -0.24704075 -0.0759784 0.008880274
0003b0 10 78 48 be b8 58 75 be 48 8e 2b 3d ae 05 24 3d
       -0.1957705 -0.23959625 0.041883737 0.04004448
0003c0 50 6b 3d be 30 c9 dc bc c0 b1 3f 3c 10 ee 53 3d
       -0.18497968 -0.026951402 0.011700094 0.051740706
0003d0 78 cf 16 3d 6a 1a 09 3e d8 fe 30 be 18 c0 dd bd
       0.03681895 0.13388982 -0.17284715 -0.108276546
0003e0 98 76 5d 3d c0 7b 8c 3c d6 50 60 be 5a b8 78 be
       0.054068178 0.017148852 -0.21905836 -0.24289075
0003f0 e8 84 a3 bd 22 6e 6e be 4a 27 34 3e 80 b8 5f be
       -0.07984334 -0.232842 0.17593113 -0.21847725

hedge_q.2.linear_relu_stack.4.bias f4 [16]
000000 b6 b0 81 be b0 e1 b1 3d 6f 74 ea 3d f8 05 59 3d
       -0.25330132 0.086856246 0.11447989 0.052984208
000010 30 5d f2 3c 22 6f 23 bc 26 b1 71 be bc b1 0d be
       0.02958545 -0.009975227 -0.23602733 -0.13837332
000020 5a db 11 be e6 2d 38 3e 90 89 c0 bc 2c f2 94 bd
       -0.14243832 0.17986259 -0.023503095 -0.07272753
000030 0a fa 1a 3e 08 f5 23 bd 68 02 3d 3e 38 2f 65 be
       0.15134445 -0.040028602 0.18457949 -0.22381294

hedge_q.2.linear_relu_stack.6.weight f4 [1, 16]
000000 65 3e 4c be 19 30 58 be 58 aa b3 3e 50 01 14 bf
       -0.19945677 -0.21112098 0.350909 -0.578145
000010 ee 75 00 3e 33 8f cd bd e0 1d f8 3d e0 82 6b 3c
       0.12544987 -0.10037079 0.12115073 0.014374465
000020 02 e1 6f 3e 38 47 5e 3e 5e 06 6b be 9a 0c 5f be
       0.23425677 0.21706855 -0.22951648 -0.21782151
000030 5c 2e 4e bc 9e 95 e3 be 03 37 3f be 66 e2 3e be
       -0.012584295 -0.44450086 -0.18673329 -0.18641052
