Models/BS/FFNN/No transaction costs/BS_FFNN_CVaR_99_Notc.pth (torch, 48931 bytes, 63 tensors)

hedge_q.0.linear_relu_stack.0.weight f4 [16, 1]
0	0x3fa81c62	1.3133662
1	0x3edd399e	0.4320802
2	0xbea1af24	-0.31578934
3	0xbf22a320	-0.6353016
4	0xbd60cbc0	-0.05488181
5	0xbefda2f7	-0.49538395
6	0xbec48db4	-0.3838936
7	0xbec07020	-0.37585545
8	0x3f768a64	0.9630492
9	0xbf7d5552	-0.98958313
10	0xbe8173fc	-0.25283802
11	0xbf179449	-0.5921064
12	0x3f53145c	0.8245294
13	0x3ee62aa8	0.4495442
14	0x3f0b6f43	0.54466647
15	0x3f2612df	0.64872545

hedge_q.0.linear_relu_stack.0.bias f4 [16]
0	0xbde5a39e	-0.11212848
1	0x3f24a267	0.64310306
2	0xbf403dd6	-0.75094354
3	0xbd8c9d40	-0.068659306
4	0xbe296280	-0.16541481
5	0x3f1ec4a4	0.620188
6	0xbedf2504	-0.43582928
7	0x3f2070d6	0.62672174
8	0xbf406812	-0.751588
9	0xbf10a920	-0.56508064
10	0xbf77fe58	-0.9687247
11	0x3f824229	1.017644
12	0xbf557bcc	-0.83392024
13	0xbf54be86	-0.83103216
14	0x3f2692ed	0.6506794
15	0xbd9922ac	-0.07477316

hedge_q.0.linear_relu_stack.2.weight f4 [16, 16]
0	0xbde16410	-0.110054135
1	0xbdad7a2c	-0.08470568
2	0x3cb08d90	0.021551877
3	0x3e3150e4	0.17316014
4	0xbe66b760	-0.2253089
5	0x3e22e262	0.1590667
6	0xbc8fbe90	-0.017546922
7	0x3d849b3c	0.06474921
8	0x3de0ab8c	0.1097022
9	0xbe2b7e74	-0.16747457
10	0x3e2185f6	0.15773758
11	0x3df479fc	0.11937329
12	0x3e50d006	0.20391855
13	0x3e23a0a4	0.15979248
14	0xbcd40b20	-0.025884211
15	0x3cb288d0	0.021793753
16	0x3e44b440	0.19209385
17	0xbc72207c	-0.014778253
18	0xbd87c998	-0.06630248
19	0xbe74b83c	-0.23898405
20	0x3e10cf16	0.14141497
21	0xbe643200	-0.22284698
22	0x3e6d129c	0.2315163
23	0xbe5c2658	-0.21499002
24	0x3e2107a4	0.15725571
25	0xbe7945b0	-0.2434299
26	0xbe787b7a	-0.24265853
27	0xbce55f43	-0.027999526
28	0x3e1f7a52	0.15574005
29	0x3e5d8eea	0.21636549
30	0x3e3bdc5e	0.18345782
31	0x3e39d761	0.18148567
32	0x3ee71581	0.45133594
33	0x3cded842	0.02720273
34	0xbc8dc710	-0.017306834
35	0xbdc4652c	-0.095896095
36	0x3e032bd8	0.12809694
37	0xbd3bd4eb	-0.04585735
38	0xbe15638e	-0.14588758
39	0x3e447654	0.19185764
40	0xbcf91c20	-0.030408919
41	0xbd51b508	-0.051198035
42	0xbe30eb3a	-0.17277232
43	0xbd33e8cd	-0.043923188
44	0x3e415f70	0.18884063
45	0xbe3015b2	-0.17195776
46	0xbdb83aff	-0.089956276
47	0x3eea20e1	0.4572821
48	0x3d229eb0	0.039702117
49	0xbdd89f3c	-0.105772465
50	0xbe5119c2	-0.20419982
51	0x3e4db294	0.20087653
52	0x3cfbcab0	0.030736297
53	0xbd1bfa10	-0.038080275
54	0xbe2d272e	-0.16909477
55	0xbe0a07f4	-0.13479596
56	0x3e57c8f8	0.21072757
57	0x3e1f7984	0.15573698
58	0xbdbc3664	-0.09190062
59	0xbe350634	-0.17678148
60	0x3cf02b50	0.029317528
61	0xbd505370	-0.050860822
62	0xbce924a0	-0.028459847
63	0xbe4f6470	-0.20253158
64	0x3d0d6d9d	0.034528363
65	0x3d939d0e	0.0720769
66	0x3bb9f9c0	0.0056755245
67	0xbe00d514	-0.12581283
68	0xbc6d5ea0	-0.014487892
69	0xbd30b311	-0.04313952
70	0xbe1f4ccc	-0.1555664
71	0xbe0ee847	-0.13955794
72	0x3e44b76a	0.19210592
73	0x3df71174	0.12063876
74	0x3df3c484	0.11902717
75	0x3b914a8c	0.0044339355
76	0xbda9cb18	-0.0829069
77	0x3e61b8f6	0.22043213
78	0xbd4ed47f	-0.05049562
79	0xbdc8ec66	-0.098107144
80	0x3f0bc747	0.5460095
81	0x3e2d8e27	0.16948758
82	0x3e09de8e	0.13463804
83	0xbcbb08a0	-0.022831261
84	0xbe15060c	-0.14553088
85	0xbe9b1508	-0.30289483
86	0xbe0c7806	-0.1371766
87	0x3d895197	0.06705015
88	0x3ccfeb50	0.02538076
89	0x3e3e479c	0.18582004
90	0xbab4bb00	-0.001378864
91	0xbeab4251	-0.33449033
92	0xbe3d16dc	-0.18465751
93	0x3e20a1ba	0.15686694
94	0x3dd0e474	0.10199824
95	0x3eeddf40	0.4645939
96	0xbd6a2688	-0.057165653
97	0xbd9be13c	-0.076113194
98	0xbe66861e	-0.22512099
99	0xbd8e083c	-0.06935164
100	0xbdcc6d58	-0.09981793
101	0xbe7ce814	-0.24697906
102	0xbd937c24	-0.07201412
103	0xbd821280	-0.06351185
104	0xbdf2b960	-0.11851764
105	0xbe36b136	-0.17841038
106	0xbe45c4fc	-0.19313425
107	0xbd7dca60	-0.061960578
108	0xbde8be44	-0.11364415
109	0xbe1e0406	-0.15431222
110	0x3ddc0bac	0.10744414
111	0xbdc8f70c	-0.098127455
112	0x3eca799d	0.3954591
113	0x3e98dcfc	0.29856098
114	0x3e3783ba	0.17921343
115	0x3e61c8d2	0.22049263
116	0xbdcad43c	-0.09903762
117	0x3d185728	0.037192494
118	0x3df76070	0.12078941
119	0xbe70896b	-0.23489921
120	0xbdf44d7c	-0.119288415
121	0x3d8fc1cc	0.07019386
122	0xbde4cbf0	-0.111717105
123	0x3d9012a7	0.07034808
124	0x3c877cd0	0.016539007
125	0xbe034926	-0.12820873
126	0xbb21ea11	-0.0024706165
127	0x3e4ef6e1	0.20211364
128	0xbdb8f4cc	-0.09031066
129	0xbdca17c8	-0.09867817
130	0xbe745b0c	-0.23862857
131	0xbe2d2906	-0.1691018
132	0x3e74a9be	0.23892877
133	0x3c98fa60	0.018674076
134	0x3c096ca0	0.008387715
135	0xbe1dbe3e	-0.15404603
136	0x3e1c3a64	0.1525665
137	0x3e32337c	0.17402452
138	0x3d9ab9d4	0.07554975
139	0x3e5c1a48	0.214944
140	0x3e3f3692	0.1867316
141	0xbe410f22	-0.18853429
142	0xbe21ed1c	-0.15813106
143	0xbd3a6500	-0.045506477
144	0x3dbb8190	0.091555715
145	0x3d3327b0	0.04373902
146	0xbc6d8ce0	-0.014498919
147	0x3e319152	0.17340592
148	0x3e4c959c	0.19978946
149	0xbe77c85a	-0.24197522
150	0x3df33578	0.11875433
151	0xbce60990	-0.028080732
152	0xbc9abde0	-0.018889368
153	0xbe2e4ccc	-0.17021483
154	0x3df48510	0.11939442
155	0xbe2e3ec4	-0.1701613
156	0x3e3a7d9e	0.18211982
157	0x3d3ed6c8	0.04659155
158	0xbd8aae00	-0.06771469
159	0xbc52d5c0	-0.012868345
160	0xbc4b91e0	-0.012424916
161	0xbe53ecac	-0.20695752
162	0x3e69241a	0.22767678
163	0xbc8daa10	-0.017293006
164	0xbe6c6cac	-0.2308833
165	0x3e0439f6	0.12912735
166	0xbddc3e18	-0.10754031
167	0x3c1b0640	0.009461939
168	0x3c0c38a0	0.008558422
169	0xbe1d0cda	-0.15336934
170	0x3e6a0d56	0.2285665
171	0x3da874f8	0.08225435
172	0xbe055ce6	-0.13023719
173	0x3e5b32cc	0.21406096
174	0xbe62c536	-0.22145543
175	0x3dd6fde8	0.104976475
176	0x3cbaef50	0.022819191
177	0xbd4749a8	-0.04865423
178	0x3e02ba88	0.12766469
179	0x3e5c57a6	0.2151781
180	0xbe785002	-0.2424927
181	0x3cf134c0	0.029444098
182	0xbe004060	-0.12524557
183	0x3e4870ee	0.1957433
184	0xbe0dfd4e	-0.1386616
185	0xbe3ee466	-0.18641815
186	0xbe0d8e4e	-0.13823816
187	0xbe1eec16	-0.15519747
188	0xbb8f3700	-0.00437057
189	0x3db25ed8	0.08709496
190	0xbe18f574	-0.14937383
191	0xbddce9b4	-0.10786763
192	0x3da846a0	0.08216596
193	0xbde6a688	-0.11262232
194	0xbe2f9528	-0.17146742
195	0xbd863248	-0.06552559
196	0xbdcc155c	-0.099650115
197	0xbd26f638	-0.040762156
198	0xbe730d26	-0.23735484
199	0xbd7c4d00	-0.06159687
200	0x3d9bb30c	0.0760251
201	0x3e293524	0.16524178
202	0x3e2254d8	0.15852678
203	0x3d9b1458	0.0757224
204	0xbd88b6f0	-0.066755176
205	0x3e233350	0.15937543
206	0xbe54d1f8	-0.20783222
207	0x3d9eb254	0.07748857
208	0xbdeec174	-0.11657992
209	0xbe756a68	-0.23966372
210	0x3d02fb28	0.031977803
211	0x3c1437c0	0.009046495
212	0xbd1de9c0	-0.038553
213	0xbd887ca4	-0.06664398
214	0xbe3210c8	-0.17389214
215	0xbdb36364	-0.08759192
216	0x3befad40	0.007314354
217	0x3e171932	0.14755705
218	0xbd8e9e74	-0.06963816
219	0xbd920e48	-0.0713163
220	0xbded504c	-0.11587581
221	0x3e3e2458	0.18568552
222	0x3dea94ec	0.11454186
223	0xbd8b5b4c	-0.06804523
224	0x3dc4b63b	0.0960507
225	0x3dba06f6	0.09083359
226	0xbcccccd0	-0.025000006
227	0xbe750a3c	-0.23929685
228	0xbcb38270	-0.021912783
229	0xbdf6ec08	-0.12056738
230	0x3e7abbb2	0.24485663
231	0xbe85def7	-0.2614667
232	0xbe6ac604	-0.229271
233	0x3d63bde8	0.05560103
234	0xbe2f19b4	-0.17099649
235	0x3e1cae88	0.15300953
236	0xbe69df1a	-0.22839013
237	0xbe4064b2	-0.18788412
238	0x3e09bd7e	0.13451192
239	0x3f06d5f1	0.526702
240	0xbe4d513e	-0.20050523
241	0xbd2b7c00	-0.041866302
242	0x3decb308	0.11557585
243	0x3d686e48	0.056745797
244	0x3d15f178	0.036607236
245	0xbdd5a36c	-0.10431561
246	0xbd015100	-0.03157139
247	0x3e4a8ef0	0.19781089
248	0xbd63f948	-0.055657655
249	0xbd0d2838	-0.034462184
250	0x3e5a59aa	0.21323267
251	0xbdb3c964	-0.087786466
252	0x3c1769a0	0.009241492
253	0xbe64f740	-0.22359943
254	0xbe045bd6	-0.12925658
255	0xbd9e7608	-0.077373564

hedge_q.0.linear_relu_stack.2.bias f4 [16]
0	0xbe245086	-0.16046342
1	0xbc1de264	-0.009636495
2	0x3e944186	0.2895624
3	0xbe7ff688	-0.24996388
4	0x3d05afd9	0.032638405
5	0xbda0aae0	-0.07845092
6	0xbe1fbf04	-0.1560021
7	0x3e3d344f	0.18476985
8	0xbcd3b5d0	-0.02584353
9	0xbde846e0	-0.11341643
10	0xbe3e9e94	-0.1861518
11	0x3d9e9dfc	0.07744977
12	0xbe4251e8	-0.18976557
13	0xbd975280	-0.073887825
14	0x3e59804f	0.21240352
15	0x3d3ff700	0.046866417

hedge_q.0.linear_relu_stack.4.weight f4 [16, 16]
0	0xbe2fd39a	-0.17170563
1	0xbdc84848	-0.097794116
2	0xbe1b0e96	-0.15142283
3	0x3e0f8afa	0.14017859
4	0x3ccb7da0	0.024840176
5	0x3dd16d04	0.10225871
6	0xbcd05ff0	-0.025436372
7	0xbe71885c	-0.23587173
8	0xbd894aac	-0.06703696
9	0xbda8bd40	-0.082392216
10	0x3bf7ce80	0.0075624585
11	0xbdec4d88	-0.115382254
12	0x3e13d946	0.14438352
13	0x3e1cdedc	0.15319389
14	0x3e3196fe	0.17342755
15	0x3c651d60	0.013984054
16	0x3e6dddae	0.23229095
17	0x3d359c28	0.044338375
18	0x3e215de4	0.15758473
19	0x3ca86c30	0.0205594
20	0x3e402925	0.18765695
21	0x3ef7aba0	0.48373127
22	0x3de40460	0.11133647
23	0x3e66370c	0.22481936
24	0x3e4329e6	0.19058952
25	0xbdd39eec	-0.10333046
26	0x3dbb01b8	0.09131187
27	0x3e3fc41a	0.1872715
28	0xbe79c630	-0.24392009
29	0x3e36e992	0.17862538
30	0xbdb75690	-0.08952057
31	0xbdb8da80	-0.090260506
32	0xbdbfb12c	-0.09359965
33	0xbe9fef01	-0.31237033
34	0xbe05ce30	-0.13066936
35	0xbd8be7b4	-0.06831303
36	0x3e40807d	0.18799014
37	0xbf394133	-0.7236511
38	0x3db595e4	0.0886648
39	0xbce37779	-0.02776693
40	0x3dff0e10	0.12453854
41	0x3c3f10c0	0.011661708
42	0x3e157e4a	0.14598957
43	0x3d87a518	0.06623286
44	0xbdbb1738	-0.09135288
45	0xbe40208a	-0.18762413
46	0x3db607b2	0.088881865
47	0x3e0a9ea8	0.13537085
48	0x3e1d2f14	0.1534999
49	0xbdb3105c	-0.08743355
50	0xbe697d4a	-0.228017
51	0x3cc3fb40	0.023923516
52	0xbd8d562c	-0.069012016
53	0xbdc57520	-0.096414804
54	0xbe350e3e	-0.17681214
55	0xbdbae914	-0.091264874
56	0xbbc54280	-0.0060198903
57	0x3da096d0	0.07841265
58	0x3e70fc64	0.2353378
59	0xbc7803a0	-0.015137583
60	0xbcf47c00	-0.029844284
61	0xbe4e0fa4	-0.20123154
62	0x3a914100	0.0011081994
63	0xbe6178ca	-0.22018734
64	0x3d68b920	0.056817174
65	0xbd71b4b0	-0.059010208
66	0xbdf345a8	-0.1187852
67	0x3e4e4400	0.20143127
68	0x3c352860	0.011056989
69	0xbdaf6a3c	-0.085651845
70	0xbe399776	-0.18124184
71	0xbca0c770	-0.01962635
72	0x3e18c712	0.1491969
73	0xbe477cf8	-0.19481266
74	0x3c00d360	0.007862896
75	0x3d3472a0	0.044054627
76	0xbc4e4220	-0.012589008
77	0x3e0e32ac	0.13886517
78	0x3d8658e4	0.06559923
79	0x3daddf84	0.08489898
80	0x3d0d4d68	0.03449765
81	0xbe2f3659	-0.17110576
82	0x3e933d50	0.28757715
83	0xbc224bc0	-0.0099057555
84	0xbd85df34	-0.06536713
85	0x3f42fdad	0.7616833
86	0x3e5a98ec	0.21347398
87	0x3e390f9d	0.18072362
88	0xbe290922	-0.1650739
89	0xbe669902	-0.22519305
90	0xbe3c4b9c	-0.18388218
91	0x3e140a24	0.14456993
92	0x3e414ea2	0.18877652
93	0x3e479afe	0.19492719
94	0x3dab1282	0.083531395
95	0x3e6c2658	0.23061502
96	0x3e7debe6	0.2479702
97	0xbe5631fc	-0.20917505
98	0xbe7ff602	-0.24996188
99	0xbe5ae90a	-0.2137796
100	0xbd9ac46c	-0.07556996
101	0x3cd75200	0.026284218
102	0x3e569790	0.20956254
103	0xbe604952	-0.2190297
104	0x3e483474	0.1955126
105	0x3d1da418	0.03848657
106	0x3df84190	0.1212188
107	0xbe22fa8c	-0.15915889
108	0xbd3a0280	-0.04541254
109	0xbe3416b6	-0.17586789
110	0x3d50c978	0.050973386
111	0x3e0545ec	0.13014954
112	0x3e02c330	0.1276977
113	0x3e9042c1	0.2817593
114	0x3e8b6677	0.27226612
115	0x3e13e4c2	0.14442733
116	0xbdfa59fa	-0.12224193
117	0x3ecaba2b	0.3959516
118	0xbe615490	-0.22004914
119	0xbddcb5b7	-0.10776847
120	0x3d9d1f78	0.07672018
121	0xbe7e59f4	-0.24839002
122	0xbd5d8ec8	-0.054091245
123	0xbdd2e220	-0.10297036
124	0x3d8dbd5c	0.06920883
125	0xbd6b2260	-0.05740583
126	0x3eb2608c	0.34839284
127	0x3d33e2c0	0.043917418
128	0x3dde9e84	0.10870078
129	0x3c427145	0.011867826
130	0x3dec5d50	0.115412354
131	0xbe0de55c	-0.13857025
132	0xbdc441cf	-0.095828645
133	0x3f327bee	0.6972035
134	0x3ba7db80	0.005122602
135	0x3e9df307	0.30849478
136	0xbd6b6f70	-0.057479322
137	0x3e647e1c	0.22313732
138	0xbd0bdb60	-0.03414476
139	0x3debfc00	0.115226746
140	0x3e28162a	0.16414705
141	0xbe5b2ec4	-0.21404558
142	0x3e8a6d1b	0.27036366
143	0x3d9fb9c8	0.07799107
144	0xbd42ff70	-0.047606885
145	0xbe4ff59e	-0.2030854
146	0x3ddd91e1	0.1081884
147	0xbe72894e	-0.2368519
148	0xbe1a83ce	-0.15089342
149	0xbf35ff55	-0.7109273
150	0x3e0f7b40	0.1401186
151	0x3d6972bd	0.05699419
152	0x3e37278c	0.1788618
153	0xbdb34628	-0.087536156
154	0xbd504368	-0.050845534
155	0x3e760e84	0.24028975
156	0xbdb693e4	-0.08914927
157	0x3e2b1d16	0.16710314
158	0xbe919937	-0.28437206
159	0x3e39fbf0	0.18162513
160	0x3dc8a438	0.09796947
161	0xbdae762d	-0.08518634
162	0xbd989357	-0.07449978
163	0xbde96fdc	-0.113982886
164	0x3e523867	0.20529328
165	0x3da8202d	0.08209262
166	0x3cfcbd80	0.03085208
167	0x3c1f6885	0.009729509
168	0x3e6d3cf6	0.23167786
169	0x3e59081a	0.21194497
170	0xbdc5cbe0	-0.09658027
171	0x3935e000	0.00017344952
172	0xbdaaa1ac	-0.08331618
173	0xbde4c670	-0.111706614
174	0x3e5158dd	0.20444055
175	0x3d4dd140	0.050248384
176	0x3d0e8ff0	0.03480524
177	0xbe5502bd	-0.20801826
178	0xbd77052d	-0.06030767
179	0x3dcf8038	0.10131878
180	0x3e1387c5	0.1440726
181	0x3c518d20	0.0127899945
182	0x3e378bfa	0.1792449
183	0xbe8d0680	-0.27544022
184	0xbd1f32f0	-0.038866937
185	0xbc65a880	-0.014017224
186	0xbe524dd4	-0.20537502
187	0x3e267dac	0.16258878
188	0x39aaa800	0.00032550097
189	0xbd0dbe40	-0.034605265
190	0x3d4277eb	0.047477644
191	0xbd963d04	-0.073358566
192	0x3e7f1c14	0.24913055
193	0xbe80e583	-0.25175104
194	0xbe543eec	-0.20727128
195	0x3e5d90c0	0.21637249
196	0xbbabf1dc	-0.0052473377
197	0xbe505e9a	-0.20348588
198	0x3e1399ec	0.14414185
199	0x3db83f9c	0.089965075
200	0x3dcd8ab8	0.10036224
201	0xbd71a010	-0.058990538
202	0xbdd0315c	-0.101656646
203	0x3e0126a6	0.126124
204	0x3dc7d284	0.097569495
205	0x3e3cfbac	0.1845538
206	0xbe3c459d	-0.1838593
207	0xbcdce7c0	-0.026965976
208	0x3e3c563c	0.18392271
209	0x3e23c46a	0.15992895
210	0xbdcd28d0	-0.1001755
211	0x3cddc890	0.027073175
212	0x3e17cef4	0.1482504
213	0xbe50b50a	-0.20381561
214	0x3d910c80	0.07082462
215	0xbe358aa2	-0.17728665
216	0xbc066420	-0.008202583
217	0xbe2cf566	-0.16890487
218	0xbd24efb8	-0.040267676
219	0x3db8d9c8	0.090259135
220	0xbd00e6c8	-0.03147009
221	0xbe532f06	-0.20623407
222	0xbe6cd316	-0.23127398
223	0x3dad1f5c	0.08453247
224	0x3e6dc644	0.23220164
225	0xbe66a4d5	-0.22523816
226	0x3e537a7d	0.20652194
227	0xbc968e20	-0.018378317
228	0xbd9b9d57	-0.075983696
229	0x3f5001ad	0.8125256
230	0xbe4156b2	-0.18880728
231	0x3e10d003	0.1414185
232	0x3e36fc82	0.17869762
233	0x3d719a98	0.058985323
234	0xbdccc1b4	-0.099978834
235	0x3e174a6a	0.1477448
236	0xbd22f140	-0.039780855
237	0x3e25672a	0.16152635
238	0x3e48f37f	0.19624136
239	0x3e5f5746	0.21810636
240	0x3e35093a	0.17679301
241	0x3e01a75a	0.12661496
242	0x3d182658	0.037145942
243	0x3d5b47a0	0.053535104
244	0xbe23ad74	-0.15984136
245	0x3e70d7a6	0.23519763
246	0xbe333e28	-0.1750418
247	0xbd7a29d8	-0.06107506
248	0xbe1ff10e	-0.15619299
249	0x3dbd002c	0.092285484
250	0xbe53bc4c	-0.20677298
251	0x3d1f8580	0.038945675
252	0x3e79d5a2	0.243979
253	0xbdf8ecc0	-0.121545315
254	0xbdd5ad10	-0.104334
255	0x3baf7d80	0.005355537

hedge_q.0.linear_relu_stack.4.bias f4 [16]
0	0xbdecbe88	-0.115597785
1	0xbdf2c3b5	-0.118537344
2	0x3e7fa2b4	0.2496441
3	0xbd86aa64	-0.06575468
4	0xbc5f0f80	-0.013614535
5	0x3e0c12f3	0.13679104
6	0xbdbb2a2c	-0.09138903
7	0x3e986824	0.29766953
8	0x3da5a618	0.080883205
9	0x3e5486bf	0.20754527
10	0xbe0014ef	-0.12507986
11	0x3d8aae2f	0.06771504
12	0x3d17a071	0.037018243
13	0x3c4b8a40	0.012423098
14	0xbe038ca7	-0.12846623
15	0xbdfec470	-0.12439811

hedge_q.0.linear_relu_stack.6.weight f4 [1, 16]
0	0x3d99105c	0.074738234
1	0x3e15cfb5	0.14630015
2	0xbf243b5b	-0.6415307
3	0xbe6b256a	-0.22963491
4	0x3e74d11a	0.23907891
5	0x3ec03038	0.37536788
6	0x3d09aaf8	0.033610314
7	0x3e4635f8	0.19356525
8	0x3e42176b	0.18954246
9	0xbf2753f7	-0.65362495
10	0xbe43b9aa	-0.19113794
11	0xbdf4f117	-0.11960047
12	0xbd59dd82	-0.053189762
13	0x3c576980	0.013147712
14	0x3e149750	0.14510846
15	0xbe4f6328	-0.20252669

hedge_q.1.linear_relu_stack.0.weight f4 [16, 1]
0	0x3f8e7982	1.1130831
1	0x3f1970b4	0.59937596
2	0xbed0eae0	-0.40804195
3	0x3eb4a748	0.35283875
4	0xbf49e070	-0.7885809
5	0xbf191106	-0.597916
6	0x3f8affdd	1.0859333
7	0x3ea26cf2	0.31723744
8	0x3f6a9b07	0.916428
9	0xbf825955	-1.0183512
10	0xbe4486aa	-0.19191995
11	0x3e6ab720	0.22921419
12	0x3f020df8	0.50802565
13	0x3f6b17d4	0.91833234
14	0x3eccb5b4	0.39982378
15	0xbe402d6c	-0.18767327

hedge_q.1.linear_relu_stack.0.bias f4 [16]
0	0x3f51e63d	0.8199194
1	0xbe0a33c1	-0.13496305
2	0xbefa4c68	-0.48886418
3	0xbea2a11c	-0.31763542
4	0xbee01444	-0.4376546
5	0x3f04b102	0.5183259
6	0x3cf4d48c	0.029886506
7	0xbe9aab9a	-0.30209047
8	0xbf502318	-0.8130355
9	0x3f5b74c5	0.8572505
10	0x3f64c86b	0.89368314
11	0xbe6a6140	-0.2288866
12	0xbe28f393	-0.16499166
13	0xbefa4444	-0.48880208
14	0xbf2d450c	-0.6768348
15	0x3f1e5dce	0.61861885

hedge_q.1.linear_relu_stack.2.weight f4 [16, 16]
0	0x3cd638a0	0.026150048
1	0x3def6fc3	0.11691239
2	0x3e1f66c2	0.15566543
3	0x3df5ab28	0.11995536
4	0x3ada3600	0.0016648173
5	0xbe631f85	-0.22179992
6	0x3dc80f5b	0.09768554
7	0x3e729e5e	0.23693225
8	0x3d82e022	0.06390406
9	0xbe225948	-0.1585437
10	0xbe7f4c87	-0.24931537
11	0x3e13e87c	0.14444155
12	0x3e442bf4	0.19157392
13	0x3ee001e0	0.4375143
14	0x3dec8084	0.1154795
15	0xbddbfb84	-0.10741332
16	0x3e6096d3	0.21932535
17	0x3e8421fa	0.25807172
18	0x3d877c70	0.066155314
19	0xbe2f35f8	-0.17110431
20	0x3e0d3772	0.13790682
21	0xbeb4f4e5	-0.3534309
22	0xbe1951aa	-0.14972559
23	0x3e6fa02a	0.23400941
24	0x3dbb058a	0.09131916
25	0xbe61e983	-0.22061734
26	0xbd5d4bc1	-0.054027323
27	0x3d6300e8	0.055420786
28	0x3e329d0a	0.17442718
29	0x3ef2b7ff	0.47406003
30	0xbe43b0b2	-0.19110373
31	0xbdcccee7	-0.10000401
32	0x3eaac8e7	0.333564
33	0x3e48a854	0.19595462
34	0xbdc0f0a8	-0.094209015
35	0x3c0f27a0	0.008737475
36	0xbe4b6fa2	-0.19866803
37	0xbeeb7155	-0.45984903
38	0x3eae2475	0.3401219
39	0xbd59f922	-0.053216107
40	0x3d3ef16c	0.046616957
41	0xbe390389	-0.18067755
42	0xbe07f03a	-0.13275233
43	0x3e1c6236	0.1527184
44	0x3e45b008	0.19305432
45	0xbe5150dd	-0.20441003
46	0x3e1a5bc4	0.15074068
47	0xbe19eca4	-0.15031677
48	0xbce26ac6	-0.027638804
49	0x3e2f7d1f	0.17137574
50	0x3d802cd8	0.06258553
51	0xbcb858a0	-0.022503197
52	0x3e6ab8ea	0.22922102
53	0xbe83dba4	-0.2575351
54	0x3e0f6929	0.14004959
55	0xbe222209	-0.15833296
56	0xbe605cf4	-0.21910459
57	0x3d3a08dd	0.04541861
58	0xbde73d19	-0.1129095
59	0xbd832738	-0.06403965
60	0xbe7f545c	-0.24934524
61	0x3e57e5c1	0.21083738
62	0x3e5acbdc	0.21366829
63	0xbe4c0ef1	-0.19927575
64	0x3e56e686	0.20986375
65	0x3e93bea3	0.28856382
66	0xbde0e50c	-0.10981187
67	0x3e71dee6	0.23620185
68	0xbd625178	-0.055253476
69	0xbef0360f	-0.46916243
70	0x3e8c476f	0.2739825
71	0x3e337227	0.17524014
72	0x3e4f9c02	0.20274356
73	0xbe38b1fb	-0.18036644
74	0xbb9b01e4	-0.00473045
75	0xbe48cbe4	-0.19609028
76	0x3f0e7089	0.55640465
77	0xbe90df82	-0.28295523
78	0x3e7d579e	0.24740455
79	0xbe3e14b5	-0.18562587
80	0x3e1c1ba7	0.15244924
81	0x3e98a411	0.29812673
82	0x3e18a69a	0.14907303
83	0xbe545086	-0.20733842
84	0x3d3f2c88	0.046673328
85	0xbedf855b	-0.4365643
86	0x3e8a53cb	0.27017054
87	0x3e484017	0.19555698
88	0x3d51d127	0.051224854
89	0x3b6f2787	0.0036492066
90	0xbdc9accd	-0.09847412
91	0x3c37f9e0	0.011229008
92	0x3e808a0a	0.25105315
93	0xbee63e20	-0.44969273
94	0x3e40da78	0.18833339
95	0x3d4e5354	0.050372437
96	0xbe25c86a	-0.16189733
97	0xbde89b07	-0.11357694
98	0xbd660090	-0.05615288
99	0xbdf15c30	-0.117851615
100	0x3e054d80	0.13017845
101	0xbdc5c9dc	-0.09657642
102	0x3e63166e	0.22176525
103	0xbe4a3cbf	-0.19749735
104	0x3e126f30	0.14300227
105	0xbd4506fe	-0.04810237
106	0x3e0adfa6	0.13561878
107	0xbda3321c	-0.07968542
108	0xbd187c22	-0.037227757
109	0xbe06c1d9	-0.13159885
110	0xbda59a14	-0.08086029
111	0xbe0ca260	-0.13733816
112	0xbe285569	-0.16438831
113	0x3e88f350	0.26748133
114	0x3dc743f8	0.09729761
115	0x3e4840c6	0.19555959
116	0xbe3807f2	-0.17971781
117	0xbe6a2141	-0.22864248
118	0x3e8148d5	0.2525088
119	0xbd54f717	-0.051993456
120	0x3deff406	0.11716466
121	0x3d90dd52	0.070734635
122	0x3d7b146a	0.061298765
123	0x3e13fc42	0.14451697
124	0x3e7b1967	0.24521409
125	0xbe999d08	-0.30002618
126	0xbe13043a	-0.14357081
127	0x3e56f3b6	0.20991406
128	0xbdb9d598	-0.09073943
129	0x3e588dea	0.21147886
130	0xbd355b80	-0.044276714
131	0x3e0986f0	0.13430381
132	0x3e00c40c	0.12574786
133	0xbe33b95e	-0.1755118
134	0xbae72100	-0.0017633736
135	0xbdcb501c	-0.09927389
136	0x3d398870	0.045296133
137	0xbe2b0034	-0.16699296
138	0x3dd31994	0.10307613
139	0x3df7de28	0.1210292
140	0xbd8689b0	-0.065692306
141	0x3cbb4db0	0.022864193
142	0x3e26be4e	0.16283533
143	0xbe2f9c5e	-0.17149493
144	0xbdfd0570	-0.12354553
145	0xbe31611c	-0.173222
146	0x3d994fcc	0.07485923
147	0xbd9fe63c	-0.078075856
148	0x3df908c0	0.12159872
149	0xbe3fa03c	-0.18713468
150	0xbe023e5a	-0.12719098
151	0xbdb7f30c	-0.089819044
152	0x3dd76dac	0.10518965
153	0x3cda5930	0.026653856
154	0x3c22f060	0.009945005
155	0xbdb665ec	-0.08906159
156	0xbdeb19ec	-0.114795536
157	0xbdd5699c	-0.10420534
158	0xbcfd3420	-0.030908644
159	0x3e6fbb74	0.23411351
160	0x3c9d0780	0.019168615
161	0xbd9bf894	-0.07615772
162	0x3dc6af4c	0.09701404
163	0xbe1383d2	-0.14405754
164	0xbe777c06	-0.24168405
165	0xbd8848bc	-0.06654498
166	0xbe63c18e	-0.22241804
167	0xbdd35668	-0.10319215
168	0xbe451ab0	-0.19248462
169	0xbd842848	-0.064529955
170	0x3dacb938	0.08433765
171	0x3e4cfd24	0.2001844
172	0x3e736f30	0.23772883
173	0x3e693212	0.22773007
174	0x3cea7200	0.028618813
175	0x3d742ba0	0.059611917
176	0x3c0ad9a0	0.008474737
177	0x3e398a0a	0.18119064
178	0x3da8823c	0.08227965
179	0xbd559478	-0.052143544
180	0x3e75301e	0.23944137
181	0x3e52ad0e	0.20573828
182	0xbe676022	-0.22595266
183	0x3e01dcd4	0.12681895
184	0xbe44772e	-0.19186088
185	0x3da67da0	0.0812943
186	0xbc76f820	-0.015073806
187	0xbe1ae42a	-0.151261
188	0x3e53d56a	0.2068688
189	0xbe28d8e8	-0.16488993
190	0x3dac1610	0.084026456
191	0x3e4921c6	0.1964179
192	0x3e398341	0.18116476
193	0x3eb3f412	0.35147148
194	0xbe043b6e	-0.12913296
195	0x3e5950f6	0.2122229
196	0x3d753828	0.059868008
197	0xbe8465e7	-0.25858995
198	0x3e828318	0.25490642
199	0x3e3d052c	0.18459004
200	0x3e14cf93	0.14532308
201	0xbdfa6109	-0.12225539
202	0x3e02f897	0.12790142
203	0x3bad77c0	0.0052938163
204	0x3eaf01db	0.34181103
205	0xbe8f22ba	-0.27956182
206	0xbe1b61e6	-0.15174064
207	0xbd9496f2	-0.07255353
208	0x3e502cf4	0.20329648
209	0x3ef2ae95	0.4739882
210	0xbe33807a	-0.17529479
211	0xbd6de5e0	-0.058080554
212	0x3db60f64	0.08889654
213	0xbe8a7206	-0.27040118
214	0x3e78acc3	0.24284653
215	0x3e25403d	0.16137786
216	0x3e2ebc5e	0.17064044
217	0xbf007105	-0.50172454
218	0x3d2a59f3	0.04158969
219	0x3e795a62	0.24350885
220	0x3e90a4c2	0.282507
221	0xbe85f950	-0.26166773
222	0xbc855440	-0.016275525
223	0x3dde9dc7	0.108699374
224	0x3c2196e0	0.009862632
225	0x3b9eeb00	0.0048497915
226	0x3b8e79c0	0.00434801
227	0x3e6f4aac	0.23368329
228	0x3d058cb8	0.032604903
229	0x3e7899f0	0.24277472
230	0x3dc7b1d4	0.09750715
231	0xbe0772fa	-0.13227454
232	0x3dbaea9c	0.091267794
233	0xbe27dbf0	-0.16392493
234	0xbe7fdabe	-0.24985787
235	0x3e07e29c	0.13270038
236	0xbcb68950	-0.022282273
237	0x3e4d23ce	0.2003319
238	0x3d518cd0	0.05115968
239	0xbe77e79c	-0.24209446
240	0xbe7b21e6	-0.2452465
241	0xbe2ce9fa	-0.1688613
242	0xbe6011ec	-0.21881837
243	0xbdc2a234	-0.09503594
244	0x3e469f58	0.19396722
245	0x3e4c5568	0.19954455
246	0xbcee7ef0	-0.029113263
247	0x3e52a90e	0.20572302
248	0x3deacab0	0.11464441
249	0xbe256214	-0.16150695
250	0x3e66449e	0.22487113
251	0xbe174b50	-0.14774823
252	0x3da09f74	0.07842913
253	0xbe1f206e	-0.15539715
254	0xbe5ab0cc	-0.21356505
255	0x3e1a5a84	0.15073591

hedge_q.1.linear_relu_stack.2.bias f4 [16]
0	0x3b7820db	0.003786138
1	0xbd46fa0e	-0.048578314
2	0xbda70e51	-0.081570275
3	0x3bfabf78	0.0076522194
4	0x3e2c9d0e	0.16856787
5	0x3e14548b	0.14485376
6	0x3db26135	0.08709947
7	0x3dea0c9b	0.114281856
8	0xbe64458c	-0.22292155
9	0xbe22717e	-0.15863606
10	0xbdbbf70c	-0.0917798
11	0xbe584b58	-0.21122491
12	0x3dfa4ea0	0.12222028
13	0xbdd1888c	-0.102311224
14	0x3d23f8b8	0.04003212
15	0xbdcbeebc	-0.09957644

hedge_q.1.linear_relu_stack.4.weight f4 [16, 16]
0	0x3e4a9e3e	0.19786927
1	0xbd151460	-0.036396384
2	0xbe650bf0	-0.22367835
3	0x3c2a5440	0.010396063
4	0x3d4b8fc0	0.049697638
5	0x3e0e724c	0.13910788
6	0xbe3de6e6	-0.18545112
7	0xbe5f0a86	-0.21781358
8	0xbe4acc7e	-0.1980457
9	0xbe54eef6	-0.20794281
10	0x3e0847ec	0.13308686
11	0xbd2acb28	-0.04169765
12	0xbd0d0990	-0.034432948
13	0xbdf1d240	-0.1180768
14	0xbe3d56c2	-0.18490127
15	0x3e78dae6	0.24302253
16	0xbe568771	-0.20950104
17	0xbe3495b5	-0.17635234
18	0x3eb844a4	0.3598987
19	0xbe293059	-0.1652235
20	0x3e6f297f	0.23355673
21	0xbd3df9e6	-0.0463809
22	0x3de0ec79	0.109826036
23	0x3e2ebf9a	0.17065278
24	0x3e76fee2	0.24120668
25	0x3dc4c9fc	0.09608838
26	0x3d9243b0	0.071418166
27	0xbe37e148	-0.17957032
28	0x3db9f484	0.09079841
29	0x3deb3ab9	0.1148581
30	0x3d4d6e90	0.05015427
31	0x3e537e4e	0.2065365
32	0xbe1dceee	-0.15410969
33	0xbe6cb306	-0.23115167
34	0xbdbb35c3	-0.091411136
35	0x3e5cac5c	0.21550125
36	0x3b85b5a0	0.0040804893
37	0xbe1d6587	-0.15370761
38	0x3e27c870	0.16385055
39	0xbe6147a3	-0.21999983
40	0xbe3955fa	-0.18099204
41	0xbe7df4c6	-0.24800405
42	0xbe44ed82	-0.19231227
43	0xbd7d2098	-0.061798662
44	0xbe724800	-0.23660278
45	0xbd80b55e	-0.06284593
46	0x3d0a03b0	0.033694923
47	0xbe20b89c	-0.15695423
48	0x3d691761	0.05690706
49	0xbe1eb598	-0.1549896
50	0xbe924681	-0.28569415
51	0x3e5a864d	0.21340294
52	0x3df4c52c	0.1195167
53	0x3e07a6db	0.13247244
54	0x3e342031	0.17590405
55	0xbe9050b6	-0.28186578
56	0x3deaf39c	0.11472246
57	0xbd8d3084	-0.06894019
58	0xbe598894	-0.21243507
59	0x3e1c285e	0.15249774
60	0xbc17aa3d	-0.009256897
61	0x3d7ef618	0.062246412
62	0xbcd01b70	-0.025403708
63	0xbdd4c8f0	-0.10389888
64	0x3dca4443	0.09876301
65	0xbdda0bbb	-0.10646769
66	0x3de28db4	0.11062184
67	0xbd8327b5	-0.06404058
68	0x3dbfe331	0.09369505
69	0xbe1da007	-0.15393077
70	0x3e703340	0.2345705
71	0x3d165a6c	0.036707327
72	0xbdaf199c	-0.085498065
73	0xbdecb150	-0.11557257
74	0x3d5178f0	0.051140726
75	0x3e6e5e0e	0.23278067
76	0x3ea011c3	0.3126355
77	0x3e8dec74	0.27719462
78	0x3c6a94e0	0.014317721
79	0x3d253588	0.040334255
80	0xbe83b8d9	-0.25726965
81	0xbe852c3e	-0.26010317
82	0xbcafce01	-0.021460535
83	0xbde14e54	-0.11001268
84	0x3e9ed652	0.31022888
85	0x3e24e6dd	0.16103692
86	0xbd211dc1	-0.039335016
87	0x3e3eb977	0.18625437
88	0x3e39efc0	0.18157864
89	0xbd1fa0d8	-0.038971752
90	0x3e1f8efc	0.15581888
91	0x3ccbf350	0.024896294
92	0x3da7ca66	0.08192901
93	0x3e8c10f4	0.27356684
94	0x3d588810	0.052864134
95	0xbe5e4004	-0.21704108
96	0x3e26655c	0.16249603
97	0xbe2d8428	-0.16944945
98	0xbe1ede34	-0.15514451
99	0x3e53f738	0.20699775
100	0xbe0f34cc	-0.13984984
101	0xbe77cf50	-0.24200177
102	0xbd962950	-0.073320985
103	0x3e5f3918	0.21799123
104	0xbe08ffe0	-0.13378859
105	0xbdf11bb0	-0.11772859
106	0x3e35490e	0.1770365
107	0x3c666e80	0.014064431
108	0x3e6d6758	0.23183954
109	0x3df4bb84	0.11949828
110	0xbe5ad15e	-0.2136893
111	0xbe3e46ac	-0.18581647
112	0xbe9eccd6	-0.31015652
113	0x3dafbfaf	0.085814826
114	0x3e0ce0aa	0.13757578
115	0xbe0fc331	-0.14039303
116	0xbe0b3dcd	-0.13597794
117	0xbdfcacaa	-0.123376206
118	0xbe3367c0	-0.17520046
119	0xbe21f10c	-0.15814608
120	0xbe52a712	-0.20571545
121	0x3e36d838	0.17855918
122	0xbe42e524	-0.19032723
123	0xbe642422	-0.22279409
124	0x3e0f8949	0.14017214
125	0x3db24964	0.087054044
126	0xbe5f6d6e	-0.21819088
127	0xbe2a53e2	-0.16633561
128	0xbebfc9d2	-0.37458664
129	0xbdd796c0	-0.105268
130	0x3e00e3da	0.12586918
131	0x3e0b5683	0.1360722
132	0x3ea58bdc	0.32333267
133	0x3d9b9373	0.07596483
134	0x3e683ff0	0.2268064
135	0x3c3fd4e5	0.011708473
136	0xbd87f6c4	-0.06638864
137	0xbe25db42	-0.16196921
138	0x3d922398	0.07135695
139	0xbe5c0756	-0.21487173
140	0x3e935e43	0.28782853
141	0x3ddc6c38	0.107628286
142	0x3e109942	0.14120963
143	0x3e12ac56	0.14323553
144	0xbedbf53f	-0.42960545
145	0xbeaeff49	-0.34179142
146	0x3eec6ba5	0.46175876
147	0xbe1f8d7b	-0.15581314
148	0xbcb84022	-0.022491518
149	0x3e8bcf76	0.27306718
150	0x3e146e52	0.14495209
151	0x3e2b51d0	0.16730428
152	0x3d9496b0	0.07255304
153	0xbe7c3304	-0.24628836
154	0xbd7df5d0	-0.062002003
155	0x3e09852e	0.1342971
156	0xbc04d1d6	-0.008106669
157	0x3ea3c8df	0.3198919
158	0xbd815ee4	-0.06316927
159	0xbe7de1b8	-0.24793136
160	0xbc0f4aa0	-0.008745819
161	0xbe4779a0	-0.1947999
162	0xbdc72c10	-0.09725201
163	0x3d857028	0.06515533
164	0x3e24cb4e	0.1609318
165	0xbe0bce0b	-0.13652818
166	0x3cbd1543	0.023081427
167	0xbd0e2d57	-0.03471121
168	0xbe03bf8e	-0.12866041
169	0xbe41f7c4	-0.18942171
170	0x3d48b518	0.04900083
171	0x3c1f6cc0	0.009730518
172	0xbe7915b9	-0.24324693
173	0xbc8b64bb	-0.017015805
174	0x3d443920	0.04790604
175	0xbe258e60	-0.16167593
176	0xbe9c3863	-0.3051177
177	0x3d6e46f0	0.05817312
178	0x3dbe6dcb	0.09298285
179	0xbc1bc6ca	-0.009507844
180	0x3e9f1fe0	0.31079006
181	0x3e2e7869	0.1703812
182	0xbe255df2	-0.16149119
183	0xbdcbce4c	-0.099514574
184	0x3c542460	0.012948126
185	0x3e068bee	0.13139316
186	0x3e0948ba	0.13406649
187	0x3ccf3d90	0.02529791
188	0x3e6cccb8	0.23124969
189	0x3e485d68	0.19566882
190	0x3e35dcf2	0.17760065
191	0xbe5c817a	-0.21533766
192	0xbe9593f6	-0.29214448
193	0xbea53514	-0.32267058
194	0x3e98fda0	0.29881
195	0xbe4aa29e	-0.19788596
196	0x3dd3659f	0.10322117
197	0xbd176539	-0.036961768
198	0xbdb14a6e	-0.086567745
199	0x3e1e0d04	0.15434653
200	0x3c643020	0.0139274895
201	0xbe586d24	-0.21135384
202	0x3e7c4356	0.24635062
203	0x3da44a6c	0.08022007
204	0x3e329cda	0.17442647
205	0x3df88506	0.12134747
206	0x3dcbb2d0	0.09946215
207	0x3e3830aa	0.17987314
208	0xbd87e285	-0.06635002
209	0xbe880964	-0.26569664
210	0x3e7db2d3	0.24775247
211	0x3e7bf73e	0.24606034
212	0x3e97d814	0.29657042
213	0x3e8b762e	0.272386
214	0x3d8260d2	0.06366123
215	0xbe1a8b63	-0.15092234
216	0xbe2bf9d2	-0.16794518
217	0x3d81dd48	0.06341034
218	0xbe20cffa	-0.15704337
219	0xbdaa6e30	-0.08321798
220	0x3e5f8446	0.21827802
221	0x3e9d9b1b	0.307824
222	0xbd27e280	-0.04098749
223	0xbe5a40c0	-0.21313763
224	0xbd1cb2fe	-0.038256638
225	0xbe957a40	-0.29194832
226	0x3eaadfe6	0.33373946
227	0xbe40cabd	-0.18827339
228	0xbe2b6245	-0.16736706
229	0x3e56003c	0.20898527
230	0xbdd2e1ed	-0.10296998
231	0x3e5003b0	0.20313907
232	0xbe3d6baa	-0.18498102
233	0xbe799498	-0.2437309
234	0xbd99b45c	-0.07505104
235	0x3e0fe08c	0.14050502
236	0xbcb5fb39	-0.022214519
237	0x3e8ea731	0.27861932
238	0x39b97000	0.00035369396
239	0xbe7dcf08	-0.24786007
240	0xbde5b8a5	-0.11216859
241	0xbe16791b	-0.14694636
242	0xbed19685	-0.4093515
243	0xbe1c1ae0	-0.15244627
244	0xbeb52df4	-0.35386622
245	0xbd873cee	-0.06603418
246	0x3c1e16f4	0.009649027
247	0x3dae6a61	0.08516384
248	0xbe4ef202	-0.20209506
249	0x3e3f3392	0.18672016
250	0x3e4b5584	0.1985684
251	0x3e4834d4	0.19551402
252	0x3dd0174a	0.10160692
253	0xbf103661	-0.56332976
254	0xbe7fb70c	-0.2497217
255	0xbc820e90	-0.015876085

hedge_q.1.linear_relu_stack.4.bias f4 [16]
0	0xbd9a5be0	-0.07537055
1	0x3e29151b	0.16511957
2	0x3e0f1424	0.13972527
3	0x3e483a68	0.1955353
4	0x3dd71bc1	0.105033405
5	0xbd5620d4	-0.0522774
6	0xbde42204	-0.111393005
7	0x3e81df6f	0.2536578
8	0x3c9dd76b	0.019267758
9	0xbdc7958a	-0.09745319
10	0x3db2b1d4	0.08725324
11	0xbcbcfed0	-0.023070723
12	0xbd07a58f	-0.033116873
13	0x3e2b45de	0.16725871
14	0x3e73ca44	0.23807627
15	0x3eb0928d	0.3448681

hedge_q.1.linear_relu_stack.6.weight f4 [1, 16]
0	0x3e6f61ba	0.23377123
1	0x3e3e342b	0.18574588
2	0xbdf40b93	-0.1191627
3	0xbda55322	-0.08072497
4	0x3db55ddb	0.08855792
5	0x3e759bf1	0.23985268
6	0x3e6f3f14	0.23363906
7	0x3da821c8	0.08209568
8	0x3e19ac4c	0.15007132
9	0x3e77ce6b	0.24199836
10	0xbe3600b4	-0.17773706
11	0x3e1d6e9b	0.15374224
12	0x3e077bbd	0.13230796
13	0x3e1b9c32	0.15196303
14	0x3d95b922	0.07310702
15	0xbf22186d	-0.6331852

hedge_q.2.linear_relu_stack.0.weight f4 [16, 1]
0	0x3f98ab5d	1.1927296
1	0x3eb81584	0.35953915
2	0x3eb476ed	0.35246983
3	0xbd4107c0	-0.04712653
4	0xbea48d60	-0.3213911
5	0xbeeb5be3	-0.45968542
6	0xbd4a5319	-0.049395654
7	0xbea84db2	-0.32871777
8	0xbf822fb6	-1.017081
9	0xbebdff13	-0.3710867
10	0x3f61c5dd	0.8819254
11	0x3e72475a	0.23660031
12	0x3e7b4b28	0.24540389
13	0x3d645033	0.055740546
14	0xbf8d0028	-1.1015673
15	0xbf0f9f30	-0.56102276

hedge_q.2.linear_relu_stack.0.bias f4 [16]
0	0x3e74fce1	0.2392459
1	0x3ed830b7	0.42224666
2	0x3eb03503	0.34415445
3	0xbf68154c	-0.90657496
4	0xbec4edcc	-0.38462675
5	0x3f636d21	0.8883839
6	0x3f1b4b23	0.60661525
7	0x3e97a3fa	0.29617292
8	0x3f5620c3	0.8364374
9	0x3eee43fc	0.46536243
10	0xbf75278a	-0.95763457
11	0x3f3d6fd3	0.73998755
12	0xbf73d5a0	-0.9524784
13	0x3e96700f	0.2938237
14	0x3f13a885	0.57679015
15	0x3f005c5c	0.5014093

hedge_q.2.linear_relu_stack.2.weight f4 [16, 16]
0	0x3ec0fe50	0.37694025
1	0x3da45a59	0.08025045
2	0x3e158515	0.14601548
3	0xbcc44790	-0.023959905
4	0x3db282c4	0.08716348
5	0x3e5d7a92	0.21628788
6	0x3d1c29e1	0.038125876
7	0x3df574fd	0.11985204
8	0x3e18d754	0.14925891
9	0x3c2cd813	0.010549563
10	0x3cd564c9	0.026049035
11	0xbcda1748	-0.02662243
12	0x3d8cd764	0.0687702
13	0x3dd78a77	0.10524457
14	0xbf8aaf6a	-1.0834782
15	0x3d0c28c5	0.03421857
16	0x3e055c66	0.13023528
17	0xbe82ca66	-0.25545043
18	0x3e027652	0.12740448
19	0x3d0a8028	0.033813626
20	0x3ddca380	0.10773373
21	0xbaad1905	-0.0013206309
22	0xbe839b11	-0.25704244
23	0xbe592c46	-0.21208295
24	0x3da133b2	0.07871188
25	0x3d111bcd	0.035426904
26	0xbdb6d454	-0.08927217
27	0x3e1e0812	0.15432766
28	0x3de674d8	0.11252755
29	0xbe7e9b65	-0.24863966
30	0x3c997290	0.018731385
31	0x3dc1ba49	0.09459359
32	0xbe2893e4	-0.16462666
33	0x3e0a01cc	0.13477248
34	0xbe1d0776	-0.15334877
35	0x3e5ff9b4	0.21872598
36	0x3db9003c	0.09033248
37	0xbdd9d5a8	-0.10636455
38	0xbe7a990c	-0.24472445
39	0xbdd3bc44	-0.10338643
40	0xbde34320	-0.110967875
41	0xbe2400a2	-0.16015866
42	0xbe028826	-0.12747249
43	0xbd2a10f8	-0.04152009
44	0x3da98c08	0.08278662
45	0xbe49e8cc	-0.19717711
46	0x3d9093fc	0.07059476
47	0x3e2d6c90	0.16935945
48	0x3ca64420	0.020296156
49	0xbe3882c2	-0.1801863
50	0xbda49cbc	-0.08037707
51	0x3df0cf10	0.11758244
52	0xbd21b6d8	-0.039481014
53	0x3e592374	0.2120493
54	0x3e3978a0	0.18112421
55	0x3e4c4b96	0.19950709
56	0x3e318390	0.17335343
57	0xbdc0e4c4	-0.094186336
58	0x3e675f52	0.22594956
59	0xbe2bd3ea	-0.16780058
60	0x3e119f2a	0.14220873
61	0xbdfd16ec	-0.123578876
62	0x3cfe3c10	0.0310345
63	0xbaed7b00	-0.0018118322
64	0x3ea38b4d	0.31942216
65	0x3eb32138	0.3498628
66	0x3eb7e370	0.3591571
67	0xbdfcc9e0	-0.12343192
68	0xbd6272a8	-0.055285126
69	0x3e0359b3	0.12827186
70	0xbdbeddf3	-0.09319677
71	0x3dd0f71a	0.10203381
72	0xbe28f0b9	-0.16498078
73	0xbd46705b	-0.048446994
74	0x3b8c0bba	0.004273859
75	0x3ea756b5	0.3268334
76	0xbd602d58	-0.054730743
77	0x3e7dd7e2	0.24789384
78	0xbf94b300	-1.1617126
79	0xbe58a8b8	-0.21158111
80	0xbecf160d	-0.4044651
81	0xbd3059eb	-0.043054502
82	0xbe12a43f	-0.14320467
83	0x3e454d72	0.19267824
84	0x3d670d98	0.05640945
85	0x3ea48df9	0.32139567
86	0x3e471687	0.19442187
87	0x3ebc0aed	0.36727086
88	0x3e84a969	0.259105
89	0x3d82a040	0.063782215
90	0xbd1ad031	-0.037796203
91	0x3d573405	0.052539844
92	0x3ddc8aac	0.10768637
93	0xbd979296	-0.07401006
94	0x3f80b2a1	1.0054513
95	0x3ef572a8	0.47939038
96	0xbdf642dc	-0.12024471
97	0xbd250770	-0.040290296
98	0xbe469b46	-0.1939517
99	0xbe1b1026	-0.15142879
100	0x3db1e8c0	0.08686972
101	0xbbc72f40	-0.0060786307
102	0xbe5a5364	-0.21320873
103	0x3dc13a18	0.09434909
104	0xbdae0c60	-0.08498454
105	0xbcfd9420	-0.03095442
106	0xbe543246	-0.20722303
107	0x3d2f2370	0.042758405
108	0x3d9c5794	0.07633892
109	0x3dcc4848	0.09974724
110	0xbe71d144	-0.23614985
111	0xbd7b4f30	-0.061354816
112	0x3bb6ea36	0.0055821193
113	0xbd069eaf	-0.032866176
114	0xbcc2eb10	-0.023793727
115	0xbd90d108	-0.070711195
116	0xbe0a366c	-0.13497323
117	0x3dc84f97	0.097808056
118	0x3def7079	0.11691374
119	0x3e3faf07	0.18719111
120	0xbdfe71de	-0.12424062
121	0x3c292ed6	0.010326108
122	0x3e724940	0.23660755
123	0xbe57ddd6	-0.21080717
124	0x3e461176	0.19342598
125	0xbe101b79	-0.1407298
126	0x3d9ae569	0.07563288
127	0x3e49adcc	0.19695204
128	0x3e33b0e8	0.17547953
129	0x3da433c1	0.08017684
130	0x3e8f08c1	0.27936366
131	0x3e617544	0.2201739
132	0x3dbebd4c	0.09313449
133	0xbd2e2211	-0.042512957
134	0x3db4f213	0.088352345
135	0xbcea2722	-0.028583113
136	0xbe06b0c9	-0.13153376
137	0xbd7a20c3	-0.0610664
138	0x3ddfbc51	0.109245904
139	0xbdbf7020	-0.09347558
140	0xbe28363c	-0.16426939
141	0x3e65ce0a	0.22441879
142	0xbf23efec	-0.64037967
143	0x3d451e4a	0.04812459
144	0x3d928e7e	0.071560845
145	0xbe7f9ba9	-0.24961723
146	0x3e60b135	0.21942599
147	0x3e2da248	0.16956437
148	0x3d8b7e04	0.06811145
149	0x3df50e8b	0.119656645
150	0xbd8f33e9	-0.06992323
151	0x3da94dd0	0.08266795
152	0xbd0e01a7	-0.034669545
153	0x3ce10263	0.027466958
154	0xbe5752a0	-0.21027613
155	0xbd8ad8e4	-0.0677965
156	0x3d9f8414	0.07788864
157	0x3e17613a	0.14783183
158	0x3cabb99b	0.020962527
159	0x3e392b8a	0.18083015
160	0xbe047345	-0.12934597
161	0xbe672d96	-0.22575983
162	0x3e703dcd	0.23461075
163	0x3e54e614	0.20790893
164	0xbd181978	-0.037133664
165	0x3c2fa751	0.010721044
166	0x3cf0e866	0.029407691
167	0x3e3af8c4	0.18258959
168	0x3d880938	0.06642383
169	0x3c812284	0.015763529
170	0xbd6bf890	-0.057610095
171	0x3c931164	0.017952628
172	0x3e282ff6	0.16424546
173	0xbe72dc09	-0.23716749
174	0xbd9ee4c7	-0.077584796
175	0x3da4afe6	0.080413625
176	0x3e4e12d1	0.20124365
177	0xbe53100a	-0.20611587
178	0xbd83da68	-0.06438142
179	0x3e1a2768	0.15054095
180	0x3db9024c	0.09033641
181	0xbe5b6ab9	-0.2142743
182	0xbe5b77d6	-0.21432433
183	0xbe76d8cc	-0.24106139
184	0xbdf1ef53	-0.118132256
185	0x3dad03ad	0.08447967
186	0x3d9abd5c	0.07555649
187	0x3e482751	0.19546248
188	0x3e55229c	0.20813984
189	0xbe6c2afe	-0.23063275
190	0xbe101114	-0.14069015
191	0x3d811105	0.06302074
192	0xbe5e4ac0	-0.21708202
193	0x3e5afb44	0.21384913
194	0xbdf80288	-0.12109858
195	0x3cb8c050	0.02255264
196	0xbc146900	-0.009058237
197	0xbe5f2856	-0.2179273
198	0x3d1d7b30	0.03844756
199	0xbd430840	-0.04761529
200	0x3ddd34f0	0.10801113
201	0x3c85a510	0.01631406
202	0x3e608588	0.21925938
203	0x3e2ac4e0	0.16676664
204	0x3e1a8fe2	0.1509395
205	0xbd96ccd8	-0.073632896
206	0xbd634718	-0.055487722
207	0xbe61f310	-0.22065377
208	0x3e6ce307	0.23133479
209	0x3db0a113	0.086244725
210	0x3df65762	0.12028386
211	0x3e2c1b80	0.16807365
212	0x3d2a4cb8	0.04157707
213	0x3c8e6057	0.017379923
214	0x3e3f9b0a	0.18711486
215	0xbe04c1b5	-0.12964518
216	0xbe11f4cb	-0.14253537
217	0xbdfb2eac	-0.12264761
218	0xbe4132f4	-0.18867093
219	0x3daf88c4	0.08571008
220	0x3e3f588a	0.18686119
221	0xbe4905d1	-0.19631125
222	0xbf84d0ee	-1.037626
223	0x3d809530	0.06278455
224	0x3e90cf31	0.28283074
225	0xbcaae003	-0.02085877
226	0x3d95aea4	0.07308701
227	0xbe5dd3ce	-0.21662828
228	0x3e33cef8	0.17559421
229	0xbd1d84b3	-0.03845663
230	0x3deee96e	0.11665617
231	0xbdbd1d4f	-0.09234106
232	0xbe0a4b4e	-0.13505289
233	0x3e286dab	0.16448085
234	0xbdeb0732	-0.11475982
235	0x3de3c298	0.111211
236	0x3e040d8c	0.12895793
237	0xbd168a7f	-0.036753174
238	0xbed33e1b	-0.4125832
239	0x3de3d914	0.11125389
240	0xbd748a08	-0.05970195
241	0x3e3ac3d2	0.18238762
242	0xbe47beba	-0.1950635
243	0xbc96a6e0	-0.01839012
244	0x3dbfb660	0.09360957
245	0x3d67f968	0.056634337
246	0xbe2d8ad2	-0.16947487
247	0xbdeadd6c	-0.11468014
248	0x3e1df39c	0.15424961
249	0xbe11d05e	-0.14239642
250	0xbd1005b8	-0.035161704
251	0x3e2702e2	0.16309693
252	0xbe5fd042	-0.21856788
253	0x3d38fb80	0.045161724
254	0xbd8ac500	-0.06775856
255	0x3e0cb2cc	0.1374008

hedge_q.2.linear_relu_stack.2.bias f4 [16]
0	0xbe3b9ca9	-0.1832148
1	0x3aaa3824	0.0012986702
2	0x3d733fe8	0.059387118
3	0xbe3221a4	-0.17395645
4	0xbd579a57	-0.052637424
5	0x3dcc5713	0.099775456
6	0xbe77dde2	-0.24205735
7	0xbc80c366	-0.015718173
8	0x3e86ed54	0.26352942
9	0xbe54880f	-0.20755027
10	0x3aa7a6a8	0.0012790756
11	0xbdff2247	-0.1245771
12	0xbdd7ac7c	-0.10530946
13	0x3c958788	0.018253103
14	0x3e6b3498	0.22969282
15	0xbe39dca6	-0.18150577

hedge_q.2.linear_relu_stack.4.weight f4 [16, 16]
0	0xbeb0dea6	-0.34544867
1	0xbe71b5fc	-0.23604578
2	0xbe0ff50e	-0.14058325
3	0xbdc19190	-0.09451592
4	0xbe03ad13	-0.12858991
5	0x3ed47677	0.41496632
6	0x3c902280	0.017594576
7	0x3e6b2749	0.22964205
8	0x3e1424fd	0.14467235
9	0x3e38f126	0.18060741
10	0x3e4a4d1e	0.1975598
11	0xbc9e4e37	-0.019324405
12	0x3df8c554	0.12147012
13	0xbf1e5d2d	-0.61860925
14	0x3e313da4	0.1730867
15	0xbcee7260	-0.029107273
16	0x3e5ed44d	0.21760674
17	0xbe1a5dae	-0.15074798
18	0x3de51d7c	0.11187264
19	0x3db0c8e8	0.0863207
20	0x3e2ac132	0.1667526
21	0xbf1a0d86	-0.60176885
22	0x3e24cfa0	0.16094828
23	0x3def22ba	0.116765454
24	0x3dfb2fb9	0.12264962
25	0xbe701998	-0.23447263
26	0xbcfa8378	-0.030580267
27	0xbe160b15	-0.14652665
28	0xbdc65c10	-0.09685528
29	0xbc10dabf	-0.008841216
30	0x3deb5456	0.11490695
31	0x3db927c4	0.09040788
32	0x3d87ca92	0.06630434
33	0xbe5e5800	-0.21713257
34	0xbe42f460	-0.19038534
35	0x3d672540	0.05643201
36	0x3e1fe5b9	0.15614976
37	0x3e61c45e	0.22047564
38	0xbe564f32	-0.20928648
39	0x3d0fcac8	0.035105497
40	0xbe02f071	-0.12787034
41	0x3e7509be	0.23929498
42	0xbd6a83f0	-0.05725473
43	0x3dfd9298	0.12381476
44	0x3df7a174	0.120913416
45	0xbe839d7f	-0.25706097
46	0xbd032fb4	-0.032027915
47	0x3e5305c0	0.20607662
48	0x3e797b9b	0.24363558
49	0x3d77072b	0.06030957
50	0x3c9b18c0	0.0189327
51	0xbdab60c0	-0.08368063
52	0x3ec52aa4	0.38509095
53	0xbf085eee	-0.5326985
54	0x3d589a48	0.05288151
55	0xbdeef7cd	-0.11668358
56	0x3e1aac28	0.15104735
57	0x3d4d9480	0.05019045
58	0x3d40914d	0.04701357
59	0xbd418976	-0.047250234
60	0x3d0caee0	0.03434646
61	0x3ebec528	0.37259793
62	0xbd70443e	-0.05865883
63	0x3e020154	0.12695819
64	0xbe50e07a	-0.20398131
65	0xbdc2e568	-0.09516412
66	0xbe119bb2	-0.1421955
67	0x3e202e8a	0.15642753
68	0x3d809628	0.0627864
69	0x3babc9c0	0.0052425563
70	0xbe30aaa6	-0.17252597
71	0xbe351b7a	-0.17686263
72	0x3d1f2de8	0.03886214
73	0x3e3226d0	0.17397618
74	0x3d90c750	0.07069266
75	0x3d0b5e48	0.03402546
76	0xbe64e200	-0.22351837
77	0xbdeb3818	-0.114853084
78	0xbe512e34	-0.20427781
79	0xbd08ef08	-0.033431083
80	0xbe544f83	-0.20733456
81	0x3e5d0e7e	0.2158756
82	0xbce51e40	-0.027968526
83	0x3db1ec68	0.08687669
84	0x3d6bcc0c	0.05756764
85	0xbe790563	-0.24318461
86	0x3dc1457c	0.09437081
87	0x3c6c1387	0.014408953
88	0x3c9bbb5d	0.01901024
89	0x3e184232	0.14869002
90	0x3c64c8a9	0.013963857
91	0x3e2188a0	0.15774775
92	0xbdf94960	-0.12172198
93	0x3e0930ad	0.13397475
94	0xbe801973	-0.25019416
95	0xbe65f406	-0.22456369
96	0xbe463a8e	-0.19358274
97	0xbe587d08	-0.21141446
98	0xbdd6ed40	-0.104944706
99	0x3e7ed1fa	0.24884787
100	0xbe638e28	-0.22222197
101	0xbe3b9ec4	-0.18322283
102	0x3e309890	0.17245698
103	0x3b9d7f80	0.004806459
104	0x3d7eeb58	0.06223616
105	0x3e72d526	0.23714122
106	0x3e7247e6	0.2366024
107	0x3e656ed6	0.22405562
108	0x3d18dd40	0.037320375
109	0x3e29bf86	0.16576967
110	0xbd8a20c4	-0.06744531
111	0xbe315152	-0.17316177
112	0x3d16dcb0	0.036831558
113	0x3e7239d8	0.23654878
114	0x3e3fabbe	0.18717858
115	0xbe3769c8	-0.17911446
116	0xbe354880	-0.17703438
117	0xbe1e51d6	-0.15460905
118	0xbde519f4	-0.11186591
119	0x3d6cd790	0.057822764
120	0xbbffbd80	-0.0078045726
121	0x3d7527b0	0.059852302
122	0xbdf8740c	-0.12131509
123	0xbd8369b8	-0.064166486
124	0x3e27ef6e	0.16399929
125	0xbe698740	-0.228055
126	0xbe381b7a	-0.17979231
127	0xbe234002	-0.15942386
128	0xbdfec934	-0.1244072
129	0xbd86ea88	-0.06587702
130	0x3dfd9294	0.12381473
131	0xbdae9f30	-0.08526456
132	0xbbb92300	-0.0056499243
133	0xbdf55a4c	-0.119801134
134	0xbe5b5ab6	-0.21421322
135	0x3bdd84c0	0.00676021
136	0xbd3dd0d8	-0.046341747
137	0xbd52cc08	-0.05146411
138	0xbbfc5800	-0.00770092
139	0x3e45c7f2	0.19314554
140	0x3d099888	0.03359273
141	0x3e0d283c	0.1378488
142	0x3dcfa9a8	0.10139781
143	0xbe05855e	-0.13039157
144	0x3c5aec20	0.013361961
145	0xbdd45c04	-0.10369113
146	0xbcd7bca0	-0.02633506
147	0x3d27f778	0.04100749
148	0xbd2cdac8	-0.042200834
149	0xbe7074b2	-0.23482016
150	0x3e2d5016	0.16925082
151	0xbd9b5f50	-0.07586539
152	0x3caa12e0	0.020760953
153	0x3d71ca98	0.0590311
154	0xbe4d158c	-0.2002775
155	0xbe334f1a	-0.17510644
156	0x3bd2ad40	0.0064293444
157	0x3e1c3ed2	0.15258339
158	0xbe51bdfe	-0.20482633
159	0x3e3ced16	0.18449816
160	0x3df31e28	0.11870986
161	0xbe3dd275	-0.18537314
162	0xbe363872	-0.1779497
163	0x3d368588	0.04456094
164	0x3ea8b6ee	0.32952064
165	0xbeaa9c0e	-0.33322185
166	0x3e1aa794	0.15102988
167	0x3d95e041	0.07318164
168	0x3e414164	0.18872601
169	0xbdaae708	-0.08344847
170	0xbd94296f	-0.07234465
171	0x3d70d538	0.05879709
172	0xbe0eb25c	-0.13935226
173	0xbc922015	-0.017837564
174	0x3e417ee1	0.18896057
175	0xbe45100a	-0.192444
176	0x3d8ab601	0.06772996
177	0xbe2a877e	-0.16653249
178	0xbdad1624	-0.084514886
179	0x3d6d9200	0.058000565
180	0x3d868ed5	0.06570212
181	0xbedf0ee4	-0.43566048
182	0xbdca0d6c	-0.09865841
183	0x3c85f5e5	0.016352603
184	0x3e2162e5	0.15760382
185	0xbe77cfa0	-0.24200296
186	0x3db44d64	0.088038236
187	0x3e0bfc68	0.13670504
188	0x3e339168	0.17535937
189	0x3e36deca	0.17858425
190	0x3de2a037	0.11065715
191	0xbe2ff2bc	-0.1718244
192	0x3dd49f58	0.10381955
193	0x3df6bd1c	0.120477885
194	0x3e6b298c	0.22965068
195	0xbe4bb1f4	-0.19892102
196	0xbe54252c	-0.20717305
197	0x3c4a6fa0	0.012355715
198	0x3bd10740	0.006379038
199	0xbe672208	-0.22571576
200	0xbd5ba340	-0.053622484
201	0x3de834c0	0.11338186
202	0x3e42e836	0.19033894
203	0xbe584502	-0.21120074
204	0x3ce9d770	0.028545111
205	0x3dc35868	0.095383465
206	0x3d3d8f10	0.046279013
207	0x3e5b1ca4	0.21397644
208	0x3d51f088	0.05125478
209	0x3e4427ca	0.19155803
210	0xbe2e6862	-0.17032006
211	0xbda28868	-0.07936174
212	0xbdecea90	-0.11568177
213	0xbdb351e8	-0.08755857
214	0x3c31f8e0	0.010862559
215	0x3ce8f320	0.028436244
216	0xbdbd33f0	-0.09238422
217	0xbe135e04	-0.14391333
218	0xbe70885c	-0.23489517
219	0xbd1ce7f8	-0.03830716
220	0xbe3b46ac	-0.18288678
221	0xbd139010	-0.03602606
222	0xbe037262	-0.12836602
223	0xbdafeab4	-0.08589688
224	0xbc4c9ba0	-0.012488276
225	0xbdc51194	-0.096224934
226	0xbd9feedc	-0.07809231
227	0x3dbb1720	0.0913527
228	0xbcb0c820	-0.021579802
229	0xbe55cfd6	-0.20880064
230	0x3daff570	0.08591735
231	0xbcc5a280	-0.024125338
232	0xbdd5a8d4	-0.10432592
233	0x3e2c689c	0.1683678
234	0xbd2bd928	-0.041955143
235	0x3e4271ee	0.18988773
236	0x3dc47c90	0.09594071
237	0x3e128714	0.1430934
238	0xbda1cc38	-0.0790028
239	0xbc9d1dc0	-0.019179225
240	0xbd2f8288	-0.042849094
241	0xbe114872	-0.14187792
242	0xbe2e68d4	-0.17032176
243	0xbe3789fe	-0.17923734
244	0xbe36b836	-0.17843708
245	0xbe542364	-0.20716625
246	0xbe08b410	-0.13349938
247	0x3e729fea	0.23693815
248	0xbe0d7c6e	-0.13816997
249	0xbdf41b70	-0.11919296
250	0x3dd81360	0.105505705
251	0xbd427fb8	-0.047485083
252	0x3e2b79a6	0.16745624
253	0xbca6fea0	-0.020385087
254	0x3daaf574	0.08347598
255	0x3dcfa444	0.10138753

hedge_q.2.linear_relu_stack.4.bias f4 [16]
0	0x3e0ef48d	0.13960476
1	0x3e7b9a36	0.24570546
2	0xbe87c3e7	-0.2651665
3	0x3e2b4254	0.16724521
4	0xbc37edc0	-0.011226118
5	0x3e10a964	0.14127117
6	0xbd336998	-0.043801874
7	0xbd2eb9a0	-0.042657495
8	0xbe68ec0c	-0.22746295
9	0xbe14a8c6	-0.14517507
10	0xbdb2f6b1	-0.08738459
11	0x3e4d9937	0.20077978
12	0xbe10e29c	-0.14148945
13	0xbd8abd34	-0.06774369
14	0x3d040198	0.032228082
15	0xbe5ef7da	-0.21774235

hedge_q.2.linear_relu_stack.6.weight f4 [1, 16]
0	0xbea4d034	-0.32190096
1	0x3eaa072b	0.33208594
2	0x3db6fc15	0.089347996
3	0x3eb8ab74	0.36068308
4	0xbe2bb086	-0.16766557
5	0xbe452983	-0.19254117
6	0x3e75439c	0.23951572
7	0xbc0da600	-0.0086455345
8	0xbdf9ede0	-0.12203574
9	0x3d555848	0.052086145
10	0x3e185a39	0.14878167
11	0x3dafa564	0.08576468
12	0xbd91fad4	-0.0712792
13	0xbda44528	-0.08021003
14	0xbe097ecc	-0.13427275
15	0x3e52f6b8	0.20601928

hedge_q.3.linear_relu_stack.0.weight f4 [16, 1]
0	0x3f07ecf4	0.53095937
1	0x3f656008	0.8959966
2	0x3c873bfe	0.016508099
3	0x3e470086	0.19433793
4	0x3f0c09b6	0.5470232
5	0xbed7773c	-0.42083156
6	0xbf34f66d	-0.70688516
7	0x3c999d00	0.018751621
8	0xbed3ee2f	-0.41392657
9	0x3e9348a8	0.2876637
10	0xbec72770	-0.38897276
11	0x3f072c68	0.52802134
12	0xbefb4e68	-0.49083257
13	0x3f4372af	0.7634687
14	0xbf769d45	-0.96333724
15	0xbf57998d	-0.84218675

hedge_q.3.linear_relu_stack.0.bias f4 [16]
0	0x3f35279a	0.7076355
1	0xbe7e2848	-0.24820054
2	0x3e2f6190	0.17127061
3	0x3c1efcb0	0.0097038
4	0xbe27c79f	-0.16384743
5	0xbd1afbe0	-0.037837863
6	0x3f274f02	0.6535493
7	0xbf6cf3d2	-0.9255954
8	0x3f27b286	0.6550678
9	0xbf67ba8e	-0.90519035
10	0xbed43bb0	-0.41451788
11	0x3f2dd01a	0.6789566
12	0xbf4b2142	-0.7934762
13	0x3e8bf1d1	0.2733293
14	0x3f05e73c	0.5230596
15	0x3f483b44	0.7821543
