Models/BS/FFNN/No transaction costs/BS_FFNN_CVaR_50_Notc.pth (torch, 48931 bytes, 63 tensors)

hedge_q.0.linear_relu_stack.0.weight f4 [16, 1]
0	0x3ee6daa0	0.45088673
1	0x3de8f0e0	0.11374068
2	0x3f73e850	0.95276356
3	0x3dd2a903	0.10286143
4	0x3f0a75dd	0.54086095
5	0xbd460f35	-0.048354346
6	0x3f71b964	0.9442351
7	0x3f23176c	0.63707614
8	0xbf8dfa79	-1.1092063
9	0xbf1fbe53	-0.62399787
10	0xbf5d3f7c	-0.86424994
11	0x3f84331f	1.0328101
12	0x3e5593c0	0.20857143
13	0x3f83fdab	1.0311788
14	0xbdcdec60	-0.100548506
15	0x3dcd5020	0.10025048

hedge_q.0.linear_relu_stack.0.bias f4 [16]
0	0xbf684170	-0.9072485
1	0xbe9029d8	-0.28156924
2	0xbe7406ac	-0.2383067
3	0xbd9e8cb1	-0.077416785
4	0x3e748af4	0.23881131
5	0x3e370da5	0.17876299
6	0x3f70a5f4	0.94003224
7	0xbf35dc74	-0.7103951
8	0x3f588836	0.8458284
9	0x3ecdbe15	0.40184084
10	0xbeff84d8	-0.4990604
11	0xbecc950e	-0.3995747
12	0xbe049486	-0.12947282
13	0xbed1456b	-0.40873274
14	0xbf18d15a	-0.59694445
15	0xbea74f24	-0.32677567

hedge_q.0.linear_relu_stack.2.weight f4 [16, 16]
0	0x3e66e45e	0.22548053
1	0xbda2dd68	-0.07952386
2	0x3e252392	0.1612685
3	0x3e1e4602	0.15456393
4	0xbe602c1a	-0.21891823
5	0xbe3c092a	-0.18362871
6	0xbdf701ac	-0.12060866
7	0x3e600018	0.21875036
8	0xbe7d1b72	-0.24717501
9	0x3d2e6a30	0.042581737
10	0xbe09fc6a	-0.13475195
11	0xbd1de218	-0.038545698
12	0x3e47ccd8	0.19511735
13	0xbd851ab0	-0.06499231
14	0xbe243512	-0.1603587
15	0x3e4179a2	0.18894055
16	0xbda4014c	-0.0800806
17	0x3d229370	0.03969139
18	0x3dffb484	0.124856025
19	0xbd0dc9c0	-0.034616232
20	0x3dfc265c	0.12312004
21	0x3e776156	0.24158224
22	0xbe40a668	-0.18813479
23	0x3e1591b0	0.14606357
24	0x3e72061e	0.23635146
25	0xbba2abc0	-0.004964322
26	0x3c8e2440	0.01735127
27	0xbe09c690	-0.13454652
28	0x3d944400	0.072395325
29	0x3e10dd9e	0.1414704
30	0x3cda4f60	0.026649177
31	0xbe799628	-0.24373686
32	0x3dc4d510	0.09610951
33	0xbe5bdca0	-0.2147088
34	0x3e4a7142	0.19769767
35	0x3c21de42	0.009879651
36	0x3e8821ab	0.26588187
37	0x3d0406e4	0.032233134
38	0x3e4f9bf1	0.2027433
39	0xbc7ba0e0	-0.01535818
40	0xbd959ae0	-0.07304931
41	0xbd97eb02	-0.07417871
42	0xbb6ba900	-0.0035958886
43	0x3e98081d	0.2969369
44	0xbd7126f2	-0.05887503
45	0x3e70b06e	0.23504803
46	0xbe086f7e	-0.13323781
47	0x3dfcc998	0.123431385
48	0x3d2ebd00	0.042660713
49	0x3cf69910	0.030102283
50	0xbdff2ffc	-0.12460324
51	0x3e581c72	0.21104601
52	0x3e596afe	0.2123222
53	0xbe318204	-0.17334753
54	0xbc23aa80	-0.009989381
55	0x3e020b00	0.12699509
56	0x3daf10ac	0.08548102
57	0x3d58e7a0	0.05295527
58	0x3e5d26bc	0.21596807
59	0xbe2b7628	-0.16744292
60	0x3cb80290	0.02246216
61	0xbdb48818	-0.0881502
62	0xbc262aa0	-0.0101419985
63	0xbe68f464	-0.22749478
64	0xbe0bc2de	-0.13648555
65	0xbe78ba08	-0.24289715
66	0x3cad0e20	0.0211249
67	0xbcf57590	-0.029963285
68	0xbe69516a	-0.22784963
69	0xbcd90290	-0.02649048
70	0xbcb63280	-0.022240877
71	0xbe623bee	-0.22093174
72	0xbc1304e0	-0.00897333
73	0xbe57c3be	-0.21070763
74	0x3e34230e	0.17591497
75	0x3e78db34	0.2430237
76	0xbe4b6824	-0.19863945
77	0x3e26244a	0.1622478
78	0x3e0e7f74	0.13915807
79	0x3d904ca8	0.07045871
80	0x3e6423d8	0.22279298
81	0xbdc62908	-0.09675795
82	0x3d99fc04	0.07518771
83	0xbdf4e258	-0.11957234
84	0xbd2bf460	-0.0419811
85	0xbdbf56e0	-0.09342742
86	0xbe1ae600	-0.151268
87	0xbe57f006	-0.21087655
88	0xbe646f72	-0.22308138
89	0xbe3bd26a	-0.18341985
90	0x3e317b88	0.1733228
91	0xbba37540	-0.0049883425
92	0xbddc6780	-0.107619286
93	0x3e7c354e	0.24629709
94	0x3e2bbbde	0.16770884
95	0xbe4e99f6	-0.20175919
96	0x3d8c754c	0.0685831
97	0xbe2264ae	-0.15858719
98	0xbdc667a6	-0.09687738
99	0x3de273c4	0.11057237
100	0xbe095019	-0.13409461
101	0x3e346fb7	0.17620741
102	0xbdb7e4a3	-0.08979156
103	0xbe2e68b6	-0.17032132
104	0x3da31e0b	0.079647146
105	0x3de2f164	0.11081198
106	0xbce20a20	-0.027592719
107	0xbe037722	-0.12838414
108	0xbe28bdda	-0.16478673
109	0x3e7a52d8	0.24445665
110	0xbe7a5784	-0.24447447
111	0x3dba874c	0.09107837
112	0x3db8bc4c	0.0902029
113	0xbdc3f558	-0.0956828
114	0x3eab9a6e	0.33516258
115	0xbde9b59e	-0.11411594
116	0xbc6f6e6e	-0.014613731
117	0x3e0ed02b	0.13946597
118	0x3e32f5e6	0.17476615
119	0x3e152886	0.1456624
120	0xbe26b964	-0.16281658
121	0xbec31929	-0.38105133
122	0xbcf39e10	-0.029738456
123	0x3f06a407	0.52594036
124	0xbd54499e	-0.05182802
125	0x3e9d7d01	0.30759433
126	0xbe3e27e6	-0.18569908
127	0x3e0923cc	0.13392562
128	0x3e55dab2	0.20884207
129	0xbe706fb0	-0.23480105
130	0x3ce50bf0	0.027959794
131	0xbe13208c	-0.14367884
132	0x3e5615cc	0.20906752
133	0xbe5fa40a	-0.2183992
134	0xbe5fc9c0	-0.21854305
135	0xbe7ea760	-0.24868536
136	0x3da79b04	0.08183864
137	0xbe1ac1b2	-0.15112951
138	0xbe6a3b2c	-0.22874135
139	0xbdafdca4	-0.08587006
140	0xbdd4d4ec	-0.10392174
141	0xbd9c3f94	-0.07629314
142	0x3e1da99e	0.15396735
143	0x3e2e4bee	0.17021152
144	0x3e0b95cc	0.13631362
145	0xbe191c30	-0.14952159
146	0x3d006850	0.03134948
147	0x3e428c42	0.18998817
148	0x3d3d47b6	0.046210967
149	0xbc824d89	-0.015906112
150	0x3cd0835b	0.02545326
151	0xbdc0ec28	-0.09420043
152	0xbe4ee374	-0.20203954
153	0xbdbd5560	-0.092447996
154	0xbc189d60	-0.009314865
155	0xbdf13695	-0.11777989
156	0xb89bf9d2	-7.4375086e-05
157	0x3da0857d	0.07837961
158	0xbe7b8e60	-0.2456603
159	0xbdd28a7c	-0.1028032
160	0xbe61aaf4	-0.2203787
161	0xbe1d54dc	-0.15364403
162	0xbe42a1cf	-0.19007038
163	0x3e489aa1	0.19590236
164	0xbd96c7ac	-0.07362303
165	0x3e6e6532	0.2328079
166	0x3e0681a0	0.13135386
167	0xbe0f1bea	-0.13975492
168	0x3ef0ae21	0.4700785
169	0x3e919aa1	0.28438285
170	0xbe213666	-0.15743408
171	0xbf00a257	-0.5024771
172	0x3e1cfd92	0.15331104
173	0xbf06be6c	-0.5263431
174	0xbd8a7cc4	-0.067620784
175	0x3e6ccdb0	0.23125339
176	0xbe1132ce	-0.14179537
177	0xbe046e0a	-0.12932602
178	0x3e8d64c8	0.27615952
179	0xbe41ee4f	-0.18938564
180	0xbdd30a87	-0.10304742
181	0xbe6b03f7	-0.22950731
182	0x3e3ac01b	0.18237345
183	0x3dc6dd20	0.09710145
184	0xbe77b7bc	-0.24191183
185	0xbdb98bf4	-0.09059897
186	0x3e245e44	0.16051584
187	0x3f26906c	0.6506412
188	0xbd2a253d	-0.04153942
189	0x3e427aa7	0.189921
190	0xbda75174	-0.08169833
191	0x3e69be6a	0.22826543
192	0x3e4afd54	0.198232
193	0x3e757f08	0.2397424
194	0x3e644388	0.22291386
195	0x3cc511d0	0.024056345
196	0xbe3a18f0	-0.18173575
197	0xbc1dae20	-0.009624034
198	0xbdf7f584	-0.12107375
199	0xbe05f000	-0.13079834
200	0x3e41071a	0.18850365
201	0x3e249368	0.16071856
202	0x3e2ea36c	0.17054528
203	0x3e3ea548	0.18617737
204	0x3e43bd44	0.19115168
205	0x3d249ce8	0.0401887
206	0xbc8284d0	-0.01593247
207	0xbd555170	-0.052079618
208	0x3e03cd10	0.12871194
209	0x3ccb1430	0.0247899
210	0xbd818da1	-0.06325842
211	0x3e2cb4a0	0.16865778
212	0xbdaf66c5	-0.085645236
213	0x3e23bdd5	0.15990384
214	0x3e960bdf	0.29305932
215	0x3c84a020	0.016189635
216	0xbe022614	-0.12709838
217	0xbc6ce384	-0.014458541
218	0xbe49edaa	-0.19719568
219	0x3ef1f898	0.47259974
220	0x3e647306	0.22309503
221	0x3f16873a	0.5880009
222	0x3d5ec120	0.054383397
223	0xbe51c1e4	-0.2048412
224	0x3e71e090	0.2362082
225	0xbe184e60	-0.14873648
226	0x3e29fe8b	0.16601007
227	0x3e422188	0.18958104
228	0xbce2ce78	-0.027686343
229	0x3dc90abd	0.09816501
230	0xbdad17ee	-0.0845183
231	0xbe7f754e	-0.24947092
232	0xbd961b4d	-0.07329426
233	0xbe7c3042	-0.24627784
234	0x3e546d54	0.2074483
235	0x3f1b033e	0.6055182
236	0xbc072cb5	-0.008250405
237	0x3eeba8dd	0.4602727
238	0x3e1a2c46	0.15055951
239	0xbe4d8e7e	-0.20073888
240	0x3e163630	0.14669108
241	0xbe74b874	-0.23898488
242	0x3d9ceb5c	0.07662079
243	0xbe0edbbe	-0.13951012
244	0xbe01e838	-0.1268624
245	0xbc2d29c0	-0.010569036
246	0xbe1cb100	-0.15301895
247	0xbd0c7620	-0.03429234
248	0xbe6c0478	-0.2304858
249	0x3c578140	0.013153374
250	0xbe7ad544	-0.24495417
251	0x3dfcca30	0.12343252
252	0xbd056cd0	-0.032574475
253	0xbe0df138	-0.13861549
254	0xbe0fa476	-0.1402758
255	0xbe6309f4	-0.22171766

hedge_q.0.linear_relu_stack.2.bias f4 [16]
0	0xbe4f48f4	-0.20242673
1	0xbe3fa69e	-0.18715903
2	0xbe39b95d	-0.18137117
3	0xbe6f541a	-0.23371926
4	0xbe698ea6	-0.22808322
5	0xbe47d4ec	-0.19514817
6	0x3cc07485	0.02349306
7	0x3e2680ad	0.16260023
8	0xbd1ff798	-0.039054483
9	0xbda0d4fa	-0.07853122
10	0xbe16d972	-0.14731386
11	0x3de4c93a	0.111711934
12	0x3d2525a8	0.040319115
13	0x3cceca30	0.025242895
14	0x3e0ff650	0.14058805
15	0xbd3cd6d0	-0.0461033

hedge_q.0.linear_relu_stack.4.weight f4 [16, 16]
0	0xbd91f9c0	-0.07127714
1	0xbe11e038	-0.14245689
2	0x3e88c403	0.26712045
3	0xbd4c9078	-0.049942464
4	0x3d248a20	0.04017079
5	0xbe524a04	-0.20536047
6	0x3deeab60	0.11653781
7	0x3e1c7cbd	0.15281959
8	0x3cb9a890	0.022663385
9	0xbe11561c	-0.14193004
10	0xbdf84ff3	-0.12124624
11	0x3d97ef54	0.07418695
12	0x3e0593f4	0.13044721
13	0x3e8ec6f9	0.2788618
14	0x3e5b852d	0.21437521
15	0x3d387288	0.0450311
16	0x3e0cf8e8	0.13766825
17	0x3e3d058c	0.18459147
18	0x3d58aa72	0.052896924
19	0xbbe7ccc0	-0.0070739686
20	0xbe5393c8	-0.20661843
21	0x3e2be610	0.1678698
22	0xbdd4f60e	-0.10398494
23	0x3e4fdb41	0.20298482
24	0x3d024500	0.031804085
25	0x3e3d69ef	0.18497442
26	0xbedf8f62	-0.4366408
27	0xbcecb9ed	-0.02889725
28	0xbcb6e190	-0.022324353
29	0x3eaed5ca	0.34147483
30	0x3e835ae2	0.25655276
31	0xbda45c04	-0.08025363
32	0xbd0d9bf8	-0.03457257
33	0x3e5a5394	0.21320945
34	0x3e885287	0.26625463
35	0xbe169080	-0.1470356
36	0xbcaeb890	-0.02132824
37	0xbcfc87f0	-0.030826539
38	0xbe02a5c4	-0.12758547
39	0xbe19d392	-0.15022114
40	0x3dbb312c	0.09140238
41	0xbccaa737	-0.024737937
42	0xbed488dd	-0.41510668
43	0x3e94e6d8	0.2908237
44	0xbb7d7480	-0.0038674176
45	0x3e5b9ab8	0.2144574
46	0x3e8c0ed8	0.27355075
47	0x3e722ef4	0.23650724
48	0xbdec94b8	-0.11551803
49	0x3d45eee8	0.048323542
50	0x3d87ebe3	0.06636789
51	0xbe01517e	-0.12628743
52	0xbe120a82	-0.14261821
53	0xbe2ff10c	-0.17181796
54	0x3e131612	0.14363888
55	0x3e0e4fd3	0.13897638
56	0x3e6e5afe	0.23276898
57	0xbe0d58b4	-0.13803369
58	0x3e3aedc2	0.1825476
59	0x3d180553	0.037114453
60	0xbe104018	-0.1408695
61	0x3df30553	0.1186625
62	0x3dd26588	0.10273272
63	0x3cd17350	0.02556768
64	0xbddc5f58	-0.10760373
65	0x3e145428	0.14485228
66	0x3e0c5487	0.1370412
67	0x3e338f46	0.17535123
68	0xbe6b967a	-0.23006621
69	0x3e5e4f0a	0.21709839
70	0xbe70bc23	-0.23509268
71	0x3eb46168	0.35230565
72	0xbc44fcc0	-0.012023151
73	0xbdf108ce	-0.117692575
74	0xbec7a25a	-0.38991052
75	0x3e2024b9	0.15639009
76	0x3e7414a6	0.23836002
77	0x3e82ec34	0.25570834
78	0xbd7b0b6b	-0.061290186
79	0x3c76c020	0.015060455
80	0x3e187934	0.14889985
81	0xbe15441c	-0.14576763
82	0xbdac1919	-0.084032245
83	0xbe4baa24	-0.19889122
84	0xbe3e3ea8	-0.18578589
85	0xbdee6f68	-0.11642343
86	0x3d6311b3	0.0554368
87	0x3e786306	0.24256524
88	0xbe25b778	-0.16183269
89	0x3e578d0e	0.21049902
90	0xbe23e8e6	-0.16006812
91	0x3d86e4bf	0.065865986
92	0x3d6ca738	0.05777666
93	0x3da65c15	0.08123032
94	0x3e87b8e3	0.26508245
95	0xbdfa4f0c	-0.12222108
96	0xbd46bb58	-0.04851851
97	0x3e4d5560	0.20052099
98	0xbdb171c8	-0.0866428
99	0x3e222824	0.15835625
100	0xbdf885ec	-0.121349186
101	0xbd619d60	-0.055081725
102	0xbd8eb018	-0.06967181
103	0xbe764c08	-0.24052441
104	0x3d8ad39c	0.067786425
105	0xbd35db30	-0.044398487
106	0xbe1c4f32	-0.15264586
107	0xbd99d6d4	-0.07511678
108	0xbe53ced4	-0.20684367
109	0xbde64c60	-0.11245036
110	0x3e192d32	0.14958647
111	0x3e5c97ea	0.21542326
112	0xbda26028	-0.079284966
113	0xbd76c9b0	-0.060250938
114	0xbe3717ed	-0.1788022
115	0x3e7d4ed6	0.24737105
116	0xbd6da7a0	-0.058021188
117	0x3e33baa4	0.17551666
118	0xbb603d58	-0.0034216251
119	0xbe03d94c	-0.12875861
120	0x3bd11300	0.006380439
121	0x3e399c6b	0.18126075
122	0x3f1a4346	0.602589
123	0xbe849b57	-0.25899765
124	0x3d43b790	0.04778248
125	0x3dd6c61b	0.10487004
126	0xbe9c0fa9	-0.30480698
127	0xbe267c6e	-0.16258404
128	0xbd1c10e0	-0.03810203
129	0xbdd8d0c8	-0.10586697
130	0x3d241395	0.040057737
131	0xbe3eff0a	-0.18651977
132	0xbe4090bc	-0.18805212
133	0xbc6d7360	-0.01449284
134	0xbe24908e	-0.16070768
135	0xbe4cbd4a	-0.19994083
136	0x3d710d30	0.058850467
137	0x3d6d5e98	0.05795154
138	0x3c655dc7	0.013999409
139	0x3e1652d3	0.14680032
140	0x3ddfebe4	0.109336644
141	0xbe5e3f9d	-0.21703954
142	0xbded281a	-0.115799144
143	0x3e35c03e	0.17749116
144	0x3dff2c00	0.12459564
145	0xbd5aaaa8	-0.053385407
146	0x3e72fe06	0.23729715
147	0xbe782f2c	-0.24236745
148	0x3de99604	0.11405566
149	0xbdcbecf0	-0.099573016
150	0x3e7905be	0.24318597
151	0x3ad3c300	0.0016156137
152	0xbe68ed08	-0.2274667
153	0xbb8bac00	-0.0042624474
154	0xbe0627ca	-0.13101116
155	0x3c3e3ba0	0.011610895
156	0x3dd3ac48	0.103355944
157	0xbd97baec	-0.074086994
158	0x3b88e700	0.004177928
159	0xbe3d327c	-0.1847629
160	0xbdf80ebc	-0.12112185
161	0x3e3536dc	0.17696708
162	0x3e157e28	0.14598906
163	0x3dd73b7c	0.105093926
164	0x3e0aa5f0	0.13539863
165	0x3e083f9c	0.13305515
166	0x3d821060	0.063507795
167	0xbdd59760	-0.10429263
168	0x3dde6538	0.1085915
169	0xbe7df656	-0.24801001
170	0x3d790208	0.060792953
171	0x3d234f70	0.03987068
172	0xbe5bfe4a	-0.21483722
173	0xbdcbe44c	-0.099556535
174	0xbd90c868	-0.070694745
175	0xbe67d052	-0.22638062
176	0xbe25fdb6	-0.16210064
177	0xbddc4740	-0.10755777
178	0xbe200015	-0.15625031
179	0x3d7822d0	0.060580075
180	0xbe51deee	-0.20495197
181	0xbe7d01be	-0.24707696
182	0x3d49c9e9	0.049264822
183	0xbd6e98ab	-0.058251064
184	0xbe20d976	-0.15707955
185	0xbcc11815	-0.023571054
186	0xbe54adb1	-0.20769383
187	0x3df43819	0.11924762
188	0x3e465cb0	0.19371295
189	0x3db545b2	0.08851184
190	0x3dcc6262	0.099797025
191	0xbe22e63a	-0.15908137
192	0x3e1209fa	0.14261618
193	0x3da41c8c	0.080132574
194	0x3e76a166	0.24085006
195	0xbc9e97b0	-0.01935944
196	0x3db9f5f0	0.09080112
197	0xbd0ee9a0	-0.03489077
198	0xbe480589	-0.19533361
199	0xbe885cee	-0.266334
200	0x3e0889e2	0.13333848
201	0x3a95fe00	0.0011443496
202	0x3ef989b3	0.4873787
203	0xbe43f52b	-0.19136493
204	0x3e4b3854	0.19845706
205	0xbda4ff17	-0.08056467
206	0xbf241133	-0.64088744
207	0x3d139530	0.03603095
208	0x3d885be4	0.06658152
209	0x3d731900	0.059350014
210	0xbda90d91	-0.08254541
211	0x3e014860	0.12625265
212	0xbdc06acc	-0.0939537
213	0xbc798e80	-0.015231729
214	0x3e4a8cc4	0.1978026
215	0xbc158300	-0.009125471
216	0xbdfe6484	-0.124215156
217	0xbb8f4c00	-0.0043730736
218	0x3e712aeb	0.23551528
219	0xbe56f5d0	-0.20992208
220	0xbd87a958	-0.06624097
221	0x3e4d22b9	0.20032777
222	0xbe4151d3	-0.1887887
223	0x3dee9db8	0.11651176
224	0x3e4ce8ca	0.20010677
225	0x3e56ab96	0.20963892
226	0x3ea95aa5	0.3307697
227	0x3cc0a500	0.023516178
228	0xbe7c7102	-0.24652484
229	0xbe7dc1ae	-0.24780914
230	0x3c894f73	0.016761517
231	0x3eb7aad5	0.35872522
232	0xbd9bc978	-0.076067865
233	0x3e54fe5e	0.20800158
234	0xbf00311c	-0.50074935
235	0xbd08ed78	-0.033429593
236	0xbd6c7bd8	-0.057735294
237	0x3e69bd1d	0.22826047
238	0x3e8eb453	0.2787195
239	0x3c9280f0	0.017883748
240	0x3c762660	0.015023798
241	0x3e027338	0.12739265
242	0x3d21a0e1	0.039460067
243	0xbe488a06	-0.19583902
244	0x3e249b8e	0.16074964
245	0xbcc06130	-0.023483843
246	0x3da4775c	0.080305785
247	0x3e34f8d8	0.17673051
248	0x3c8312f0	0.016000241
249	0x3e06d8e8	0.1316868
250	0xbda5f8dc	-0.08104107
251	0x3e3f8180	0.18701744
252	0xbe3bf48c	-0.18355006
253	0xb9f3b359	-0.00046482196
254	0xbe712476	-0.23549065
255	0x3e6ad830	0.22934031

hedge_q.0.linear_relu_stack.4.bias f4 [16]
0	0x3e2c5b3c	0.16831678
1	0x3e2deaf2	0.16984156
2	0xbd5fc437	-0.054630484
3	0xbeac7323	-0.33681592
4	0x3e8f85a0	0.28031635
5	0x3d9273f2	0.07151021
6	0xbe245492	-0.16047886
7	0x3e0b4cd6	0.1360353
8	0x3ac49b04	0.0014999812
9	0xbe22d4f6	-0.1590155
10	0xbdeb96ac	-0.11503348
11	0xbd710a9c	-0.05884801
12	0x3d9b63eb	0.07587417
13	0x3d7110ab	0.058853786
14	0xbe1d0209	-0.15332808
15	0xbe69f247	-0.22846328

hedge_q.0.linear_relu_stack.6.weight f4 [1, 16]
0	0x3e45544a	0.19270435
1	0x3e6d3d9f	0.23168038
2	0x3e02ff07	0.12792598
3	0xbd6a4249	-0.05719212
4	0x3eab19d7	0.33418152
5	0x3e010078	0.12597835
6	0xbe32e412	-0.17469814
7	0xbe9664e4	-0.29373848
8	0xbe256bff	-0.16154478
9	0x3e5e821c	0.2172932
10	0xbda662cc	-0.08124313
11	0xbe467eb4	-0.19384271
12	0xbf64b7c9	-0.89342934
13	0xbd0cb168	-0.034348875
14	0x3edd1151	0.43177274
15	0xbe27b450	-0.16377378

hedge_q.1.linear_relu_stack.0.weight f4 [16, 1]
0	0x3bc2fb09	0.005950336
1	0x3f5f166f	0.87143606
2	0x3f2f59e0	0.68496513
3	0xbf1ea9a4	-0.619776
4	0x3eafa575	0.3430592
5	0xbf373e66	-0.7157959
6	0x3f1a6432	0.60309136
7	0xbf69ef09	-0.91380364
8	0xbf83a01c	-1.0283237
9	0xbcbcd458	-0.023050472
10	0x3f93bdc8	1.1542292
11	0x3f59cb28	0.85075617
12	0xbf741bc8	-0.9535489
13	0x3e1821c0	0.14856625
14	0x3e1c1a8b	0.152445
15	0xbe9e9972	-0.30976444

hedge_q.1.linear_relu_stack.0.bias f4 [16]
0	0x3f4d5eb7	0.8022265
1	0x3f0a7b12	0.5409404
2	0x3c4d654e	0.01253636
3	0xbf734ce8	-0.95039225
4	0x3f326f68	0.6970124
5	0xbf4394dc	-0.76399016
6	0xbf1c0c06	-0.60955846
7	0x3e858c5c	0.26083648
8	0x3f10edc4	0.566128
9	0x3eec3671	0.46135285
10	0x3e9bf3a6	0.30459327
11	0xbe6427a9	-0.22280754
12	0x3ddff6b0	0.10935724
13	0xbf6e8844	-0.93176675
14	0x3dd13ce4	0.10216692
15	0x3efaa651	0.48955014

hedge_q.1.linear_relu_stack.2.weight f4 [16, 16]
0	0xbdfa32a8	-0.12216693
1	0xbdb67ec0	-0.089108944
2	0x3d792d90	0.060834467
3	0x3e3a1156	0.18170676
4	0xbe3ccaa8	-0.18436682
5	0xbd716908	-0.058938056
6	0x3da177b8	0.07884163
7	0x3e508a76	0.20365319
8	0x3c33a9e0	0.010965794
9	0xbcfcbbf0	-0.030851334
10	0xbcfadb30	-0.030622095
11	0x3e326428	0.17421019
12	0x3e165914	0.14682418
13	0xbe702e68	-0.23455203
14	0xbdb8a3f8	-0.090156496
15	0xbc192400	-0.009346962
16	0x3e60677d	0.21914478
17	0x3e150115	0.14551194
18	0x3e710e2f	0.23540567
19	0xbe14e132	-0.1453903
20	0x3e5170ec	0.20453233
21	0xbe65ab60	-0.22428656
22	0x3e6e7422	0.23286489
23	0xbd812f84	-0.06307891
24	0xbf8c93ef	-1.0982646
25	0xbe3c40d5	-0.18384106
26	0xbd81ab50	-0.063315034
27	0x3e4e928e	0.20173094
28	0xbe266b5e	-0.16251895
29	0x3e1d413e	0.15356919
30	0xbe1a7e44	-0.15087229
31	0xbe948661	-0.29008773
32	0xbe5dd6ce	-0.21663973
33	0xbe2ab1d0	-0.16669393
34	0xbd111a20	-0.035425305
35	0xbe6d55a2	-0.23177198
36	0xbe6f1632	-0.2334831
37	0x3e49ebe4	0.19718891
38	0x3e288226	0.16455898
39	0x3e30da38	0.17270744
40	0x3dfbb958	0.12291211
41	0x3e3eb5d0	0.18624043
42	0x3e0a3da6	0.1350008
43	0xbdd43ee4	-0.10363558
44	0xbe7112ae	-0.23542282
45	0x3dd582d8	0.10425347
46	0xbe5e13e8	-0.21687281
47	0xbe56d090	-0.20977998
48	0xbd8f1ff0	-0.069885135
49	0xbe2c146c	-0.16804665
50	0xbc4a9780	-0.012365222
51	0x3d70e2f8	0.058810204
52	0xbe5da916	-0.21646532
53	0xbe19dd4c	-0.15025824
54	0x3e6a4346	0.22877225
55	0x3d544bb0	0.051829994
56	0xbd0efbf8	-0.034908265
57	0xba036400	-0.00050121546
58	0xbd5b0f30	-0.05348128
59	0x3dbbfbe8	0.09178907
60	0x3e0a135e	0.1348395
61	0xbe1114f2	-0.14168146
62	0xbd1ca480	-0.038242817
63	0xbd1d2870	-0.038368642
64	0x3e0546b6	0.13015255
65	0xbdf6544f	-0.12027799
66	0xbde054b5	-0.109536566
67	0x3e5389de	0.20658061
68	0x3d8db46a	0.06919177
69	0xba886900	-0.0010407269
70	0x3e1538e0	0.14572477
71	0x3e68cf26	0.22735271
72	0xbf18a642	-0.5962869
73	0xbd83ef01	-0.06442071
74	0x3e8e7ebe	0.27831072
75	0x3e32c401	0.17457582
76	0xbdc62614	-0.096752316
77	0xbd204e58	-0.039137214
78	0xbce7b4e5	-0.0282845
79	0x3e351e30	0.17687297
80	0x3e2eb302	0.17060474
81	0x3e3605cd	0.1777565
82	0x3e83df54	0.25756323
83	0xbe67938c	-0.22614878
84	0x3d8e042c	0.069343895
85	0xbd879514	-0.06620231
86	0xbd7a8660	-0.061163306
87	0xbe43865c	-0.19094223
88	0xbf2bdd45	-0.67134506
89	0xbe1d2c61	-0.1534896
90	0xbd2fc7fe	-0.042915337
91	0xbbf4dc49	-0.007472549
92	0xbe700426	-0.23439083
93	0x3e55a8a6	0.20865116
94	0x3e26dfd7	0.16296326
95	0xbdd54429	-0.10413391
96	0x3d92bdbd	0.07165096
97	0x3e56068b	0.20900933
98	0x3e9c3aad	0.30513516
99	0x3e1bb3ac	0.15205258
100	0x3e126a80	0.14298439
101	0xbe7d7a86	-0.2475377
102	0xbbb31f80	-0.0054664016
103	0x3e7315c0	0.23738766
104	0xbf1b4be3	-0.6066267
105	0x3e460df3	0.19341259
106	0x3e66a943	0.22525506
107	0x3e01df6d	0.12682886
108	0x3e72cca8	0.23710883
109	0xbdbc0d0c	-0.09182176
110	0xbe371780	-0.17880058
111	0xbdbf1ee0	-0.09332061
112	0x3e393aed	0.18088885
113	0x3e423ab2	0.18967703
114	0x3ea97c11	0.33102468
115	0xbe36e7ae	-0.17861816
116	0x3e2b9dfb	0.16759484
117	0xbd74de98	-0.059782594
118	0x3e606a40	0.21915531
119	0x3da14c34	0.07875863
120	0xbf78ab6b	-0.97136563
121	0xbe4fcd43	-0.20293145
122	0x3e0d4234	0.13794786
123	0x3da7f6ab	0.08201345
124	0xbe36fb1a	-0.17869225
125	0x3e65d8c2	0.22445968
126	0x3e8f3b1d	0.27974787
127	0x3d14ebb1	0.036357585
128	0x3c915540	0.017740846
129	0xbe65f236	-0.22455677
130	0xbcdc5cd0	-0.026899725
131	0x3e7a3ccc	0.24437255
132	0x3dd388e4	0.10328844
133	0xbc13b4c0	-0.009015262
134	0xbe6b1784	-0.22958189
135	0x3dfedfe4	0.124450475
136	0x3e70f216	0.23529848
137	0x3da61308	0.08109099
138	0xbcd05bc0	-0.025434375
139	0x3e5dfef6	0.21679291
140	0xbc95cd40	-0.018286347
141	0xbcb4bf90	-0.022064
142	0xbe0ddaa2	-0.13852933
143	0xbdc9c7f4	-0.09852591
144	0x3da508b4	0.080583006
145	0xbe6f6faa	-0.2338244
146	0xbe3b1ef0	-0.1827352
147	0x3e165e1c	0.14684337
148	0x3e3184f0	0.17335868
149	0x3e050466	0.12989959
150	0x3e676884	0.22598463
151	0xbde2990c	-0.110643476
152	0x3e59b95c	0.21262115
153	0x3e2fed8e	0.17180464
154	0xbe15a15a	-0.14612332
155	0xbe139004	-0.14410406
156	0xbd5d9038	-0.054092616
157	0xbdbfbc74	-0.093621165
158	0x3d8baf08	0.06820494
159	0xbe4da616	-0.20082888
160	0xbd6317f5	-0.05544277
161	0x3e0f0917	0.13968311
162	0x3db7c23f	0.089725964
163	0x3e6a3846	0.22873029
164	0x3b1ae064	0.0023632282
165	0xbe1d5e9e	-0.15368125
166	0x3e575c06	0.21031198
167	0x3e4fe9a4	0.2030397
168	0xbf749900	-0.9554596
169	0x3c88ad96	0.016684335
170	0x3de62e84	0.11239341
171	0x3e54b053	0.20770387
172	0x3dcba4fc	0.09943578
173	0x3e4e0d66	0.20122299
174	0xbdf8f761	-0.12156559
175	0xbeb7bafa	-0.3588484
176	0xbe687580	-0.22701073
177	0x3e50687c	0.20352358
178	0x3e6f676a	0.23379293
179	0x3e0ece98	0.13945997
180	0xbe37d1fc	-0.17951196
181	0xbe030f7c	-0.12798876
182	0xbdee255c	-0.116282195
183	0xbe3b28b8	-0.18277252
184	0xbd5b62a8	-0.053560883
185	0xbe5ed9f4	-0.2176283
186	0xbe6893e8	-0.22712672
187	0x3e508a54	0.20365268
188	0xbdb321f0	-0.087467074
189	0xbd830a2c	-0.063984245
190	0x3d111cb8	0.03542778
191	0x3da9998c	0.0828124
192	0x3db24c4c	0.08705959
193	0xbd303610	-0.043020308
194	0x3dc5b03c	0.09652755
195	0x3cafb340	0.021447778
196	0xbe36eaf0	-0.17863059
197	0x3d10d6c0	0.03536105
198	0x3dc6f7c0	0.09715223
199	0x3e2b020e	0.16700003
200	0xbd684108	-0.056702644
201	0x3e219a5a	0.15781537
202	0xbd5107a0	-0.051032662
203	0xbe7275d6	-0.23677763
204	0x3dfb8db4	0.12282887
205	0xbe3d707e	-0.18499944
206	0xbda5b3e8	-0.08090955
207	0xbe57ea3c	-0.21085447
208	0xbd49577b	-0.049155694
209	0x3e613eb6	0.21996579
210	0x3eaeb7d3	0.34124622
211	0xbe5e4d34	-0.21709138
212	0x3d9f16b5	0.07768003
213	0x3e439428	0.19099486
214	0x3dc6948c	0.09696302
215	0xbce99783	-0.02851463
216	0xbf400d17	-0.75019974
217	0xbe7961c7	-0.24353705
218	0x3e6db01b	0.2321171
219	0x3d636894	0.055519655
220	0x3e0f136a	0.1397225
221	0x3e3c1ece	0.18371126
222	0x3e64a363	0.22327952
223	0xbcca523a	-0.024697412
224	0x3e73b157	0.23798119
225	0xbc09b499	-0.008404874
226	0xbe5f5991	-0.2181151
227	0xbde2c5a8	-0.11072856
228	0x3d8dfc29	0.06932861
229	0xbd957170	-0.07297027
230	0x3d8953b8	0.06705421
231	0x3e2101ac	0.15723294
232	0x3f770ce3	0.9650404
233	0xbe47c107	-0.19507228
234	0xbd7bc710	-0.061469138
235	0x3db20d61	0.08693958
236	0xbe0ea538	-0.13930213
237	0xbe519b50	-0.20469403
238	0x3de521d6	0.11188094
239	0x3db9cd45	0.09072355
240	0x3e595bed	0.21226473
241	0xbd87b424	-0.06626156
242	0x3e2e5aed	0.17026873
243	0xbe46e5d6	-0.19423613
244	0x3da212a3	0.07913711
245	0xbda4d684	-0.08048728
246	0xbc0ca360	-0.0085838735
247	0x3c5bf7f1	0.013425813
248	0xbf3ac8e0	-0.7296276
249	0x3cbc6c48	0.023000851
250	0x3e5d884c	0.21634024
251	0x3eb4e835	0.3533341
252	0xbe77283a	-0.24136439
253	0x3e69b15c	0.22821563
254	0x3e5386ca	0.20656887
255	0xbe72b861	-0.23703147

hedge_q.1.linear_relu_stack.2.bias f4 [16]
0	0xbcf96050	-0.030441433
1	0xbd0c7af0	-0.03429693
2	0xbe26deac	-0.1629588
3	0x3dd52bcc	0.10408744
4	0x3e2a63cc	0.16639632
5	0x3e823a34	0.2543503
6	0x3e074b8f	0.13212417
7	0xbd89784d	-0.06712399
8	0x3ca35680	0.019938707
9	0xbdc61938	-0.09672779
10	0x3e1d9f43	0.15392785
11	0x3c4ed200	0.01262331
12	0x3ddfcfe8	0.10928327
13	0xbe21da4e	-0.15805933
14	0x3bbf6b1f	0.0058416273
15	0x3e1b4fa9	0.15167107

hedge_q.1.linear_relu_stack.4.weight f4 [16, 16]
0	0xbe383928	-0.17990553
1	0xbd6fc890	-0.05854088
2	0xbd9a3208	-0.07529074
3	0x3e70b276	0.23505577
4	0x3cd94ec0	0.026526809
5	0x3c7a3d00	0.015273333
6	0xbc9d2f10	-0.01918748
7	0xbe6029a4	-0.21890885
8	0x3e61d1d8	0.22052705
9	0x3e719022	0.23590139
10	0x3c7138c0	0.014723003
11	0x3dea6384	0.11444762
12	0xbe0cae0c	-0.13738269
13	0xbde3319c	-0.110934466
14	0x3d9d5244	0.076817065
15	0xbd581970	-0.052758634
16	0xbd6b7c90	-0.05749184
17	0xbd9e7178	-0.07736486
18	0x3c8b19c0	0.016980052
19	0x3e7239a8	0.23654807
20	0x3e2808ec	0.16409653
21	0x3e29da1b	0.16587107
22	0x3cccdb4e	0.025006916
23	0xbe4b51c9	-0.19855417
24	0x3e19505c	0.14972061
25	0xbe65bfca	-0.22436443
26	0xbe12ed81	-0.14348413
27	0x3e084e76	0.1331118
28	0x3db4057c	0.087901086
29	0x3e03ca89	0.1287023
30	0xbe2e6050	-0.17028928
31	0x3e07c6f6	0.13259491
32	0x3dc6d6e0	0.09708953
33	0x3dc3ab3b	0.09554144
34	0x3dec4440	0.11536455
35	0xbe3506f6	-0.17678437
36	0x3e9c308b	0.30505785
37	0x3e956ed6	0.29186124
38	0x3e14471f	0.14480256
39	0x3e0fe1c4	0.14050967
40	0x3e1da362	0.15394357
41	0xbdac3b0c	-0.084097
42	0xbdd2f1dc	-0.10300037
43	0x3dafd6e0	0.08585906
44	0xbe57eabc	-0.21085638
45	0x3ec21402	0.3790589
46	0xbe862d67	-0.26206514
47	0x3eaacf61	0.33361343
48	0xbe14a474	-0.14515859
49	0x3e766bb0	0.24064517
50	0x3e4ceae6	0.20011482
51	0x3e73dcf8	0.23814762
52	0x3d18af78	0.037276715
53	0xbdc5066c	-0.096203655
54	0xbe562dfc	-0.20915979
55	0x3d4898e8	0.048973948
56	0xbcade470	-0.021227092
57	0xbd4fac68	-0.05070153
58	0xbe36a6d0	-0.17837071
59	0x3dd8d7a8	0.10588008
60	0xbdbfa9e0	-0.09358573
61	0x3d2d1668	0.042257696
62	0x3dce6378	0.10077566
63	0x3df05750	0.117354035
64	0xbd0668b0	-0.03281468
65	0x3e6bd190	0.2302916
66	0xbe43208e	-0.19055387
67	0x3e38060e	0.1797106
68	0xbc4d9ecb	-0.012550066
69	0x3e53daa9	0.20688881
70	0x3cfe4d43	0.0310427
71	0x3e0f962b	0.14022128
72	0x3d851bb4	0.064994246
73	0xbdd3f36c	-0.103491634
74	0x3df89930	0.12138593
75	0xbe1b5a5a	-0.15171185
76	0xbd109818	-0.035301298
77	0x3dde7d70	0.10863769
78	0x3af114ec	0.0018393076
79	0x3e3a60f1	0.18201043
80	0xbe67aa7a	-0.22623625
81	0xbe41ad40	-0.18913746
82	0x3e16c8d8	0.14725053
83	0x3d8c7098	0.06857413
84	0xbe54ff04	-0.20800406
85	0xbcc9ca50	-0.024632603
86	0xbded845c	-0.11597511
87	0x3d639ef8	0.055571526
88	0xbd153918	-0.036431402
89	0x3d744cb8	0.059643477
90	0x3ca18280	0.019715548
91	0x3e587146	0.2113696
92	0xbc4506a0	-0.012025505
93	0x3e3d76da	0.1850237
94	0xbdb377fc	-0.087631196
95	0xbdeb1018	-0.11477679
96	0x3e44bb4e	0.19212076
97	0x3ed344e5	0.412635
98	0xbd952ee8	-0.07284337
99	0x3d8f3740	0.0699296
100	0x3cd83427	0.026392056
101	0xbe0e6b7b	-0.13908188
102	0x3d8b1961	0.0679195
103	0x3e2ad1b4	0.16681558
104	0x3e135d84	0.14391142
105	0xbd873824	-0.06602505
106	0x3e169e5f	0.14708851
107	0xbe032bd0	-0.12809682
108	0x3e027a5c	0.12741989
109	0x3ec0e0e2	0.37671572
110	0xbe852003	-0.26000986
111	0x3e204900	0.15652847
112	0xbe3c85d8	-0.18410432
113	0x3e8617f0	0.26190138
114	0xbe6b813a	-0.22998515
115	0xbe6eac52	-0.23307922
116	0xbd03110c	-0.03199868
117	0x3e92c86e	0.2866854
118	0x3e2165bf	0.1576147
119	0x3e44e7d1	0.19229056
120	0xbe23af1e	-0.1598477
121	0x3db5b83c	0.088730305
122	0x3e3894b5	0.18025477
123	0x3dd427d8	0.10359162
124	0x3e3dfc2a	0.18553224
125	0x3e0ed658	0.13948953
126	0xbe021521	-0.12703373
127	0x3e9b0a61	0.30281356
128	0xbe5aecfa	-0.21379462
129	0xbe1b9f7e	-0.1519756
130	0x3dda7c74	0.10668269
131	0xbe2225b4	-0.15834695
132	0x3e41b6c6	0.18917379
133	0xbbbd5800	-0.0057783127
134	0xbdd55d7c	-0.10418221
135	0xbe25ff2e	-0.16210625
136	0xbd9b55e4	-0.07584742
137	0x3e00465e	0.12526843
138	0xbdcb8aa8	-0.09938556
139	0xbda6fdb8	-0.08153862
140	0xbe4656e0	-0.19369078
141	0xbe20fbfc	-0.15721124
142	0x3dc762b4	0.09735623
143	0xbe0f60c4	-0.14001757
144	0xbe52356a	-0.20528188
145	0xbdb3a649	-0.08771951
146	0xbe671500	-0.22566605
147	0x3e5d5bb0	0.21617007
148	0x3e2bf632	0.16793135
149	0x3e121c5a	0.14268628
150	0xbe096475	-0.13417228
151	0xbe8bb47f	-0.27286145
152	0xbd7386b0	-0.05945462
153	0xbe65b4fe	-0.22432324
154	0xbc12063c	-0.008912619
155	0x3daaf8e8	0.08348256
156	0xbe33b7de	-0.17550609
157	0x3d0235c3	0.031789552
158	0x3e28beb5	0.16478999
159	0x3d8f2af2	0.06990613
160	0x3db0c630	0.08631551
161	0x3db41220	0.087925196
162	0x3d836d74	0.06417361
163	0x3dc9ea5c	0.09859154
164	0xbe61e4a2	-0.22059873
165	0x3e1b3a8a	0.1515905
166	0x3e544a62	0.207315
167	0xbbac9bc0	-0.0052675903
168	0xbded2b14	-0.11580482
169	0x3d5581b8	0.052125663
170	0xbe79a838	-0.24380577
171	0xbe072386	-0.13197145
172	0xbe14ddb4	-0.14537698
173	0xbe3f4818	-0.18679845
174	0xbe5d5c0a	-0.21617141
175	0x3d5fa7d8	0.054603428
176	0x3dbfd794	0.0936729
177	0xbc1c2342	-0.0095298905
178	0x3dbdaf00	0.09261894
179	0x3c064d40	0.008197129
180	0xb937d1bc	-0.00017530372
181	0x3da29d9b	0.07940217
182	0x3dd020cb	0.10162505
183	0x3e91ff21	0.2851496
184	0x3e63cdc8	0.22246468
185	0xbc36c220	-0.011154681
186	0xbbc8cb72	-0.006127768
187	0x3c9572d0	0.018243223
188	0x3e506180	0.20349693
189	0x3e7fd288	0.24982655
190	0xbeeab82e	-0.45843643
191	0x3e9da306	0.3078844
192	0xbe66ccf8	-0.22539127
193	0x3e5b3bd5	0.21409543
194	0x3e6be422	0.23036245
195	0xbb7cae80	-0.0038556159
196	0x3e4579ea	0.19284788
197	0xbc28673b	-0.010278518
198	0x3dab17ae	0.08354126
199	0x3e39949c	0.18123096
200	0xbdbfd1cc	-0.093661875
201	0xbd4ea690	-0.050451815
202	0x3c9b2ea7	0.018943144
203	0x3e5f3a50	0.21799588
204	0x3d072170	0.032990873
205	0x3e8498e2	0.2589789
206	0xbea7e76c	-0.32793748
207	0x3c9466e3	0.018115466
208	0xbd1a58c0	-0.037682295
209	0xbe7470b8	-0.23871124
210	0x3ba3ec80	0.005002558
211	0xbc24d2e0	-0.010060042
212	0x3e3dfe86	0.18554124
213	0xbe4f1f18	-0.20226705
214	0xbc422b20	-0.011851102
215	0xbe164fd2	-0.14678887
216	0xbe29e46c	-0.16591042
217	0xbdb564e8	-0.08857137
218	0xbe65a118	-0.22424734
219	0xbd484f70	-0.048903883
220	0xbe0e743e	-0.1391153
221	0x3e5cfc5c	0.21580642
222	0x3d207cd0	0.03918153
223	0xbd5a33e8	-0.053272158
224	0x3d8bf08c	0.0683299
225	0x3e0bf3e8	0.13667262
226	0xbd487938	-0.04894373
227	0x3e288326	0.16456279
228	0x3e75e164	0.24011761
229	0xbdd110d4	-0.10208288
230	0x3c85ac70	0.016317576
231	0xbe2e9e6c	-0.1705262
232	0xbe58a4ac	-0.21156567
233	0x3e39ef4a	0.18157688
234	0xbe096c2c	-0.1342017
235	0x3e67c8de	0.22635219
236	0x3dca2cac	0.09871802
237	0x3d753508	0.059865028
238	0xbdc09830	-0.094040275
239	0xbe4bef10	-0.19915414
240	0x3d3f7170	0.04673904
241	0xbf05c83d	-0.52258664
242	0x3d1eaf48	0.03874138
243	0x3d8ab6dc	0.06773159
244	0x3dad1dad	0.08452926
245	0x3e1545be	0.14577386
246	0xbcce4001	-0.025177004
247	0xbe8ea61e	-0.27861112
248	0xbd8799b0	-0.066211104
249	0x3db777d8	0.08958405
250	0xbf107117	-0.5642256
251	0xbd8d08e0	-0.068864584
252	0xbe4fd7fa	-0.20297232
253	0xbe3503a2	-0.17677167
254	0x3f191366	0.59795225
255	0x3bcdd8cc	0.0062819477

hedge_q.1.linear_relu_stack.4.bias f4 [16]
0	0x3cb484c0	0.022035956
1	0xbe58de91	-0.21178652
2	0xbe259fb4	-0.16174203
3	0xbe5d03b8	-0.2158345
4	0x3cc34354	0.023835815
5	0x3dae01ec	0.0849646
6	0x3dc93d86	0.09826188
7	0x3d41d54d	0.04732256
8	0xbe4c7e26	-0.19969997
9	0xbdc9027e	-0.098149285
10	0xbe07630e	-0.1322138
11	0x3dbc4279	0.09192366
12	0x3d98588a	0.074387625
13	0xbd23afc0	-0.03996253
14	0xbe77ee4c	-0.24211997
15	0x3e56fcdc	0.20994896

hedge_q.1.linear_relu_stack.6.weight f4 [1, 16]
0	0x3cfded10	0.03099683
1	0xbdf0f0f0	-0.11764705
2	0x3e9bb92a	0.30414706
3	0xbe14f312	-0.14545849
4	0x3e52c224	0.20581871
5	0xbe7a8a06	-0.24466714
6	0x3e58f972	0.21188906
7	0x3e92cfbf	0.28674123
8	0xbe45dec0	-0.19323254
9	0x3e257510	0.16157937
10	0xbb5fe180	-0.0034161508
11	0x3d8d9978	0.069140375
12	0x3ea378fd	0.31928244
13	0xbc6b3180	-0.014355063
14	0x3d7dab10	0.061930716
15	0xbf030b84	-0.51189446

hedge_q.2.linear_relu_stack.0.weight f4 [16, 1]
0	0xbf3d5d26	-0.7397026
1	0xbf1b675a	-0.60704577
2	0x3f200c54	0.6251881
3	0x3f1c4dcd	0.61056215
4	0xbec50668	-0.3848145
5	0xbf0219b0	-0.50820446
6	0x3e24bdd0	0.16088033
7	0x3f95239f	1.1651496
8	0x3ed0df13	0.40795192
9	0xbbf07500	-0.0073381662
10	0xbe575bba	-0.21031085
11	0x3f6a9d71	0.91646487
12	0xbf1e51f4	-0.618438
13	0xbee9bb40	-0.45650673
14	0xbef35aa5	-0.47530094
15	0x3ec737f0	0.38909864

hedge_q.2.linear_relu_stack.0.bias f4 [16]
0	0x3cf8f340	0.030389428
1	0x3f269b4c	0.65080714
2	0xbf4e3ddc	-0.8056314
3	0x3f0826b4	0.53184056
4	0xbf1f46e4	-0.62217546
5	0xbeca6294	-0.39528334
6	0xbefd9b20	-0.49532413
7	0xbecce564	-0.4001876
8	0xbe0f45f8	-0.13991535
9	0xbf7da246	-0.99075735
10	0x3ec88b11	0.391686
11	0x3f02c0c1	0.5107537
12	0x3e078848	0.13235581
13	0xbde70460	-0.11280131
14	0x3f7778ab	0.966685
15	0x3f29c578	0.6631694

hedge_q.2.linear_relu_stack.2.weight f4 [16, 16]
0	0xbdd96320	-0.1061461
1	0xbe1964a4	-0.14979798
2	0x3e09cf82	0.13458064
3	0xbc2340cd	-0.00996418
4	0xbd62ea60	-0.0553993
5	0xbe250a38	-0.1611718
6	0x3e6fd480	0.23420906
7	0x3ea64237	0.32472393
8	0x3ea1ccd5	0.31601587
9	0xbd889bcc	-0.06670341
10	0x3b4f0e64	0.003159427
11	0x3e52cc13	0.2058566
12	0x3e59e7d8	0.21279848
13	0x3deecee8	0.11660558
14	0xbe887c30	-0.26657248
15	0x3e1535dd	0.14571328
16	0x3e3f56d6	0.18685469
17	0xbe20265d	-0.15639634
18	0xbe742fe8	-0.238464
19	0xbdb6f1f7	-0.0893287
20	0x3c5ddb00	0.013540983
21	0x3e68406e	0.22680828
22	0x3d7c8ef8	0.061659783
23	0x3f3e2491	0.74274546
24	0x3ea57c4c	0.32321393
25	0xbdfccc8c	-0.12343702
26	0x3e1d2947	0.15347777
27	0xbd575cf5	-0.052578885
28	0xbe7097fc	-0.23495477
29	0xbe2b8386	-0.16749391
30	0xbd454b50	-0.048167527
31	0x3e840acc	0.25789487
32	0x3e732eb4	0.23748285
33	0xbf0652e8	-0.52470255
34	0xbe39d146	-0.18146238
35	0x3e8d9501	0.27652743
36	0xbd0d8e00	-0.03455925
37	0xbcaa6670	-0.0208008
38	0x3e491178	0.1963557
39	0x3ee2d344	0.44301808
40	0x3f0b8832	0.5450469
41	0xbe68039e	-0.2265763
42	0xbc91541c	-0.017740302
43	0x3e99d1d4	0.300429
44	0x3c6834c0	0.014172733
45	0xbe79729e	-0.24360129
46	0xbebc5fa0	-0.36791706
47	0xbdc9f88b	-0.09861859
48	0x3b971a00	0.0046112537
49	0xbdd3768a	-0.10325344
50	0x3e0d2264	0.1378265
51	0x3e290341	0.16505148
52	0xbd768de0	-0.060193896
53	0x3e191eba	0.14953128
54	0x3e405806	0.18783578
55	0x3eea9562	0.45817095
56	0x3e8a8746	0.2705633
57	0xbe769320	-0.24079561
58	0xbd672ca8	-0.056439072
59	0x3d2283d6	0.03967651
60	0x3cf809c0	0.030278087
61	0xbe1090dc	-0.1411776
62	0xbeafccac	-0.3433584
63	0x3e419e31	0.18908001
64	0xbe4f4384	-0.20240599
65	0xbe306115	-0.17224534
66	0x3c1473a0	0.00906077
67	0x3d63c97a	0.055612065
68	0xbe5ca97c	-0.21549028
69	0xbe285e26	-0.16442165
70	0xbdb94ccc	-0.09047851
71	0x3f20cf4f	0.6281633
72	0x3f17ee84	0.5934832
73	0xbdb4491c	-0.08803007
74	0xbdea6c84	-0.11446479
75	0x3d6efc0d	0.058345843
76	0x3d244260	0.040102363
77	0x3c90aee0	0.017661512
78	0x3c95f236	0.018303972
79	0x3ca1584b	0.019695422
80	0x3e63b51c	0.22237056
81	0xbc8c66b0	-0.017138809
82	0xbe0d0150	-0.13770032
83	0xbd4ef4b8	-0.05052635
84	0x3dd45880	0.103684425
85	0xbda26528	-0.0792945
86	0x3d32db20	0.043666005
87	0xbe14d804	-0.14535528
88	0xbdf7b980	-0.12095928
89	0xbe1236fe	-0.1427879
90	0x3e38e3c0	0.1805563
91	0xbe531a10	-0.20615411
92	0xbe4cb430	-0.19990611
93	0x3d456fa0	0.048202157
94	0xbe3e14e0	-0.1856265
95	0xbdaf759c	-0.08567354
96	0xbe6f1518	-0.2334789
97	0xbda4f45c	-0.0805442
98	0xbc913170	-0.017723769
99	0xbda6ef96	-0.08151166
100	0x3e01ee3a	0.12688532
101	0x3e4b3d20	0.19847536
102	0xbe77fb5c	-0.2421698
103	0x3e503587	0.20332919
104	0x3ea3c414	0.31985533
105	0x3dbde09c	0.092713565
106	0x3e06dc52	0.13169983
107	0x3e4275e7	0.18990289
108	0xbdbdd9a4	-0.09270027
109	0xbd8f6574	-0.070017725
110	0x3dbf793c	0.093492955
111	0x3e227256	0.15863928
112	0x3e23ac10	0.15983605
113	0xbdee8925	-0.11647252
114	0xbe6d9e46	-0.23204908
115	0x3d8444d2	0.06458439
116	0xbe033f7c	-0.12817186
117	0xbc9a8760	-0.01886338
118	0x3e2f8798	0.17141569
119	0x3f08fe0c	0.53512645
120	0x3e74bdcf	0.23900531
121	0xbe022a7e	-0.12711522
122	0xbeb6826c	-0.3564638
123	0x3e192631	0.14955975
124	0xbe5fe000	-0.21862793
125	0xbe172e90	-0.14763856
126	0xbe811caa	-0.2521718
127	0x3dba6e73	0.09103098
128	0xbe08f3c0	-0.13374233
129	0xbeee5599	-0.4654968
130	0x3e0cc242	0.13745978
131	0x3d65ed74	0.056134656
132	0x3e2100e6	0.15722999
133	0xbe4965f4	-0.19667798
134	0x3cf2aed0	0.029624373
135	0x3f335530	0.7005186
136	0x3ea15ec1	0.31517604
137	0xbdb23478	-0.08701414
138	0x3d069c41	0.03286386
139	0x3e977ef5	0.29589048
140	0xbdd94a78	-0.10609907
141	0xbe360c02	-0.17778018
142	0xbdb2d6e1	-0.08732391
143	0xbe336244	-0.17517954
144	0xbca441c0	-0.020050883
145	0xbe246da2	-0.16057447
146	0x3e6e1a16	0.23252138
147	0x3e63734a	0.22211948
148	0x3e3d0268	0.18457949
149	0xbe64b11e	-0.2233319
150	0xbe3167ea	-0.17324796
151	0x3ead780c	0.3388065
152	0x3ec996de	0.39372915
153	0xbbac1280	-0.005251229
154	0xbe8ebda2	-0.27879053
155	0x3d638b1a	0.05555258
156	0xbbd6ab00	-0.0065511465
157	0x3e1ea056	0.15490851
158	0xbdbe40cd	-0.092897035
159	0x3df7fd78	0.12108892
160	0x3e3b76da	0.18307057
161	0xbe6c1940	-0.23056507
162	0xbda664bc	-0.08124682
163	0xbe4a96b0	-0.19784045
164	0xbe24dfc2	-0.16100982
165	0xbe77f47a	-0.24214354
166	0xbcf6f3b0	-0.030145496
167	0x3e38eef3	0.18059902
168	0x3bd4d84f	0.0064955126
169	0xbde11970	-0.1099118
170	0xbbdc12ad	-0.0067160935
171	0x3d81c6d5	0.06336752
172	0x3c8b2640	0.016986012
173	0xbe213b72	-0.15745333
174	0xb8af8a57	-8.370418e-05
175	0x3de3ee45	0.11129431
176	0x3d46e8a0	0.048561692
177	0xbe219af8	-0.15781772
178	0xbe5ea21e	-0.2174153
179	0x3d65c288	0.056093723
180	0xbd06c6b8	-0.032904357
181	0x3cd48cf0	0.02594611
182	0x3e7cfd08	0.24705899
183	0xbe6ab6e2	-0.22921327
184	0x3e3d72ea	0.18500867
185	0x3dae8580	0.08521557
186	0x3d1695d0	0.036763966
187	0xbe1b41e4	-0.15161854
188	0xbd561090	-0.05226189
189	0x3cb1b380	0.021692038
190	0xbe67fd84	-0.22655302
191	0x3e51bb2c	0.20481557
192	0xbe404644	-0.18776804
193	0x3d315590	0.04329449
194	0xbd90f7f4	-0.07078543
195	0xbe4d33d8	-0.20039308
196	0xbe6d993a	-0.23202983
197	0x3e07cb76	0.13261208
198	0xbdb14198	-0.08655089
199	0xbe27a710	-0.16372323
200	0x3e6ad5b0	0.22933078
201	0x3cb18990	0.02167204
202	0x3e4555c8	0.19271004
203	0xbe340340	-0.17579365
204	0xbe3fc08c	-0.18725795
205	0x3db5e1a8	0.08880931
206	0x3c1f7420	0.009732276
207	0xbca106b0	-0.01965651
208	0x3b429600	0.0029691458
209	0xbdcec5a4	-0.10096291
210	0xbd6069e8	-0.0547885
211	0x3d973008	0.07382208
212	0x3e33a9e4	0.17545277
213	0xbe650df0	-0.22368598
214	0xbe2eb97c	-0.17062944
215	0xbdbf23a4	-0.0933297
216	0xbe3ca4b2	-0.18422201
217	0xbe655aec	-0.22397965
218	0xbde73894	-0.11290088
219	0xbde01ebc	-0.10943362
220	0x3d335908	0.04378608
221	0x3e3b488c	0.18289393
222	0x38fbe000	0.00012010336
223	0xbe7af114	-0.24506027
224	0xbdcc10cc	-0.09964141
225	0xbdbbe180	-0.0917387
226	0xbdcc969c	-0.09989664
227	0x3cd85370	0.026406974
228	0xbddd80e8	-0.108156025
229	0x3e2ba9ea	0.16764036
230	0x3d0fbe70	0.035093725
231	0xbe2019aa	-0.1563479
232	0x3dcbe3a4	0.099555284
233	0x3e13144a	0.14363208
234	0x3b5d2780	0.0033745468
235	0xbdd1a060	-0.10235667
236	0x3d3b5cf8	0.04574296
237	0xbe3ef868	-0.18649447
238	0x3e133aa4	0.14377838
239	0xbe6c22d4	-0.23060161
240	0x3e73663a	0.23769465
241	0x3df27128	0.11837989
242	0xbe1bdf4e	-0.15221903
243	0x3e050159	0.12988795
244	0x3c7b72c0	0.015347183
245	0xbdf201a4	-0.11816719
246	0x3d946118	0.07245082
247	0x3a1c61b0	0.00059654843
248	0xbcf1319d	-0.029442603
249	0xbe403b5c	-0.18772644
250	0xbe11d8d6	-0.14242873
251	0xbc31e552	-0.010857897
252	0xbc5caee0	-0.013469428
253	0xbe06392a	-0.13107744
254	0x3e68046b	0.22657935
255	0x3e93638a	0.2878688

hedge_q.2.linear_relu_stack.2.bias f4 [16]
0	0x3e3570b7	0.17718779
1	0xbd24c8a4	-0.04023041
2	0x3e24238e	0.16029188
3	0x3cdfce17	0.027319951
4	0xbe8dee8f	-0.27721068
5	0xbcb316d0	-0.021861464
6	0xbe08e3ac	-0.133681
7	0x3dfa8da8	0.1223405
8	0x3e059c62	0.13047937
9	0xbd92af75	-0.07162372
10	0xbe398657	-0.18117653
11	0xbde8254c	-0.11335239
12	0x3c4dd5a0	0.012563139
13	0x3e7c8156	0.24658713
14	0xbd9757f4	-0.073898226
15	0x3e6f9df8	0.23400104

hedge_q.2.linear_relu_stack.4.weight f4 [16, 16]
0	0x3e307aa1	0.17234279
1	0x3e9d1628	0.30680966
2	0x3e2fb107	0.17157374
3	0xbc67c5c7	-0.014146275
4	0xbf9e55f3	-1.236998
5	0xbd92d1c8	-0.07168919
6	0x3e5d3351	0.21601607
7	0x3e9e6e61	0.30943587
8	0x3ef54c27	0.47909662
9	0x3e1a7088	0.1508199
10	0x3e017f57	0.12646233
11	0x3cee7e10	0.029112846
12	0xbe20e144	-0.15710932
13	0xbe1072f6	-0.14106354
14	0xbe1fa2ea	-0.1558949
15	0x3d3893e0	0.0450629
16	0x3c808df2	0.015692685
17	0xbf14b9aa	-0.580958
18	0xbe859f67	-0.26098177
19	0xbf1078f3	-0.56434554
20	0x3e68bf25	0.22729166
21	0xbb416e00	-0.0029515028
22	0x3e0075a0	0.1254487
23	0xbf08fc54	-0.5351002
24	0xbe987b75	-0.2978169
25	0xbea5ce00	-0.32383728
26	0xbde76658	-0.112988174
27	0xbc39bc00	-0.011336327
28	0xbdaf71e0	-0.08566642
29	0x3e095826	0.13412532
30	0xbe7d09f2	-0.24710825
31	0x3e8f55b3	0.2799507
32	0xbe00ef52	-0.12591293
33	0xbe219a7c	-0.15781587
34	0x3cb21390	0.021737844
35	0xbe3bd8c4	-0.18344408
36	0x3d7fa078	0.062408894
37	0xbe54d336	-0.20783696
38	0x3cf9e320	0.03050381
39	0xbe602060	-0.2188735
40	0xbd03a6a8	-0.032141358
41	0x3b96e980	0.004605472
42	0xbe5c9fb8	-0.21545303
43	0x3e0857d8	0.1331476
44	0xbc5c6240	-0.013451159
45	0xbe58c402	-0.21168521
46	0x3e00276c	0.12515038
47	0x3e477e3e	0.19481751
48	0xbe4301fa	-0.19043723
49	0xbe683174	-0.22675115
50	0xbd7bed28	-0.061505467
51	0x3e7fb930	0.24972987
52	0xbe6161c0	-0.22009945
53	0x3e581ae4	0.21104008
54	0xbcfef080	-0.031120539
55	0x3e14a326	0.14515361
56	0xbe45a99c	-0.19302982
57	0x3d311a98	0.043238252
58	0x3e2f4982	0.17117885
59	0x3e49606a	0.19665685
60	0x3e1e8cac	0.1548335
61	0x3ce76090	0.028244287
62	0xbdb5ee24	-0.08883312
63	0xbdf4cc58	-0.11953038
64	0x3e86bc39	0.26315477
65	0x3e9cf07b	0.30652222
66	0x3e4f631d	0.20252652
67	0xbdae554a	-0.08512361
68	0xbf9f75b7	-1.2457799
69	0xbd1237a0	-0.03569758
70	0x3d3f7ad0	0.046747983
71	0xbd7f39fd	-0.06231116
72	0x3ee8bf3f	0.4545841
73	0x3e8b289c	0.2717942
74	0xbe4ae593	-0.19814138
75	0x3e06e83a	0.13174525
76	0x3e4f86be	0.20266244
77	0x3e068030	0.13134837
78	0xbdddeaa0	-0.10835767
79	0x3dadb515	0.08481804
80	0xbe5b9137	-0.21442114
81	0xbe182d7b	-0.148611
82	0xbe13d77a	-0.14437667
83	0xbd7c00c2	-0.06152416
84	0x3e141e72	0.14464739
85	0xbd487660	-0.048941016
86	0x3e3c2f40	0.183774
87	0xbe684c72	-0.22685412
88	0xbe7208ca	-0.23636165
89	0x3d0bf34b	0.03416757
90	0x3e1d2fd8	0.15350282
91	0xbe3feca4	-0.18742615
92	0xbcc85660	-0.02445525
93	0xbe2e2c76	-0.17009148
94	0x3e31fd82	0.17381862
95	0x3d308671	0.043096963
96	0xbdecb4a0	-0.11557889
97	0xbd013b88	-0.031550914
98	0xbe029cfa	-0.12755194
99	0xbdf1e8f8	-0.118120134
100	0xbe3ff02c	-0.18743962
101	0x3e055032	0.13018873
102	0xbe795c40	-0.24351597
103	0x3d2164e8	0.039402872
104	0xbe23098a	-0.15921608
105	0xbc556da0	-0.013026625
106	0xbd6f1820	-0.058372617
107	0xbe2048b2	-0.15652731
108	0xbd63cb60	-0.055613875
109	0x3d9d1c90	0.076714635
110	0x3e5431c0	0.20722103
111	0xbe707520	-0.2348218
112	0xbb8e7600	-0.004347563
113	0xbe467312	-0.19379833
114	0xbd775160	-0.06038034
115	0x3d3a3be0	0.045467257
116	0xbe7fda48	-0.24985611
117	0xbe138a16	-0.14408144
118	0xbdf96898	-0.12178153
119	0xbd92dbb4	-0.07170811
120	0xbe5639ea	-0.2092053
121	0xbe6ea252	-0.23304108
122	0xbcb37ce0	-0.021910131
123	0x3d28ebd8	0.041240543
124	0x3e29cf46	0.16582975
125	0x3e48e5fe	0.19618985
126	0xbe78e0f8	-0.24304569
127	0xbe277e08	-0.16356671
128	0x3d7c3385	0.06157257
129	0x3e0905ec	0.13381165
130	0xbd9398f4	-0.07206908
131	0xbe772b88	-0.241377
132	0xbd440a38	-0.047861308
133	0xbe61ea4e	-0.22062036
134	0xbde28243	-0.11060002
135	0xbdd986d2	-0.10621418
136	0xbe5c9f36	-0.21545109
137	0xbe47e8ea	-0.19522443
138	0x3dc2ec9c	0.09517786
139	0x3e2c0ef2	0.16802576
140	0xbc929470	-0.017893046
141	0x3deb29ec	0.11482605
142	0x3df6c00c	0.12048349
143	0xbdaaaa61	-0.083332784
144	0xbe7ca5fa	-0.2467269
145	0xbe3a7814	-0.18209869
146	0x3d9cb3cc	0.07651481
147	0xbe4ad566	-0.19807968
148	0x3e66a914	0.22525436
149	0xbd1ddbf8	-0.038539857
150	0x3e144d3a	0.14482585
151	0x3e52ad80	0.20573997
152	0x3e2e19cc	0.17002028
153	0x3e3e58e8	0.18588603
154	0x3de48330	0.111578345
155	0xbddbaef4	-0.10726729
156	0x3c7877a0	0.01516524
157	0x3e589682	0.21151164
158	0x3e3f513a	0.18683329
159	0xbe2b4404	-0.16725165
160	0xbca4c684	-0.02011419
161	0xbdff09ed	-0.12453065
162	0x3e273ca9	0.16331734
163	0x3d916966	0.07100181
164	0xbf787e00	-0.9706726
165	0xbe0568b6	-0.13028225
166	0x3dae3f5a	0.08508177
167	0x3eb453df	0.3522024
168	0x3eae8806	0.34088153
169	0x3eab1fb9	0.3342264
170	0x3d356d61	0.044293765
171	0x3d8fe1a8	0.070254624
172	0xbd6e3440	-0.0581553
173	0x3e27fb7e	0.1640453
174	0x3da03790	0.07823098
175	0x3d206f93	0.039168905
176	0xbe37883d	-0.17923065
177	0xbe058fc0	-0.13043118
178	0xbd6001b0	-0.05468911
179	0xbe65dd82	-0.2244778
180	0xbdf4e880	-0.11958408
181	0xbdf4b7fc	-0.11949155
182	0xbcaec6a4	-0.021334954
183	0xbe3c7898	-0.18405378
184	0x3dcfb900	0.10142708
185	0xbd3b1040	-0.045669794
186	0xbe0ec0fc	-0.13940805
187	0x3e2a0dce	0.16606829
188	0x3e6cb024	0.23114067
189	0xbc8ffc70	-0.017576426
190	0x3e69b768	0.2282387
191	0x3dae77fc	0.08518979
192	0x3e697f74	0.22802526
193	0x3e39b31f	0.18134736
194	0x3d119e9b	0.03555165
195	0xbd95507d	-0.072907425
196	0xbf99266d	-1.1964852
197	0x3e60d04e	0.21954462
198	0xbd152019	-0.036407564
199	0x3e3b82dd	0.18311639
200	0x3e3f9913	0.18710737
201	0xbdc2d2eb	-0.09512886
202	0x3e4c23a4	0.19935471
203	0x3db7e758	0.08979672
204	0xbd9e3610	-0.07725155
205	0x3e4acd52	0.19804886
206	0x3d7347d8	0.059394687
207	0x3dbeb2c5	0.09311441
208	0x3d85e541	0.06537867
209	0x3eb4e674	0.35332072
210	0x3dee29bd	0.11629055
211	0x3cf5ee02	0.030020718
212	0xbf696e61	-0.9118405
213	0xbe501530	-0.20320582
214	0x3e7efa62	0.24900201
215	0x3e367a35	0.17820056
216	0x3eac8b4f	0.33700034
217	0x3e8b0ff7	0.27160618
218	0x3df8b185	0.12143234
219	0xbe75470c	-0.23952883
220	0xbe2832e2	-0.1642566
221	0x3d7e22e8	0.062045008
222	0xbe0e5a9e	-0.13901755
223	0xbe392508	-0.18080533
224	0xbe07a20d	-0.13245411
225	0x3e922c06	0.28549212
226	0x3eb56ced	0.35434666
227	0x3e6fcbcb	0.23417585
228	0xbf637204	-0.8884585
229	0xbe15b4d4	-0.14619762
230	0x3e653576	0.22383675
231	0x3da118c2	0.0786605
232	0x3e209212	0.15680721
233	0x3e7abbea	0.24485746
234	0xbd8f97a9	-0.07011349
235	0x3d6798a8	0.05654207
236	0xbc5c42c0	-0.013443649
237	0xbe2c5c5a	-0.16832104
238	0x3e22df4c	0.15905493
239	0x3d749042	0.059707887
240	0x3cf174b0	0.029474586
241	0xbca23980	-0.019802809
242	0xbd210fd0	-0.03932172
243	0x3e48528c	0.19562739
244	0x3d661310	0.056170523
245	0xbd8e9a2c	-0.06963
246	0x3d7a4cb8	0.06110832
247	0xbe2b44f0	-0.16725516
248	0xbe445ef2	-0.19176844
249	0x3e36c0a0	0.17846918
250	0xbdd873b4	-0.105689436
251	0xbe7069f6	-0.23477921
252	0xbe180b1c	-0.14847988
253	0xbe3fb484	-0.18721205
254	0x3e2965ce	0.16542742
255	0xbe0f0cd0	-0.13969731

hedge_q.2.linear_relu_stack.4.bias f4 [16]
0	0xbdc2f078	-0.09518522
1	0x3e54fb37	0.20798956
2	0xbe266d82	-0.16252711
3	0xbe477a5a	-0.19480267
4	0xbd00d37a	-0.03145168
5	0xbd49770d	-0.0491858
6	0xbda2858c	-0.07935628
7	0xbe3f73c0	-0.18696499
8	0x3c924df2	0.017859433
9	0xbe4bde04	-0.19908911
10	0xbc1be141	-0.009514154
11	0xbd943065	-0.07235793
12	0xbd9a28f4	-0.075273424
13	0x3e13064c	0.14357871
14	0x3e55bb7c	0.20872301
15	0xbdb4742c	-0.088112205

hedge_q.2.linear_relu_stack.6.weight f4 [1, 16]
0	0x3e9544db	0.29154095
1	0xbf1a4e17	-0.60275406
2	0xbdf16bfc	-0.117881745
3	0xbe554d18	-0.2083019
4	0x3ec248cf	0.37946174
5	0x3e223f1e	0.1584439
6	0x3d9d4818	0.076797664
7	0x3e5667fc	0.20938104
8	0x3ca2f183	0.019890552
9	0xbe29d37e	-0.16584584
10	0x3eac33eb	0.3363336
11	0x3d1d69f4	0.038431123
12	0x3e188b9c	0.14897007
13	0x3e501183	0.2031918
14	0x3e6488b2	0.2231777
15	0x3d254208	0.040346175

hedge_q.3.linear_relu_stack.0.weight f4 [16, 1]
0	0xbd74da60	-0.05977857
1	0x3f4b52c4	0.79423165
2	0x3d58a718	0.052893728
3	0xbe9897c0	-0.29803276
4	0xbf800b4b	-1.0003446
5	0x3f525567	0.82161564
6	0xbef9628a	-0.48707992
7	0x3e241148	0.16022217
8	0xbedd9268	-0.43275762
9	0xbef8a1e0	-0.48561
10	0xbdf89c83	-0.12139227
11	0xbf643392	-0.8914119
12	0x3f47b4b1	0.7801009
13	0x3f52a02a	0.8227564
14	0x3e57a190	0.21057725
15	0x3e4162e0	0.18885374

hedge_q.3.linear_relu_stack.0.bias f4 [16]
0	0xbf5c25cc	-0.85995173
1	0xbe30ffd2	-0.17285088
2	0x3d9ffdbf	0.0781207
3	0xbf37ce6a	-0.7179934
4	0x3e5ef08a	0.21771446
5	0x3e66493a	0.22488871
6	0x3eba2e39	0.3636339
7	0xbf37b008	-0.7175298
8	0xbf42e84a	-0.76135695
9	0xbf74826e	-0.9551152
10	0x3f1c090c	0.60951304
11	0xbe8f6cbc	-0.28012645
12	0xbe91c64a	-0.28471595
13	0xbe8d0a1f	-0.27546784
14	0xbe957878	-0.29193473
15	0xbf40f0b4	-0.75367284
