Models/BS/FFNN/No transaction costs/BS_FFNN_MSE_Notc.pth (torch, 48627 bytes, 63 tensors)

hedge_q.0.linear_relu_stack.0.weight f4 [16, 1]
0	0x3e83038c	0.25588644
1	0x3f3e0e79	0.74240834
2	0x3e7b00e0	0.24512053
3	0x3f740d70	0.95333004
4	0x3f2bc2c9	0.67094094
5	0x3eed9c10	0.4640813
6	0x3c08e9f2	0.008356558
7	0x3f871f20	1.0556374
8	0x3faa365f	1.3297843
9	0x3e776103	0.24158101
10	0xbf2394ff	-0.63899225
11	0xbe44bd08	-0.19212735
12	0x3f86a9d2	1.0520575
13	0x3f920519	1.1407806
14	0x3f25f334	0.64824224
15	0x3eed744f	0.463778

hedge_q.0.linear_relu_stack.0.bias f4 [16]
0	0x3f24b326	0.6433586
1	0x3ef9fb75	0.4882466
2	0x3ea07d1e	0.31345457
3	0xbe785b82	-0.24253657
4	0xbe7e3051	-0.24823119
5	0xbf0e731a	-0.5564438
6	0x3f2b894e	0.67006385
7	0xbece4a9f	-0.40291306
8	0xbf02547c	-0.5091016
9	0x3eb04c26	0.34433097
10	0x3f089fd1	0.5336886
11	0xbee9e03c	-0.4567889
12	0x3f54feff	0.83201593
13	0x3de160ac	0.11004767
14	0x3f41b18b	0.75661534
15	0x3f37845f	0.7168636

hedge_q.0.linear_relu_stack.2.weight f4 [16, 16]
0	0x3e5a0248	0.21289933
1	0x3db86694	0.0900394
2	0xbdaca20c	-0.084293455
3	0x3e030a14	0.12796813
4	0x3e4746d0	0.19460607
5	0x3d480b80	0.048839092
6	0xbd9769e4	-0.07393244
7	0xbd48f690	-0.049063265
8	0x3e72c4b4	0.23707849
9	0xbda67988	-0.08128649
10	0xbe278844	-0.16360575
11	0xbd5467e0	-0.051856875
12	0xbe5d1d72	-0.21593264
13	0xbdf4e73c	-0.11958167
14	0xbdd812e0	-0.10550475
15	0xbdd0cce4	-0.1019533
16	0x3e0022c5	0.12513264
17	0xbe892854	-0.2678858
18	0xbe6e85e4	-0.23293263
19	0x3e03b585	0.12862213
20	0xbd6476d9	-0.055777404
21	0x3e072d52	0.13200882
22	0xbe27429f	-0.16334008
23	0xbce0fcbf	-0.027464269
24	0x3d8a6345	0.067572154
25	0x3e0bbef5	0.13647063
26	0xbcfbc07f	-0.030731438
27	0x3b79d480	0.0038121045
28	0x3d87f309	0.06638152
29	0xbdae8d80	-0.08523083
30	0xbe12b59b	-0.1432709
31	0x3dbccf00	0.092191696
32	0x3e4b6bd0	0.19865346
33	0x3d6ef970	0.05834335
34	0xbe0fedd0	-0.14055562
35	0x3e74cab8	0.23905456
36	0x3d828340	0.0637269
37	0x3de85264	0.1134384
38	0x3e0c5424	0.13703972
39	0xbd7ddbb8	-0.06197712
40	0x3e6273c2	0.2211447
41	0xbd8de6ac	-0.06928763
42	0xbd9d365c	-0.07676384
43	0x3e57faba	0.21091738
44	0xbdabccb0	-0.083886504
45	0x3d20f108	0.039292365
46	0xbc597fa0	-0.013275057
47	0xbe6f78c2	-0.23385909
48	0x3c9f6ef6	0.01946209
49	0xbd9ed6a6	-0.07755785
50	0xbdecb0c3	-0.11557152
51	0x3e0131f2	0.12616709
52	0x3e8b57e4	0.27215493
53	0x3e7389d4	0.23783046
54	0x3ccd32d6	0.025048655
55	0x3f8f55f8	1.119811
56	0x3f4f1947	0.80897945
57	0x3e5b71fc	0.214302
58	0xbf2d94da	-0.67805254
59	0x3db61588	0.088908255
60	0x3dfa818d	0.12231741
61	0x3e7c357f	0.24629782
62	0x3dae1e30	0.085018516
63	0xbdea097c	-0.1142759
64	0x3d22faae	0.039789848
65	0x3e9677b4	0.293882
66	0x3db7568f	0.089520566
67	0x3e1ada4c	0.15122336
68	0x3e86fee6	0.26366347
69	0xbc186aa0	-0.009302765
70	0x3e697e42	0.2280207
71	0x3f79f3ed	0.97637826
72	0x3efe0484	0.4961282
73	0x3d60bcdd	0.054867614
74	0xbe98b038	-0.29821944
75	0xbd8e034c	-0.069342226
76	0x3d842e9c	0.064542025
77	0x3e000e6d	0.12505503
78	0xbe1d381c	-0.15353435
79	0x3e2ade05	0.16686256
80	0xbca8c016	-0.020599406
81	0x3e014120	0.126225
82	0x3dbea908	0.09309584
83	0x3ee99c3c	0.4562701
84	0x3d43b253	0.047777485
85	0x3e13542a	0.14387575
86	0x3da3df8a	0.08001621
87	0x3f6b2982	0.9186021
88	0x3f021ec1	0.50828177
89	0x3d8f4751	0.069960244
90	0xbcca6715	-0.024707356
91	0x3e0fb12e	0.14032432
92	0x3c06a8c8	0.0082189515
93	0x3e0e8110	0.13916421
94	0xbd8b96cd	-0.06815872
95	0x3e7671cd	0.24066849
96	0xbe6267f0	-0.22109962
97	0xbdcf1eb4	-0.10113278
98	0xbe4cb970	-0.19992614
99	0x3e38e5b2	0.18056372
100	0xbc8d9060	-0.017280757
101	0xbdb63a5c	-0.0889785
102	0xbe0d90be	-0.13824746
103	0xbe7b52e2	-0.24543336
104	0xbe61f7ac	-0.22067136
105	0x3ce285f0	0.027651757
106	0x3d5b9650	0.053610146
107	0x3dc8ee3c	0.098110646
108	0xbdc5d258	-0.096592605
109	0xbe69fd86	-0.22850618
110	0x3d09bcf0	0.03362745
111	0x3e3e6608	0.1859361
112	0xbe1b516a	-0.15167776
113	0xbd23fe18	-0.040037245
114	0x3d7ad658	0.06123957
115	0x3dd18510	0.10230458
116	0x3e7c5c32	0.24644545
117	0x3e16bc22	0.14720204
118	0xbe09fb2e	-0.13474724
119	0x3e127ca4	0.14305359
120	0xbe7a82f8	-0.24464023
121	0xbe4124ae	-0.18861648
122	0x3d907870	0.07054222
123	0xbe3c5722	-0.18392614
124	0xbd981dcc	-0.07427558
125	0xbda40050	-0.08007872
126	0xbc9c6060	-0.019088924
127	0x3e22eb78	0.15910137
128	0x3e8bb497	0.27286217
129	0xbe4296c5	-0.19002827
130	0x3e20d112	0.15704754
131	0x3cb38acf	0.021916775
132	0xbb307bd1	-0.002692927
133	0xbdbb84a0	-0.091561556
134	0x3e6b6647	0.22988234
135	0x3f2048b8	0.6261096
136	0x3de16742	0.11006023
137	0x3d343a18	0.044000715
138	0x3dbf095c	0.09327957
139	0x3a517a00	0.00079908967
140	0x3e845543	0.258463
141	0x3e8951ef	0.26820323
142	0x3e5a65bb	0.2132787
143	0xbd37e74c	-0.044898316
144	0x3e875681	0.26433185
145	0xbe3b4ee7	-0.18291818
146	0x3e517481	0.20454599
147	0xbe000639	-0.12502374
148	0xbe68250c	-0.22670382
149	0xbe01be78	-0.12670314
150	0x3e68f30a	0.22748962
151	0xbf9d8d2b	-1.2308706
152	0xbf6a19c6	-0.9144558
153	0x3e08c55e	0.1335654
154	0x3ea6c24a	0.32570106
155	0x3e24dab2	0.1609905
156	0x3e58c8d9	0.21170367
157	0xbdb7bf4e	-0.08972035
158	0x3c392a23	0.01130155
159	0x3e687823	0.22702079
160	0x3de672e1	0.1125238
161	0xbd280454	-0.041019753
162	0xbe7acb4f	-0.24491619
163	0x3d7e0449	0.062015805
164	0x3e229222	0.15876058
165	0xbdbad548	-0.091227114
166	0xbd920cec	-0.07131371
167	0xbe253ba7	-0.16136037
168	0x3e50b6a9	0.2038218
169	0xbe888925	-0.26667133
170	0xbce745e6	-0.028231572
171	0x3e6a2924	0.22867256
172	0xbe64e74a	-0.22353855
173	0x3e3f3300	0.18671799
174	0xbd670f2c	-0.056410953
175	0x3e22ff6c	0.15917748
176	0xbd93ec08	-0.07222754
177	0xbe6fc72e	-0.23415825
178	0xbe420718	-0.18948019
179	0x3d9ebc28	0.07750732
180	0xbe521bde	-0.20518443
181	0xbcfb1980	-0.030651808
182	0x3d71beb8	0.059019774
183	0xbc5a2820	-0.013315231
184	0xbc287620	-0.010282069
185	0x3d43cee8	0.047804743
186	0xbdc03c44	-0.09386495
187	0x3d0489d8	0.03235802
188	0xbccda920	-0.02510506
189	0xbd4dee38	-0.05027601
190	0x3d82c218	0.06384677
191	0x3e6d643c	0.23182768
192	0x3e78ac2a	0.24284425
193	0xbe20fddc	-0.1572184
194	0xbdd4fe68	-0.10400087
195	0x3e2e5798	0.17025602
196	0x3e2b9a8e	0.16758177
197	0xbd741660	-0.05959165
198	0xbde798fc	-0.11308476
199	0x3d266390	0.040622294
200	0xbe0dcee8	-0.1384846
201	0xbb87b7c0	-0.0041417778
202	0xbe6a267a	-0.2286624
203	0xbe62ebba	-0.22160235
204	0xbda0de94	-0.078549534
205	0x3d96ede8	0.07369596
206	0xbe47aa58	-0.19498575
207	0xbe1b15a4	-0.15144974
208	0xbe054f53	-0.13018541
209	0x3e5b06f3	0.2138937
210	0xbdc23dc2	-0.094844356
211	0x3e8c0197	0.27344963
212	0x3e3ad14a	0.182439
213	0x3dec61d4	0.11542097
214	0xbe2e8b0b	-0.17045228
215	0x3f080c20	0.531435
216	0x3e1dbf6b	0.15405051
217	0x3d9e5a1f	0.07732033
218	0xbdbf45a5	-0.093394555
219	0xbda179bc	-0.07884547
220	0x3d1ce2da	0.03830228
221	0x3e6cf10e	0.2313883
222	0x3e8c4a24	0.27400315
223	0x3e5e9113	0.21735029
224	0x3e60e9a9	0.21964134
225	0xbdb6e9d9	-0.08931322
226	0x3e51c9d5	0.20487149
227	0x3e3d3b71	0.18479706
228	0xbe56846a	-0.2094895
229	0x3e0c1fe8	0.13684046
230	0xbe5a02f3	-0.21290188
231	0x3e5bbb86	0.21458253
232	0x3e099480	0.13435555
233	0xbe214a43	-0.15750985
234	0xbddf1078	-0.10891813
235	0x3e418ad8	0.18900621
236	0x3e41d0b7	0.18927275
237	0xbe1a2da1	-0.15056469
238	0xbcd5f697	-0.02611856
239	0xbd2a48ff	-0.04157352
240	0x3e2649fe	0.16239163
241	0x3da93e47	0.082638316
242	0x3e60d921	0.21957828
243	0x3c88228a	0.016618032
244	0x3e768f9d	0.24078222
245	0xbe1dd744	-0.15414149
246	0x3d23d0f1	0.039994184
247	0x3f41f0f7	0.7575831
248	0x3e8559e9	0.26045159
249	0xbdca78fb	-0.098863564
250	0xbdac4dd9	-0.08413286
251	0x3e0a255a	0.13490811
252	0x3e51f8da	0.20505086
253	0xbda185fd	-0.07886884
254	0x3e6be987	0.23038302
255	0xbd95e8fa	-0.073198274

hedge_q.0.linear_relu_stack.2.bias f4 [16]
0	0xbe0dd1c4	-0.1384955
1	0x3e3173f8	0.17329395
2	0xbdf76434	-0.12079659
3	0xbdb0c229	-0.08630783
4	0xbd3fedf9	-0.046857808
5	0x3db43087	0.08798318
6	0xbd511640	-0.05104661
7	0xbe7e7e22	-0.24852803
8	0x3dda2e46	0.10653357
9	0xbd7b8332	-0.061404414
10	0x3dc17b28	0.09447318
11	0xbe6a2eb0	-0.22869372
12	0xbdd55230	-0.10416067
13	0x3e535345	0.20637234
14	0xbe6bb5c0	-0.23018551
15	0xbd885ecf	-0.06658708

hedge_q.0.linear_relu_stack.4.weight f4 [16, 16]
0	0x3e5f8af6	0.21830353
1	0x3d142c00	0.036174774
2	0xbe6eb284	-0.23310286
3	0x3e1c73bc	0.15278524
4	0xbde3e1d4	-0.11127058
5	0xbddd4470	-0.10804069
6	0xbbd84180	-0.006599605
7	0x3d59d080	0.053177357
8	0x3c90b440	0.017664075
9	0xbd171828	-0.03688827
10	0x3e28cf6c	0.16485375
11	0xbe1b9246	-0.15192518
12	0x3d6fc1f8	0.058534592
13	0x3dddf440	0.108376026
14	0xbdecb280	-0.11557484
15	0xbe2dbe34	-0.16967088
16	0xbe2ecf68	-0.17071307
17	0x3c6a3148	0.014293976
18	0xbdbecf24	-0.09316853
19	0x3d7493a8	0.05971113
20	0x3e174e19	0.14775886
21	0xbc860158	-0.016358063
22	0xbd33f450	-0.043934166
23	0xbc4a8bc0	-0.012362421
24	0x3df6dbe0	0.120536566
25	0x3d455521	0.04817689
26	0x3e2e809f	0.17041253
27	0xbc8b7b90	-0.017026693
28	0xbcc83fb0	-0.024444431
29	0xbd461638	-0.048361033
30	0x3cbab520	0.022791445
31	0x3a82067d	0.0009920147
32	0x3d1a0088	0.037598163
33	0x3df4176c	0.1191853
34	0x3daa0fb8	0.08303779
35	0x3e14ad44	0.1451922
36	0x3da5bd48	0.08092743
37	0xbe5c5f6a	-0.21520773
38	0xbe73911c	-0.23785824
39	0x3cecd3d0	0.028909594
40	0xbd74be10	-0.05975157
41	0x3d0e9b48	0.034816056
42	0xbe705106	-0.23468408
43	0xbdbe73f8	-0.09299463
44	0x3e6c48a4	0.23074585
45	0xbe7e5712	-0.24837902
46	0x3cf40390	0.029786855
47	0xbe6264a2	-0.22108701
48	0xbb57ec80	-0.0032947361
49	0xbe2dc26a	-0.16968694
50	0xbb3efe00	-0.0029143095
51	0x3e8deeab	0.27721152
52	0x3eb8f3cc	0.36123502
53	0x3e916235	0.2839524
54	0x3e57f5a2	0.21089795
55	0xbdb077d4	-0.086166054
56	0x3e340230	0.1757896
57	0xbe5b4163	-0.21411662
58	0x3e40b859	0.18820323
59	0xbdd68cf0	-0.104761004
60	0x3e493a5e	0.19651172
61	0x3d81af36	0.06332247
62	0xbe47b462	-0.19502404
63	0xbd01048a	-0.03149847
64	0x3df847d4	0.12123075
65	0xbe218ce4	-0.15776402
66	0x3cfaec80	0.03063035
67	0x3dca6634	0.09882775
68	0xbdde1048	-0.10842949
69	0xbe30d656	-0.17269263
70	0x3e614dce	0.22002336
71	0xbe1a82d0	-0.15088964
72	0xbe5b9a82	-0.21445659
73	0x3d2a96c8	0.041647702
74	0xbdf348f0	-0.11879146
75	0x3e435070	0.19073653
76	0xbdbe9f38	-0.09307712
77	0xbdb376ac	-0.08762869
78	0xbcb516d0	-0.022105604
79	0xbe33e3c6	-0.17567357
80	0xbd91cc20	-0.07119012
81	0xbdcfd2f8	-0.10147661
82	0x3c94eb70	0.018178672
83	0xbe5cb402	-0.21553043
84	0x3d85ab30	0.06526792
85	0x3ddd105c	0.10794136
86	0x3e7c6142	0.24646476
87	0xbe75a2de	-0.2398791
88	0x3d6c1d78	0.05764529
89	0x3e09dcfc	0.13463205
90	0x3e557714	0.20846206
91	0xbd61e210	-0.05514723
92	0xbe45b02e	-0.19305488
93	0xbe78fdf8	-0.24315631
94	0xbe088180	-0.1333065
95	0x3d3b0068	0.045654684
96	0x3cb87200	0.022515297
97	0xbe38f350	-0.18061566
98	0xbd7c7ec0	-0.061644316
99	0x3d7c0e99	0.06153736
100	0x3e05ea92	0.13077763
101	0xbdb2e61a	-0.08735295
102	0x3df18664	0.11793211
103	0x3e7c2160	0.24622107
104	0x3e56283a	0.20913783
105	0x3d5f53e9	0.054523382
106	0x3dff0539	0.12452168
107	0xbe5d124e	-0.21589014
108	0x3d55ffb0	0.052245796
109	0x3dde8b55	0.10866419
110	0x3e25ed72	0.1620386
111	0x3e73d95d	0.23813386
112	0x3dac5afc	0.084157914
113	0x3d7c2ca5	0.061566014
114	0xbdc82908	-0.09773451
115	0xbef0135e	-0.46889776
116	0xbe8445c3	-0.25834474
117	0xbce77c3c	-0.028257482
118	0xbe10d4d6	-0.1414369
119	0x3d8c03e8	0.068366826
120	0x3e2b4725	0.16726358
121	0x3e755d62	0.23961404
122	0x3de4bcce	0.11168824
123	0xbd404aa8	-0.046946198
124	0xbb0f4e00	-0.002186656
125	0x3db30f4b	0.08743151
126	0x3e0bea06	0.13663492
127	0xbd05be59	-0.032652233
128	0x3e42c780	0.19021416
129	0xbe1ac73a	-0.15115061
130	0xbe48b610	-0.19600701
131	0xbe65371c	-0.22384304
132	0xbd124100	-0.03570652
133	0x3e075c7e	0.13218877
134	0x3e6a1314	0.2285884
135	0xbe138094	-0.14404517
136	0x3e5a1e24	0.2130056
137	0x3d311788	0.04323533
138	0xbd35f9f8	-0.044427842
139	0xbe04ce98	-0.12969434
140	0x3c78d9c0	0.015188634
141	0xbdf3010c	-0.11865434
142	0x3e1b3fa6	0.15160999
143	0xbe6871f2	-0.22699717
144	0xbdbc8078	-0.09204191
145	0x3d031698	0.03200397
146	0x3dbe2fcc	0.0928646
147	0xbe11e472	-0.14247301
148	0xbe75f85e	-0.24020526
149	0xbcf49d90	-0.029860288
150	0x3e2fc864	0.17166287
151	0x3e2309a6	0.1592165
152	0x3ddd17dc	0.107955664
153	0xbd549e58	-0.05190882
154	0x3e5d8c0e	0.21635458
155	0xbbb99740	-0.0056637824
156	0x3dd33ab4	0.10313931
157	0x3e239832	0.15976027
158	0x3e322552	0.17397049
159	0xbdf030e0	-0.11728072
160	0x3d2434e8	0.040089518
161	0x3dc9b754	0.0984942
162	0x3e0b12aa	0.13581339
163	0xbda75d79	-0.08172125
164	0x3bdda8d2	0.0067645097
165	0x3cc7658d	0.024340415
166	0x3da3d134	0.07998887
167	0x3de66b00	0.112508774
168	0x3d7be8aa	0.061501183
169	0xbe472320	-0.19446993
170	0xbe2b5e9a	-0.16735306
171	0x3e41de10	0.18932366
172	0x3dda6bfc	0.10665128
173	0xbca9e4e0	-0.020739019
174	0x3e55fe0a	0.2089769
175	0xbe385475	-0.18000968
176	0x3d6630d8	0.056198925
177	0xbe4f5265	-0.20246275
178	0x3e22156a	0.15828481
179	0xbdae99bf	-0.085254185
180	0x3d1745bf	0.03693175
181	0x3c1952ad	0.00935809
182	0xbb4b0900	-0.0030980706
183	0x3d25a630	0.040441692
184	0x3d6d8136	0.057984553
185	0xbe82303e	-0.2542743
186	0xbd5cc6df	-0.053900596
187	0x3d074638	0.03302595
188	0x3e5d0c64	0.21586758
189	0x3c3e595c	0.011617985
190	0x3de40aaf	0.1113485
191	0xbe15db50	-0.14634442
192	0x3e3f86dc	0.18703789
193	0xbe4649de	-0.19364116
194	0xbd459a88	-0.048243076
195	0xbf13a50f	-0.57673734
196	0xbe54298e	-0.20718977
197	0xbdc2f528	-0.09519416
198	0xbe70f9ae	-0.23532745
199	0x3d100aa0	0.035166383
200	0x3e5f40b8	0.21802032
201	0x3de42418	0.11139697
202	0x3e05bc06	0.13060006
203	0x3df79970	0.12089813
204	0xbe10be24	-0.14135033
205	0xbe4f86fa	-0.20266333
206	0x3de8ff2c	0.11376795
207	0x3ddb9518	0.10721797
208	0x3d962c80	0.073327065
209	0xbda01a37	-0.078175
210	0x3e579178	0.21051586
211	0x3d69acd0	0.057049572
212	0x3b9fe0c4	0.004879089
213	0x3e01f7e7	0.12692223
214	0x3e19f8ac	0.15036267
215	0xbe0469fa	-0.12931052
216	0xbd7e6411	-0.06210715
217	0xbeb31b77	-0.34981892
218	0x3de3eb40	0.11128855
219	0xbc984960	-0.018589675
220	0xbdea0a70	-0.11427772
221	0x3ddd18d9	0.10795755
222	0x3d9624d4	0.07331243
223	0x3d8a32aa	0.06747945
224	0xbe2c26fc	-0.16811746
225	0x3e24a00b	0.16076677
226	0xbe1c38c4	-0.1525603
227	0x3e9f366d	0.3109621
228	0x3e3366f4	0.17519742
229	0x3e018a41	0.12650396
230	0xbde2ec8c	-0.11080274
231	0x3e2197be	0.15780541
232	0x3e92cadc	0.28670394
233	0xbd288987	-0.04114678
234	0xbe38d3d0	-0.1804955
235	0xbe26be76	-0.16283593
236	0xbe294b40	-0.16532612
237	0x3e990102	0.2988358
238	0xbdad2551	-0.08454383
239	0x3eb230c5	0.34802833
240	0xbc10d3e0	-0.008839577
241	0xbe423366	-0.1896492
242	0xbc0ba7a0	-0.008523852
243	0x3c46fea9	0.012145677
244	0x3e7d3a27	0.24729215
245	0x3eb54403	0.3540345
246	0x3d876978	0.066119134
247	0x3e052dc4	0.1300574
248	0x3e6061d6	0.21912321
249	0xbdbb7954	-0.09154001
250	0xbd895236	-0.067051336
251	0x3dca3398	0.09873122
252	0x3c9d4040	0.019195676
253	0x3e1555f1	0.14583565
254	0xbcea5fa6	-0.028610062
255	0xbd6863be	-0.056735747

hedge_q.0.linear_relu_stack.4.bias f4 [16]
0	0xbe5220b0	-0.20520282
1	0x3d6281a8	0.05529943
2	0xbe46e540	-0.1942339
3	0x3d80634f	0.062689416
4	0xbd7e9fa8	-0.06216398
5	0xbe19e886	-0.15030107
6	0x3dbb1165	0.09134177
7	0x3e149e18	0.14513433
8	0xbe39a624	-0.18129784
9	0xbe2cfb16	-0.16892657
10	0x3e02846e	0.1274583
11	0x3e3ee237	0.18640982
12	0x3e8c39b7	0.27387783
13	0xbe240264	-0.16016537
14	0xb9cdd7c4	-0.00039261405
15	0x3dc1198e	0.09428702

hedge_q.0.linear_relu_stack.6.weight f4 [1, 16]
0	0xba9c1b00	-0.0011909902
1	0x3c2c930c	0.010533106
2	0xbdf69890	-0.12040818
3	0x3e176e36	0.14788136
4	0xbdde46ec	-0.10853371
5	0x3e261ea0	0.1622262
6	0x3dbfdb93	0.09368052
7	0xbe0e2959	-0.1388296
8	0xbd5f2bf0	-0.05448526
9	0xbde76ce8	-0.11300069
10	0xbdb8f652	-0.09031357
11	0xba346408	-0.0006881361
12	0xbed1544f	-0.40884635
13	0xbec645f4	-0.38725245
14	0x3e68015a	0.22656766
15	0x3e836e43	0.2567006

hedge_q.1.linear_relu_stack.0.weight f4 [16, 1]
0	0x3f32d7e6	0.69860685
1	0x3e054dd2	0.13017967
2	0xbf191d82	-0.5981065
3	0x3f968885	1.1760412
4	0xbed7ef5d	-0.42174807
5	0x3ef4734c	0.47744215
6	0x3f4e2d1b	0.80537575
7	0x3f5b0831	0.85559374
8	0x3f2cb566	0.6746429
9	0xbe826eb0	-0.25475073
10	0xbe8106e6	-0.25200576
11	0x3f14eac8	0.5817075
12	0x3f9c5582	1.2213595
13	0x3f360da2	0.7111455
14	0xbf0ea4dc	-0.55720305
15	0x3ee708d8	0.45123935

hedge_q.1.linear_relu_stack.0.bias f4 [16]
0	0x3f47324c	0.7781112
1	0x3f06a17f	0.52590173
2	0xbe9d828c	-0.30763662
3	0xbe3f89e3	-0.18704943
4	0x3f1715ea	0.59017813
5	0xbf1f68c2	-0.6226922
6	0xbe395b78	-0.18101299
7	0x3f7fdabc	0.9994314
8	0x3f58a44f	0.84625715
9	0xbf64ecb6	-0.8942369
10	0x3f4c4abb	0.7980153
11	0xbf3781fc	-0.71682715
12	0xbed56c93	-0.41684398
13	0x3eeb7381	0.4598656
14	0x3f880793	1.0627311
15	0xbf4339a0	-0.76259804

hedge_q.1.linear_relu_stack.2.weight f4 [16, 16]
0	0xbc917020	-0.01775366
1	0xbd9e2cc4	-0.07723382
2	0xbd20d460	-0.039265037
3	0x3ca14bd0	0.01968947
4	0xbe53efd6	-0.20696959
5	0x3e4971bc	0.19672292
6	0x3d37dab0	0.04488629
7	0x3e52e246	0.20594129
8	0xbe76d072	-0.24102953
9	0x3dc52f24	0.09628132
10	0xbd1d5028	-0.03840652
11	0x3dad9dc0	0.08477354
12	0x3e1931bc	0.14960378
13	0xbe64084c	-0.2226879
14	0xbce96d20	-0.028494418
15	0xbe0f2316	-0.13978228
16	0x3e29d531	0.16585232
17	0xbe806fbe	-0.25085253
18	0xbd140ea0	-0.03614676
19	0x3dca2310	0.09869969
20	0xbe14863b	-0.1450433
21	0x3d6868b0	0.056740463
22	0x3dc5e6ea	0.09663184
23	0xbd27e71f	-0.0409919
24	0xbe4408a6	-0.19143924
25	0xbe4c0f78	-0.19927776
26	0xbd34de34	-0.044157222
27	0x3c60f140	0.0137293935
28	0x3e12f409	0.14350905
29	0x3dd3abcc	0.10335502
30	0x3e5ae50c	0.21376437
31	0x3e0e196e	0.13876888
32	0x3e646348	0.22303498
33	0x3de85714	0.11344734
34	0x3d8cc6c4	0.06873849
35	0xbe323d38	-0.17406166
36	0xbe4e9be0	-0.20176649
37	0x3e1d51e0	0.15363264
38	0x3d3e3128	0.046433598
39	0xbe2e7500	-0.1703682
40	0xbbf33780	-0.0074223876
41	0xbe6c2b12	-0.23063305
42	0xbe309fbe	-0.17248437
43	0x3d3a4c08	0.045482665
44	0xbe5784cc	-0.21046752
45	0x3d832e40	0.06405306
46	0x3d331e78	0.04373023
47	0xbd19cd78	-0.037549466
48	0xbd712918	-0.05887708
49	0xbe5202f0	-0.20508933
50	0x3d457498	0.048206896
51	0xbd2cc1c0	-0.042176962
52	0x3d1c21c8	0.038118154
53	0xbbcd3940	-0.0062629282
54	0xbe55749a	-0.20845261
55	0xbd2ba208	-0.041902572
56	0xbe1c26f6	-0.15249237
57	0xbe196862	-0.14981225
58	0xbd8ec490	-0.06971085
59	0xbe2d1764	-0.16903454
60	0x3dfe4bfc	0.124168366
61	0xbb191d80	-0.002336353
62	0xbc3f2540	-0.011666596
63	0xbe0542f4	-0.13013822
64	0x3e06b75e	0.13155887
65	0xbd8a02dd	-0.067388274
66	0x3e259be0	0.16172743
67	0x3e3c31b5	0.18378337
68	0xbe1c71b4	-0.1527775
69	0x3e666710	0.22500253
70	0x3e418921	0.18899967
71	0x3e95778a	0.29192764
72	0x3e95e21a	0.29274064
73	0xbe35b6d8	-0.1774553
74	0x3d66fdd7	0.056394424
75	0x3e044c2a	0.1291968
76	0x3f18d2ea	0.5969683
77	0xba90f585	-0.0011059499
78	0x3e178aa9	0.14798988
79	0x3ca4e030	0.020126432
80	0xbdb461b8	-0.08807701
81	0xbe435ee0	-0.1907916
82	0xbe63ce3e	-0.22246644
83	0x3e38303c	0.1798715
84	0xbd7c20d0	-0.06155473
85	0xbc368ce0	-0.011141986
86	0xbc2f79a0	-0.01071015
87	0x3e501720	0.20321321
88	0xbe20089a	-0.15628281
89	0x3e2fc036	0.17163166
90	0xbe767102	-0.24066547
91	0x3dca058c	0.09864339
92	0xbe56f9a2	-0.20993665
93	0xbe7c1ab4	-0.24619561
94	0xbd3a4cf8	-0.04548356
95	0x3dd8170c	0.10551271
96	0x3e0f5b08	0.1399957
97	0xbded3440	-0.115822315
98	0xbe1d9534	-0.15388948
99	0xbe43f21e	-0.19135329
100	0x3e3b3642	0.18282416
101	0x3e6303d2	0.22169426
102	0x3da39160	0.079867125
103	0xbe49ddb0	-0.19713473
104	0xbe1f1372	-0.15534762
105	0x3e54272e	0.20718071
106	0x3d56e558	0.052464813
107	0xbe2b6544	-0.16737849
108	0xbe292a56	-0.16520056
109	0xbe619ed4	-0.22033244
110	0x3e242412	0.16029385
111	0xbcdd06b0	-0.026980728
112	0x3e077258	0.13227212
113	0x3e8469ca	0.2586196
114	0x3e0e48be	0.13894936
115	0x3e50ab71	0.203779
116	0xbe1234ca	-0.1427795
117	0x3dcdd674	0.10050669
118	0x3f064728	0.52452326
119	0x3e9f988f	0.3117108
120	0x3e7d8521	0.24757816
121	0x3db591d0	0.08865702
122	0x3bff0afd	0.0077832923
123	0xbe5e58ca	-0.21713558
124	0x3f2ec82a	0.68274176
125	0x3e559cc9	0.2086059
126	0x3d9508c1	0.0727706
127	0x3e52313c	0.20526594
128	0xbc90dd85	-0.017683754
129	0xbae6f26b	-0.0017619854
130	0xbd18d6b8	-0.037314147
131	0xbeda8570	-0.4267993
132	0x3edd99d3	0.4328142
133	0x3e0b372a	0.13595262
134	0xbf3c22df	-0.7349071
135	0x3e82b53c	0.25528896
136	0x3d740ce3	0.059582602
137	0xbd31a100	-0.043366432
138	0x3e07266b	0.13198249
139	0xbe09bd8e	-0.13451216
140	0xbfc1e377	-1.5147542
141	0xbc8d4ee0	-0.017249525
142	0x3f03b11f	0.5144214
143	0xbe2d1d8a	-0.169058
144	0xbe24ca2a	-0.16092744
145	0xbe54a6de	-0.2076678
146	0x3e51597e	0.20444295
147	0x3dabd8b8	0.08390945
148	0x3cf1c8d0	0.0295147
149	0x3e2df5f8	0.16988361
150	0xbe0ece2e	-0.13945839
151	0xbe62061c	-0.22072643
152	0xbceff470	-0.029291362
153	0xbe42a5a2	-0.19008496
154	0x3d04f070	0.03245586
155	0x3e67c070	0.22632003
156	0xbe62a6b2	-0.22133902
157	0xbdfecb08	-0.12441069
158	0xb84ce000	-4.8846006e-05
159	0xbdd677ec	-0.10472092
160	0xbdb84766	-0.08997993
161	0x3daef1c9	0.085422106
162	0xbdc94ae0	-0.098287344
163	0xbf4fa892	-0.8111659
164	0x3ebeb653	0.37248477
165	0x3e14ab72	0.14518526
166	0xbf4f001c	-0.8085954
167	0x3e4d3c9b	0.2004265
168	0x3e3c4bed	0.18388338
169	0x3e044728	0.12917769
170	0x3ecf5451	0.40494016
171	0x3e3946e6	0.18093452
172	0xbfd62d65	-1.6732603
173	0xbe8d2826	-0.27569693
174	0x3ee096bc	0.43865
175	0xbb363980	-0.0027805269
176	0xbe3e1c5a	-0.18565503
177	0xbe5fe744	-0.21865565
178	0x3e41511a	0.18878594
179	0x3d8b4fc8	0.068023264
180	0x3e3abba4	0.18235642
181	0xbe020508	-0.12697232
182	0xbe59d03e	-0.21270844
183	0xbd49f080	-0.049301624
184	0xbe2444d2	-0.16041878
185	0x3cd20430	0.025636762
186	0xbd14c9c8	-0.036325246
187	0xbe1ac018	-0.1511234
188	0xbe7155f6	-0.23567948
189	0xbd692380	-0.05691862
190	0xbcb26590	-0.021776944
191	0x3c7e4d80	0.015521407
192	0x3e31d742	0.1736727
193	0xbe3aa63a	-0.18227473
194	0xbe181c62	-0.14854577
195	0xbda2622d	-0.07928882
196	0xbde548b7	-0.1119551
197	0x3c3e0300	0.011597395
198	0xbeffff42	-0.49999434
199	0x3df81460	0.12113261
200	0x3e3e0f44	0.18560511
201	0x3e0b1750	0.13583112
202	0x3dbc88df	0.092057936
203	0x3db1c474	0.086800486
204	0xbf092a43	-0.5358011
205	0xbe65ab39	-0.22428598
206	0x3e8af66e	0.27141136
207	0x3c377060	0.011196226
208	0x3e821c25	0.25412098
209	0x3d866a10	0.065631986
210	0xbe5b5d02	-0.21422198
211	0x3f0c05ec	0.54696536
212	0xbca672af	-0.020318357
213	0x3e27614c	0.1634571
214	0x3f023e19	0.50876004
215	0x3e903817	0.28167793
216	0xbd6778d2	-0.056511708
217	0xbd4cbe38	-0.049986094
218	0xbe7f429d	-0.24927755
219	0xbd487910	-0.04894358
220	0x3ef1b9a2	0.4721194
221	0x3cfa282d	0.030536735
222	0xbe5822a8	-0.2110697
223	0x3e256010	0.16149926
224	0x3e32eb26	0.17472515
225	0x3df53cff	0.11974525
226	0x3d385910	0.04500681
227	0x3eeaadf4	0.4583584
228	0x3e2f0711	0.1709254
229	0x3e529fec	0.20568818
230	0x3eea4d7b	0.45762238
231	0x3d1271e4	0.035753146
232	0x3e9d068d	0.3066906
233	0x3dc658bc	0.096848935
234	0xbe2aa62e	-0.16664955
235	0xbe700972	-0.23441103
236	0x3eef8469	0.46780708
237	0x3dbc5708	0.091962874
238	0x3dc7c083	0.097535156
239	0xbe10ba18	-0.14133489
240	0x3e8cc9e8	0.27497792
241	0x3df163db	0.11786624
242	0x3d810d1c	0.063013285
243	0x3e8e6cfd	0.27817526
244	0x3d269fee	0.040679865
245	0x3c9c1e70	0.019057482
246	0x3edc3973	0.4301258
247	0x3e9756c5	0.29558387
248	0xbe2418f9	-0.16025151
249	0xbe5fb112	-0.2184489
250	0x3e41bcd2	0.18919685
251	0x3e5103c4	0.20411593
252	0x3ef6d785	0.48211303
253	0xbca929e8	-0.020649865
254	0xbe5b8355	-0.21436818
255	0x3e45adc6	0.1930457

hedge_q.1.linear_relu_stack.2.bias f4 [16]
0	0xbe536c40	-0.20646763
1	0xbe3b0fcb	-0.18267743
2	0xbe124c28	-0.14286864
3	0xbe0bd098	-0.13653791
4	0x3e7dada4	0.2477327
5	0x3e5f0146	0.2177783
6	0x3e2044ca	0.15651241
7	0x3dc0a9d5	0.09407393
8	0x3ebeb071	0.3724399
9	0xbae84400	-0.0017720461
10	0x3db8a960	0.09016681
11	0xbdf1f6f4	-0.11814681
12	0xbaa100f7	-0.0012283613
13	0xbd51fe6e	-0.051268034
14	0x3e384bae	0.1799762
15	0xbbfb5762	-0.007670329

hedge_q.1.linear_relu_stack.4.weight f4 [16, 16]
0	0x3e4e82f0	0.20167136
1	0xbe014d7a	-0.12627211
2	0xbdb92208	-0.09039694
3	0x3d579818	0.052635282
4	0x3cccc163	0.024994558
5	0x3de63624	0.11240795
6	0x3e6fecb6	0.23430142
7	0x3bccdd4b	0.006251966
8	0xbcb2578d	-0.021770263
9	0x3e4aff10	0.19823861
10	0x3e34296a	0.17593923
11	0xbdd4fa78	-0.103993356
12	0x3d62e11c	0.055390462
13	0x3e3d8bf9	0.18510427
14	0xbe275799	-0.1634201
15	0xbdc7187c	-0.09721467
16	0x3d121b30	0.03567046
17	0xbd0a6260	-0.033785224
18	0xbe042b06	-0.12907037
19	0xbcc36610	-0.023852378
20	0xbd68ea58	-0.056864113
21	0xbe1c9c42	-0.15293983
22	0xbe5489b8	-0.2075566
23	0x3e3d2e24	0.18474633
24	0xbe2dd896	-0.16977152
25	0x3df7b630	0.120952964
26	0x3d4d7e88	0.050169498
27	0x3d62f1c0	0.055406332
28	0xbe79d20e	-0.24396536
29	0x3c3a1feb	0.011360149
30	0xbe40f08c	-0.18841761
31	0x3e1423b0	0.14466739
32	0xbd837308	-0.06418425
33	0xbe0940ac	-0.13403577
34	0x3e644b32	0.2229431
35	0xbe285012	-0.16436794
36	0x3dedf333	0.11618652
37	0x3d5b9bb0	0.053615272
38	0x3e7c2798	0.24624479
39	0x3ea7406b	0.32666335
40	0xbe6f0bc1	-0.23344328
41	0x3e4072a8	0.18793738
42	0xbf2cd5e6	-0.67513883
43	0x3e3941f0	0.1809156
44	0xbda8640c	-0.082222074
45	0xbcd40db6	-0.025885444
46	0x3eb5653d	0.354288
47	0x3eb7f040	0.35925484
48	0x3e1cb61a	0.15303841
49	0xbd9a3b88	-0.07530886
50	0x3e5fe846	0.21865949
51	0xbe4d9ccc	-0.20079345
52	0xbd9cbcd7	-0.07653206
53	0x3daa4af8	0.083150804
54	0x3e14bf78	0.14526165
55	0x3df62f11	0.12020696
56	0x3dbbc4cf	0.09168398
57	0xbd9c6d80	-0.07638073
58	0xbe76915c	-0.24078888
59	0x3d907b40	0.07054758
60	0xbe0dde81	-0.1385441
61	0x3dcfe230	0.10150564
62	0xbe0349a6	-0.12821063
63	0x3dd822ba	0.105534986
64	0xbcc9db50	-0.02464071
65	0x3df3d84c	0.1190649
66	0xbe6e6492	-0.23280552
67	0x3e5f5040	0.21807957
68	0xbe6f0380	-0.23341179
69	0xbdb4a190	-0.08819878
70	0xbe2ff6e8	-0.17184031
71	0xbe1c054c	-0.15236396
72	0x3d89ebb8	0.06734413
73	0xbe0db2ee	-0.13837788
74	0xbda036bc	-0.0782294
75	0x3dc49cb4	0.09600201
76	0xbe12a542	-0.14320853
77	0xbda016d4	-0.07816854
78	0xbe4358e6	-0.19076881
79	0xbe67b62e	-0.2262809
80	0x3e697aa0	0.22800684
81	0xbd9a9e38	-0.07549709
82	0xbe602ca2	-0.21892026
83	0x3e0af4e6	0.13569984
84	0x3cdd71e0	0.027031839
85	0xbe3fd8d6	-0.1873506
86	0x3e4ce1a8	0.20007956
87	0x3caf17c0	0.02137363
88	0x3d019e98	0.031645387
89	0x3e6c9700	0.23104477
90	0xbcdc4820	-0.02688986
91	0x3c0c7e20	0.008574992
92	0xbe5c561a	-0.2151722
93	0xbdf9b1e8	-0.12192136
94	0xbe145344	-0.14484888
95	0xbe6cfbec	-0.23142976
96	0xbe5e0f34	-0.21685487
97	0x3cfe9b30	0.031079859
98	0x3dd798ac	0.10527167
99	0x3da54190	0.08069146
100	0x3d8e46c4	0.06947091
101	0x3e763570	0.24043822
102	0xbdc06cd8	-0.0939576
103	0xbc8ae7c0	-0.01695621
104	0xbd511968	-0.05104962
105	0xbd2ca218	-0.042146772
106	0xbdb72284	-0.0894213
107	0xbcd04470	-0.025423259
108	0x3e34f820	0.17672777
109	0xbe72313e	-0.23651597
110	0x3da22740	0.079176426
111	0xbe49a13a	-0.1969041
112	0x3de65ca8	0.112481415
113	0x3d4c8f9f	0.049941655
114	0xbe78be36	-0.2429131
115	0xbd7b7ca0	-0.06139815
116	0x3e93884c	0.28814924
117	0xbd597ee8	-0.053099543
118	0x3d12ee58	0.035871834
119	0x3e004000	0.12524414
120	0xbd8790c8	-0.06619412
121	0x3e29ceb8	0.16582763
122	0xbed7782e	-0.42083877
123	0xbd365828	-0.044517666
124	0xbe7f6397	-0.24940334
125	0x3ea0ff90	0.3144498
126	0x3e87e2b0	0.26540136
127	0x3d874fd3	0.06607022
128	0xbe51093a	-0.20413676
129	0xbdcb7555	-0.09934489
130	0x3c0c4060	0.00856027
131	0x3e0020fa	0.1251258
132	0x3e154c4c	0.14579886
133	0xbdb2c3c4	-0.087287456
134	0x3e20ec1a	0.15715066
135	0x3eada2a4	0.33913147
136	0xbea73e3b	-0.32664666
137	0x3dbae400	0.09125519
138	0xbe5dc357	-0.21656547
139	0xbe5512b4	-0.20807916
140	0xbdd2b53e	-0.102884755
141	0x3ebbc650	0.36674738
142	0x3e7935c1	0.24336912
143	0x3eb66920	0.3562708
144	0x3e5aa30a	0.21351257
145	0xbd9c0275	-0.07617656
146	0x3e0efa08	0.13962567
147	0xbc0beb20	-0.008539945
148	0x3d414fa3	0.047195088
149	0xbe3334fa	-0.17500678
150	0xbdbaa4c0	-0.09113455
151	0x3d547390	0.05186802
152	0xbe840db1	-0.25791696
153	0x3e65a818	0.22427404
154	0xbe56fda2	-0.2099519
155	0x3b37e700	0.002806127
156	0xbd2aaead	-0.04167049
157	0x3d123472	0.035694547
158	0xbdf9d96b	-0.12199672
159	0x3d976ae3	0.07393434
160	0x3e609440	0.21931553
161	0x3e71a4da	0.23598042
162	0xbdc37d50	-0.09545386
163	0x3e48941e	0.19587752
164	0xbe2d6474	-0.16932851
165	0x3e05a57e	0.13051412
166	0x3d5b3d00	0.05352497
167	0xbd9c35b8	-0.076274335
168	0xbe76d892	-0.24106053
169	0xbe0cda2a	-0.13755098
170	0x3e7744a2	0.24147275
171	0xbe64575e	-0.22298953
172	0x3cd3cba0	0.025853932
173	0x3d96b7e8	0.07359296
174	0xbe379848	-0.17929184
175	0xbe6c17f0	-0.23056006
176	0xbe18180a	-0.1485292
177	0xbdb031c4	-0.08603242
178	0x3e4c00da	0.199222
179	0x3e2e9ce0	0.1705203
180	0xbe2cbca2	-0.16868833
181	0xbe49c28a	-0.19703117
182	0xbca96b40	-0.020681024
183	0xbd8ce6c0	-0.068799496
184	0xbe06d998	-0.13168943
185	0xbddd9594	-0.108195454
186	0xbe60bde8	-0.21947443
187	0x3b896440	0.004192859
188	0x3dc82280	0.09772205
189	0xbe7cb74a	-0.24679294
190	0xbdc6d480	-0.097085
191	0xbe0b2f3a	-0.13592234
192	0x3e62c6ac	0.221461
193	0xbde38c40	-0.11110735
194	0xbc4dc1c0	-0.012558401
195	0xbe2d4050	-0.16919065
196	0x3c4a9be0	0.012366265
197	0xbe202d9a	-0.15642396
198	0xbe1763ae	-0.14784119
199	0x3df167dc	0.11787388
200	0x38f63000	0.00011739135
201	0x3e4528ca	0.19253841
202	0xbce148d0	-0.02750054
203	0xbd866dac	-0.06563887
204	0xbe1bce00	-0.15215302
205	0xbce76c90	-0.028250009
206	0xbe584f3c	-0.21123976
207	0x3e324cfe	0.17412183
208	0xb8682000	-5.5342913e-05
209	0x3e7f6346	0.24940214
210	0xbe727f1e	-0.23681304
211	0xbe213e72	-0.15746477
212	0x3da8703d	0.08224533
213	0xbe1654c6	-0.14680776
214	0x3e5db66c	0.2165162
215	0xbd56e2b3	-0.05246229
216	0xbea6843b	-0.3252276
217	0xbd892008	-0.066955626
218	0x3d232913	0.039834093
219	0xbd931a6c	-0.07182774
220	0xbe9cf3a1	-0.30654624
221	0x3e720a4a	0.23636737
222	0xbe004cae	-0.12529251
223	0x3dfc21c1	0.123111255
224	0xbe440456	-0.19142279
225	0xbe63ea1a	-0.22257271
226	0x3db65d74	0.089045435
227	0xbde662a8	-0.11249286
228	0x3d552247	0.052034643
229	0xbe7d1f4a	-0.24718967
230	0xbe2398d8	-0.15976274
231	0x3e165d9d	0.14684148
232	0xbdf32ec9	-0.11874158
233	0xbdc26f50	-0.094938874
234	0x3e793151	0.24335219
235	0x3e07f9b6	0.13278851
236	0xbe6af27a	-0.2294406
237	0x3af69328	0.0018812167
238	0xbe77f63c	-0.24215025
239	0x3de6df9f	0.11273121
240	0xbdeabbb4	-0.11461583
241	0x3d2cf150	0.04222232
242	0x3db06010	0.086120725
243	0xbe339378	-0.17536724
244	0xbe48194a	-0.19540897
245	0xbe60ef44	-0.21966273
246	0xbddfd440	-0.10929155
247	0xbddba200	-0.107242584
248	0x3ddd0820	0.10792565
249	0x3e57e040	0.21081638
250	0x3e048b94	0.1294387
251	0xbdfc214c	-0.123110384
252	0x3e44f68a	0.19234672
253	0xbe3b8520	-0.18312502
254	0xbe0ee396	-0.13954005
255	0xbe5faa08	-0.21842206

hedge_q.1.linear_relu_stack.4.bias f4 [16]
0	0xbd8a3e75	-0.06750194
1	0xbe4ec8a1	-0.20193721
2	0x3cf12916	0.029438537
3	0x3de91683	0.11381247
4	0xbe2e9276	-0.17048058
5	0xbcd84940	-0.026402116
6	0xbe210988	-0.15726292
7	0x3db85faf	0.09002625
8	0xbda907fc	-0.08253476
9	0x3cce5782	0.025188211
10	0x3d8c9c4c	0.06865749
11	0x3e60b67e	0.21944615
12	0xbe755dbc	-0.23961538
13	0x3e5e55bc	0.21712393
14	0xbe3cfa62	-0.18454888
15	0xbded48f0	-0.11586177

hedge_q.1.linear_relu_stack.6.weight f4 [1, 16]
0	0xbe0ae42a	-0.135636
1	0x3e0666a9	0.13125099
2	0x3e0b7104	0.13617331
3	0x3cfd3816	0.030910533
4	0xbdd1af6c	-0.10238537
5	0xbdb55c6c	-0.08855519
6	0xbe4d0c58	-0.2002424
7	0x3ebd5dfe	0.36985773
8	0x3e9aca2a	0.30232364
9	0xbe08c094	-0.13354713
10	0x3e7b7896	0.24557719
11	0x3e2f14c0	0.17097759
12	0x3e1473e0	0.14497328
13	0xbf45d37c	-0.77275825
14	0x3de0f242	0.10983707
15	0x3dd86b98	0.10567397

hedge_q.2.linear_relu_stack.0.weight f4 [16, 1]
0	0x3edaf921	0.42768195
1	0xbf7dcef6	-0.9914392
2	0xbe59728c	-0.21235102
3	0xbef863a4	-0.4851352
4	0x3f1c665d	0.61093694
5	0x3eddf194	0.43348372
6	0x3f6240c3	0.8838007
7	0x3f3fcd16	0.7492231
8	0xbe8d1de0	-0.27561855
9	0x3cd26280	0.025681734
10	0x3f4c8306	0.79887426
11	0xbf2d05a2	-0.6758672
12	0xbefa9dd0	-0.48948526
13	0x3f3b9481	0.73273474
14	0x3f893ac0	1.0721054
15	0xbe5387f8	-0.20657337

hedge_q.2.linear_relu_stack.0.bias f4 [16]
0	0xbe96142f	-0.29312274
1	0xbdf6a4c0	-0.12043142
2	0x3ee5a3c5	0.4485151
3	0x3e954f0d	0.29161873
4	0xbec134c1	-0.3773556
5	0xbf12856a	-0.57234824
6	0x3f581b1e	0.8441638
7	0x3f0ba994	0.5455563
8	0xbe89a2a4	-0.26881897
9	0xbf7581a6	-0.9590095
10	0xbf42a228	-0.7602868
11	0x3f40b125	0.752703
12	0x3e9279a6	0.28608435
13	0x3f2586ec	0.64659
14	0xbec712b4	-0.38881457
15	0xbf5ba1d2	-0.85793793

hedge_q.2.linear_relu_stack.2.weight f4 [16, 16]
0	0xbec85452	-0.3912683
1	0xbcf37270	-0.029717654
2	0xbd40dd45	-0.04708602
3	0xbece7974	-0.40327036
4	0xbf1e1309	-0.61747795
5	0xbcf080e0	-0.029358327
6	0x3e50b222	0.20380452
7	0xbe06b7bf	-0.13156031
8	0xbd7f36c8	-0.062308103
9	0xbd2afaf8	-0.04174325
10	0x3e25f583	0.16206937
11	0xbe9db8a4	-0.30804932
12	0xbeb59bc8	-0.35470414
13	0x3def2d37	0.11678546
14	0x3ec10152	0.3769632
15	0xbe18993a	-0.14902201
16	0xbe85cf38	-0.26134658
17	0x3df761ec	0.12079224
18	0xbde45aa5	-0.111501016
19	0xbf2cd38f	-0.6751031
20	0xbec5ced3	-0.38634357
21	0xbe063b22	-0.13108495
22	0x3e533149	0.2062427
23	0x3dede4d2	0.1161591
24	0x3d2ca410	0.04214865
25	0x3e0dec9c	0.1385979
26	0x3d65adf6	0.056074105
27	0x3d8894f9	0.06669039
28	0xbe5a3e27	-0.21312772
29	0xbe2dfc3f	-0.16990755
30	0x3ed44705	0.41460434
31	0x3db2f1d4	0.08737531
32	0xbf32cb00	-0.69841003
33	0x3e338718	0.17532003
34	0x3d896453	0.067085885
35	0xbf3e9b83	-0.7445604
36	0xbf62a85d	-0.8853815
37	0x3db55b0c	0.088552564
38	0xbda935ba	-0.08262201
39	0x3dfa4751	0.12220634
40	0xbdb075b0	-0.08616197
41	0x3e5d0eae	0.21587631
42	0x3df0e716	0.11762826
43	0xbdd401a6	-0.10351877
44	0xbebd6217	-0.369889
45	0x3c9ae1af	0.018906442
46	0x3f2a74e6	0.6658462
47	0x3e3ee61a	0.18642464
48	0xbe37b62e	-0.1794059
49	0xbd40fe08	-0.047117263
50	0xbe07af30	-0.13250422
51	0xbe0dfcde	-0.13865992
52	0x3dcac554	0.099009186
53	0xbe42449a	-0.18971482
54	0x3c828fe0	0.015937746
55	0xbdb58b04	-0.08864406
56	0x3c6846c0	0.014177024
57	0xbe475994	-0.19467765
58	0xbd204b10	-0.039134085
59	0x3e44a5c6	0.19203863
60	0xbc06a400	-0.008217812
61	0xbe0763ea	-0.13221708
62	0xbdd2caec	-0.102926105
63	0x3d3eaa90	0.04654938
64	0xbe0151ee	-0.1262891
65	0xbdfeeb40	-0.12447214
66	0xbe02df5e	-0.1278052
67	0xbd013ab8	-0.03155014
68	0x3d8593f8	0.065223634
69	0xbe1bca42	-0.15213874
70	0xbe400588	-0.1875211
71	0x3e1de1de	0.15418193
72	0xbe610d10	-0.21977639
73	0x3d969b58	0.07353848
74	0xbc9f1730	-0.019420236
75	0xbd43e700	-0.04782772
76	0xbd78c7f0	-0.06073755
77	0xbdd80b6c	-0.105490535
78	0x3c93a300	0.01802206
79	0xbe4f868c	-0.2026617
80	0xbf1e1c61	-0.6176205
81	0xbdea2614	-0.11433044
82	0x3db00722	0.085951105
83	0xbee0652e	-0.43827194
84	0xbf6f5c94	-0.9350064
85	0xbd377798	-0.044791788
86	0x3da7d1f9	0.08194346
87	0x3e4577d7	0.19283997
88	0x3dd28c40	0.10280657
89	0x3e56bb7e	0.2096996
90	0xbdd21b4d	-0.102591135
91	0xbe1ce255	-0.15320714
92	0xbf1107e9	-0.56652695
93	0x3d27e124	0.040986195
94	0x3f465aec	0.77482486
95	0x3dcf63b8	0.10126442
96	0x3d248d54	0.040173844
97	0x3e2e4c92	0.17021397
98	0x3d01cc5d	0.031689037
99	0x3f2a42a9	0.66507965
100	0xbd38fdd6	-0.04516395
101	0xbdde8168	-0.10864526
102	0x3e6511fc	0.22370142
103	0x3d5db228	0.05412498
104	0xbd12ab08	-0.03580764
105	0xbd98e52c	-0.07465586
106	0xbe53a8e1	-0.20669891
107	0xbbf2f822	-0.0074148336
108	0x3e60fcdf	0.21971463
109	0x3df65fe5	0.12030009
110	0xbef49cb5	-0.47775808
111	0x3bfb9000	0.0076770782
112	0x3e02299c	0.12711185
113	0x3d9c1ed0	0.076230645
114	0xbe11428a	-0.14185539
115	0x3cbb92a0	0.022897065
116	0xbe7ac374	-0.24488622
117	0x3ddb31f4	0.10702887
118	0xbe7bacb8	-0.24577606
119	0xbe0c5080	-0.13702583
120	0x3df9f7d0	0.122054696
121	0xbc2b8c20	-0.01047042
122	0x3e5923f8	0.21205127
123	0x3db0a0c4	0.086244136
124	0x3db88f54	0.09011713
125	0x3e02f268	0.12787783
126	0xbdc22c18	-0.094810665
127	0xbda3f1fc	-0.08005139
128	0xbf28c22f	-0.659213
129	0x3e670bd0	0.225631
130	0xbe588184	-0.21143156
131	0xbf18c95b	-0.59682244
132	0xbf66981d	-0.90075856
133	0xbe4172c4	-0.18891436
134	0x3e5cecd1	0.21574713
135	0x3e40f224	0.1884237
136	0xbd88dde4	-0.06682947
137	0x3e5a6874	0.21328908
138	0x3d9724a7	0.07380038
139	0x3e012683	0.12612347
140	0xbeb07f84	-0.34472287
141	0x3e3254ef	0.17415212
142	0x3f0fc4d2	0.561597
143	0x3df9b9d0	0.12193644
144	0x3db51104	0.08841136
145	0x3e04b85a	0.1296095
146	0x3e6d949c	0.23201221
147	0x3e14188a	0.14462486
148	0xbbf41140	-0.0074483454
149	0xbe15b3a0	-0.14619303
150	0x3c105c20	0.008811027
151	0x3cbbb590	0.022913724
152	0x3e574e22	0.21025899
153	0xbe180190	-0.14844346
154	0xbe72610e	-0.23669836
155	0xbe541a14	-0.20713073
156	0x3d27d998	0.040978998
157	0xbe11e0bc	-0.14245886
158	0xbe2ccf04	-0.16875845
159	0xbe7b40be	-0.24536416
160	0xbc67c880	-0.014146924
161	0x3e5b37f2	0.2140806
162	0xbd5ea380	-0.054355145
163	0xbd2946a0	-0.04132712
164	0x3e7138ba	0.23556796
165	0x3de69e84	0.11260703
166	0xbe1a8a92	-0.15091923
167	0x3ca95cf0	0.020674199
168	0x3e7e42f8	0.24830234
169	0xbd2ae1b8	-0.04171917
170	0x3cbfde80	0.023421526
171	0xbe799d2a	-0.2437636
172	0x3e38c478	0.18043697
173	0xba867300	-0.0010257661
174	0xbe23959e	-0.15975043
175	0x3e356db4	0.1771763
176	0xbde545d8	-0.11194962
177	0xbe05795e	-0.13034579
178	0xbe35e690	-0.17763734
179	0xbe6ffbdc	-0.2343592
180	0x3e779d14	0.24181014
181	0x3e2f70a8	0.17132819
182	0xbdc98684	-0.0984011
183	0xbd3e8c50	-0.04652053
184	0xbe1d11ea	-0.15338865
185	0xbe2a093a	-0.16605082
186	0x3e41f8ca	0.18942562
187	0x3de885c8	0.11353642
188	0x3d37bad8	0.044855922
189	0xbe2b5686	-0.16732225
190	0xbdf08f28	-0.11746055
191	0xbdd4cb3c	-0.103903264
192	0xbdf25214	-0.118320614
193	0xbc838590	-0.016054899
194	0xbe256638	-0.16152275
195	0xbe0ae3ec	-0.13563508
196	0xbe5cb4d0	-0.2155335
197	0xbd9b9454	-0.07596651
198	0xbdb51d06	-0.088434264
199	0x3e4752d5	0.19465192
200	0x3bcde880	0.0062838197
201	0xbe095390	-0.13410783
202	0x3e56d5b8	0.20979965
203	0x3cd69cf0	0.02619788
204	0xbd2f9759	-0.042868946
205	0xbe6b99a2	-0.23007825
206	0xbde89024	-0.11355618
207	0x3c78a680	0.015176415
208	0x3c8eabd2	0.017415915
209	0xbd822c24	-0.063560754
210	0xbe780f7a	-0.24224654
211	0xbe73c9c2	-0.23807433
212	0x3e8d58ba	0.27606755
213	0xbe3a0f2c	-0.1816985
214	0x3d96d9df	0.07365774
215	0xbe3e489a	-0.18582383
216	0x3de2363c	0.11045501
217	0x3e364fea	0.17803922
218	0xbdaac268	-0.08337861
219	0xbd951c25	-0.07280759
220	0xbd44c6b4	-0.04804106
221	0xbd8bf511	-0.06833852
222	0x3dbf2308	0.093328536
223	0xbe3626b0	-0.17788196
224	0xbed32608	-0.41239953
225	0x3dbd4498	0.09241599
226	0xbe96be78	-0.2944219
227	0xbf55c457	-0.83502716
228	0xbf01b275	-0.5066293
229	0xbc0b8aa0	-0.0085169375
230	0x3e331eb6	0.17492184
231	0x3e895520	0.26822758
232	0xbe3e1fae	-0.18566772
233	0xbde1df64	-0.110289365
234	0xbde4fcf3	-0.11181059
235	0xbd578125	-0.052613396
236	0xbde49049	-0.11160333
237	0x3e3707eb	0.17874114
238	0x3f43ef65	0.7653716
239	0x3de838e4	0.11338976
240	0xbddd19c4	-0.1079593
241	0x3dbcaee4	0.09213045
242	0xbe2f024a	-0.17090717
243	0x3e21427f	0.15748022
244	0xbd9e5fb4	-0.07733098
245	0x3b9ec380	0.0048450828
246	0x3e215ffe	0.15759274
247	0x3e43b6a7	0.19112645
248	0xbe4d7c24	-0.20066887
249	0x3b85b840	0.004080802
250	0xbe56baac	-0.20969647
251	0xbd25feed	-0.04052632
252	0xbe248994	-0.16068107
253	0xbe05cb1a	-0.13065758
254	0xbe3a19c2	-0.18173888
255	0xbe55f794	-0.20895225

hedge_q.2.linear_relu_stack.2.bias f4 [16]
0	0x3d16d5eb	0.0368251
1	0x3d92e781	0.07173062
2	0x3e1df166	0.15424117
3	0xbdbe2380	-0.09284115
4	0x3e00aed8	0.12566698
5	0xbdd69307	-0.10477262
6	0x3e8a077d	0.26958838
7	0xbe53d114	-0.20685226
8	0xbd6c8044	-0.05773951
9	0xbe35dc7e	-0.17759892
10	0xbe2a0c88	-0.16606343
11	0xbe021eba	-0.12707034
12	0x3e5a117c	0.21295732
13	0x3e162ab9	0.14664735
14	0x3ded5353	0.115881585
15	0xbe44875d	-0.19192262

hedge_q.2.linear_relu_stack.4.weight f4 [16, 16]
0	0xbd04e0e7	-0.032441046
1	0x3db16a00	0.08662796
2	0x3e0bed60	0.1366477
3	0xbdd0b5c0	-0.10190916
4	0x3de3d3a8	0.111243546
5	0xbe56c6f0	-0.20974326
6	0x3dc3da41	0.09563113
7	0xbd5b0c38	-0.05347845
8	0xbe481d66	-0.19542465
9	0x3e7bfdcc	0.24608535
10	0xbcf11910	-0.029430896
11	0xbe08626e	-0.13318798
12	0x3d453568	0.048146635
13	0xbd9aa928	-0.07551795
14	0x3e752f52	0.23943833
15	0xbde064c4	-0.109567195
16	0xbea1ef96	-0.31628102
17	0x3cb4e81a	0.02208333
18	0xbe9a945d	-0.30191317
19	0xbdac9004	-0.08425906
20	0xbe481ab2	-0.19541433
21	0xbf169dae	-0.5883435
22	0x3e87a510	0.2649312
23	0x3e79afb0	0.24383426
24	0x3d3e3e97	0.04644641
25	0xbd814cd0	-0.06313479
26	0xbe62f2d0	-0.22162938
27	0xbe5b4e02	-0.21416476
28	0xbc79c96e	-0.0152457785
29	0xbe2e15de	-0.17000529
30	0xbe67ebba	-0.22648516
31	0xbd3b5f28	-0.045745045
32	0xbefa4097	-0.48877403
33	0xbda82e6e	-0.08211981
34	0xbed857bd	-0.4225444
35	0x3e4a6fd8	0.19769228
36	0x3e20fb88	0.15720952
37	0xbef18f3f	-0.471796
38	0x3ea03d74	0.31296885
39	0x3e41eb8c	0.1893751
40	0x3e22203a	0.15832606
41	0xbe303ace	-0.17209932
42	0x3d2fd5a0	0.042928338
43	0x3e7d72ec	0.2475087
44	0x3e5a3562	0.21309426
45	0x3dfee8cd	0.12446747
46	0xbe69e6f6	-0.22842011
47	0x3e56a39e	0.20960853
48	0x3e324aa6	0.17411289
49	0x3cef56db	0.02921622
50	0xbe54df4d	-0.20788307
51	0xbddc60d8	-0.10760659
52	0x3e00e9ea	0.12589231
53	0x3dd3064e	0.10303937
54	0x3dfe7a1a	0.12425633
55	0xbe17702a	-0.14788881
56	0xbdfc1b53	-0.12309899
57	0x3e08a70a	0.1334497
58	0xbe7095aa	-0.23494592
59	0xbd8fd33c	-0.07022712
60	0x3e6e7fc2	0.23290923
61	0x3e396590	0.1810515
62	0x3ca08402	0.019594196
63	0x3e0c3fe4	0.13696247
64	0xbc152076	-0.009101978
65	0x3e60013c	0.21875471
66	0x3e8e624e	0.27809376
67	0x3dfcaac0	0.123372555
68	0xbe5c206e	-0.21496746
69	0x3dc85c04	0.097831756
70	0x3e933c58	0.28756976
71	0xbdd0b978	-0.10191625
72	0x3e9f7242	0.3114186
73	0x3aa62a00	0.0012677312
74	0x3e316654	0.17324191
75	0x3dc0091c	0.093767375
76	0xbe346aa6	-0.17618808
77	0xbe5647ea	-0.2092587
78	0xbdfb8b4d	-0.12282429
79	0xbe579ac8	-0.21055138
80	0x3d2bef20	0.041976094
81	0xbde4d628	-0.111736596
82	0xbe40ffb6	-0.18847546
83	0x3dd4a890	0.10383713
84	0x3e6f5b9c	0.2337479
85	0xbe77c254	-0.24195224
86	0xbd5e2660	-0.054235816
87	0xbdf338cc	-0.118760675
88	0xbd5923c0	-0.05301261
89	0xbe7aa23e	-0.24475953
90	0x3e19b36c	0.1500985
91	0xbd308670	-0.04309696
92	0xbe6918d8	-0.22763383
93	0x3e6d29f4	0.23160535
94	0x3dacd350	0.08438742
95	0xbb4a6d00	-0.0030887723
96	0xbd4c1bd8	-0.04983124
97	0xbceb4e80	-0.028723955
98	0x3e0be544	0.13661677
99	0x3d8e343c	0.06943557
100	0x3d9482dc	0.07251522
101	0x3da522c8	0.080632746
102	0xbdf6cff0	-0.1205138
103	0xbe18732a	-0.14887682
104	0xbe34b194	-0.17645866
105	0xbbf2f040	-0.007413894
106	0x3e52d642	0.20589545
107	0xbe01066a	-0.12600103
108	0xbd846fe8	-0.06466657
109	0x3e7582a6	0.2397562
110	0xbc5d51c0	-0.01350826
111	0x3d481010	0.048843443
112	0x3d2163a8	0.03940168
113	0x3d0bfe88	0.034178287
114	0xbdcebaec	-0.10094246
115	0x3e0b44fa	0.13600531
116	0xbe0f73da	-0.14009038
117	0xbc0c69e0	-0.008570164
118	0xbdb74f40	-0.089506626
119	0x3d84c270	0.064823985
120	0x3e4a911c	0.19781917
121	0x3e3d1c88	0.18467915
122	0x3e4aeb5e	0.19816348
123	0xbe5142f8	-0.20435703
124	0xbe27d01e	-0.16387984
125	0x3c8abc50	0.016935498
126	0xbddb85e0	-0.10718894
127	0x3d2e5630	0.042562664
128	0x3e578206	0.21045694
129	0x3dbfdc72	0.093682185
130	0x3d841537	0.06449359
131	0xbdf73a60	-0.12071681
132	0x3d4b45e8	0.049627215
133	0xbe8873aa	-0.26650745
134	0xbd6a273e	-0.05716633
135	0xbe60c9b8	-0.2195195
136	0x3dc72601	0.097240455
137	0xbda9b454	-0.08286348
138	0xbd871de0	-0.06597495
139	0xbe0fe7ce	-0.1405327
140	0x3d20091f	0.0390712
141	0xbdcee510	-0.10102284
142	0xbd1c6cc7	-0.038189676
143	0x3d97f33e	0.07419442
144	0x3e0db9d7	0.13840424
145	0x3c5af2e8	0.013363577
146	0xbe10cd0c	-0.14140719
147	0x3dd421ec	0.103580326
148	0xbd97d8b8	-0.07414383
149	0x3d60b151	0.054856602
150	0xbe15a546	-0.14613828
151	0xbbf7b880	-0.007559836
152	0x3ea49dee	0.3215174
153	0x3e32b79a	0.17452851
154	0xbe1995c2	-0.14998534
155	0xbe14ce42	-0.14531806
156	0x3e438500	0.19093704
157	0xbcfa260c	-0.03053572
158	0x3e8be492	0.27322823
159	0x3cac955a	0.02106731
160	0x3e1fb2e5	0.15595587
161	0x3e313ec8	0.17309105
162	0x3e9b46ae	0.30327362
163	0x3e3fe7ea	0.18740812
164	0x3dba2978	0.09089941
165	0x3ebf171c	0.3732232
166	0xbdff224e	-0.12457715
167	0x3e0ee3bc	0.13954061
168	0x3e87282e	0.26397842
169	0xbd44e250	-0.04806739
170	0xbd818f50	-0.06326163
171	0x3e2ef910	0.17087197
172	0xbcd4ccb4	-0.025976516
173	0xbd6a2998	-0.057168573
174	0x3e6cb59f	0.23116158
175	0x3e0ab668	0.13546145
176	0xbd805497	-0.06266134
177	0xbd99d38c	-0.075110525
178	0x3ea92bf5	0.3304135
179	0xbda3aa54	-0.07991472
180	0x3d9a5918	0.075365245
181	0x3e5d8eb2	0.21636465
182	0xbcbdc272	-0.023164008
183	0xbe3e9a96	-0.18613657
184	0x3d999f3b	0.07501074
185	0xbcf368c0	-0.029713035
186	0x3e470718	0.194363
187	0x3df881d8	0.12134141
188	0x3cf40c33	0.029790973
189	0xbdf24a3f	-0.118305676
190	0x3e88d366	0.26723784
191	0xbdde0453	-0.108406685
192	0x3cf012c0	0.029305816
193	0xbd0f4cf0	-0.034985483
194	0xbe3b37a0	-0.18282938
195	0xbc236b80	-0.0099743605
196	0x3dcfd174	0.10147372
197	0xbe1a012a	-0.15039507
198	0xbe1829b0	-0.14859653
199	0xbd9f47e0	-0.07777381
200	0xbe166a58	-0.14689004
201	0x3dded3b4	0.10880223
202	0x3bc421c0	0.0059854686
203	0x3d812580	0.06305981
204	0xbe3e75ac	-0.18599576
205	0x3e39e0bc	0.18152136
206	0xbe5c58de	-0.21518275
207	0xbda211e0	-0.07913566
208	0x3d741328	0.05958858
209	0xbca06310	-0.019578487
210	0xbe0a0422	-0.13478139
211	0xbe5de7fa	-0.21670523
212	0xbe3cdb50	-0.18443036
213	0xbe092d6a	-0.1339623
214	0x3d7c3638	0.061575145
215	0xbd0face8	-0.035077006
216	0xbe025a70	-0.12729812
217	0x3df9ada0	0.121913195
218	0x3e53fa4c	0.2070095
219	0x3de4cea4	0.11172226
220	0x3e1c3204	0.15253454
221	0x3c55f420	0.013058692
222	0xbe6c299c	-0.23062748
223	0xbcc24a20	-0.023716986
224	0xbdedf35c	-0.11618683
225	0x3d536048	0.051605493
226	0xbe575b60	-0.2103095
227	0xbd9eaa58	-0.07747334
228	0xbe62d220	-0.22150469
229	0xbe572dda	-0.21013585
230	0x3e6c77ae	0.23092529
231	0x3e52a8b2	0.20572165
232	0xbda93214	-0.08261505
233	0xbde77ac4	-0.113027126
234	0xbd34ae58	-0.04411158
235	0x3e47b412	0.19502285
236	0xbe2a7aee	-0.16648456
237	0x3df89660	0.12138057
238	0xbe4c1050	-0.19928098
239	0x3cf7edd0	0.030264765
240	0x3e45e6a0	0.19326258
241	0x3e13df32	0.14440611
242	0xbe3200ad	-0.1738307
243	0xbe29e4d4	-0.16591197
244	0x3e23fd62	0.16014627
245	0xbdfdea39	-0.1239819
246	0x3d8e5f74	0.069518
247	0x3d05b9c0	0.032647848
248	0xbdb6dd9c	-0.089289874
249	0x3d849b2c	0.06474909
250	0x3dbc9ee0	0.092099905
251	0x3e5c6478	0.21522701
252	0xba20e59b	-0.00061377295
253	0xbe80be63	-0.25145254
254	0xbcf2d9ba	-0.029644836
255	0x3d286193	0.04110868

hedge_q.2.linear_relu_stack.4.bias f4 [16]
0	0xbe6efdef	-0.23339055
1	0x3ea0d63b	0.31413445
2	0x3e0ac1ad	0.13550444
3	0xbdc20e27	-0.094753556
4	0x3cd3e22e	0.025864687
5	0x3cd8e150	0.026474625
6	0x3d0d53b8	0.03450367
7	0xbe315fe2	-0.17321733
8	0xbe05b611	-0.13057734
9	0x3e7f31cb	0.24921338
10	0x3cc57066	0.024101447
11	0x3b8b9d9a	0.004260731
12	0xbe2aa280	-0.16663551
13	0x3c2a60a0	0.010399014
14	0xbe0700b2	-0.13183859
15	0xbd04e06c	-0.032440588

hedge_q.2.linear_relu_stack.6.weight f4 [1, 16]
0	0xbdcb5328	-0.0992797
1	0xbf1867cd	-0.5953339
2	0xbf0e942a	-0.5569483
3	0xbb4daf60	-0.003138505
4	0x3e9bf06d	0.30456868
5	0xbcb65b20	-0.022260249
6	0xbe4f2da8	-0.2023226
7	0xbce706c0	-0.02820146
8	0xbe535c83	-0.20640759
9	0x3e8d511d	0.27600947
10	0x3e92b355	0.28652444
11	0x3e80add1	0.2513261
12	0xbe5735e8	-0.21016657
13	0xbe6851d8	-0.22687471
14	0xbe1b5956	-0.15170798
15	0xbdda5288	-0.10660273

hedge_q.3.linear_relu_stack.0.weight f4 [16, 1]
0	0x3ebdb697	0.37053367
1	0x3ea864f6	0.32889527
2	0xbe8790c4	-0.26477635
3	0x3f0af812	0.54284775
4	0x3f346ac9	0.7047544
5	0x3f672aa6	0.9029945
6	0xbe9cb566	-0.30607146
7	0x3f2623db	0.6489846
8	0xbf002e50	-0.5007067
9	0x3cd9d840	0.026592374
10	0x3f3b7472	0.73224556
11	0x3ed49cd8	0.41525912
12	0xbdc08815	-0.094009556
13	0xbe96d5d8	-0.29460025
14	0x3f5bc2b9	0.85844
15	0x3e83064d	0.25590745

hedge_q.3.linear_relu_stack.0.bias f4 [16]
0	0x3ea0e450	0.3142419
1	0x3f442123	0.7661306
2	0xbf1bf796	-0.6092466
3	0x3d1de10f	0.03854471
4	0x3e0439e6	0.12912712
5	0x3ee60b82	0.44930655
6	0x3f0efb21	0.5585194
7	0xbe603b9a	-0.21897736
8	0x3f0dc020	0.55371284
9	0xbde46170	-0.11151397
10	0xbf53ab48	-0.8268323
11	0xbf3db672	-0.74106514
12	0x3f5b2e96	0.8561796
13	0xbdc959b0	-0.0983156
14	0x3ece72d2	0.40321976
15	0x3f452138	0.7700381
