Models/Heston/SRNN/hs_SRNN_CVaR_99_tc.pth (torch, 326636 bytes, 406 tensors)

hedge_qs.0.linear_relu_stack.0.weight f4 [16, 4]
-0.25702125 0.09043881 0.5502098 0.024506267 0.2522139 0.25320393 -0.46537203 0.082194924
-0.25351223 0.40616554 0.11328101 0.3311258 -0.4766335 -0.07161188 -0.40907001 -0.025226891
0.27252752 -0.40507394 0.3665852 -0.4925933 0.35911703 -0.22361049 0.47217283 0.15984926
0.45656988 0.25189507 -0.051967867 -0.41412997 -0.38072324 -0.12679785 -0.15469946 0.47564793
0.15108514 -0.2711123 0.1270473 -0.39064822 0.28476697 -0.06772583 0.42490774 -0.33334184
0.39417756 -0.26855874 0.089946866 -0.4101907 -0.10306162 -0.3776257 0.13038713 -0.32239163
0.47457287 -0.21294314 0.22729646 0.11415837 -0.12847179 0.14259268 0.10968953 0.15627602
0.55646837 -0.50959796 0.11464924 0.32077536 0.092321694 0.3284952 -0.2166189 -0.18697041
00000000: 4a98 83be fc37 b93d 8dda 0c3f 5ec1 c83c
00000010: 2e22 813e f2a3 813e 3e45 eebe d055 a83d
00000020: 5bcc 81be eef4 cf3e e0ff e73d 5289 a93e
00000030: 4e09 f4be 40a9 92bd a071 d1be a0a8 cebc
00000040: ba88 8b3e da65 cfbe 0eb1 bb3e 3035 fcbe
00000050: 30de b73e 26fa 64be a3c0 f13e 86af 233e
00000060: 87c3 e93e 64f8 803e 42dc 54bd d808 d4be
00000070: 28ee c2be 4cd7 01be 8969 1ebe 2088 f33e
00000080: 10b6 1a3e 3bcf 8abe b018 023e 0b03 c8be
00000090: facc 913e d7b3 8abd 828d d93e c8ab aabe
000000a0: a4d1 c93e 8880 89be 1036 b83d 8404 d2be
000000b0: f811 d3bd 2858 c1be 3484 053e 8410 a5be
000000c0: 37fb f23e c40d 5abe 67c0 683e ddcb e93d
000000d0: 1c8e 03be d103 123e e8a4 e03d d206 203e
000000e0: b674 0e3f 0375 02bf 39cd ea3d ab3c a43e
000000f0: 2813 bd3d 8630 a83e 58d1 5dbe 2c75 3fbe

hedge_qs.0.linear_relu_stack.0.bias f4 [16]
0.5413536 -0.38148773 -0.3802011 -0.18377584 -0.08003408 -0.104864165 0.37594944 0.30568486
0.34684557 -0.14030692 -0.27381128 -0.24045008 -0.15728024 0.3296387 -0.35695052 0.29749668
00000000: 2696 0a3f 5c52 c3be b8a9 c2be bc2f 3cbe
00000010: e8e8 a3bd 06c3 d6bd 727c c03e ba82 9c3e
00000020: be95 b13e 9eac 0fbe fe30 8cbe 8c38 76be
00000030: 120e 21be 67c6 a83e 38c2 b6be 7c51 983e

hedge_qs.0.linear_relu_stack.2.weight f4 [16, 16]
0.2095968 0.19782865 -0.006560489 0.097483546 -0.0222117 -0.10620278 -0.119547 0.18834776
0.17482296 0.054534946 -0.1413467 0.15284139 -0.22589529 -0.032422855 0.08178562 0.13186762
-0.2341496 0.24062654 0.19559816 -0.2311891 -0.047028095 0.14743325 -0.23133895 -0.0052516162
-0.17428434 -0.118594736 0.13871649 0.0010158122 0.03784877 -0.034822285 0.17515886 0.08889744
0.144045 -0.05917415 -0.07508538 0.13335449 -0.21475562 -0.26684138 -0.18377416 0.07725774
0.09896112 -0.14988743 -0.191378 -0.24012572 0.15445486 0.057836447 -0.009677184 -0.21955872
0.29885972 -0.09932503 0.18480556 -0.21537718 -0.036339283 0.25603646 -0.068087205 -0.03490305
0.11593866 0.09741004 -0.07327783 0.03226617 0.07900456 -0.047413822 0.111678235 0.1284832
0.026898075 0.09464365 0.066296995 -0.06802717 0.11848825 -0.26841977 0.049943138 0.12299386
0.19087704 0.08217965 0.22479886 -0.025345027 -0.28247678 -0.21227498 -0.11551892 0.16768193
0.1447621 -0.008184165 -0.16121927 0.14651287 0.05978918 -0.12775855 -0.18958792 -0.18860462
0.106522195 -0.1802293 -0.12695873 -0.10361272 0.22104686 -0.08959134 -0.087740436 0.013486952
0.09359529 0.063806415 0.116590045 0.2471205 -0.21404177 0.020481106 -0.15040424 0.026397854
0.049875237 -0.055719614 0.078956485 0.05550635 0.15338078 -0.30026296 0.10184247 0.1369606
-0.16749015 -0.030156136 0.12259212 -0.01447317 0.074605614 -0.105710745 0.08616212 0.016404092
0.021285027 0.09891522 0.15835714 -0.21112484 -0.03708276 -0.19585359 -0.23847917 0.23972645
-0.124667466 -0.24561936 -0.21605863 -0.10148862 0.1341446 -0.064842716 -0.19320227 0.027051808
0.11455707 -0.18755694 -0.13210812 0.24127251 0.15218198 0.124823384 -0.040351897 0.089356124
0.23788607 -0.10559979 -0.15310675 -0.1926637 -0.08094689 0.22615287 0.15166439 0.23218557
-0.0048692008 0.13062568 0.22572991 0.17137265 0.28903124 0.0016489652 0.10750867 0.18018737
-0.24108258 -0.11866745 -0.10968265 0.08682284 -0.015786171 0.020066142 0.00014993548 -0.16210106
0.024973512 -0.1371946 0.20166755 -0.05456528 -0.13338837 -0.11791548 0.22595906 -0.22193834
0.1816313 -0.035289317 -0.104728065 0.13255754 0.21249375 -0.05156221 0.24565367 -0.08872124
-0.13893619 0.1042388 -0.07980558 -0.0191409 -0.092906386 0.18675968 0.31278545 0.21835911
0.12054479 0.17872581 -0.061327174 0.11566833 -0.20230258 -0.29967448 0.024961675 0.10944593
0.0075941985 -0.2344472 0.24235746 0.19593698 -0.312612 0.04633778 0.28822416 0.022735417
0.032194376 -0.013887435 0.055949457 -0.22288585 -0.18432385 0.03015249 -0.20970322 0.15925229
0.104056604 0.16795228 -0.00597322 0.19628939 -0.03610698 0.15989456 0.05321447 0.087608546
-0.24972187 -0.22803533 0.012369128 -0.14561087 0.18648326 -0.040118434 -0.08285468 0.16498262
-0.14790884 0.15456748 -0.14408171 0.060757816 0.13500646 0.13534512 -0.38148072 -0.0552333
-0.21163672 0.15553853 -0.27733925 0.13097668 -0.14022264 0.15221158 0.19367543 -0.09596488
-0.012469923 0.10761149 0.09242815 0.10476217 -0.074830346 0.20095114 -0.056671254 0.025104225
00000000: 8ba0 563e 9893 4a3e 5ff9 d6bb 74a5 c73d
00000010: 50f5 b5bc d880 d9bd 0fd5 f4bd 3cde 403e
00000020: ca04 333e 0960 5f3d 30bd 10be 7482 1c3e
00000030: 1851 67be d4cd 04bd 387f a73d 4e08 073e
00000040: eac4 6fbe ce66 763e e24a 483e d6bc 6cbe
00000050: 88a0 40bd bef8 163e 1ee4 6cbe c015 acbb
00000060: 9877 32be cce1 f2bd b20b 0e3e 0025 853a
00000070: 5007 1b3d d0a1 0ebd d85c 333e dc0f b63d
00000080: 8880 133e 9860 72bd 5dc6 99bd 148e 083e
00000090: e6e8 5bbe 6f9f 88be 4b2f 3cbe 4e39 9e3d
000000a0: 21ac ca3d 177c 19be 98f8 43be 84e3 75be
000000b0: 6a29 1e3e e9e5 6c3d 0d8d 1ebc 00d4 60be
000000c0: 2404 993e ec6a cbbd ab3d 3d3e d68b 5cbe
000000d0: 80d8 14bd 3617 833e 4e71 8bbd 80f6 0ebd
000000e0: 4071 ed3d ea7e c73d b012 96bd 8829 043d
000000f0: 25cd a13d ff34 42bd 8fb7 e43d 1a91 033e
00000100: 5a59 dc3c 88d4 c13d b8c6 873d d451 8bbd
00000110: f8a9 f23d 516e 89be 2d91 4c3d 34e4 fb3d
00000120: 4575 433e ce4d a83d ac31 663e 60a0 cfbc
00000130: cca0 90be 9d5e 59be 2f95 ecbd d0b4 2b3e
00000140: 843c 143e e016 06bc aa16 25be 7807 163e
00000150: 80e5 743d 23d3 02be 5623 42be 9221 41be
00000160: 4f28 da3d 088e 38be 7801 02be e832 d4bd
00000170: 1c5a 623e aa7b b7bd 42b1 b3bd 60f8 5c3c
00000180: e3ae bf3d f0ac 823d c3c6 ee3d 280d 7d3e
00000190: c42d 5bbe fec7 a73c 9203 1abe 5040 d83c
000001a0: fa49 4c3d 403a 64bd f0b3 a13d a05a 633d
000001b0: da0f 1d3e 11bc 99be c992 d03d 663f 0c3e
000001c0: 8a82 2bbe 000a f7bc 9411 fb3d e020 6dbc
000001d0: d4ca 983d e07e d8bd c475 b03d e061 863c
000001e0: f05d ae3c 1094 ca3d 6028 223e 1c31 58be
000001f0: 18e4 17bd d88d 48be e233 74be da7a 753e
00000200: a851 ffbd a483 7bbe 793e 5dbe 44d9 cfbd
00000210: 345d 093e 42cc 84bd d1d6 45be c19b dd3c
00000220: e69c ea3d ed0e 40be 5a47 07be 2410 773e
00000230: 98d5 1b3e 67a3 ff3d 0848 25bd 5800 b73d
00000240: 6898 733e b444 d8bd 04c8 1cbe a249 45be
00000250: 7cc7 a5bd 9e94 673e e94d 1b3e 0ec2 6d3e
00000260: d18d 9fbb bdc2 053e be25 673e 507c 2f3e
00000270: e7fb 933e 1722 d83a 812d dc3d 0a83 383e
00000280: 5ade 76be ec07 f3bd 4ca1 e0bd 2cd0 b13d
00000290: 0052 81bc c061 a43c 0038 1d39 d2fd 25be
000002a0: 4095 cc3c be7c 0cbe f081 4e3e d87f 5fbd
000002b0: f696 08be ac7d f1bd d061 673e ce43 63be
000002c0: 8efd 393e 888b 10bd ab7b d6bd 2abd 073e
000002d0: f697 593e e532 53bd a38c 7b3e 7bb3 b5bd
000002e0: 4a45 0ebe 277b d53d 1c71 a3bd 60cd 9cbc
000002f0: b445 bebd ee3d 3f3e 6a25 a03e 8899 5f3e
00000300: 30e0 f63d e603 373e 3432 7bbd 84e3 ec3d
00000310: 6828 4fbe ef6e 99be 6d7c cc3c 3025 e03d
00000320: c1d8 f83b ed12 70be 8e2c 783e b4a3 483e
00000330: ae0e a0be afcc 3d3d 1e92 933e a03f ba3c
00000340: 40de 033d 2088 63bc 422b 653d 303c 64be
00000350: 64bf 3cbe 5b02 f73c 71bc 56be 0813 233e
00000360: a11b d53d affb 2b3e 00bb c3bb 1600 493e
00000370: eae4 13bd 66bb 233e 6bf7 593d 1c6c b33d
00000380: 17b7 7fbe 1882 69be e2a7 4a3c 041b 15be
00000390: 78f5 3e3e 3a53 24bd b7af a9bd 34f1 283e
000003a0: 6a75 17be f046 1e3e 288a 13be 30dd 783d
000003b0: 223f 0a3e e997 0a3e 7151 c3be 503c 62bd
000003c0: 4cb7 58be 7e45 1f3e 69ff 8dbe c01e 063e
000003d0: 8696 0fbe 5add 1b3e da52 463e 3c89 c4bd
000003e0: a64e 4cbc 6a63 dc3d f84a bd3d 8c8d d63d
000003f0: a740 99bd 23c6 4d3e 1e20 68bd 60a7 cd3c

hedge_qs.0.linear_relu_stack.2.bias f4 [16]
-0.13387991 -0.14420888 -0.14536393 0.010599496 0.1372972 0.20157468 -0.25058952 0.15297267
0.02182323 0.22491285 0.033763587 0.12673903 0.16731548 0.20480087 0.0834934 0.19930866
00000000: d117 09be 7eab 13be 48da 14be 82a9 2d3c
00000010: a397 0c3e 9869 4e3e 454d 80be dea4 1c3e
00000020: a1c6 b23c 8e4f 663e b04b 0a3d e0c7 013e
00000030: c054 2b3e 52b7 513e 96fe aa3d 9217 4c3e

hedge_qs.0.linear_relu_stack.4.weight f4 [16, 16]
0.26855567 0.07317501 0.21998788 0.12553342 -0.10387278 0.027921962 -0.09434715 -0.15592894
0.04111731 0.15280272 0.045911014 0.17844045 0.040800676 -0.07875887 -0.13839749 0.30264613
-0.0604854 -0.11977121 -0.008620948 -0.25045356 -0.10996348 -0.015508282 0.13400295 -0.19961402
-0.08862823 -0.16637652 0.021273822 0.2534371 0.18116637 0.16403766 -0.010670277 -0.19653928
-0.13704462 0.104889035 0.071733326 -0.0071256156 0.041796036 0.012637725 -0.19973613 -0.15969649
-0.10224343 0.21191518 -0.20097557 -0.12451677 0.31006825 0.054109592 -0.18765387 0.21063644
0.24417993 0.10715425 -0.07741088 -0.10405069 -0.05101845 -0.20395997 -0.1156172 0.054930925
-0.0850145 -0.08015241 0.19332212 0.06887484 0.15647888 0.14528687 -0.14536195 -0.07302936
0.080055356 -0.14434236 0.00873363 0.11313465 -0.059351355 -0.18921027 -0.020729452 0.15668389
-0.07685745 0.013718009 0.044570476 -0.1514583 -0.054011285 -0.19028807 -0.12850899 0.14801964
0.11580405 0.053804398 -0.11921684 -0.14152822 -0.12743308 -0.048922796 -0.043064892 -0.13863578
-0.07601261 -0.035142608 -0.16631913 0.046314646 0.1686019 -0.22347058 0.05136322 -0.11783217
0.028311899 0.0050589144 0.15420175 0.02400418 -0.013793281 0.0035976225 0.20629032 0.12036729
-0.13688813 0.20727946 -0.19301245 0.27584252 0.06935406 0.17844567 -0.067426845 0.22217909
0.18502387 0.12092021 0.108337045 0.16198742 -0.0645336 0.015331949 0.087650314 0.09231201
0.06479344 0.16430187 0.13347456 0.12918356 -0.029318258 0.16953781 -0.0237336 0.08562158
0.23314764 0.016210228 0.17587468 -0.11908733 -0.04842951 0.057188034 0.105265856 0.023403227
0.055937767 -0.010106368 0.106767446 -0.1770282 -0.12992813 0.07324471 -0.05451765 0.1049918
-0.22150761 0.1653642 0.046275035 0.08857907 -0.15517804 -0.05647129 0.05666986 -0.02787131
-0.01098904 -0.22774972 -0.22289294 0.1429357 0.07402316 -0.07343772 -0.19435206 -0.12246516
0.23396443 0.09374902 -0.24515748 0.36197516 -0.20268595 0.03937039 -0.1441845 0.2493509
-0.019799003 0.30872443 -0.012771666 0.09641816 -0.066277556 0.32823235 -0.10236892 0.14511089
0.116998225 0.20357707 -0.126097 -0.23324484 0.17743513 -0.021920443 -0.18990377 -0.06253642
-0.008909881 0.074233115 0.0934712 -0.19099885 -0.12490538 0.231891 -0.12199834 0.009480506
-0.22138408 0.048815608 0.22446811 0.13389364 0.18399951 0.13082013 -0.047177076 -0.20097536
-0.23554528 -0.02741322 -0.24575818 -0.23402062 -0.07629746 0.008125842 0.2170254 0.2108688
-0.023733651 -0.019226462 -0.05730065 -0.061694775 -0.005252135 0.05925578 0.05495185 0.12766233
0.18518837 0.008663186 -0.016848058 -0.17847472 0.12715372 0.11275973 0.22860715 -0.18284003
-0.17820275 0.16087407 -0.13077569 -0.12587947 0.17122638 -0.13525376 -0.032503158 -0.22535703
-0.029450327 -0.0792796 -0.051003337 -0.23193952 -0.020048648 -0.07072422 0.24094594 0.22429559
0.09596802 -0.1501768 0.16552462 -0.264785 0.17729555 -0.04162349 -0.14233217 -0.043465406
0.061221406 -0.03525881 -0.13868842 -0.24961841 -0.03161223 0.0550934 0.2245205 0.17576073
00000000: 2180 893e c8dc 953d 8144 613e d58b 003e
00000010: 41bb d4bd 99bc e43c 1439 c1bd d6ab 1fbe
00000020: a06a 283d 5178 1c3e 300d 3c3d 18b9 363e
00000030: 9c1e 273d 554c a1bd 12b8 0dbe 6ff4 9a3e
00000040: 8abf 77bd 9c4a f5bd e03e 0dbc 733b 80be
00000050: 8834 e1bd 7316 7ebc 1238 093e 9e67 4cbe
00000060: b882 b5bd 9b5e 2abe 7046 ae3c 82c2 813e
00000070: ad83 393e 7df9 273e 63d2 2ebc 9841 49be
00000080: 6d55 0cbe 10d0 d63d ece8 923d ff7d e9bb
00000090: 5232 2b3d 760e 4f3c a187 4cbe 7a87 23be
000000a0: 0165 d1bd 4b00 593e 8acc 4dbe a602 ffbd
000000b0: 44c1 9e3e 05a2 5d3d 5628 40be 14b1 573e
000000c0: 4e0a 7a3e b073 db3d 9889 9ebd 8718 d5bd
000000d0: b9f8 50bd e2da 50be b6c8 ecbd 40ff 603d
000000e0: 151c aebd f226 a4bd 3cf6 453e 410e 8d3d
000000f0: 003c 203e 15c6 143e c3d9 14be 6b90 95bd
00000100: 10f4 a33d 7cce 13be 8017 0f3c 24b3 e73d
00000110: 681a 73bd 56c0 41be d0d0 a9bc be71 203e
00000120: 7067 9dbd 80c1 603c 888f 363d e217 1bbe
00000130: f03a 5dbd e0da 42be dc97 03be 7692 173e
00000140: ac2a ed3d 0062 5c3d f527 f4bd c6ec 10be
00000150: d17d 02be 4563 48bd d064 30bd 8af6 0dbe
00000160: 80ac 9bbd b2f1 0fbd 904f 2abe 6db4 3d3d
00000170: faa5 2c3e 79d5 64be 3d62 523d fe51 f1bd
00000180: 5bee e73c 40c5 a53b 10e7 1d3e 6aa4 c43c
00000190: 37fd 61bc 17c6 6b3b c53d 533e 2083 f63d
000001a0: 672c 0cbe 1141 543e 0ea5 45be 3b3b 8d3e
000001b0: 8009 8e3d 76ba 363e 1617 8abd ea82 633e
000001c0: e676 3d3e 04a5 f73d d0df dd3d 08e0 253e
000001d0: 312a 84bd db32 7b3c 0282 b33d 140e bd3d
000001e0: 6cb2 843d c03e 283e 8ead 083e b248 043e
000001f0: d82c f0bc 529b 2d3e f76c c2bc 5e5a af3d
00000200: 41be 6e3e 50cb 843c 7e18 343e 0fe4 f3bd
00000210: 065e 46bd 003e 6a3d a095 d73d 20b8 bf3c
00000220: 001f 653d 2e95 25bc e4a8 da3d e146 35be
00000230: e10b 05be 5301 963d e64d 5fbd f105 d73d
00000240: e4d2 62be 3c55 293e e48a 3d3d f268 b53d
00000250: fee6 1ebe 704e 67bd a81e 683d 6052 e4bc
00000260: 600b 34bc 3937 69be 0c3e 64be bc5d 123e
00000270: 7499 973d 8466 96bd 3a04 47be 04cf fabd
00000280: 5f94 6f3e 7cff bf3d 900a 7bbe cf54 b93e
00000290: e88c 4fbe d942 213d 1aa5 13be d855 7f3e
000002a0: 8531 a2bc 2111 9e3e 4040 51bc e276 c53d
000002b0: 87bc 87bd 120e a83e cca6 d1bd f397 143e
000002c0: c49c ef3d 8276 503e 921f 01be bcd7 6ebe
000002d0: 8eb1 353e 8092 b3bc 2276 42be 1813 80bd
000002e0: c0fa 11bc 8807 983d d46d bf3d 3495 43be
000002f0: 64ce ffbd d674 6d3e 44da f9bd 2054 1b3c
00000300: 82b2 62be e0f2 473d f8da 653e 6a1b 093e
00000310: 5e6a 3c3e b6f5 053e c03c 41bd 7ccc 4dbe
00000320: c832 71be b091 e0bc 08a8 7bbe 1aa3 6fbe
00000330: d841 9cbd 4022 053c e83b 5e3e feed 573e
00000340: 136d c2bc d080 9dbc 16b4 6abd a9b3 7cbd
00000350: 1a1a acbb 30b6 723d 3115 613d eab9 023e
00000360: 05a2 3d3e 09f0 0d3c f004 8abc 14c2 36be
00000370: 9634 023e 93ee e63d fe17 6a3e 6b3a 3bbe
00000380: c87a 36be 2cbc 243e 10ea 05be 8ce6 00be
00000390: f855 2f3e f67f 0abe 0822 05bd fec3 66be
000003a0: d041 f1bc 585d a2bd e0e8 50bd 8e81 6dbe
000003b0: 103d a4bc dcd7 90bd 88ba 763e bead 653e
000003c0: e28a c43d f2c7 19be 497f 293e e691 87be
000003d0: f78c 353e 657d 2abd 86bf 11be c808 32bd
000003e0: 4cc3 7a3d 8b6b 10bd 5604 0ebe f89b 7fbe
000003f0: d37b 01bd 9ea9 613d b4e8 653e 9ffa 333e

hedge_qs.0.linear_relu_stack.4.bias f4 [16]
-0.14528696 0.15696698 0.25392747 0.07092953 0.053100765 -0.15261015 0.14966501 0.19874634
-0.050326455 -0.07588179 0.2626085 -0.16073906 -0.2367925 0.21069269 0.009139687 0.15409102
00000000: 1bc6 14be f4bb 203e c802 823e 8043 913d
00000010: 3080 593d d645 1cbe c941 193e 2984 4b3e
00000020: 1d23 4ebd e967 9bbd 9f74 863e c898 24be
00000030: bc79 72be d3bf 573e a0be 153c 09ca 1d3e

hedge_qs.0.linear_relu_stack.6.weight f4 [1, 16]
-0.13857396 -0.14469305 0.057046246 -0.13127181 -0.040300667 -0.0070165936 0.1828343 0.017985465
0.003339944 0.032611612 0.32309178 -0.113271594 0.03153929 0.007941032 0.1105198 0.05505693
00000000: 55e6 0dbe 6a2a 14be 53a9 693d 1e6c 06be
00000010: 5012 25bd 74eb e5bb ea38 3b3e 4156 933c
00000020: f6e2 5a3b c193 053d 496c a53e f0fa e7bd
00000030: 582f 013d 1a1b 023c 3458 e23d 6083 613d

hedge_qs.1.linear_relu_stack.0.weight f4 [16, 4]
-0.0738101 0.4678133 -0.41499048 -0.30454397 -0.3685291 0.24456614 -0.3146632 0.2300017
0.1686055 -0.47868025 -0.3969924 -0.25853312 -0.47030896 -0.17243364 -0.24716762 -0.30517194
-0.260549 0.28105474 0.2499004 -0.4814663 0.19321586 0.2133308 -0.31134662 0.113419056
0.50948197 0.4205678 -0.05273427 -0.09695436 -0.2216 -0.47152913 0.11280388 -0.6151492
0.53583723 -0.016679665 0.015599312 0.18136598 -0.4394191 0.39008296 0.26618165 -0.080557406
0.1294018 0.22406423 -0.13599062 -0.13336378 -0.45718428 0.38881066 -0.36273205 0.46589983
0.38718468 0.34640834 -0.13081756 0.26939794 -0.35788187 0.38641202 -0.26814634 0.14680396
0.26928157 0.104025304 -0.18767941 -0.32487345 -0.46800494 0.4739212 0.16377297 0.22812437
00000000: c029 97bd 3a85 ef3e a279 d4be 30ed 9bbe
00000010: d9af bcbe 8c6f 7a3e 891b a1be 9185 6b3e
00000020: eca6 2c3e 9415 f5be 9642 cbbe 745e 84be
00000030: 56cc f0be 7292 30be 8219 7dbe 7f3f 9cbe
00000040: ae66 85be 68e6 8f3e e4e5 7f3e c082 f6be
00000050: 61da 453e 6473 5a3e d368 9fbe 4048 e83d
00000060: 696d 023f aa54 d73e e4ff 57bd 0290 c6bd
00000070: 1ceb 62be 446c f1be b805 e73d 6b7a 1dbf
00000080: a12c 093f cba3 88bc 4294 7f3c 01b8 393e
00000090: 8afb e0be f4b8 c73e f648 883e 48fb a4bd
000000a0: e881 043e 1871 653e 2041 0bbe 8490 08be
000000b0: 0f14 eabe 3112 c73e 04b8 b9be 6c8a ee3e
000000c0: 123d c63e 6f5c b13e 0af5 05be 87ee 893e
000000d0: 4b3c b7be ccd7 c53e 7a4a 89be c753 163e
000000e0: 46df 893e 380b d53d 082f 40be d055 a6be
000000f0: 589e efbe cda5 f23e 1ab4 273e 6f99 693e

hedge_qs.1.linear_relu_stack.0.bias f4 [16]
0.010612905 0.2591966 -0.35100633 0.3126449 -0.4811684 0.10451406 0.24268986 0.2731146
-0.26413974 -0.026804745 -0.124437094 0.34175786 -0.37328705 -0.38499296 -0.07241619 0.026443243
00000000: c0e1 2d3c 6bb5 843e 1ab7 b3be fe12 a03e
00000010: b45b f6be 780b d63d b183 783e add5 8b3e
00000020: 533d 87be a095 dbbc e0d8 febd e3fa ae3e
00000030: 7b1f bfbe cc1d c5be f04e 94bd 809f d83c

hedge_qs.1.linear_relu_stack.2.weight f4 [16, 16]
-0.17580566 -0.07880795 -0.034747034 -0.16103938 -0.021758527 0.23817879 -0.2163344 -0.09405258
-0.059997827 0.08817786 0.15056437 -0.16771048 0.03673914 -0.1978212 0.16146928 0.17867857
-0.012870103 0.17313473 0.14436269 -0.06455452 -0.00032308698 0.27156347 -0.17414665 -0.11352971
0.2704234 -0.16784364 0.15705556 0.11859143 0.24578737 -0.19998178 -0.047967434 0.07189069
-0.24187124 -0.1802633 0.2088125 0.17915687 -0.11863953 -0.21434426 -0.057838093 -0.07180874
-0.012385762 0.07919446 0.18104985 -0.16770191 -0.21850932 0.1523973 -0.19886878 -0.06391655
0.018057227 -0.15363815 0.14345309 0.13451251 0.19891384 0.23338562 -0.121167004 -0.23965043
-0.13934472 0.19438025 0.026188344 0.13828713 0.10170315 0.17728348 -0.12102851 -0.06155743
0.113147825 -0.092344314 -0.04782951 -0.14866686 -0.19960743 -0.16781387 0.04168877 0.011838853
0.14365548 -0.08720985 0.024544805 0.142573 -0.18204257 0.10439277 0.13036141 0.100901574
0.008210361 0.035269834 0.14777881 0.13652709 -0.105288744 -0.20898682 0.28783312 0.13101237
0.33085248 0.068405926 0.24551609 -0.1175868 -0.047157478 -0.18734115 -0.07573542 -0.39458323
0.19969958 0.08204109 -0.19442558 0.15293777 0.2334429 0.3839381 0.2150715 0.086364254
0.29877654 0.076627225 0.13789943 0.15181927 0.035905775 0.08235325 -0.09447071 -0.26202467
-0.16660532 -0.020273957 -0.2458179 -0.19680852 0.10639262 -0.08735436 0.17330806 0.14897417
0.16094372 0.026275456 -0.21650091 0.19066833 0.077801384 0.20419109 0.11540201 0.22748303
0.14087278 -0.07424945 0.14168304 -0.10374522 -0.1712065 -0.2394354 -0.08508858 -0.019257128
-0.12317151 0.00080013275 0.09109679 0.13674381 0.019602835 0.21031377 0.23062024 -0.0055856705
0.11261445 -0.06760615 0.16193792 -0.045226127 0.21194339 -0.14824364 -0.19636461 -0.063602805
-0.23113003 -0.05941993 -0.06703952 -0.21024707 0.20679781 -0.10692942 0.03214279 -0.20237878
0.10148412 0.11254904 0.224361 0.023320138 -0.18302506 -0.24176008 -0.037572086 -0.070852995
-0.20479247 0.018967777 0.23530209 -0.20458767 -0.2181117 -0.051787496 -0.22020864 -0.1878899
-0.24434814 0.08630156 0.20213926 -0.18866263 -0.13379556 -0.1424627 -0.14691998 -0.010303801
-0.110186525 -0.0036047697 -0.04987061 0.090805374 -0.002167181 0.10273565 -0.15132508 0.087735526
0.022731572 -0.13867594 0.072458684 0.17895536 0.051644236 -0.03605554 0.11091867 -0.17976063
-0.08239255 0.019091815 0.23802343 0.19254561 0.098300114 -0.10569888 -0.014954209 0.048231866
0.11955997 0.24420166 -0.15645266 0.13450047 0.17880112 -0.23139724 -0.18391526 0.22826615
0.11873701 -0.053156555 0.2176474 -0.113773435 0.074590445 -0.2483851 -0.02073741 -0.116651475
-0.051136225 0.13950895 -0.13891736 -0.110662796 0.0701803 0.2640149 -0.25755808 0.17671019
0.083265215 -0.14187166 0.09873816 0.22551751 -0.12125061 0.030966686 0.24151623 -0.27357858
-0.045221776 0.22124147 0.0077049434 -0.15293497 -0.16009271 0.023326576 -0.123713255 0.19464993
-0.044980943 -0.037076533 0.10887891 -0.11060837 -0.2264865 -0.12083334 -0.2287108 -0.02833122
00000000: 6606 34be 1066 a1bd e852 0ebd 82e7 24be
00000010: f03e b2bc 24e5 733e c486 5dbe a49e c0bd
00000020: 48c0 75bd 9896 b43d 8c2d 1a3e 4cbc 2bbe
00000030: c87b 163d a491 4abe 3458 253e 84f7 363e
00000040: 20dd 52bc 3b4a 313e d0d3 133e 2935 84bd
00000050: 0064 a9b9 5e0a 8b3e 8053 32be 4482 e8bd
00000060: f074 8a3e 34df 2bbe 2cd3 203e 10e0 f23d
00000070: afaf 7b3e 06c8 4cbe 8079 44bd 6d3b 933d
00000080: 18ad 77be f196 38be f2d2 553e e674 373e
00000090: 48f9 f2bd 107d 5bbe a3e7 6cbd 7610 93bd
000000a0: a7ed 4abc b430 a23d 2265 393e 0dba 2bbe
000000b0: e8c0 5fbe 0a0e 1c3e 42a4 4bbe aee6 82bd
000000c0: c0ec 933c 5253 1dbe 5ee5 123e a6bd 093e
000000d0: 12b0 4b3e a4fc 6e3e 6826 f8bd ec66 75be
000000e0: 62b0 0ebe 9e0b 473e f088 d63c 249b 0d3e
000000f0: be49 d03d cd89 353e ccdd f7bd a523 7cbd
00000100: 0cba e73d 041f bdbd e0e8 43bd 203c 18be
00000110: e465 4cbe 66d7 2bbe d8c1 2a3d c0f7 413c
00000120: 6c1a 133e 149b b2bd 3012 c93c a8fe 113e
00000130: 5e69 3abe e0cb d53d 767d 053e 7ca5 ce3d
00000140: c084 063c 1a77 103d 5453 173e c2cd 0b3e
00000150: a0a1 d7bd a400 56be dd5e 933e 1b28 063e
00000160: 7f65 a93e 6818 8c3d 9268 7b3e 59d1 f0bd
00000170: 3328 41bd 5cd6 3fbe 2c1b 9bbd d006 cabe
00000180: 0c7e 4c3e 2905 a83d 8017 47be b89b 1c3e
00000190: a80b 6f3e 8993 c43e b43b 5c3e bedf b03d
000001a0: 3df9 983e bcee 9c3d 8235 0d3e 8376 1b3e
000001b0: ef11 133d d2a8 a83d dc79 c1bd 1928 86be
000001c0: 969a 2abe 9215 a6bc b0b7 7bbe 2c88 49be
000001d0: 60e4 d93d d8e6 b2bd ab77 313e af8c 183e
000001e0: 6ece 243e a03f d73c 6ab2 5dbe 8f3e 433e
000001f0: 5556 9f3d 7817 513e e457 ec3d 50f1 683e
00000200: f440 103e 1810 98bd 5c15 113e 6078 d4bd
00000210: c250 2fbe 8e2e 75be ec42 aebd 20c1 9dbc
00000220: 5841 fcbd 00c0 513a f490 ba3d 9206 0c3e
00000230: 2096 a03c 7e5c 573e b627 6c3e 0008 b7bb
00000240: 68a2 e63d 1875 8abd 0ed3 253e 083f 39bd
00000250: b007 593e 2ecd 17be ce13 49be 3042 82bd
00000260: 5aad 6cbe 5062 73bd 044c 89bd 024b 57be
00000270: cec2 533e d0fd dabd 28a8 033d 623c 4fbe
00000280: e8d6 cf3d 1c80 e63d e4be 653e e009 bf3c
00000290: ec6a 3bbe f48f 77be 30e5 19bd 601b 91bd
000002a0: 1eb5 51be 5062 9b3c 08f3 703e 6e7f 51be
000002b0: ac58 5fbe 201f 54bd 607e 61be 3666 40be
000002c0: 6636 7abe dfbe b03d 98fd 4e3e c730 41be
000002d0: b401 09be bee1 11be 3172 16be 46d1 28bc
000002e0: 79a9 e1bd 003e 6cbb 2045 4cbd 2bf8 b93d
000002f0: 4407 0ebb 1267 d23d f6f4 1abe afae b33d
00000300: 9037 ba3c 1101 0ebe 3865 943d 1340 373e
00000310: e888 533d f9ae 13bd 5429 e33d 2c13 38be
00000320: 6dbd a8bd 7066 9c3c 6abc 733e ad2a 453e
00000330: 9251 c93d a878 d8bd 8002 75bc c78e 453d
00000340: dcdb f43d 0010 7a3e 2035 20be 7eba 093e
00000350: a417 373e 66f3 6cbe 4854 3cbe 9abe 693e
00000360: 642c f33d b0ba 59bd f6de 5e3e 0c02 e9bd
00000370: e0c2 983d aa58 7ebe 80e1 a9bc f8e6 eebd
00000380: 3874 51bd 6fdb 0e3e 5a40 0ebe 2da3 e2bd
00000390: b0ba 8f3d f62c 873e a7de 83be 84f3 343e
000003a0: f486 aa3d ce46 11be 3c37 ca3d 10ee 663e
000003b0: 3d52 f8bd d9ad fd3c 0850 773e 7e12 8cbe
000003c0: 783a 39bd 208d 623e c079 fc3b fc9a 1cbe
000003d0: 58ef 23be 6017 bf3c 605d fdbd 5052 473e
000003e0: f03d 38bd 90dd 17bd e8fb de3d a486 e2bd
000003f0: 14ec 67be 7877 f7bd 2a33 6abe e016 e8bc

hedge_qs.1.linear_relu_stack.2.bias f4 [16]
0.027212262 0.01931312 0.12958027 -0.17260388 -0.16066602 0.24379314 0.1376902 -0.13128449
-0.19948319 -0.21064335 -0.08956921 0.093781255 0.25852856 -0.038446337 0.10776926 -0.24776042
00000000: 40ec de3c 8c36 9e3c b1b0 043e 12bf 30be
00000010: a285 24be e9a4 793e a9fe 0c3e 716f 06be
00000020: 5245 4cbe e4b2 57be 1070 b7bd 6310 c03d
00000030: db5d 843e e879 1dbd 21b6 dc3d e8b4 7dbe

hedge_qs.1.linear_relu_stack.4.weight f4 [16, 16]
-0.15949708 -0.11944622 0.106965065 0.179106 0.23315114 -0.21745771 -0.011461258 -0.054190874
-0.16668501 0.13870278 -0.11366063 0.026278466 -0.16429594 0.021953553 0.028995067 0.19985709
-0.12421796 0.110479444 -0.33553904 -0.047785137 -0.06551278 -0.13102956 -0.2756269 0.0104425205
0.09696451 0.17803884 0.24266216 0.17342141 0.073561415 0.013872683 0.12008478 -0.0075288117
0.0046170056 0.038721316 0.081359126 0.12104148 0.19182321 0.23657832 0.350838 0.083167166
-0.15268156 -0.23734966 0.16114542 0.043110896 0.33769044 -0.048722595 0.014605816 -0.08122313
-0.07996556 0.13770798 0.023921698 0.009037179 0.21183479 -0.12808849 -0.2816238 -0.15588047
0.11545521 0.1325675 0.19151455 0.23950045 -0.16794375 -0.15428376 0.2235841 0.21824515
0.031541973 -0.083602935 0.13612142 0.17300627 -0.11147779 -0.24673885 0.21336308 0.18323582
0.1995103 0.12244588 -0.09311473 -0.2423681 -0.16574481 -0.1426607 0.012181938 0.20694545
-0.16949442 -0.24084541 -0.20008044 0.043445587 -0.16571757 0.20727873 -0.028074078 -0.21341331
0.24406695 0.030388623 -0.039840877 -0.077370815 0.08294674 0.24560794 -0.08932479 -0.17643458
-0.14175981 0.104781725 -0.12895192 -0.1955679 0.091764 0.09637396 -0.26098207 0.23397559
0.018486887 0.19446269 -0.015425712 0.17739129 0.17176554 -0.14362445 -0.070284665 -0.07650852
-0.22743785 -0.23996861 -0.04923132 -0.084826656 0.1829783 0.014138192 -0.18668774 0.2110066
0.16716436 0.24913654 -0.055525273 0.15891567 -0.032570697 0.21266043 0.1862807 0.08965185
0.04127285 0.098453134 -0.1964871 0.22569115 -0.179757 -0.2868106 -0.1754359 -0.0016865745
-0.20237166 -0.11767253 -0.21849713 0.05124808 0.2195466 -0.18678132 0.07733034 -0.23904505
0.119564444 0.058397457 0.12749368 -0.048719835 0.055646747 -0.18312949 -0.16828008 0.29129902
0.16584063 -0.06882176 0.2101753 0.048796583 0.18072362 0.0206635 -0.03172574 -0.18675834
-0.18147233 0.12833294 -0.2347196 -0.24643365 -0.12032047 -0.21247646 0.1650162 -0.08813414
0.034164548 0.028627604 -0.14918974 -0.13012901 -0.20525074 0.017443031 -0.124886185 0.043325692
-0.027769357 -0.22195089 0.110955 -0.118875146 0.0011043549 0.029514194 0.115353525 0.04874584
-0.022542596 -0.16865408 -0.07795882 -0.21363777 0.008035511 -0.03436774 -0.24211901 -0.028336465
0.029073894 0.14079754 0.21197832 -0.07395339 0.0061412156 -0.02885139 -0.3204218 -0.17402208
-0.2007407 0.15650111 0.14001653 -0.13886084 -0.111939386 0.02990964 0.22008458 -0.23935875
0.02309832 -0.20472041 -0.16690063 0.18254364 0.07612494 0.12877993 0.12651815 -0.113557704
-0.084938616 -0.12442419 -0.2468144 0.19775088 -0.27436832 0.21268114 0.05298161 -0.18842748
0.015596241 0.22528134 0.15938073 0.21325272 -0.19073316 -0.22997512 -0.032160506 0.13815603
0.23253247 -0.17652258 0.16561931 -0.14378263 -0.092191964 -0.008671284 0.10398877 -0.11874837
-0.2321296 0.22809443 -0.19954097 0.18701157 -0.062698156 0.09041789 -0.06106344 -0.261745
0.2110545 0.009594053 -0.18235195 0.12511635 -0.24236971 -0.20317376 0.064188816 -0.046976835
00000000: 3453 23be 38a0 f4bd 8010 db3d 9067 373e
00000010: 2cbf 6e3e 3cad 5ebe 00c8 3bbc 40f7 5dbd
00000020: 7aaf 2abe 1a08 0e3e e8c6 e8bd f045 d73c
00000030: 323d 28be f0d7 b33c 1087 ed3c 56a7 4c3e
00000040: fc65 febd 0c43 e23d c6cb abbe 59ba 43bd
00000050: 902b 86bd 9d2c 06be f81e 8dbe 1b17 2b3c
00000060: 5495 c63d d04f 363e 6e7c 783e 6295 313e
00000070: 5ea7 963d 404a 633c 02ef f53d 40b4 f6bb
00000080: 404a 973b 3e9a 1e3d 9d9f a63d 98e4 f73d
00000090: 4e6d 443e 9641 723e 0aa1 b33e 8c53 aa3d
000000a0: 8e58 1cbe ca0b 73be 4e03 253e 0d95 303d
000000b0: c3e5 ac3e 5891 47bd 3c4d 6f3c 5058 a6bd
000000c0: fcc4 a3bd 5203 0d3e 70f7 c33c ad10 143c
000000d0: 38eb 583e a129 03be ff30 90be 219f 1fbe
000000e0: c873 ec3d c6bf 073e 641c 443e 9b3f 753e
000000f0: 72f9 2bbe 90fc 1dbe 3bf3 643e a87b 5f3e
00000100: 2832 013d 0438 abbd 6a63 0b3e 8e28 313e
00000110: 784e e4bd 1ca9 7cbe da7b 5a3e 2ca2 3b3e
00000120: 6e4c 4c3e e8c4 fa3d f0b2 bebd 582f 78be
00000130: 02b9 29be a615 12be c096 473c 82e9 533e
00000140: f28f 2dbe 2ea0 76be e3e1 4cbe 00f4 313d
00000150: deb1 29be e040 543e 9cfb e5bc 0589 5abe
00000160: b0ec 793e 90f1 f83c 3030 23bd 9774 9ebd
00000170: fbdf a93d a680 7b3e eaef b6bd 44ab 34be
00000180: 7c29 11be cd97 d63d f90b 04be f442 48be
00000190: c4ee bb3d b65f c53d 719f 85be 4c97 6f3e
000001a0: d071 973c 3a21 473e 20bc 7cbc 10a6 353e
000001b0: 4ee3 2f3e 4a12 13be 68f1 8fbd 80b0 9cbd
000001c0: 78e5 68be 55ba 75be c8a6 49bd 99b9 adbd
000001d0: aa5e 3b3e e0a3 673c 122b 3fbe 1d12 583e
000001e0: 222d 2b3e a61d 7f3e 786e 63bd caba 223e
000001f0: da68 05bd a8c3 593e 5ec0 3e3e 649b b73d
00000200: b80d 293d cca1 c93d ea33 49be 951b 673e
00000210: 3812 38be d7d8 92be 78a5 33be 0d10 ddba
00000220: 843a 4fbe 4cfe f0bd b6bd 5fbe 82e9 513d
00000230: d3d0 603e 9a43 3fbe 5f5f 9e3d 3ac8 74be
00000240: 34de f43d 2c32 6f3d b48d 023e 738e 47bd
00000250: d8ed 633d 4c86 3bbe 9d51 2cbe 2525 953e
00000260: 20d2 293e 6cf2 8cbd 3238 573e edde 473d
00000270: 9d0f 393e 8046 a93c d9f2 01bd 943d 3fbe
00000280: e2d3 39be b669 033e 565a 70be 1a59 7cbe
00000290: 946a f6bd 6e93 59be 02fa 283e ac7f b4bd
000002a0: 20f0 0b3d 7084 ea3c 32c5 18be 8a40 05be
000002b0: 402d 52be b0e4 8e3c 54c4 ffbd 4876 313d
000002c0: 907c e3bc 1847 63be 603c e33d d074 f3bd
000002d0: 00c0 903a c0c7 f13c 783e ec3d b8a9 473d
000002e0: 40ab b8bc a8b3 2cbe e0a8 9fbd dcc3 5abe
000002f0: 60a7 033c 30c5 0cbd 0cee 77be e021 e8bc
00000300: 602c ee3c 3b2d 103e d810 593e e074 97bd
00000310: 403c c93b c059 ecbc 530e a4be d832 32be
00000320: f88e 4dbe d441 203e 7e60 0f3e 8931 0ebe
00000330: 7a40 e5bd 1005 f53c da5d 613e 761a 75be
00000340: b038 bd3c 3aa2 51be 00e8 2abe b8ec 3a3e
00000350: 64e7 9b3d e3de 033e f98d 013e f190 e8bd
00000360: 4cf4 adbd 1cd2 febd eabc 7cbe 357f 4a3e
00000370: 017a 8cbe 16c9 593e 3f03 593d 22f3 40be
00000380: 6087 7f3c 27b0 663e b434 233e ec5e 5a3e
00000390: 8e4f 43be 997e 6bbe bcba 03bd c678 0d3e
000003a0: fe1c 6e3e 56c2 34be 1c98 293e c13b 13be
000003b0: 24cf bcbd 0012 0ebc 10f8 d43d 5832 f3bd
000003c0: 62b3 6dbe 9691 693e 7854 4cbe f67f 3f3e
000003d0: e467 80bd 042d b93d a81d 7abd 7103 86be
000003e0: ac1e 583e 6030 1d3c 78ba 3abe 801e 003e
000003f0: c42f 78be c80c 50be 6d75 833d c86a 40bd

hedge_qs.1.linear_relu_stack.4.bias f4 [16]
0.064401716 0.09991611 0.36156157 -0.114348665 -0.09204003 0.2345707 0.10640252 -0.2457447
-0.00022946163 -0.047693104 0.021016002 -0.1690143 0.040126905 -0.02950887 0.059313405 -0.25448197
00000000: 0ce5 833d d1a0 cc3d 991e b93e a22f eabd
00000010: 7c7f bcbd 4d33 703e 90e9 d93d 80a4 7bbe
00000020: a39b 70b9 d859 43bd c029 ac3c 1612 2dbe
00000030: 1c5c 243d 96bc f1bc 9df2 723d 764b 82be

hedge_qs.1.linear_relu_stack.6.weight f4 [1, 16]
0.0025927126 -0.120497465 0.31561965 -0.086883485 -0.1972776 0.08168145 -0.035130195 0.025625782
-0.07119419 -0.08684146 0.05403605 0.1977439 -0.13551311 0.053471774 -0.14710037 -0.098641284
00000000: 80ea 293b 60c7 f6bd e698 a13e f8ef b1bd
00000010: 2403 4abe 9b48 a73d aee4 0fbd 29ed d13c
00000020: 42ce 91bd efd9 b1bd e854 5d3d 607d 4a3e
00000030: f3c3 0abe 3805 5b3d 7ba1 16be 7104 cabd

hedge_qs.2.linear_relu_stack.0.weight f4 [16, 4]
0.27170032 -0.06992579 -0.22412749 0.37592965 -0.252801 0.35326448 0.4607878 -0.2716407
0.06851663 0.3389309 -0.27561113 -0.35628918 -0.09316436 -0.34004834 0.05972661 -0.10671798
-0.13931772 0.06306817 0.23445469 0.17766783 -0.18894508 0.0360925 -0.5301489 -0.35848323
-0.1878183 0.057008006 -0.58031404 0.5193136 -0.36415377 0.08184481 -0.6703407 0.0060368115
-0.12824109 0.195204 -0.18812852 -0.6276976 -0.29523236 -0.3207109 -0.32152614 -0.37510592
0.42791203 0.18428914 0.39430407 -0.029510938 0.18202361 -0.2546779 -0.41598332 0.046468236
-0.3992352 0.3459854 0.4597483 0.06221353 0.2363425 -0.15297216 -0.4335883 0.2104518
-0.49346465 -0.23255543 -0.43106997 0.24102314 0.27649996 0.41123495 -0.6242409 0.62637264
00000000: 4e1c 8b3e 4135 8fbd ad81 65be da79 c03e
00000010: 226f 81be 15df b43e 61ec eb3e 7d14 8bbe
00000020: 7252 8c3d 5a88 ad3e e71c 8dbe 896b b6be
00000030: f5cc bebd d11a aebe e4a3 743d f58e dabd
00000040: 4ea9 0ebe e229 813d e414 703e 8eee 353e
00000050: d27a 41be bbd5 133d d7b7 07bf 1d8b b7be
00000060: 7153 40be 3a81 693d 768f 14bf bcf1 043f
00000070: 5d72 babe 409e a73d 739b 2bbf 72d0 c53b
00000080: a251 03be 8fe3 473e c3a4 40be cab0 20bf
00000090: b228 97be 3834 a4be 139f a4be e20d c0be
000000a0: 4917 db3e 4bb6 3c3e 39e2 c93e ecc0 f1bc
000000b0: 6664 3a3e 2465 82be c4fb d4be 7a55 3e3d
000000c0: 8e68 ccbe 0025 b13e 2164 eb3e 9dd3 7e3d
000000d0: c503 723e bca4 1cbe 49ff ddbe ad80 573e
000000e0: 66a7 fcbe 0323 6ebe 34b5 dcbe c5ce 763e
000000f0: 6791 8d3e 638d d23e 40ce 1fbf f559 203f

hedge_qs.2.linear_relu_stack.0.bias f4 [16]
-0.09128305 -0.46583197 0.46632025 -0.19542825 0.462746 0.26304415 0.0036783228 0.33783627
0.35528582 -0.21580625 -0.08256307 0.27123997 0.055142637 -0.051649205 0.26537246 -0.28679478
00000000: 9cf2 babd 8781 eebe 87c1 ee3e 581e 48be
00000010: 0bed ec3e b9ad 863e 0410 713b e0f8 ac3e
00000020: 06e8 b53e 50fc 5cbe d416 a9bd f7df 8a3e
00000030: 3fdd 613d 1e8e 53bd e6de 873e c4d6 92be

hedge_qs.2.linear_relu_stack.2.weight f4 [16, 16]
0.044917226 0.13168564 0.11892083 0.13948467 0.22851652 -0.19224018 -0.050082892 -0.24822545
-0.08819944 0.21782047 0.23182002 -0.1293157 0.20758715 0.12867647 0.20711753 -0.20171249
0.11764453 -0.11184558 0.08199999 0.16359788 0.2032727 0.08492413 -0.04846538 0.029733999
0.104957506 0.1572898 -0.24046957 0.009317023 0.014408559 -0.20588002 0.009230322 -0.046426106
-0.1311947 -0.40664122 0.06756998 0.027586764 0.19885781 0.22991319 -0.24495766 -0.13222738
0.3969427 -0.6866863 0.36660847 -0.04412567 -0.11517989 0.08707017 0.15740494 -0.29111505
-0.16134623 -0.046934336 -0.26253712 0.13523272 -0.036657386 0.19168632 -0.056020677 -0.1619296
0.15836166 0.08367195 0.08918013 -0.25113526 -0.10338259 -0.24950513 0.17265591 0.2284342
0.10580895 -0.32069454 0.4384416 -0.025111938 0.064487 0.12661758 -0.010787247 0.008699747
0.36042747 -0.7697725 0.2065527 0.03990553 -0.18909317 0.2653229 -0.15873258 -0.21847478
0.3123286 -0.20656529 -0.46553332 0.17703724 0.1252245 0.28124878 0.075661406 0.23264077
-0.1881489 0.009180214 -0.0645197 0.16978593 -0.2481375 -0.08333308 0.20803915 0.34460866
0.07525954 0.17907137 0.18203449 0.09173554 -0.24031538 0.11337477 -0.025962025 -0.12238029
-0.1507406 -0.13530764 0.01096952 -0.017111719 -0.19870946 -0.22722021 -0.019718051 0.0980998
-0.10973233 -0.19694865 -0.17761101 0.14125896 -0.06402219 -0.25737065 0.06493786 -0.23535164
0.13577648 -0.060625445 0.15630187 0.0515716 -0.15768102 -0.052050114 -0.11685249 0.10034412
0.4797991 0.041669965 -0.55951774 -0.24108884 -0.14204444 0.23176034 0.31984708 0.14414138
-0.0671736 0.096753664 -0.00094893045 0.13199463 -0.01596839 0.43694472 0.16851887 0.43332216
0.11272183 -0.22292283 -0.15763983 -0.17961404 -0.106117815 -0.13199422 -0.04685417 -0.006600052
0.19582301 0.14003763 -0.21952957 0.0017551482 -0.23543051 -0.16802642 0.21015713 -0.21385866
0.21135384 -0.17175388 0.19318534 0.008132875 0.15936297 0.22167322 0.1379702 -0.11785596
-0.16571364 -0.21389847 0.0533271 0.15309131 0.11197552 0.0018082389 -0.045589045 -0.122543365
0.044690043 0.20642239 -0.08485857 -0.24077702 0.06433356 0.18494886 -0.075466365 -0.11947736
0.05027947 -0.091196865 0.03145635 -0.21309084 -0.10497007 0.12250531 0.11550817 -0.011044413
-0.16138116 0.21670127 -0.1646359 -0.09112394 0.18101689 -0.14975715 0.06870553 -0.19227171
0.10324761 -0.13751519 0.16779152 -0.11663687 0.1969944 0.06129086 -0.20734668 0.09252709
-0.13448228 -0.09165293 -0.22005478 -0.07256195 0.17384227 -0.15260544 0.24211654 0.10038805
0.16218251 -0.1466719 -0.08919209 0.05232517 -0.007267569 -0.25700247 0.025812179 -0.03676352
0.014405966 -0.15304902 -0.043925464 0.21544981 -0.11431837 0.1502279 -0.07647291 0.2128635
0.044107974 -0.15385085 0.08519673 -0.14546663 0.2240465 -0.23316252 -0.12502626 0.1897336
0.24425289 0.15736282 0.04799767 0.2482458 0.19523907 0.017501982 0.14669383 -0.13302782
-0.022553809 0.11941115 0.20398703 -0.06547808 0.016913623 -0.18208092 -0.20817551 -0.050359547
00000000: 20fb 373d 9ad8 063e c48c f33d 12d5 0e3e
00000010: 3c00 6a3e 9cda 44be b823 4dbd d02e 7ebe
00000020: e8a1 b4bd 540c 5f3e 3a62 6d3e 566b 04be
00000030: ba91 543e c4c3 033e 9e16 543e b88d 4ebe
00000040: 9eef f03d 4c0f e5bd 9cef a73d 3486 273e
00000050: b826 503e b4ec ad3d a283 46bd b794 f33c
00000060: f6f3 d63d 9410 213e a83d 76be 6da6 183c
00000070: e011 6c3c 36d2 52be c73a 173c 4d29 3ebd
00000080: e757 06be 4733 d0be 2162 8a3d a3fd e13c
00000090: 62a1 4b3e 5d6e 6b3e 2ed6 7abe 9d66 07be
000000a0: 133c cb3e acca 2fbf 1bb4 bb3e 1ebd 34bd
000000b0: 6fe3 ebbd d851 b23d c32e 213e 080d 95be
000000c0: f237 25be 383e 40bd 446b 86be 727a 0a3e
000000d0: 0e26 16bd 6b49 443e f075 65bd e0d0 25be
000000e0: 8f29 223e 335c ab3d 12a4 b63d cd94 80be
000000f0: 40ba d3bd 467e 7fbe b6cc 303e a8ea 693e
00000100: 5db2 d83d 1332 a4be 6b7b e03e 8db7 cdbc
00000110: c311 843d 0aa8 013e febc 30bc 6289 0e3c
00000120: f389 b83e d00f 45bf 8d82 533e fb73 233d
00000130: a4a1 41be 67d8 873e cb8a 22be dab7 5fbe
00000140: 89e9 9f3e da85 53be 625a eebe 4049 353e
00000150: da3a 003e d7ff 8f3e 5ef4 9a3d 6239 6e3e
00000160: 1baa 40be 9c68 163c e822 84bd 5ddc 2d3e
00000170: c217 7ebe 89aa aabd 3708 553e 8c70 b03e
00000180: ac21 9a3d 7c5e 373e 4067 3a3e d8df bb3d
00000190: 3c15 76be 0831 e83d 50ae d4bc 84a2 fabd
000001a0: be5b 1abe 168e 0abe 80b9 333c e02d 8cbc
000001b0: 7e7a 4bbe 6aac 68be c087 a1bc 8ce8 c83d
000001c0: 58bb e0bd e8ac 49be a9df 35be 30a6 103e
000001d0: 111e 83bd 16c6 83be 24fe 843d 0500 71be
000001e0: fd08 0b3e 6352 78bd 990d 203e be3c 533d
000001f0: 2277 21be 8032 55bd 5c50 efbd 3881 cd3d
00000200: 3aa8 f53e 20ae 2a3d 8e3c 0fbf fedf 76be
00000210: 1974 11be 9552 6d3e ffc2 a33e cc99 133e
00000220: 5092 89bd c926 c63d a5c1 78ba 9a29 073e
00000230: 24d0 82bc 38b7 df3e 3690 2c3e 67dc dd3e
00000240: b4da e63d e245 64be 566c 21be beec 37be
00000250: 4c54 d9bd 7e29 07be 28ea 3fbd 4045 d8bb
00000260: d485 483e 0666 0f3e 5ccc 60be 000d e63a
00000270: b214 71be 1e0f 2cbe 6e33 573e c4fd 5abe
00000280: 246d 583e 40e0 2fbe 61d2 453e c03f 053c
00000290: 0c30 233e 4efe 623e 0f48 0d3e 775e f1bd
000002a0: d6b0 29be 3308 5bbe 846d 5a3d f8c3 1c3e
000002b0: 6c53 e53d 6e02 ed3a 94bb 3abd 04f8 fabd
000002c0: e80c 373d 6460 533e 54ca adbd 408e 76be
000002d0: 50c1 833d 3c63 3d3e 1c8e 9abd 8cb0 f4bd
000002e0: d8f1 4d3d 6cc5 babd 60d8 003d 7c34 5abe
000002f0: 8cfa d6bd 10e4 fa3d 8c8f ec3d a0f3 34bc
00000300: 1a41 25be f0e6 5d3e 5096 28be 309f babd
00000310: 7e5c 393e f059 19be 7cb5 8c3d e0e2 44be
00000320: 7c73 d33d c8d0 0cbe 8ad1 2b3e 50df eebd
00000330: e6b8 493e 200c 7b3d b052 54be d87e bd3d
00000340: b9b5 09be 88b4 bbbd 0a56 61be 5c9b 94bd
00000350: b503 323e 9a44 1cbe 66ed 773e 4098 cd3d
00000360: 2c13 263e 2931 16be 58aa b6bd eb52 563d
00000370: ca24 eebb d495 83be 1074 d33c 5895 16bd
00000380: 0007 6c3c e2b8 1cbe 30eb 33bd e09e 5c3e
00000390: c01f eabd 58d5 193e d49d 9cbd e4f8 593e
000003a0: 90aa 343d 148b 1dbe a07b ae3d 34f5 14be
000003b0: 726c 653e 28c2 6ebe e206 00be 8649 423e
000003c0: 6e1d 7a3e b823 213e 3499 443d 2634 7e3e
000003d0: c0ec 473e 5160 8f3c e836 163e 7238 08be
000003e0: c4c2 b8bc d58d f43d fae1 503e 5f19 86bd
000003f0: 708e 8a3c 6c73 3abe f62b 55be d045 4ebd

hedge_qs.2.linear_relu_stack.2.bias f4 [16]
-0.09235945 -0.23492332 0.28489968 -0.0770614 0.35762686 -0.1630689 -0.24663022 0.001422595
0.16510384 -0.08827269 -0.26412648 -0.24175426 -0.11020139 -0.07646336 -0.18275726 -0.21215017
00000000: f426 bdbd bd8f 70be 5fde 913e 5ed2 9dbd
00000010: de1a b73e 89fb 26be a28c 7cbe 5e76 ba3a
00000020: fb10 293e 50c8 b4bd 963b 87be 6e8e 77be
00000030: 44b1 e1bd d298 9cbd b824 3bbe e53d 59be

hedge_qs.2.linear_relu_stack.4.weight f4 [16, 16]
0.122448415 -0.12637925 0.20971999 -0.19538978 -0.11519465 -0.172108 -0.23021871 -0.074599236
-0.21608484 -0.044148207 -0.12505642 -0.03570211 0.23789483 0.07052323 -0.0059857666 0.16647297
-0.15090594 0.0015050247 0.2683479 0.0383513 0.28252423 -0.11228227 0.1746588 -0.023139618
0.025278598 0.00096836686 0.22658962 -0.04503107 -0.17100659 0.073086545 0.11077881 0.113914855
-0.24300909 -0.23000678 -0.002253627 0.078325 0.17489938 0.04121676 -0.17589307 0.110794336
-0.08231953 -0.08150473 -0.13306275 0.11104339 0.16892454 0.20770729 0.18040764 -0.046141148
-0.026760072 -0.065867424 0.0035873826 -0.07864836 -0.27574298 0.18416786 -0.1782507 -0.028783917
0.18835245 0.22722101 0.1859121 -0.24134478 0.0915173 0.036273345 -0.029721111 0.03242898
-0.16633627 0.07972853 -0.053776756 0.23795208 0.08471123 0.04474121 0.21306902 0.18360798
-0.15737897 -0.1335713 -0.13645682 -0.16456723 -0.20850581 -0.17803235 0.16184571 0.21498084
-0.11493921 -0.20296541 -0.21839395 0.010692239 0.0647513 0.07569346 -0.18581587 -0.039377064
-0.13235208 0.0060713887 0.19286612 0.023628265 0.0067787766 -0.115760684 0.24956384 0.056860924
0.05730596 -0.16289845 -0.12402069 -0.18245134 -0.15168022 -0.16241384 -0.121089846 -0.17348003
-0.21580642 -0.24868914 0.17520264 0.24054986 -0.14094424 0.023010612 0.11741099 -0.04278484
0.09222096 -0.23844886 -0.13012223 0.08387452 0.058104403 -0.087643445 0.10131472 -0.101814
0.20154124 -0.004773706 0.072724946 0.18986359 -0.00054353476 -0.02005085 0.1460115 -0.11560786
0.03819257 -0.10310766 0.11825484 -0.09711632 -0.18784767 -0.23398888 -0.01976639 0.13064352
-0.021999002 0.2468741 -0.04524347 0.08017239 0.09149739 0.20177883 -0.016345471 -0.0053077936
-0.13592675 0.22071117 -0.03817667 -0.1953368 0.15560967 -0.09945164 -0.16010422 -0.15284313
-0.15235475 0.052234977 0.030442273 0.13925642 0.249681 -0.15264207 0.04088345 -0.24496546
0.08563027 -0.19205482 0.32262182 0.21488617 0.15211475 0.37165576 0.21257436 -0.123212144
-0.13457546 -0.16240856 -0.069249325 0.14801005 0.24684942 0.107628986 -0.121108115 0.22511059
0.06525159 -0.07747239 -0.16005698 0.02703908 -0.01921904 0.113704115 0.010007918 -0.09357661
-0.10083547 -0.06422266 -0.1858001 -0.12695119 0.15976083 0.019954741 0.1761153 -0.24234068
0.1877535 0.009386927 -0.16816998 0.20848393 -0.020491779 -0.015939802 0.127841 0.17560461
-0.051266283 -0.083329916 0.22609398 -0.08064389 -0.10360652 0.15821683 0.24387816 -0.0027884245
0.0130776465 0.183238 -0.22224322 -0.14131564 -0.15904596 0.107910305 -0.10337576 0.1477322
-0.20932573 -0.21181592 -0.036233813 -0.1459522 0.1273951 0.1546103 0.05456662 0.24832612
-0.17033434 -0.23030582 0.18564284 -0.0037404927 0.31112608 -0.1021742 0.2051171 -0.07250945
-0.17849258 0.0065974295 -0.064620554 -0.22072604 -0.22675472 -0.024603484 -0.0633274 -0.040616114
-0.16110724 0.13269731 0.17221197 -0.051283926 -0.13904619 -0.049636304 -0.23691648 -0.0046815276
-0.22879001 0.0723927 0.18429384 -0.21278301 -0.17374676 0.013940632 -0.20874724 0.18855357
00000000: 3cc6 fa3d 9069 01be d6c0 563e 4214 48be
00000010: 2ceb ebbd 143d 30be 74be 6bbe 7cc7 98bd
00000020: 5845 5dbe c0d4 34bd ca0e 00be 603c 12bd
00000030: b49a 733e 7c6e 903d 4024 c4bb e477 2a3e
00000040: 1687 1abe 4044 c53a e564 893e 4116 1d3d
00000050: 04a7 903e 3ff4 e5bd c2d9 323e 4c8f bdbc
00000060: 1015 cf3c 00da 7d3a 1c07 683e 8072 38bd
00000070: 5a1c 2fbe 66ae 953d 00e0 e23d 314c e93d
00000080: 60d7 78be e686 6bbe 96b1 13bb dc68 a03d
00000090: d318 333e e8d2 283d 501d 34be 24e8 e23d
000000a0: 2497 a8bd f4eb a6bd 9a41 08be b86a e33d
000000b0: 8efa 2c3e 38b1 543e c8bc 383e 80fe 3cbd
000000c0: f037 dbbc 80e5 86bd 4b1a 6b3b 6412 a1bd
000000d0: 2f2e 8dbe 8096 3c3e 5a87 36be 40cc ebbc
000000e0: 77df 403e a0ac 683e be5f 3e3e 1623 77be
000000f0: 6c6d bb3d 5c93 143d b079 f3bc 40d4 043d
00000100: 0e54 2abe b648 a33d 0445 5cbd b6a9 733e
00000110: 157d ad3d 8f42 373d c42e 5a3e bb03 3c3e
00000120: f427 21be eac6 08be 56bb 0bbe 5084 28be
00000130: 8c82 55be 1d4e 36be e2ba 253e f023 5c3e
00000140: 4065 ebbd 2ad6 4fbe aaa2 5fbe 802e 2f3c
00000150: 549c 843d 2c05 9b3d 8446 3ebe d849 21bd
00000160: 4e87 07be 80f2 c63b b27e 453e 1090 c13c
00000170: 8020 de3b f013 edbd aa8d 7f3e 00e7 683d
00000180: a8b9 6a3d dace 26be 8ffe fdbd 86d4 3abe
00000190: 0f52 1bbe d04f 26be f4fd f7bd c0a4 31be
000001a0: 5cfc 5cbe 5ea8 7ebe 5268 333e b452 763e
000001b0: b053 10be c080 bc3c 2c75 f03d 283f 2fbd
000001c0: 58de bc3d f02b 74be c33e 05be 68c6 ab3d
000001d0: e2fe 6d3d 687e b3bd 187e cf3d dc83 d0bd
000001e0: d460 4e3e c06c 9cbb d1f0 943d 9a6b 423e
000001f0: 007c 0eba ae41 a4bc 0a84 153e d0c3 ecbd
00000200: d06f 1c3d 1c2a d3bd 982f f23d ece4 c6bd
00000210: 245b 40be c89a 6fbe 20ed a1bc 6ac7 053e
00000220: 4037 b4bc 90cc 7c3e 3851 39bd 6c31 a43d
00000230: fc62 bb3d 1c9f 4e3e f0e6 85bc 00ed adbb
00000240: 6230 0bbe 1c02 623e 245f 1cbd 5f06 48be
00000250: 2458 1f3e 4dad cbbd 5cf2 23be e982 1cbe
00000260: e202 1cbe 58f4 553d 1362 f93c 3c99 0e3e
00000270: 60ac 7f3e 344e 1cbe 6875 273d 3ad8 7abe
00000280: ec5e af3d 05aa 44be b02e a53e 1f0b 5c3e
00000290: f8c3 1b3e aa49 be3e 18ad 593e a656 fcbd
000002a0: 26ce 09be 6e4e 26be 97d2 8dbd f28f 173e
000002b0: 18c6 7c3e 966c dc3d 8807 f8bd 6483 663e
000002c0: a0a2 853d d8a9 9ebd fae5 23be 1081 dd3c
000002d0: 4071 9dbc b4dd e83d 40f8 233c 18a5 bfbd
000002e0: d482 cebd 2c87 83bd 6242 3ebe 7eff 01be
000002f0: 5898 233e 2078 a33c 9257 343e 2828 78be
00000300: 7442 403e a0cb 193c c034 2cbe d07c 553e
00000310: 60de a7bc 3094 82bc c0e8 023e b2d1 333e
00000320: 98fc 51bd e0a8 aabd 2e85 673e a028 a5bd
00000330: a82f d4bd 9803 223e 32bb 793e 00be 36bb
00000340: a043 563c bea2 3b3e ba93 63be 0cb5 10be
00000350: f2dc 22be 1400 dd3d acb6 d3bd 1c47 173e
00000360: 7c59 56be 46e6 58be e869 14bd 7e74 15be
00000370: dc73 023e 2a52 1e3e 4081 5f3d 3449 7e3e
00000380: 206c 2ebe 4ad5 6bbe 2819 3e3e 0e23 75bb
00000390: eb4b 9f3e b540 d1bd 380a 523e d67f 94bd
000003a0: c2c6 36be 402f d83b c857 84bd 0206 62be
000003b0: 6432 68be 3f8d c9bc ccb1 81bd 155d 26bd
000003c0: 4cf9 24be cee1 073e 5658 303e 180f 52bd
000003d0: 2062 0ebe 704f 4bbd 3c9a 72be 8067 99bb
000003e0: ee47 6abe a042 943d 86b7 3c3e cae3 59be
000003f0: acea 31be 4067 643c d6c1 55be 3014 413e

hedge_qs.2.linear_relu_stack.4.bias f4 [16]
-0.1772061 0.11575497 -0.28120896 0.20032737 0.12201551 -0.24721608 0.07377827 -0.056570947
-0.1942243 0.2510972 0.29125577 -0.08111107 -0.041526854 -0.11272463 0.18123426 -0.066245764
00000000: 8475 35be f110 ed3d 9ffa 8fbe 9e22 4d3e
00000010: 45e3 f93d 3626 7dbe 1019 973d f0b6 67bd
00000020: bce2 46be d08f 803e 7a1f 953e 901d a6bd
00000030: 1018 2abd 2cdc e6bd 7995 393e dcab 87bd

hedge_qs.2.linear_relu_stack.6.weight f4 [1, 16]
-0.13476771 0.32497147 0.1908212 -0.3449081 0.063258484 0.21831179 -0.16066867 -0.05000305
-0.21302816 0.22749123 0.19955413 0.019197702 0.16910848 0.22476181 0.20491883 -0.2152518
00000000: 8c00 0abe a962 a63e a266 433e cb97 b0be
00000010: aa8d 813d 208d 5f3e 5486 24be 00d0 4cbd
00000020: 0e24 5abe 76f3 683e eb57 4c3e 8044 9d3c
00000030: c62a 2d3e f627 663e 3ed6 513e f86a 5cbe

hedge_qs.3.linear_relu_stack.0.weight f4 [16, 4]
-0.504559 0.43081492 0.1721232 0.3869054 0.12183483 -0.39533985 -0.15357947 0.531562
-0.40129772 -0.4334746 -0.20957701 0.07180276 0.50084484 -0.048511766 0.38842216 -0.3639818
0.005228344 -0.32266167 -0.16694695 0.010036079 0.5360606 0.18593396 0.14804974 0.2625896
0.43317917 0.3172984 0.07382781 -0.31538263 -0.19662233 -0.43187016 0.35541826 0.35874882
-0.34807107 0.41282812 -0.36531243 -0.14573382 0.35825044 -0.14581443 0.10064044 -0.0950663
-0.37856263 0.45170793 -0.09116 0.11424544 0.51085067 -0.049762804 0.38888556 -0.25883153
0.3254513 -0.48083872 -0.099954784 -0.2747212 0.47658142 0.24364796 -0.5021397 0.049530294
0.31224462 0.030327322 0.055974375 0.3329157 0.62087125 -0.42646796 0.04447849 -0.29400867
00000000: c72a 01bf c693 dc3e 1041 303e 7718 c63e
00000010: 8a84 f93d fc69 cabe f043 1dbe 7214 083f
00000020: e576 cdbe 62f0 ddbe 5b9b 56be 530d 933d
00000030: 5e37 003f 46b4 46bd 45df c63e d35b babe
00000040: 8752 ab3b e933 a5be 24f4 2abe 5e6e 243c
00000050: 443b 093f 7965 3e3e 5a9a 173e 2572 863e
00000060: a9c9 dd3e f074 a23e 0933 973d d579 a1be
00000070: 5d57 49be 161e ddbe 62f9 b53e edad b73e
00000080: 5f36 b2be 355e d33e 3b0a bbbe 3f3b 15be
00000090: 9a6c b73e 6150 15be 931c ce3d 1fb2 c2bd
000000a0: f6d2 c1be 4346 e73e 18b2 babd 83f9 e93d
000000b0: 1cc7 023f 15d4 4bbd 021c c73e 9185 84be
000000c0: 8ea1 a63e 7e30 f6be 18b5 ccbd 42a8 8cbe
000000d0: 7b02 f43e da7e 793e 3a8c 00bf 47e0 4a3d
000000e0: 87de 9f3e 0171 f83c 6345 653d ed73 aa3e
000000f0: 6bf1 1e3f 025a dabe 142f 363d 4e88 96be

hedge_qs.3.linear_relu_stack.0.bias f4 [16]
0.3131522 0.1215614 -0.13261926 0.3769492 -0.418787 -0.15429041 0.36722055 0.19523586
0.13466585 0.036588892 -0.13610297 0.34200233 -0.49691623 0.37752175 -0.51251096 -0.16194355
00000000: 7c55 a03e 2ff5 f83d 58cd 07be 7cff c03e
00000010: 406b d6be 4efe 1dbe 5504 bc3e e9eb 473e
00000020: d8e5 093e 3cde 153d 945e 0bbe ee1a af3e
00000030: ce6b febe 884a c13e eb33 03bf 88d4 25be
