Models/Heston/FFNN/No transaction costs/hs_FFNN_CVaR_99_Notc.pth (torch, 317805 bytes, 406 tensors)

hedge_qs.0.linear_relu_stack.0.weight f4 [16, 2]
000000 12 46 ce bd 2d fe 32 bf 7e 6b e5 bd 79 ff 6a be
       -0.100719586 -0.6991909 -0.11202143 -0.22949018
000010 7d bc 0b be 25 c3 9c bc 7f 7a e1 3d ad a8 db 3e
       -0.13646121 -0.01913602 0.110096924 0.42902127
000020 b6 80 d8 be 27 b2 f9 3e 0b d9 34 3e f7 66 3f bd
       -0.422857 0.48768732 0.1766092 -0.046729054
000030 e2 5d 2e bd fe dc 24 3e 8a dc f7 3e 4c 25 15 bf
       -0.042570002 0.16099927 0.48410445 -0.58260036
000040 42 c8 d4 be 55 e3 af be a5 29 cc 3e 2e 42 0f bf
       -0.41559035 -0.34353128 0.39875522 -0.5596036
000050 92 fe 8f 3e b6 a8 0e 3f 0a 8b 00 bf 2b 4e bc 3c
       0.2812391 0.5572618 -0.50212157 0.022986492
000060 06 47 e4 3e 3e 46 0a bf 67 f7 fc be a4 8b 4f be
       0.44585437 -0.5401343 -0.49407503 -0.20268112
000070 72 e8 c9 3e b4 d5 ae 3e 69 2f 72 be 12 be a3 3d
       0.39435154 0.34147418 -0.23650898 0.079952374

hedge_qs.0.linear_relu_stack.0.bias f4 [16]
000000 c4 64 f1 be da 6e ca be f0 8a 3b 3f 8c 80 09 bf
       -0.4714719 -0.39537698 0.73258877 -0.5371177
000010 89 1b 51 3f 62 79 b0 be 8f dc bc be bc a5 7d be
       0.8168264 -0.34467608 -0.36887023 -0.24770254
000020 49 96 41 3d bc 6e 0e 3f 82 4a 24 bf 81 37 05 3f
       0.047262464 0.5563772 -0.6417619 0.5203782
000030 c1 b2 7f 3e b8 22 34 3f 19 c9 9d be 3a e1 eb 3d
       0.24970533 0.70365477 -0.30817488 0.11517568

hedge_qs.0.linear_relu_stack.2.weight f4 [16, 16]
000000 58 c7 62 3e 74 c8 82 bd 24 61 a3 bd 20 a6 51 bc
       0.22146356 -0.0638589 -0.079775125 -0.012795955
000010 e7 53 ce bd 40 a4 f8 3b 74 d5 fe 3d 42 42 97 bd
       -0.10074597 0.0075879395 0.12443057 -0.073856845
000020 20 9d 75 bc 99 cb 1f 3d 76 f1 0a 3e 8f 17 00 be
       -0.014991075 0.039012525 0.13568673 -0.12508987
000030 e6 b3 97 3c 04 65 72 3e 6c 5c ea bd 05 04 8b bd
       0.0185184 0.23671347 -0.11443409 -0.06787876
000040 4c 05 b1 bd a2 1a 60 be dc fb ff bd c0 97 d2 bd
       -0.086435884 -0.2188516 -0.1249921 -0.1028285
000050 08 16 2b be 76 82 1b be cc ec 92 3d bc ee 21 3e
       -0.16707623 -0.15186486 0.07174072 0.15813726
000060 80 8a 37 bd 54 58 9c bd 84 95 aa bd 68 49 47 3e
       -0.04480982 -0.07634035 -0.08329299 0.19461596
000070 0a 42 75 be ea e0 57 be 20 06 b1 bc c2 49 0b be
       -0.23950973 -0.21081892 -0.021609366 -0.13602355
000080 c2 73 33 3e 2c d8 77 be ed 44 82 3e dc 9a 91 3d
       0.17524627 -0.24203557 0.2544321 0.07109615
000090 c3 55 b2 3e da c9 04 be 48 e4 7a 3d 8b 5e 0e be
       0.34831056 -0.12967625 0.061252862 -0.13903253
0000a0 d0 7a 07 3e c7 90 3f 3e 90 85 5a be ae 2f 9e 3e
       0.13230443 0.18707572 -0.21340013 0.30895752
0000b0 02 f1 8b 3e c3 83 8c 3e c0 fb 20 3d f9 f8 3e be
       0.27332312 0.27444276 0.039302588 -0.18649663
0000c0 80 0c 71 3b 9a b7 0a 3e 29 94 38 3e 3c 2e ea 3d
       0.0036781132 0.13546601 0.18025269 0.114346
0000d0 10 4b 26 3d 90 bc d9 bd 00 33 eb bc 98 04 87 bd
       0.04059893 -0.106316686 -0.028710842 -0.06592673
0000e0 a4 e9 01 3e fe ac 37 be 40 05 eb 3c a1 01 4d be
       0.12686783 -0.17937085 0.028689027 -0.20020153
0000f0 a5 01 52 3e 93 c0 e4 3d 92 dd 3b 3e 96 65 13 3e
       0.2050844 0.11169543 0.18346241 0.1439422
000100 f8 7c 41 3e 60 42 43 3e 8e 8f 0e be 8c 09 f5 bd
       0.18895328 0.19068289 -0.1392195 -0.119647115
000110 00 b4 e1 3a aa 68 2b 3e 1c 92 3e 3e dc 73 64 be
       0.0017219782 0.16739145 0.18610424 -0.22309822
000120 40 c5 bb bb bc 5b 6e be 12 64 30 3e c8 92 2f be
       -0.005730301 -0.23277181 0.17225674 -0.17145836
000130 50 43 ef bd 0c 98 11 be 00 00 11 b7 8a e0 3d be
       -0.11682761 -0.14218158 -8.6426735e-06 -0.18542686
000140 6e ff 4d 3e bc 9c e4 bd a7 f6 2a be e8 17 93 3d
       0.2011697 -0.11162707 -0.16695653 0.07182294
000150 fc cc 01 3e 06 f7 0f be 0c b2 09 3e 8e e8 52 3e
       0.12675852 -0.14059076 0.13446826 0.20596525
000160 dc 9d 27 3e 18 7c 56 be 74 bb 8e bd 5d 9d c5 3a
       0.16368812 -0.20945776 -0.069693476 0.0015076805
000170 29 60 32 3d 9a 66 e9 bd 3c 52 53 3e f3 74 5c 3e
       0.043548737 -0.11396523 0.20636839 0.21528988
000180 c0 97 f3 3c 26 28 27 be 1e 92 c3 3e aa a6 24 be
       0.029735446 -0.16323909 0.38197416 -0.16079202
000190 c6 f0 6b 3c f8 2f 7c 3d 30 d2 98 3c 97 45 b1 bd
       0.014400667 0.061569184 0.018654913 -0.08655851
0001a0 2e f9 28 3e 01 45 8a bc 40 bb ac bb e5 58 22 3e
       0.16501305 -0.016878607 -0.0052713454 0.15854223
0001b0 27 08 5b 3e 95 82 aa 3e c0 cd f4 bd 28 ca 45 be
       0.21389829 0.3330275 -0.11953306 -0.19315398
0001c0 9e c2 15 3e 34 b0 96 bd a3 cc f1 3d 86 12 79 be
       0.14625022 -0.07357827 0.118066095 -0.24323472
0001d0 10 56 87 3d 40 ba 8b bd 64 58 b2 3d da 50 0f be
       0.06608212 -0.06822634 0.087082654 -0.13995686
0001e0 b0 d8 34 3d 9e 51 5d be b0 ac ec 3d c4 5d 32 be
       0.04415196 -0.21613166 0.11556375 -0.17418581
0001f0 6a 23 ed 3d eb 17 71 be d0 a4 ff 3c 38 9f 10 3d
       0.1157902 -0.2354428 0.031206518 0.035308093
000200 7c c3 7f 3e f6 11 22 3e 38 fb 4a be e0 59 d8 bc
       0.24976915 0.15827164 -0.19822395 -0.026410043
000210 b4 5e f4 3d aa 38 60 3e d8 a8 d0 3d 84 29 41 3e
       0.11932126 0.21896616 0.101884544 0.18863493
000220 82 85 6c be 00 0a af bd b8 f9 41 be 14 c0 38 3e
       -0.23097804 -0.08546829 -0.18942916 0.18042022
000230 18 0d 23 bd 30 5d 08 3e fc 16 23 be 5c e1 5c 3e
       -0.03980741 0.13316798 -0.15926737 0.21570343
000240 58 6f f0 bd d0 15 c0 bc 7f 32 8c 3e c0 03 9c 3d
       -0.11739987 -0.023447901 0.27382275 0.07617903
000250 e7 9c a1 3e 56 63 64 be 12 c6 59 be 9f 38 e5 bd
       0.3156502 -0.22303519 -0.21266964 -0.1119244
000260 78 e3 3a bd 64 7a a6 3d 00 51 9c 3a 60 4e 58 3e
       -0.045627087 0.08128813 0.0011925995 0.21123648
000270 6e 67 cd 3d 85 35 0b be da 92 13 3e 43 8c a6 3c
       0.10029493 -0.13594635 0.14411488 0.020330554
000280 50 dd 06 bd 40 b3 10 3e d8 2f 24 be 90 33 16 3e
       -0.032925904 0.14130878 -0.16033876 0.14668107
000290 20 c9 b6 3d 3c 51 51 be fc b1 13 3e 50 55 2b be
       0.0892508 -0.20441145 0.14423364 -0.16731763
0002a0 c0 c3 15 3d 08 95 a8 3d 98 71 40 bd 88 09 74 3d
       0.036563635 0.082315505 -0.04698333 0.059579402
0002b0 98 46 23 bd 22 f4 6f 3e b8 1c 33 be 0a dc 3d be
       -0.039862245 0.23432973 -0.17491424 -0.1854097
0002c0 8c 66 a0 bd ea 14 46 be b2 df 6b 3e 12 6c 7d be
       -0.07832059 -0.19343916 0.23034552 -0.24748257
0002d0 34 75 a1 bd fa ca 35 be 14 90 d5 bd 36 e7 10 3e
       -0.07883683 -0.1775321 -0.10427871 0.141507
0002e0 60 18 ad bc d6 c3 78 be e8 70 fb 3d 20 01 62 3e
       -0.021129787 -0.24293455 0.122773945 0.22070742
0002f0 68 13 3c 3d da fb 0c be 42 0c 0b 3e 9e ac 38 3e
       0.045916945 -0.13767949 0.13578895 0.18034598
000300 aa 71 43 be a4 0d 77 3e f2 f5 48 3e 22 db 19 3e
       -0.19086328 0.24126297 0.1962507 0.15024999
000310 4d 24 8f be 80 3e 76 bc 2a 73 56 be ed 62 27 bd
       -0.27957383 -0.01502955 -0.20942369 -0.040865827
000320 00 d1 80 3c f4 e4 36 3e 78 2e 0a 3d b5 d9 f9 3c
       0.015724659 0.17860776 0.033735722 0.030499319
000330 e3 1b 35 3e e9 49 90 be 1c 9d 40 be 5e 59 8b be
       0.17686419 -0.2818139 -0.18809932 -0.2721662
000340 e0 ba 38 bc 00 dd a6 3d d8 da 5c be f0 40 ea bc
       -0.011275023 0.08147621 -0.21567857 -0.028595418
000350 00 03 e6 3a b8 19 29 be 58 16 31 3e 98 9e 94 bd
       0.0017548501 -0.16513717 0.1729368 -0.07256812
000360 10 fc e5 3c 1a fb 0a be a8 55 f7 3d 90 e9 79 be
       0.028074294 -0.1357235 0.120768845 -0.24405503
000370 94 90 b4 3d 70 f0 9c 3c d4 67 b7 3d 00 e4 ae bb
       0.088166386 0.019157618 0.089553505 -0.0053372383
000380 2c 82 b8 3d ee 8a 21 be 4c 7d af 3d 88 e3 27 3d
       0.09009203 -0.15775654 0.0856882 0.040988475
000390 10 5d 45 be 58 39 7d 3e 12 bd 5e 3e 60 9b a5 bd
       -0.19273782 0.24728906 0.21751812 -0.08086276
0003a0 00 1a bf 3b 8c bd 3b be 4e 8f 03 3e 08 24 4c be
       0.005831957 -0.18334025 0.12847635 -0.1993562
0003b0 8e 72 27 be a2 67 00 be 58 16 bb 3d 94 e5 be bd
       -0.16352293 -0.12539533 0.09135121 -0.09321132
0003c0 3c a1 7a 3e 28 5c 8f 3d 78 fe ec bd 9c 34 bc bd
       0.24475569 0.06999999 -0.115719736 -0.09189722
0003d0 d4 80 5c 3e e4 bf bf bd 7c a7 23 be 34 5e ae bd
       0.21533519 -0.09362772 -0.15981859 -0.085140616
0003e0 64 31 d4 3d 9c d5 d1 bd 8a 62 68 be 60 c8 b9 bd
       0.10360983 -0.10245821 -0.2269384 -0.090714216
0003f0 d8 06 8f bd 9c bb de bd 90 51 f8 3d 90 e1 a3 bc
       -0.06983727 -0.108756274 0.12124932 -0.020005018

hedge_qs.0.linear_relu_stack.2.bias f4 [16]
000000 b4 43 8e 3e fc 57 1a be ba 4e 88 3e 33 1d e5 bd
       0.27786028 -0.15072626 0.26622564 -0.1118721
000010 80 89 1a 3d 48 61 3a 3e ae b4 aa 3e 6e 77 8c 3d
       0.037728786 0.18201172 0.33340973 0.06858717
000020 8a 82 2c be 76 40 80 3e 68 1e 27 be e0 20 6c be
       -0.16846672 0.2504918 -0.16320193 -0.23059416
000030 2a 0c dc bd 9c b2 03 3e 44 5e 1d be 54 12 fb bd
       -0.107445076 0.12861103 -0.1536799 -0.12259355

hedge_qs.0.linear_relu_stack.4.weight f4 [16, 16]
000000 00 9c 9e 3d 08 7e 2f bd d4 0e 84 be b8 ac 80 3d
       0.077445984 -0.042844802 -0.25792563 0.062829435
000010 c4 af 58 be e3 cc b7 bc 4d 42 3a 3e 3c 70 85 bd
       -0.211608 -0.022436565 0.18189354 -0.06515548
000020 40 5b 4f be 49 b7 54 3e 80 57 7c 3c 6a d6 34 3e
       -0.20249653 0.20773043 0.015401721 0.17659917
000030 3f b1 46 3e 00 3f 3e bb 70 54 9f bd f8 42 47 bd
       0.19403552 -0.002902925 -0.07779777 -0.04864785
000040 a8 fb c1 3d 40 79 c6 3b 24 62 bc bd 80 d9 72 3c
       0.09471828 0.0060569346 -0.09198406 0.014822364
000050 98 6e 0c 3e 04 fe 9b 3d d0 4e b7 3c 28 1f 63 3e
       0.13714063 0.07616809 0.022376448 0.22179854
000060 04 d1 20 be ec 00 cc 3d 68 24 36 be 40 6f c3 3c
       -0.15704733 0.09961113 -0.17787325 0.02385676
000070 f0 3d b3 bd b0 fa ca 3d d0 f2 bb 3d ac c9 e2 bd
       -0.08752048 0.09911096 0.09177172 -0.11073622
000080 3b 92 44 3e 1c 40 db bd 93 f4 8d be 94 65 49 3d
       0.19196407 -0.10705587 -0.27725658 0.049169138
000090 80 25 82 bb f4 bd 66 3e de 74 5c bd 9a 3d 56 be
       -0.0039717555 0.22533399 -0.05382239 -0.20921937
0000a0 00 9a 17 3e 23 12 37 3e 58 59 73 3d d2 30 65 be
       0.1480484 0.17878012 0.059411377 -0.22381905
0000b0 76 8e 10 bd 32 5e 77 be 0a 2b 4c 3e 8a bb 7b 3e
       -0.03529211 -0.24157026 0.19938293 0.24583259
0000c0 09 ad 18 bd 68 11 79 be 1a 3e 04 be e2 10 0f 3e
       -0.037274394 -0.24323046 -0.12914315 0.13971284
0000d0 f0 16 a4 bd c2 39 04 be de 8e 30 3e c8 a7 a4 3d
       -0.080121875 -0.12912658 0.17242 0.08039814
0000e0 10 cb ec 3d 7b 36 aa bd 60 0d 51 be 60 3b 30 bd
       0.115621686 -0.083111726 -0.20415258 -0.043025374
0000f0 15 cf 8c 3d 50 ac b9 3d e6 9a 09 3e f0 e3 f9 bc
       0.06875435 0.09066069 0.13437995 -0.030504197
000100 e8 e4 3b 3d 78 5d b1 3d ba 83 72 3e fc 9f 06 be
       0.0458726 0.08660406 0.23683062 -0.13146967
000110 54 42 ed bd ac de 1c be 28 70 73 be d8 7f ab bd
       -0.11584917 -0.15319318 -0.23773253 -0.08373994
000120 4c b5 84 bd 00 17 c9 bb 98 11 53 bd 7e fa 76 be
       -0.06479892 -0.006136775 -0.05153045 -0.24118993
000130 d4 39 99 3d 9e 90 17 be 60 9c 33 be c8 e5 48 3e
       0.07481733 -0.14801261 -0.17540121 0.19618905
000140 46 98 33 3e b0 9c dc bc 00 f0 1d 3d 28 b0 68 3e
       0.17538556 -0.026930183 0.03855896 0.22723448
000150 80 34 4b bb 76 4b 3d 3e c0 a1 f4 3c 5a 8e 3c be
       -0.0031006634 0.18485817 0.029862285 -0.18413678
000160 24 6a 6b 3e 96 0d 57 be 6c 83 6f 3e 48 51 7a 3d
       0.22989708 -0.21001276 0.23389977 0.061112672
000170 fc 35 43 3e c8 8c 20 be ba 74 0c be 82 5c 74 be
       0.19063562 -0.15678704 -0.13716403 -0.23863414
000180 e8 23 fc 3d 02 4a 2b be ac 92 b4 3d a0 23 97 bc
       0.12311536 -0.1672745 0.08817038 -0.018449605
000190 82 67 6e be 44 0e da bd 84 6b d6 bd 3c 6a 63 be
       -0.23281673 -0.10647252 -0.10469726 -0.22208494
0001a0 8e b0 0c be 30 95 11 bd 4c 27 1c 3e bc 0a 09 3e
       -0.13739225 -0.035542667 0.15249366 0.13383001
0001b0 b0 e7 66 3e d4 67 dc 3d 80 d0 75 3b 60 87 9d 3c
       0.2254932 0.10761991 0.003750831 0.01922959
0001c0 30 32 9a 3e 12 15 27 3e 1f fe 2d 3e b8 32 28 be
       0.30116415 0.16316631 0.16991471 -0.16425598
0001d0 28 ea b0 bd 2d b9 22 be 37 3a bd 3e a7 2c 6b be
       -0.08638412 -0.15890951 0.36958477 -0.22966252
0001e0 76 12 08 be 00 a1 e7 3e 28 c9 68 be 40 e8 a1 3b
       -0.13288292 0.4524002 -0.22732985 0.0049410164
0001f0 ff 03 5c be 90 69 ca 3c 10 1a fa bc 88 dd 20 3d
       -0.214859 0.02470854 -0.030530006 0.03927377
000200 e0 8f 4f bc 20 f7 ca 3c 94 7c 8b bd e8 ba 96 bd
       -0.01266858 0.024776042 -0.06810871 -0.07359868
000210 20 a9 57 be aa fe 09 3e 28 17 02 3e 3c f5 1f be
       -0.2106061 0.13476053 0.12704146 -0.15620893
000220 82 52 78 3e 54 df aa 3d b0 4c ab 3c 8a 23 59 be
       0.24250224 0.08343378 0.02091059 -0.21204963
000230 60 cc 0d be de c1 52 be e0 96 62 bd e0 fd 87 bc
       -0.13847494 -0.20581767 -0.055319667 -0.01660055
000240 a0 7e 82 bc f8 6b 05 be 3e b0 7e be 80 04 6a be
       -0.01592952 -0.13029468 -0.24871919 -0.22853279
000250 8a a1 7f be 90 0f 4f be 2c a5 eb bd 20 22 bf 3c
       -0.24963966 -0.2022078 -0.115061134 0.023331702
000260 82 5e 74 be 18 85 7a be c0 dd 6a 3c 00 a1 65 3d
       -0.23864177 -0.24464834 0.014335096 0.056061745
000270 1a 85 72 be 00 24 25 bd bc 4a 46 be 1e 39 2f be
       -0.23683587 -0.040317535 -0.19364446 -0.17111632
000280 22 69 67 3e 50 9c 9a 3d 06 71 60 be 4e ea 33 be
       0.22598699 0.075493455 -0.21918115 -0.17569849
000290 ec 98 7c 3e 18 ba 3d be 5c 0c f4 bd 2c a2 71 be
       0.2466771 -0.1852802 -0.1191642 -0.2359702
0002a0 6c f8 04 be 00 e5 c2 bb 1c e6 3b be fe a4 7f be
       -0.1298539 -0.005947709 -0.18349499 -0.24965283
0002b0 f0 bf c9 3d 20 48 2e be f6 58 28 be c0 77 9f bd
       0.09851062 -0.17019701 -0.16440186 -0.077865124
0002c0 b4 37 b4 bd 68 41 7c 3d 80 4d 27 bd ce 88 75 be
       -0.08799687 0.061585814 -0.040845394 -0.23977968
0002d0 56 00 49 3e 98 6b 07 be c8 d1 af bd 1a 01 76 be
       0.19629034 -0.13224638 -0.085849345 -0.24023858
0002e0 a0 32 7e 3c 94 14 e0 bd 4c 97 b3 3d 80 20 ab 3c
       0.015515 -0.10941425 0.08769092 0.02088952
0002f0 0c cb 7d 3e 90 9a 4d 3d 70 4e 91 3c a0 31 91 bc
       0.24784487 0.05019623 0.017737597 -0.017723858
000300 8a 70 3e 3e b4 ee e6 bd 86 c4 67 3e 20 08 81 3d
       0.18597618 -0.11275998 0.22633561 0.06300378
000310 d0 0a c7 bc 74 51 19 3e fa 33 00 be 78 96 7e 3d
       -0.024297148 0.14972478 -0.12519827 0.062155217
000320 78 e1 67 bd f0 0c 50 be 54 dc 37 be e0 8e c3 3c
       -0.056611508 -0.20317435 -0.17955142 0.023871839
000330 ba 5c 3c be 00 9f af 3c 54 e9 ad 3d 80 93 f8 3b
       -0.18394747 0.021438122 0.084917694 0.0075859427
000340 40 7c c5 bd 50 d5 ef 3c 40 2c 86 3b c0 3b e2 3b
       -0.096428394 0.02927652 0.0040946305 0.0069040954
000350 56 c2 62 3e 66 76 11 3e 7a 7d 4b 3e 4a 37 54 3e
       0.22144446 0.14205322 0.19872084 0.20724216
000360 dc fa 62 be c6 0e 4d be 08 0b 61 3d a8 b6 7f 3d
       -0.22166008 -0.20025167 0.05494216 0.062430054
000370 30 90 37 3e 98 25 6f bd 9c 0d 7c 3e c6 d6 12 3e
       0.17926097 -0.05838546 0.24614567 0.14339742
000380 2c 77 cc bd d0 47 a6 bc 56 15 06 be 6c 62 e7 3d
       -0.09983668 -0.020297915 -0.13094077 0.11298069
000390 60 03 be 3c 18 a1 53 be f4 f9 f6 3d f0 3f 8c bc
       0.023194969 -0.20666921 0.120593935 -0.017120332
0003a0 18 67 8c 3d c0 0f 36 3c d0 af 6c 3e d8 79 44 3e
       0.06855601 0.0111121535 0.23113942 0.19187105
0003b0 00 cc e0 b9 e0 8c 35 be 86 51 3d 3e d0 e9 6b be
       -0.000428766 -0.17729521 0.1848813 -0.23038411
0003c0 66 bb 6b be 38 83 a2 3d 68 7a 1f 3d 44 98 d2 3d
       -0.23020706 0.07935184 0.038935095 0.102829486
0003d0 fa 3e 7d be 20 fb 7c be 08 93 3c be 28 12 94 3d
       -0.24731055 -0.24705172 -0.18415463 0.072300255
0003e0 aa 7c 24 be a4 2f cd 3d 5a 9c 3b be e2 c2 16 3e
       -0.1606318 0.10018852 -0.18321362 0.1472278
0003f0 a0 0d 71 be 44 10 64 be 20 eb 07 3e e6 fa 2f be
       -0.23540354 -0.2227183 0.13273287 -0.17185554

hedge_qs.0.linear_relu_stack.4.bias f4 [16]
000000 1c fe f2 bd c8 cf a2 bd 2e 26 12 3e 71 6c 66 3d
       -0.11864874 -0.079497874 0.14272377 0.05625576
000010 fa 23 3a be d4 5d bf bd d6 97 48 be 52 06 c6 3e
       -0.18177786 -0.09344068 -0.19589171 0.38676697
000020 ba 01 76 be 96 f8 05 be a0 fc 05 3c a8 09 39 bd
       -0.24024096 -0.1308311 0.008177906 -0.045175225
000030 46 5f 51 be 88 10 68 be 50 e5 dd bc 30 2c 8a bd
       -0.204465 -0.22662556 -0.027086884 -0.06746709

hedge_qs.0.linear_relu_stack.6.weight f4 [1, 16]
000000 be b3 2d 3e c0 68 15 3d 86 8c a5 bd f9 e8 ad bc
       0.16963097 0.03647685 -0.08083443 -0.021229254
000010 88 16 58 3d f0 38 49 3d 1c e6 79 be a5 fe 53 3e
       0.052755862 0.049126565 -0.24404186 0.20702608
000020 a8 cf 32 be 38 93 50 be 18 06 52 3d 30 ce e0 bc
       -0.17462027 -0.2036866 0.051275343 -0.027442068
000030 2c c0 52 3e 80 5a fe 3d c0 00 b8 bd f4 f1 d0 bd
       0.2058112 0.12419605 -0.08984518 -0.10202399

hedge_qs.1.linear_relu_stack.0.weight f4 [16, 2]
000000 ff 94 a3 be 30 72 15 3e 7a 40 44 3f b5 19 59 3e
       -0.31949612 0.1459434 0.76660883 0.21201213
000010 d7 33 4e be d9 00 ab 3e da 56 d9 be 12 8c 68 3e
       -0.20136963 0.33399084 -0.42449075 0.22709683
000020 90 1c 57 3f 9f c8 64 bd 53 a2 87 3e 8d ef 07 bb
       0.8402796 -0.05585539 0.2649103 -0.0020742149
000030 65 46 6a 3f fd fb 65 bd b5 16 c5 be 5d 39 05 bf
       0.91513664 -0.056148518 -0.38493887 -0.52040654
000040 c3 5e 4c 3e db e9 e3 bc 85 3c 42 3e bf c7 59 3d
       0.19958024 -0.027821472 0.18968399 0.05316901
000050 14 55 a3 3d a8 37 09 3f 65 55 61 3e 50 e9 0e 3f
       0.07975212 0.5360055 0.22005232 0.55824757
000060 66 1e 19 3e 59 fe 0b bf ee 5b 13 bf f2 82 b1 3e
       0.14953002 -0.5468498 -0.5756215 0.34670216
000070 74 18 08 bf 1b 3c df be 26 d9 c6 3c dc f0 15 3f
       -0.5316231 -0.43600544 0.024273466 0.5857065

hedge_qs.1.linear_relu_stack.0.bias f4 [16]
000000 58 79 05 bf f9 94 9d 3e 84 f6 bd 3d 54 39 32 bf
       -0.5213828 0.3077772 0.09275535 -0.69618726
000010 d8 ec 58 be ad e8 26 bf 79 fa 31 3f 90 5c db 3d
       -0.21184099 -0.65198785 0.69522816 0.10711014
000020 af 9e a3 be c6 56 31 be 49 4e 94 be 76 ab 7f be
       -0.31957003 -0.17318258 -0.28965977 -0.24967751
000030 92 4e f3 be 50 00 5a 3e 2a 57 1b 3f dc ee 01 bf
       -0.47520882 0.21289182 0.60679877 -0.50755095

hedge_qs.1.linear_relu_stack.2.weight f4 [16, 16]
000000 86 3a 46 3e 9a fb c6 3e 4c e2 d4 bd 66 93 7e be
       0.19358262 0.38863832 -0.10394725 -0.24860916
000010 ba 2e 1e 3f 84 9f 91 bd 6f 54 91 3e b0 6d ad bd
       0.6179005 -0.07110503 0.2838473 -0.08468187
000020 64 2d e4 bd 32 cf 52 3e b4 e5 65 3e 44 cd 95 bd
       -0.1114147 0.20586851 0.22450906 -0.07314542
000030 c0 e7 41 3c dc 1e aa 3d 33 6b fe 3d a2 e8 48 be
       0.011835039 0.08306667 0.124227904 -0.19619992
000040 b0 6b af 3c 85 f9 3b 3e f8 d8 76 3e 26 1a 56 3e
       0.021413654 0.18356903 0.24106205 0.20908412
000050 eb 77 ae 3e 94 c5 07 3e ed e9 03 3e a2 2c 40 3e
       0.34075865 0.13258964 0.12882204 0.18767026
000060 bc 98 f0 bd f8 01 01 bd c8 c3 c3 bd 80 03 5d 3c
       -0.11747882 -0.03149602 -0.09558827 0.013489604
000070 e0 56 2a be a0 b0 bc 3c fa b2 8c be 30 71 12 3d
       -0.16634703 0.02303344 -0.27480298 0.035752475
000080 4e 8a 3f 3e 33 8a 7d 3e c4 41 88 3d c0 a4 c3 3c
       0.18705103 0.2475975 0.06653169 0.02388227
000090 81 05 d3 3e 44 88 fd 3d ab b9 9a 3e f0 24 39 be
       0.41215137 0.12379506 0.30219778 -0.18080497
0000a0 00 1b 3f be 38 97 56 3e f6 1c 0d 3e 82 1b 5c 3e
       -0.18662643 0.20956123 0.13780579 0.21494868
0000b0 ea 2c 5e 3e bc 5b 5b be 88 33 bb bd 62 4f 32 be
       0.21696821 -0.21421713 -0.09140688 -0.17413095
0000c0 d0 eb 59 3d 02 e3 d7 bb 62 70 42 be 50 bb 21 be
       0.053203404 -0.0065883407 -0.18988183 -0.1579411
0000d0 8e f6 de 3c 08 1b db bd 07 50 87 bc e8 b3 a0 bd
       0.027217176 -0.10698515 -0.016517652 -0.078468144
0000e0 00 0a 1e bc e0 12 a3 bc 50 69 05 3d 30 ac d7 3d
       -0.009645939 -0.019906461 0.032571137 0.10530889
0000f0 0a 40 0a 3e 02 be 4d be 36 70 15 be a0 09 20 bc
       0.13500991 -0.20092013 -0.14593586 -0.00976792
000100 6e d8 4b be e0 46 2f 3c 80 20 60 bd b2 ec 20 3e
       -0.1990678 0.01069805 -0.054718494 0.15715292
000110 c0 41 2b bc 20 55 e4 bc 80 36 27 bd 08 2f a6 bd
       -0.010452688 -0.027872622 -0.04082346 -0.08114439
000120 b6 de 58 3e b8 5f a8 3d f8 17 09 bd 30 58 27 be
       0.21178707 0.08221382 -0.033470124 -0.16342235
000130 a8 dd d5 3d 48 83 1c be 20 80 24 be 18 83 62 3e
       0.10442668 -0.15284455 -0.16064501 0.22120321
000140 90 7a 7f 3e a1 d5 18 3e 48 d2 5f be 1e 9a 62 be
       0.24949098 0.14925243 -0.2185756 -0.22129104
000150 7b 18 17 bc 6c fb 6e be 8b 70 a0 bd 54 34 d5 bd
       -0.009222145 -0.23338097 -0.07833966 -0.104103714
000160 c0 03 a5 3d 00 a9 c5 bb e0 71 c4 bc 00 82 92 bd
       0.08057356 -0.0060321093 -0.023980081 -0.07153702
000170 4c 14 ce 3d 10 d1 2e 3e 9a 7d d4 3d 10 be 2c be
       0.10062465 0.17071939 0.10375519 -0.16869378
000180 bc 8c 5b be c0 a4 3b 3c 8e 2a 40 3e 08 d4 ed bd
       -0.21440405 0.011452854 0.18766233 -0.116127074
000190 60 65 22 3c 20 81 b0 3d 60 86 10 bc 8c f4 7b 3e
       0.009911865 0.08618379 -0.0088211 0.24605006
0001a0 0a 82 12 3e b4 42 f3 bd b0 bf ab 3d 44 22 20 3e
       0.14307418 -0.11877957 0.08386171 0.15638071
0001b0 d8 31 87 bd 66 94 03 be 78 d4 59 bd c0 63 a5 3b
       -0.06601304 -0.12849578 -0.05318114 0.0050472915
0001c0 e2 ce 6c 3e 60 03 0b 3e c4 d0 ab bd 96 9c 0c be
       0.23125795 0.13575506 -0.08389428 -0.13731608
0001d0 d8 9a f6 bd dc 9a 15 be ea 3e 47 be 40 a4 30 3c
       -0.12041253 -0.14609855 -0.19457594 0.010781348
0001e0 40 f7 de 3d 16 70 60 3e 60 54 42 bd ac cf 29 3e
       0.10887003 0.21917757 -0.047443748 0.16583127
0001f0 00 ea f6 bc 2a f8 74 3e 26 7d 3b be 1c d3 cd 3d
       -0.030140877 0.23922792 -0.18309459 0.100500315
000200 d8 fb b0 bd da cb 61 3d 3c 55 70 3e e0 47 f0 bc
       -0.086417854 0.05512605 0.23470014 -0.029331148
000210 b5 d3 02 bc d4 7e e8 3d c7 42 97 3d 80 73 8e 3c
       -0.007985045 0.113523155 0.07385784 0.017389059
000220 60 07 d0 3d 26 31 3a 3e d8 f2 76 be 72 1f 24 be
       0.10157657 0.18182811 -0.24116075 -0.1602762
000230 1c 70 ba 3d f4 0e 44 3e 6e e0 dd 3d 0e aa 63 be
       0.091034144 0.19146329 0.10833822 -0.2223284
000240 58 ab 56 be a0 37 d8 bd 42 a5 2f 3e c0 36 d2 3c
       -0.209638 -0.105574846 0.17152885 0.025660872
000250 e7 78 09 3e be ed 72 be a1 f5 42 be 00 7c ab bd
       0.13425027 -0.23723504 -0.19039012 -0.083732605
000260 22 53 53 3e 20 ce 01 be 30 54 d9 bc bc bb 94 bd
       0.20637181 -0.12676287 -0.026529402 -0.0726237
000270 38 d4 12 be 10 b1 f2 3c 40 f6 2a bd 68 f0 61 3e
       -0.14338768 0.029625446 -0.04173875 0.22064364
000280 40 86 a5 bc 32 a5 3a be c8 2d 01 bd 86 f5 69 3e
       -0.020205617 -0.1822708 -0.0315378 0.22847566
000290 40 bc ee 3c 30 ef a7 3d 92 70 5a 3e 84 2e 39 be
       0.029142499 0.08199918 0.21332005 -0.1808415
0002a0 2c 7f 95 bd dc 3a dd bd 8c d9 3e be 88 75 c0 3d
       -0.07299647 -0.10802242 -0.18637675 0.09397417
0002b0 28 db 48 be ec 6b 56 3e 2c 66 96 bd e0 94 3e 3c
       -0.19614851 0.20939606 -0.073437065 0.011632174
0002c0 10 6a fc 3c 12 3d 10 3e f2 09 15 be 70 46 85 3d
       0.030812293 0.14085796 -0.14554575 0.065075755
0002d0 34 1a f1 3e 30 cf 66 be 05 7f 0b 3e d4 90 62 be
       0.47090304 -0.22539973 0.13622673 -0.2212556
0002e0 4c 22 b4 3d 98 76 4a 3d 8a 9a 37 3e 00 cd d7 3b
       0.08795604 0.049429506 0.17930046 0.006585717
0002f0 d0 6e 28 3d 2c a9 36 3e 54 d9 96 bd b8 78 c6 bd
       0.041121304 0.17837971 -0.07365671 -0.09690994
000300 40 f8 64 3e 40 e1 84 bb e6 d5 36 3e c8 75 9a bd
       0.22360325 -0.004055172 0.17855033 -0.07541996
000310 16 f0 10 3e 90 7f 70 bd 50 b9 c9 bd ba be 7a be
       0.14154086 -0.058715403 -0.09849799 -0.24486819
000320 4a dc 76 be d6 2a 5c 3e 2a 6c 06 be 64 94 c3 3d
       -0.24107471 0.21500716 -0.13127199 0.09549788
000330 da 15 23 3e 6c c5 de bd 9e f6 2e be 1a 42 2a 3e
       0.15926304 -0.10877499 -0.17086264 0.16626778
000340 b4 bb 99 3d ba 7c 74 be c0 b4 03 3c 7a 15 63 3e
       0.07506505 -0.23875704 0.0080387 0.22176161
000350 98 ef 96 bd 28 94 37 bd 04 51 23 be ac 3e b7 bd
       -0.07369918 -0.044819027 -0.15948874 -0.089475006
000360 d0 66 75 3d 5a c2 4b be 70 ba 70 3d 00 5d 8d bd
       0.059912503 -0.19898358 0.05877155 -0.06902504
000370 50 4f 2d bd f6 d9 6b be 54 bf 1a be ac b1 bc 3d
       -0.042311966 -0.23032364 -0.15112048 0.09213576
000380 fc 82 b7 3d b8 99 11 bd 64 53 17 be 58 bf 6e 3d
       0.0896053 -0.03554699 -0.14777905 0.05828795
000390 70 8f 45 3e 44 3a 5d 3e c8 2e 3c 3d 40 88 2c bc
       0.19292998 0.21604258 0.04594305 -0.010530531
0003a0 60 09 62 3d 10 7e 7c 3e a8 2f f3 bd 00 fa d2 3d
       0.055184722 0.24657464 -0.11874324 0.1030159
0003b0 c0 39 63 bc 40 7d 8b 3d 20 79 02 3d 70 3f cf bd
       -0.013868749 0.06810999 0.031853795 -0.101195216
0003c0 b2 11 09 3e da 7c 23 be a0 c1 3c bd 20 85 9a 3c
       0.13385656 -0.15965596 -0.046083093 0.018862307
0003d0 a8 82 fc 3d 0a e2 4a 3e 36 81 70 be 30 aa 99 3d
       0.12329608 0.1981279 -0.2348679 0.07503164
0003e0 00 27 e7 bd 80 f4 8f bc d8 75 fe 3d 50 60 48 3e
       -0.112867355 -0.017572641 0.12424821 0.1956799
0003f0 7a 48 0f be f8 9c 23 3d 3a 0e 04 3e f2 0b 52 be
       -0.13992491 0.03994462 0.12896052 -0.2051237

hedge_qs.1.linear_relu_stack.2.bias f4 [16]
000000 9e e7 61 3e 40 7e b0 3d 85 82 4f bd 18 8d 41 39
       0.22061011 0.0861783 -0.050661582 0.00018458476
000010 d2 e5 11 be fe 8c 72 bd 7c fd b1 bd ba 16 22 3e
       -0.14247826 -0.059216492 -0.086909264 0.15828982
000020 4b 99 35 be 41 f2 69 3e ec c0 10 be 34 e3 0d be
       -0.17734258 0.22846319 -0.14136094 -0.13856202
000030 80 d9 0c bc ce 81 0f be 32 be 46 be a8 7b a3 3d
       -0.008596778 -0.1401436 -0.19408491 0.0798257

hedge_qs.1.linear_relu_stack.4.weight f4 [16, 16]
000000 dc b0 4a bd 87 4b ea 3d 2c 0b c1 3e 16 01 b0 3d
       -0.049485072 0.11440187 0.37703836 0.08593957
000010 70 e5 78 be 74 10 64 be 20 c9 40 3d 84 ee 7a be
       -0.24306273 -0.22271901 0.047066808 -0.24505049
000020 8a b7 6b 3d ce 4e 76 bd d6 7e 0a 3e d2 00 ac 3e
       0.057548083 -0.060133748 0.13524947 0.33594376
000030 f8 17 26 be 4c 51 63 3e 3c c7 47 3e 90 9b c4 bd
       -0.16220081 0.22198981 0.19509596 -0.09599984
000040 4e 71 2e be 00 20 70 ba ea 7f 25 be f0 1f c1 3c
       -0.1703541 -0.0009160042 -0.16162077 0.0235748
000050 94 eb f7 3d 00 3d 83 3c cc 92 dd 3d 18 cc 5e be
       0.1210548 0.016020298 0.10819015 -0.21757543
000060 12 0d 6e be 98 28 e6 bd f4 f1 5d 3e 48 1c 4f bd
       -0.23247173 -0.112382114 0.21674329 -0.05056408
000070 a0 3f 3a bc fc 95 42 3e 2a f2 6a be 78 95 4f 3e
       -0.011367708 0.19002527 -0.22943941 0.20271862
000080 e2 e3 07 3e 28 6f 01 3e 62 39 71 be b4 45 56 be
       0.13270524 0.12640059 -0.23557046 -0.20925027
000090 00 d5 83 bb 38 08 05 3e 26 19 57 be e6 27 52 be
       -0.0040231943 0.12991416 -0.21005687 -0.20523033
0000a0 90 8b e7 3d e0 49 37 bd 54 18 15 3e 1c ab 20 3e
       0.11305916 -0.044748187 0.14560062 0.15690273
0000b0 08 61 27 bd 84 53 72 3e 06 ec 2e be 28 63 79 bd
       -0.04086402 0.23664671 -0.17082223 -0.06088558
0000c0 fd 2a b3 3e 2b 66 81 3e 1b 68 49 3e 0b 21 06 bd
       0.34993735 0.2527326 0.1966862 -0.032746356
0000d0 68 57 25 bd 20 22 e2 3d 02 81 3e 3e 54 3f 94 3d
       -0.04036656 0.11041665 0.186039 0.072386414
0000e0 7b 75 4d 3e 13 1e 27 3e 06 e0 7b be a3 45 45 3e
       0.20064346 0.16320066 -0.24597177 0.19264846
0000f0 e0 af 5e be 02 c0 10 be 92 9b 78 be c0 6e 34 bd
       -0.21746778 -0.14135745 -0.24278095 -0.044050932
000100 a0 4e b5 3e f1 04 45 3e 4c c3 3b 3e 5e 7e 40 3e
       0.3541155 0.19240166 0.18336219 0.18798205
000110 ae 1c 0f 3e 4f 27 24 be 2c e2 c7 3d c0 26 b7 3b
       0.13975784 -0.1603062 0.09759936 0.005589336
000120 d3 ad 30 be a3 81 7b bd c4 3e 6a 3e e7 10 d3 bd
       -0.17253809 -0.061402928 0.22875506 -0.10305958
000130 00 6b 7b 3e ac 95 94 bd c4 15 e5 3d 30 4c a6 3d
       0.24552536 -0.0725511 0.11185792 0.0812
000140 96 36 42 3e a8 a1 05 be 64 6a ea bd b6 21 74 be
       0.18966135 -0.13049948 -0.11446074 -0.23840985
000150 de fa 29 be 08 3c d6 3d 28 1b 5f 3d 7e 62 5c 3e
       -0.16599604 0.10460669 0.054469258 0.21521947
000160 a0 db 82 3c 4c da 91 3d d8 49 74 bd 66 0e 4d be
       0.015973866 0.07121715 -0.059640735 -0.20025024
000170 24 60 54 3e 4a c7 77 3e d0 74 e2 bc b0 ab f9 3c
       0.207398 0.24197116 -0.027643591 0.030477375
000180 08 ca 51 be 8c 18 fd 3d d0 ea 4d be 5e f7 45 3e
       -0.20487225 0.123581976 -0.20109105 0.19332644
000190 00 82 cb bb 8a ae 26 be b0 43 ed 3c f2 77 71 3e
       -0.0062105656 -0.16277519 0.02896294 0.23580912
0001a0 fc bf 45 be 4c c4 81 3d 4a 21 1d 3e 70 54 65 3d
       -0.19311517 0.06336269 0.1534473 0.05598873
0001b0 ee 8c 31 be 9e 11 00 be ee cf 5b be 50 d4 69 be
       -0.17338917 -0.1250672 -0.21466038 -0.22834897
0001c0 a7 8f d5 3d 6d bc 79 be 30 17 0d be 7a ea 76 3b
       0.1042779 -0.24388285 -0.13778377 0.003767638
0001d0 18 ee f2 3d 02 96 84 bd a8 22 7a be a6 1a 2b be
       0.11861819 -0.06473924 -0.24427283 -0.16709384
0001e0 65 eb 29 bd 16 09 63 3e ac 08 5c 3e ab c2 2f 3d
       -0.041484255 0.22171435 0.21487683 0.04291026
0001f0 1e 37 64 be 40 2a 09 3e b6 4b 4b 3e 0a 9e 0e 3e
       -0.2228665 0.13395023 0.198531 0.13927475
000200 e8 36 1a 3d c1 2a 07 bd 10 eb 3c 3e f6 c7 27 3e
       0.03765002 -0.032999758 0.18449044 0.16384873
000210 20 ef 71 3d c2 96 1c 3e b0 65 19 bd 60 6e 7e bd
       0.059065938 0.15291885 -0.037450492 -0.06211698
000220 6a 92 a2 bc 88 f3 37 be cc e5 ec bd 14 6a 2b 3c
       -0.019845206 -0.17963994 -0.11567268 0.010462303
000230 58 81 42 3e 1c 34 6d be 4a 37 71 3e e0 97 f5 bc
       0.18994653 -0.2316441 0.23556247 -0.029979646
000240 69 d6 9a 3e f5 9d c5 bc bf 92 80 3e d1 d8 3a be
       0.30241707 -0.024123171 0.25111958 -0.18246771
000250 42 a6 78 be e0 b8 85 be a2 99 7b 3e 38 ef 54 3e
       -0.24282172 -0.2611761 0.24570325 0.2079438
000260 60 c8 ac 3d e4 a4 70 be 28 53 c5 bd 18 7f 12 be
       0.08436656 -0.23500401 -0.096350014 -0.14306295
000270 f8 25 5a 3e 56 b3 4f 3e 88 c4 6d 3e 88 8a 06 3d
       0.21303546 0.20283255 0.23219502 0.032846957
000280 2a 91 10 3e 60 ae 39 bc b6 13 36 be 4c 01 6e 3e
       0.14117876 -0.011333078 -0.17780957 0.23242682
000290 96 7a 53 be 32 a1 73 3e 02 9e 73 be 5c 38 99 bd
       -0.20652232 0.2379196 -0.23790744 -0.07481453
0002a0 e4 d9 27 3e f0 ed a4 3d b0 75 f5 3c 9a 64 25 3e
       0.16391712 0.080531955 0.029963344 0.16151658
0002b0 70 f3 01 be d2 c0 6c 3e 18 4d ee 3d c2 7c 58 be
       -0.1269052 0.2312043 0.11635798 -0.21141341
0002c0 75 8e 2e 3e 5f 3e 5c be d4 e8 8e bd f4 40 1f be
       0.1704653 -0.21508168 -0.06978002 -0.15552121
0002d0 60 1c af bc 88 fb 52 bd 08 9b c0 3d 4e 62 7a be
       -0.021375835 -0.05150941 0.0940457 -0.24451563
0002e0 dd d7 46 be 5a b7 00 be 9c 3d fe 3d 8c 36 01 3e
       -0.19418283 -0.12569943 0.12414095 0.12618464
0002f0 c4 ae 45 be 10 28 71 3d 04 93 e5 bd 70 51 16 bd
       -0.19304949 0.058876097 -0.11209682 -0.03669876
000300 0f ab 26 3e 23 4d 5f be 77 48 f9 bd eb d3 62 be
       0.16276191 -0.21806769 -0.12172025 -0.22151153
000310 02 3b 20 3e fd 19 18 be 76 d8 0a 3e 94 f0 db bd
       0.1564751 -0.14853664 0.13559136 -0.10739246
000320 d6 8f 6c 3c 39 6f 21 be e8 b6 95 bd ac 43 3a be
       0.01443859 -0.15765084 -0.07310277 -0.18189877
000330 08 30 56 3d a4 38 7a 3e b6 05 54 3e 88 14 da bd
       0.0522919 0.24435669 0.20705304 -0.10648447
000340 6a 38 0a be 5e 12 1f be 10 99 1f bd 4c 21 f0 3d
       -0.13498083 -0.1553435 -0.03896433 0.11725101
000350 3c 88 79 be ce c8 0d be de 4a 50 be 96 8f 34 be
       -0.24368376 -0.13846132 -0.2034106 -0.17632899
000360 e0 a8 bd 3c c8 a4 84 3d 94 0b 67 be 68 ef 0f be
       0.023151815 0.06476742 -0.2256301 -0.1405617
000370 24 79 ef bd 20 0a 68 3c 14 03 62 be 20 8a 09 bc
       -0.116930276 0.01416257 -0.22071487 -0.008394748
000380 6c 14 ef 3d 31 2e 7a 3b e8 57 18 bc 16 ae 1b 3e
       0.11673817 0.0038174505 -0.009298302 0.15203127
000390 c0 60 83 3d b2 96 50 3e ea 25 25 be 6a 0d 4d 3e
       0.06414938 0.20369986 -0.16127744 0.20024648
0003a0 70 96 2a be 7c 8e d8 3d e8 77 57 be d1 2c 4e be
       -0.1665895 0.10574052 -0.21041834 -0.20134284
0003b0 5c 47 00 be 90 97 a3 3c 38 f0 c7 3d b8 c6 d3 bd
       -0.12527221 0.019969732 0.09762615 -0.10340637
0003c0 da 3e 58 be 80 de 3f 3c ac ad 03 be b0 41 2f be
       -0.21117726 0.011710763 -0.1285922 -0.17114902
0003d0 ea 63 55 3e 90 a6 af 3d 7c 05 7d be ea 9f 0b be
       0.20838895 0.08576691 -0.24709123 -0.13635221
0003e0 ce e0 33 3e d0 28 66 3e e8 b0 25 bd d0 f9 d8 3d
       0.17566225 0.22476506 -0.040451914 0.10594523
0003f0 88 38 58 be 48 2e 2c 3d 38 1e 7f 3d e8 ef 2e be
       -0.21115315 0.042036325 0.06228468 -0.17083704

hedge_qs.1.linear_relu_stack.4.bias f4 [16]
000000 6d ce 8e 3d e0 e1 97 bd 7e d6 1e be 12 e0 a2 3c
       0.06972966 -0.07416129 -0.1551151 0.019882236
000010 a0 7c 94 3e 44 f8 70 be 42 01 54 be bf ff 5d 3c
       0.2900133 -0.23532206 -0.20703605 0.013549744
000020 df 0a 63 be d1 28 20 3d 50 49 72 be 7e 80 46 be
       -0.22172116 0.039101426 -0.23660779 -0.19384953
000030 3f c5 3d bc b0 ea 01 3d ea 77 0d be f6 98 5d be
       -0.011582672 0.031717956 -0.13815275 -0.21640381

hedge_qs.1.linear_relu_stack.6.weight f4 [1, 16]
000000 9f da 94 3e ee d9 3e 3e a8 91 2c be 23 64 2d 3e
       0.29073045 0.18637821 -0.16852438 0.1693273
000010 25 57 8e 3e d8 22 94 bd e0 23 0b 3c c1 44 f5 bd
       0.2780086 -0.072332084 0.00849244 -0.119760044
000020 96 66 ac 3d eb fb b1 3d 88 9f 55 be bb a3 04 3d
       0.08418004 0.08690628 -0.20861638 0.032382708
000030 80 61 57 3d b2 54 2d 3e e3 f8 27 be c0 22 d5 bb
       0.052583218 0.1692684 -0.16403536 -0.0065043867

hedge_qs.2.linear_relu_stack.0.weight f4 [16, 2]
000000 89 18 0f 3f 38 9a bc 3e 14 eb ea 3d a9 45 09 be
       0.5589681 0.3683641 0.11470619 -0.1340548
000010 a7 f9 24 3f 8f 1f 45 3e b6 96 5b 3f ae cb 49 be
       0.6444344 0.1925032 0.8577684 -0.19706604
000020 bd 85 be be 35 55 bd 3e d6 d5 fa be 50 25 99 bd
       -0.3721141 0.3697907 -0.4899127 -0.0747782
000030 88 9b 54 be 42 5f c3 be 3a 3b 0b bf 64 19 a2 be
       -0.20762455 -0.38158613 -0.5438725 -0.31659997
000040 48 98 c4 be c1 3b b6 be 8f 53 2f be 58 e7 08 bf
       -0.3839743 -0.35592464 -0.17121719 -0.53478
000050 31 a3 ed be 19 5a e6 3e 11 c7 cf 3e d1 c6 a5 be
       -0.46413568 0.44990614 0.40581563 -0.32378247
000060 a1 d2 48 3f 7d 7b 92 bf 83 81 00 3f 36 f7 25 bf
       0.78446394 -1.1443936 0.5019762 -0.6483034
000070 64 96 33 bf ce 38 99 bc e9 f0 d5 3d 4c 24 88 be
       -0.7015135 -0.018703844 0.104463406 -0.26590192

hedge_qs.2.linear_relu_stack.0.bias f4 [16]
000000 ed 2f 2d be 31 6e 36 be fe ee bd bd f7 8d 85 3e
       -0.16912813 -0.17815472 -0.092741 0.26084873
000010 6a ab d7 be 74 c1 0f bf f0 0c f3 3e 6e 21 2c bf
       -0.42122966 -0.5615456 0.47470808 -0.6723851
000020 9a 9e 6e bd 79 49 11 bf bf 8f 73 be e3 3f 10 3f
       -0.058256723 -0.56752735 -0.23785304 0.56347483
000030 68 f7 b7 be 97 42 e7 3e a4 9e cb be c1 33 1c bf
       -0.35930943 0.45167992 -0.3976947 -0.6101647

hedge_qs.2.linear_relu_stack.2.weight f4 [16, 16]
000000 51 3a cc be 40 7b 83 3d a4 a9 b8 be 8f 19 bf 3d
       -0.39888242 0.064199924 -0.36066926 0.09331047
000010 54 89 1e 3e 6c e2 4c 3e 71 ae 86 3e 40 f5 52 3d
       0.15482074 0.20008248 0.26304963 0.05150342
000020 50 59 dc bc c6 e2 29 be 08 d2 e1 bd a9 85 fe bd
       -0.026898056 -0.16590413 -0.110263884 -0.124278374
000030 57 07 71 bf a9 00 ab bd 48 ad 53 3d 60 e1 56 3c
       -0.94151825 -0.08349735 0.051678926 0.013115257
000040 e0 a9 c1 3d c4 79 b1 bd 50 bd fe 3d 40 ff a0 3c
       0.09456229 -0.08665803 0.12438452 0.019652963
000050 e6 69 28 3e bc 2d 8f bd 70 79 a1 bd 78 e1 05 bd
       0.16446647 -0.06991145 -0.078844905 -0.032685727
000060 ee d1 66 3e 00 fa f3 bd 50 34 91 bd 48 e2 37 3e
       0.2254102 -0.11912918 -0.07090056 0.17957413
000070 78 2b 8a bd 9e a2 7a be 0c e3 24 be 20 4c 39 3e
       -0.06746572 -0.24476096 -0.16102237 0.18095446
000080 fc 06 d5 bd 84 63 bc 3d 2c d8 f3 bd e6 56 61 3e
       -0.10401723 0.091986686 -0.11906466 0.22005805
000090 3a 44 15 be 08 79 3d 3e 88 db 7d 3d da a8 58 3e
       -0.14576808 0.18503201 0.06197694 0.21158162
0000a0 34 d7 c2 bd 8e cd 73 be 38 96 54 3e 80 ea 05 bb
       -0.09513703 -0.23808882 0.20760429 -0.0020433962
0000b0 4c 30 41 be 9e 6e 33 be c0 38 ed 3c 50 bb 03 bd
       -0.1886608 -0.17522666 0.028957725 -0.032161057
0000c0 d8 87 71 3d bc a4 de 3d 06 ef 73 be 00 e5 f1 bc
       0.05896744 0.10871264 -0.23821649 -0.029528141
0000d0 c4 43 38 be 48 6b 32 3e 88 f1 33 3d 82 d4 61 3e
       -0.179946 0.17423737 0.043931514 0.22053722
0000e0 14 16 15 be 6c 82 25 3e 30 ae 07 bd 1c 97 a5 bd
       -0.14559203 0.16163033 -0.033125103 -0.080854625
0000f0 f8 9a de bd 80 16 bf 3b e8 77 20 3e 60 01 23 3c
       -0.10869402 0.0058315396 0.1567074 0.009949058
000100 ed a2 3f be 00 b7 83 bb 78 18 42 be 64 a8 92 3d
       -0.18714495 -0.004019618 -0.18954647 0.07161024
000110 bc aa 11 be 00 80 08 b8 66 f0 a6 3d 48 34 ae 3d
       -0.14225286 -3.2544136e-05 0.08151321 0.085060656
000120 22 c7 02 be 72 bd 4f 3e 52 8c 3c 3e 23 94 66 be
       -0.12771276 0.20287111 0.18412903 -0.22517447
000130 ca f2 a4 3b 63 02 12 3e 80 0f 72 3e b8 de 99 3d
       0.0050338255 0.14258723 0.23638725 0.07513183
000140 a0 48 28 3f 80 be 4d 3d 0d aa e2 3e 14 22 8f 3d
       0.65735817 0.050230503 0.44270363 0.06988922
000150 00 10 7b 39 e2 03 0b 3e 58 f7 c4 be 0c d2 f7 bd
       0.00023943186 0.135757 -0.38469958 -0.1210061
000160 28 a0 d9 3d cc 02 bc 3d b0 24 69 be 63 c7 6b 3d
       0.106262505 0.09180221 -0.22767901 0.057563197
000170 f1 b4 e1 3f e7 4b 2c 3e 94 0f 64 be ec b7 89 3d
       1.7633344 0.1682583 -0.22271568 0.067245334
000180 92 8c d7 bd 42 85 2b be ae de 8a be 61 4c ff 3c
       -0.105248585 -0.16750053 -0.27123016 0.03116435
000190 80 f4 18 bd ee 0f 35 be 01 21 eb 3c c6 d0 2a 3e
       -0.03734255 -0.17681858 0.02870226 0.16681203
0001a0 ea 78 39 3e 04 f6 2e 3e 0c 41 35 be c7 3d 09 be
       0.18112531 0.17086035 -0.17700595 -0.13402472
0001b0 46 5b c7 3d 20 63 8e bd 80 fa 02 3c cc 1a 32 be
       0.09734206 -0.069525 0.007994294 -0.17393035
0001c0 80 42 28 be 80 f0 4a be 9a 3d 70 3e c0 3f 30 3c
       -0.16431618 -0.19818306 0.23460999 0.010757387
0001d0 b6 89 06 3e f0 f4 ad 3c 78 7e 24 3d 30 90 0d 3d
       0.1313847 0.02123496 0.040159672 0.034561336
0001e0 e6 19 09 be 48 3f 4f bd 28 68 fc 3d 12 83 52 3e
       -0.13388786 -0.05059746 0.12324554 0.20557812
0001f0 54 50 6c be 1c 4f 7b be 00 7a 13 bd 9a b4 7e 3e
       -0.23077518 -0.24541897 -0.03600502 0.24873582
000200 00 ef 81 3e ca b3 48 be b9 c9 b4 3e cb 44 1d 3e
       0.25377655 -0.19599834 0.35310152 0.15358274
000210 76 a2 06 be 6a c6 75 be 22 28 dc bd 14 95 62 be
       -0.13147911 -0.2400147 -0.10749842 -0.22127181
000220 d8 18 78 be d0 b6 50 be e0 b0 36 3e ca a4 89 bd
       -0.24228227 -0.20382237 0.1784091 -0.06720884
000230 9e 00 d0 3f e1 81 52 3d 58 c9 bc bd 78 9e e5 bd
       1.6250188 0.051393393 -0.09218091 -0.11211866
000240 c0 a9 70 bd 40 78 dd bc 54 73 27 3e 6c 2d 9a bd
       -0.058755636 -0.027034879 0.16352588 -0.07528195
000250 22 af 02 be 4c 27 f5 bd 60 0c a2 3c ee 9d 1b 3e
       -0.1276212 -0.11970386 0.019781291 0.15196964
000260 60 81 83 3d 0e 53 45 be 52 0b 77 3e 20 36 3a 3d
       0.06421161 -0.19269964 0.24125412 0.045461774
000270 46 07 30 3e cc fa b3 bd 24 83 f2 3d d8 56 84 3d
       0.17190275 -0.0878807 0.11841419 0.06461877
000280 86 84 36 3e 76 67 29 be 3b 11 28 3e af ba b4 3e
       0.17823991 -0.16543373 0.16412823 0.35298678
000290 00 65 ca 3a 9e 15 3c be 5b 61 24 3e f6 e3 4b be
       0.0015441477 -0.18367621 0.16052763 -0.19911179
0002a0 e6 14 2e be 50 f6 7b 3e da 76 7a 3e 9a 34 5a 3e
       -0.1700016 0.2460568 0.24459401 0.21309128
0002b0 f7 7a be 3f 97 87 85 3e 78 60 1f 3d 58 9e d3 3d
       1.4881276 0.2608001 0.03891036 0.10332936
0002c0 10 ad 76 3d 92 44 63 3e 80 cb 20 bc c8 e9 13 3e
       0.06022364 0.22194126 -0.009814143 0.14444649
0002d0 84 07 16 3e 90 26 c9 bd 24 5a 7e be c0 3d 02 3c
       0.14651304 -0.09821808 -0.24839073 0.007949293
0002e0 60 74 ee 3d d4 56 5e 3e 0c 71 23 be 28 c9 2f 3e
       0.116432905 0.2171281 -0.15961093 0.17166579
0002f0 48 c4 e8 3d 18 50 56 be 32 22 0b 3e 32 8b 4a be
       0.11365563 -0.20928991 0.13587263 -0.19779661
000300 7a 9b 72 3e d0 12 54 3e 10 73 72 be dc c5 0c 3e
       0.23692122 0.20710301 -0.23676705 0.13747352
000310 f8 c1 6f 3e 58 e3 cd bd f4 b9 e8 bd b8 40 3c bd
       0.23413837 -0.10053128 -0.11363593 -0.045960158
000320 06 cb 55 3e ba 24 25 3e 24 7c 5f 3e d0 14 0b be
       0.20878229 0.16127291 0.218247 -0.13582158
000330 d0 43 b1 3d 84 05 a2 3d 80 1d 31 bc a6 95 5d be
       0.08655512 0.07911208 -0.010810256 -0.21639118
000340 80 20 dd 3c 0c 5c d6 3d 88 bd 7f be 74 c2 41 be
       0.026993036 0.10466775 -0.24974644 -0.18921834
000350 3a 46 03 be 0c ba 06 be 60 dd 14 be 16 94 71 3e
       -0.12819758 -0.13156909 -0.14537573 0.23591647
000360 38 b9 3e be 20 35 03 3d 38 ca 95 bd d4 0c ee 3d
       -0.18625343 0.032033086 -0.07313961 0.116235405
000370 ea e8 02 3e 22 bb 1f be e4 ea 36 be 9c ce 74 be
       0.12784162 -0.15598729 -0.17863041 -0.2390694
000380 e0 c4 d6 bc 9e 51 5a 3e f4 8c 44 be 90 0f dc 3d
       -0.026216924 0.21320197 -0.19194394 0.10745156
000390 88 3a 95 3d 2c 00 f1 3d 00 74 9b bd d8 4e fc bd
       0.072865546 0.11767611 -0.075904846 -0.12319726
0003a0 92 ee 19 be 10 15 ec 3d 38 d3 5c 3d 74 cb 90 3d
       -0.15032414 0.11527455 0.05391237 0.070700556
0003b0 c4 18 a6 bd 24 67 fe 3d ec 1e f0 bd 52 23 5c 3e
       -0.081101924 0.12422016 -0.11724648 0.21497849
0003c0 aa c0 52 be 90 21 a0 bd 2e 3b 20 3e 40 4f 16 bc
       -0.20581308 -0.078189015 0.15647575 -0.009174168
0003d0 38 24 3e be 8c 59 82 3d 00 af e0 3c 84 f2 7c 3e
       -0.18568504 0.06364736 0.027427197 0.24701887
0003e0 80 a4 11 3c f0 8c 4d be 80 a5 83 bb 9c 50 53 be
       0.0088893175 -0.20073295 -0.004017532 -0.20636219
0003f0 d0 79 d3 3d b6 01 5a be a4 8d 73 be 9c ea 3c 3e
       0.10325968 -0.21289715 -0.237845 0.18448871

hedge_qs.2.linear_relu_stack.2.bias f4 [16]
000000 1e e0 8f 3e 28 26 9c bd 26 2e 3b be 50 fe 68 3d
       0.28100675 -0.07624465 -0.18279323 0.056883156
000010 2f 6d 4b 3d e2 a1 78 be 84 92 f2 3d 56 75 34 be
       0.049664672 -0.24280503 0.11844352 -0.17622885
000020 09 47 2d bc 90 65 5f bd 7a 6b 98 bd 5c b8 bb bd
       -0.010576018 -0.054540217 -0.074423745 -0.09166023
000030 34 dc b8 bd e0 79 14 3c 7e 85 7d be 2e 66 0c 3e
       -0.090263754 0.00906226 -0.24757954 0.13710853

hedge_qs.2.linear_relu_stack.4.weight f4 [16, 16]
000000 c0 c4 3a bc 00 f4 19 bc 60 aa 3f 3d 42 54 41 3e
       -0.011399448 -0.009396553 0.04679334 0.18879798
000010 1c 73 66 be 24 a5 9b bd 28 48 26 3d 60 2e 39 3e
       -0.22504848 -0.075998574 0.040596157 0.18084097
000020 02 23 43 be 18 f0 4b be 3e 3d 31 be cc bd b9 bd
       -0.19056323 -0.19915807 -0.17308518 -0.09069404
000030 10 67 b5 bc 7a 5e 69 be 00 21 dc ba 18 e2 17 be
       -0.02214387 -0.22789946 -0.0016794503 -0.14832342
000040 a0 c6 56 bd a8 9b 2f 3d 14 53 b2 3d 04 2d 9e 3d
       -0.052435517 0.042873055 0.08707252 0.0772343
000050 e8 94 a6 bd de 85 60 3e 0a 7f 72 be b2 3e 2f be
       -0.0813387 0.21926066 -0.23681274 -0.1711376
000060 60 b7 36 bd f4 e3 5e 3e 10 34 3d 3e 70 7c f9 3c
       -0.044608474 0.21766645 0.18476892 0.030454844
000070 e8 72 a3 bd 44 3c 88 3d 40 da f4 bd 70 c3 8c bc
       -0.07980901 0.0665212 -0.119556904 -0.017183036
000080 0e 86 0f bf 20 a6 7f be 80 13 6e be 10 53 9c bd
       -0.56063926 -0.24965715 -0.23249626 -0.076330304
000090 3e bc 93 3d f7 d1 ba 3f 6c b5 2d 3e 62 26 32 3e
       0.07213639 1.4595326 0.16963738 0.17397454
0000a0 3a 51 9e 3e c4 76 b9 bd e2 28 9d 3e 0c 41 e8 3d
       0.30921346 -0.09055856 0.30695254 0.11340532
0000b0 f8 6a 74 be bc 35 33 3e c4 62 5b 3e 98 0b 19 bd
       -0.2386893 0.17500967 0.21424395 -0.037364572
0000c0 7d 37 8b be a2 c3 60 3e f0 89 15 3e e0 f4 70 3d
       -0.27190772 0.21949628 0.146034 0.05882728
0000d0 f2 a7 be 3d 37 49 92 3f 64 05 af 3d 18 9c 78 3d
       0.09309377 1.1428593 0.0854595 0.060695738
0000e0 04 18 a9 3e 60 3a 7e 3c 18 ae 9a 3e 5c 6c bd 3d
       0.33026135 0.015516847 0.30210948 0.092491835
0000f0 8c 0d f0 3d c4 fb b5 bd 98 95 67 be 04 27 03 be
       0.11721334 -0.08885911 -0.22615659 -0.12807852
000100 3b 29 97 be 5c 41 2b 3e 5e 26 06 be f4 3b d0 bd
       -0.29523644 0.16724151 -0.13100573 -0.10167685
000110 b7 de 0b be e7 72 a1 3f 5e 1e 63 bd ee ec 65 be
       -0.13659178 1.261319 -0.055448882 -0.22453663
000120 3a 8b 9e 3e ee 9f 7d 3e b6 df 53 3e b8 c0 27 bd
       0.30965596 0.2476804 0.20690808 -0.040955275
000130 f4 05 8a 3d 56 c3 74 3e 80 0f 66 3d 20 bb 63 be
       0.06739417 0.2390264 0.056167126 -0.22239351
000140 fc bc a5 3d d0 79 8b 3d 24 9a 1b 3e 34 13 06 be
       0.080926865 0.06810343 0.15195519 -0.13093263
000150 10 17 a1 3d 50 50 e4 bc b0 cd 60 3e 18 56 18 bd
       0.07865727 -0.027870327 0.21953464 -0.03719148
000160 18 eb 46 3d 7c 58 af bd 2c 26 8a 3d 80 e1 b1 bc
       0.048564047 -0.08561799 0.06745562 -0.021713972
000170 86 4d 03 be 80 e7 66 3e 84 91 1a 3e 64 02 a0 3d
       -0.12822542 0.22549248 0.15094572 0.07812956
000180 86 2f 20 3e 2c 65 19 3e 46 32 65 be 32 b0 74 3e
       0.15643129 0.1498 -0.22382459 0.23895338
000190 b4 4e 10 3e d6 27 30 be d8 e9 09 3d 02 e3 6a be
       0.14092523 -0.17202696 0.033670276 -0.22938159
0001a0 5c e9 21 3e bc 81 32 3e dc 97 6e be 98 c2 76 3d
       0.15811676 0.17432302 -0.23300117 0.060244173
0001b0 30 45 26 bd de 49 2b be 5e 7c 1e be 8c 95 79 be
       -0.040593326 -0.16727397 -0.1547713 -0.24373454
0001c0 22 9c 7c 3d 36 0b 3e be 38 15 08 3e 00 6a f8 3d
       0.061672337 -0.18558964 0.13289344 0.12129593
0001d0 ff 7e 12 3e 64 05 46 3e 9d 9a 9d 3b da 68 69 be
       0.14306258 0.19337994 0.004809691 -0.22793904
0001e0 ae fa ad 3d 26 4f 7f be bf b1 94 be e8 6b 81 bd
       0.08495079 -0.24932536 -0.2904186 -0.063194096
0001f0 0c 85 3b 3e c0 93 ef 3c 62 f1 12 3e c2 c2 7c be
       0.18312472 0.029245257 0.14349893 -0.24683669
000200 49 6f c9 3d 68 63 6d 3e 2c d8 ca bd ac 2c 8a 3d
       0.09835679 0.23182452 -0.09904513 0.06746802
000210 4f 8c 51 3e 00 24 49 be b6 db 6f 3e d4 3a 16 be
       0.2046368 -0.19642639 0.23423657 -0.14670879
000220 e6 19 66 3d 60 92 16 be 83 eb 9b 3d 56 7d 60 3e
       0.056177042 -0.14704275 0.0761328 0.21922812
000230 3a 79 6f 3e 78 ab 38 bd 5e 0e 5e be b8 f2 58 3d
       0.23386088 -0.0450854 -0.21685168 0.05296585
000240 24 b1 e2 3d 10 ca 68 bd 68 ae 10 3d 40 a9 00 bd
       0.11068943 -0.056833327 0.035322577 -0.03141141
000250 70 9d 81 bd 30 ed a0 3d 9a 83 08 3e 4e fe 65 3e
       -0.06328857 0.0785774 0.13331452 0.22460291
000260 c4 13 ef bd cc f5 e5 3d 94 52 04 be 78 dd 43 bd
       -0.11673692 0.11228523 -0.12922126 -0.04781863
000270 10 6f e3 bd 40 91 79 3d d0 06 4c 3d cc 8e 6b 3e
       -0.11105168 0.060929537 0.049811184 0.23003691
000280 b6 53 2a be 60 c4 90 3c 7e af 4f 3e ba f1 32 3e
       -0.16633496 0.017671764 0.20281789 0.17475024
000290 92 9b 0f be 38 f3 6c be 74 ac 23 be 80 05 cf 3d
       -0.14024189 -0.23139656 -0.15983754 0.10108471
0002a0 a2 27 75 be 0a 00 2d be 06 83 61 3e 10 6e 7a 3d
       -0.239409 -0.16894546 0.22022638 0.06114012
0002b0 da e0 0e 3e c2 6e 70 be fa 32 69 be 18 3f a1 3d
       0.13952962 -0.23479751 -0.22773352 0.07873362
0002c0 f6 ef f9 3e 80 92 b0 3c 26 22 05 be 48 77 4e 3e
       0.48815888 0.021554232 -0.13001308 0.2016269
0002d0 f2 28 f5 bd fe 01 02 c0 3c fd 5e be 26 3d 59 be
       -0.119707 -2.0313716 -0.21776289 -0.21214733
0002e0 71 a9 17 be ea c9 77 be 60 ca f8 bd 4c c9 3e 3e
       -0.1481073 -0.24198118 -0.12147975 0.18631476
0002f0 1a af 1d 3e 66 4d 37 3e c0 17 60 bc 80 29 a6 3c
       0.15398827 0.17900619 -0.013677537 0.02028346
000300 aa ad 06 bf 20 15 bd 3c b8 7f fe 3d 2c 88 f2 bd
       -0.5260874 0.023081362 0.12426704 -0.11842379
000310 d0 8b 9e bc 9c a2 d8 3f d7 02 4c 3e 70 cc 60 be
       -0.019353777 1.6924624 0.19922958 -0.21952987
000320 e7 df 1f 3e 24 ee 8e 3d 0e 6c 98 3e 44 26 eb bd
       0.15612756 0.069790155 0.2976994 -0.11481908
000330 1a fb 6d 3e 16 21 52 3e 70 25 13 bd 28 bc c0 3d
       0.23240319 0.20520434 -0.035924375 0.09410888
000340 44 05 e1 bd 2e 3f 56 be 94 e7 fa 3d 64 d5 9e 3d
       -0.109873325 -0.20922539 0.12251201 0.07755545
000350 7a 11 40 3e 30 38 75 3d 64 e5 36 3e 5a a5 66 be
       0.18756667 0.059868038 0.17860943 -0.22524014
000360 56 f6 2b be de 32 28 be 22 ea 78 be 3a 76 6e 3e
       -0.16793188 -0.16425654 -0.24308065 0.23287287
000370 72 10 7d be d6 1e 6d 3e 14 3d 65 3e 98 7e c4 bd
       -0.24713305 0.23156294 0.2238658 -0.09594458
000380 80 a8 09 3c 12 24 7b 3e 68 ec d7 3d bc ac 91 3d
       0.00840199 0.24525478 0.10543138 0.071130246
000390 16 b3 7f 3e c4 51 f6 3d 18 99 98 3d 60 f9 da 3c
       0.2497066 0.12027314 0.07451075 0.02673024
0003a0 10 a7 87 bc fe b0 75 3e 92 e4 60 be 90 2b ae bd
       -0.016559154 0.23993298 -0.21962193 -0.08504403
0003b0 b8 ac 1b be 4a bf 22 be 96 10 6c 3e fc df f0 bd
       -0.15202606 -0.15893283 0.23053202 -0.11761472
0003c0 f4 71 97 3d c8 8e 2e 3d 1a c1 0b 3e 10 d8 ed bd
       0.07394782 0.042616636 0.13647881 -0.11613476
0003d0 75 14 e4 3d c4 8c 6f 3e 35 f4 4e 3e a8 c8 ad bd
       0.11136714 0.23393542 0.20210345 -0.08485538
0003e0 5d e5 88 bd e8 ec 2f 3d 37 94 07 3d e2 06 5f 3e
       -0.066843726 0.04295054 0.033100333 0.2177997
0003f0 c6 d6 1f 3e c4 0b f3 bd 48 d6 75 bd d2 0b 45 be
       0.15609273 -0.118674785 -0.060018808 -0.1924279

hedge_qs.2.linear_relu_stack.4.bias f4 [16]
000000 fc 22 7c be 20 9f 72 be 7f aa 98 bd 0b e5 3a 3e
       -0.2462272 -0.23693514 -0.074543945 0.18251435
000010 df a5 33 3e fa df 2d be ec 0c 3b be f7 a9 1d 3e
       0.17543744 -0.16979972 -0.18266648 0.15396868
000020 08 2d b3 bd 34 f2 18 be 78 8c f2 bd c5 d3 a0 3e
       -0.087488234 -0.14936143 -0.118431985 0.31411567
000030 33 e6 a2 3d 28 16 39 3d 6c 91 42 be c9 cb 3f bd
       0.07954063 0.045187145 -0.19000787 -0.046825204

hedge_qs.2.linear_relu_stack.6.weight f4 [1, 16]
000000 08 c7 fd bd 04 21 73 3e 4d a9 04 3f c7 9d aa 3e
       -0.12391478 0.23743063 0.5182083 0.333235
000010 72 9a 81 3e 30 65 13 3d 7e a5 0d be b6 65 3e bd
       0.25313145 0.03598517 -0.13832662 -0.046483718
000020 29 f5 2d be fc 7a 85 3d 60 5f 4e 3d d2 d5 2f bf
       -0.16988052 0.06517598 0.050383925 -0.6868564
000030 6f 56 d1 3e 5c ba 56 3e a0 77 c2 bd 72 99 d7 bc
       0.40886256 0.20969528 -0.09495473 -0.026318286
