Models/Heston/FFNN/No transaction costs/hs_FFNN_CVaR_50_Notc.pth (torch, 317805 bytes, 406 tensors)

hedge_qs.0.linear_relu_stack.0.weight f4 [16, 2]
000000 5e 87 5b be be 5d 27 3e 27 0d 8b 3e cb 96 a6 3d
       -0.21438357 0.16344354 0.27158472 0.0813423
000010 e4 13 8b be 26 7d ac bb 8c 44 27 3f 4f 18 6f be
       -0.27163613 -0.0052639423 0.6533897 -0.23349117
000020 e9 de b2 3d fa 87 2e 3f c5 d3 23 bf 41 a4 4f bd
       0.08733923 0.68176234 -0.6399501 -0.050693754
000030 34 0a e9 be 54 c8 c1 be 00 c0 ff 3e c1 d0 f1 3e
       -0.45515597 -0.3784815 0.49951172 0.4722958
000040 0d db 26 3f 51 85 0e 3f 99 5c dd bd 6c 91 fc be
       0.65177995 0.55672175 -0.10808677 -0.49329698
000050 ea 90 fe be ef 0e 14 3e 09 17 0e 3f 95 a5 81 3e
       -0.49719936 0.14458822 0.555039 0.25321642
000060 04 03 0a 3f b3 34 53 3e b1 b2 1a 3e 8c 38 0f be
       0.5391085 0.20625572 0.15107228 -0.13986415
000070 bb b5 d6 be 81 96 82 bd a3 12 66 3d 5f a8 2a bf
       -0.41935524 -0.063763626 0.056170117 -0.66663164

hedge_qs.0.linear_relu_stack.0.bias f4 [16]
000000 96 9e d3 3d 22 ed 9b 3e 8c 45 36 3f de 2f ce 3e
       0.10332982 0.30454355 0.7119987 0.40270895
000010 54 24 f4 be fc c2 be 3e 9c 6f 0f 3f 2d 85 bc 3d
       -0.47683966 0.37258136 0.5602968 0.09205089
000020 3e 4d 27 3f fc 80 1a bf b6 6a b8 be 5d 34 10 3f
       0.6535224 -0.60353065 -0.36018914 0.563299
000030 80 3f 5a 3e f7 61 3f 3f fe ac 0c 3e 40 3f 05 bf
       0.21313286 0.7475886 0.13737866 -0.52049637

hedge_qs.0.linear_relu_stack.2.weight f4 [16, 16]
000000 d6 fa 0c be 4c 43 0a be b8 7c 64 3e de 88 34 be
       -0.13767561 -0.13502234 0.22313201 -0.17630336
000010 1a 5a 47 3e 60 18 c0 3c da 23 51 3e e8 d7 d0 bd
       0.19467965 0.023449123 0.20423833 -0.10197431
000020 00 40 d1 bb c8 8c f7 bd 72 f5 0a 3e 9e 4c 20 be
       -0.006385803 -0.12087399 0.13570192 -0.15654227
000030 10 f6 c7 bc 08 3e 3c 3d 04 62 47 be f8 bb 05 3d
       -0.024409324 0.045957595 -0.19470984 0.032649964
000040 90 22 37 bd 00 ba 5f be b6 fd 74 be e0 4b 1b bc
       -0.044710696 -0.21848297 -0.23924908 -0.009478539
000050 00 9c 99 bd 68 28 50 3d 22 91 09 be e4 6a 29 be
       -0.07500458 0.050819784 -0.1343427 -0.16544682
000060 e0 f8 35 3e f8 d8 1c 3e 48 1a 0b be d0 37 e8 bc
       0.1777072 0.15317142 -0.13584244 -0.028346926
000070 b8 6e 37 3e 00 22 75 bd f0 87 51 bd 8c 0e 95 3d
       0.1791333 -0.059846878 -0.05115503 0.07278165
000080 a0 54 42 3d e5 22 a2 bd 60 86 d1 bc 5d 74 b4 bc
       0.047443986 -0.07916812 -0.02557677 -0.022028143
000090 86 42 68 be dc a7 10 3e d2 33 08 3e 3b 58 1d 3a
       -0.22681627 0.14126533 0.13301018 0.0006002222
0000a0 6a 5d d5 3c e0 3a 1a 3c 4c c6 69 3e a9 95 3a 3e
       0.02604552 0.009413451 0.2282955 0.18221153
0000b0 a3 e4 f2 bd 68 3b 72 be ae f7 1a 3e 80 d3 52 be
       -0.11860015 -0.23655474 0.15133545 -0.20588493
0000c0 04 c6 19 3e 9e b6 ec 3d ed 3b 33 bd ab d2 73 3e
       0.15016943 0.11558269 -0.04375832 0.23810832
0000d0 f0 a6 21 3d 76 4b 47 3d d9 20 94 3e 78 b3 86 3e
       0.039465845 0.04865595 0.2893131 0.263088
0000e0 eb 44 b1 3e d0 06 00 bd 40 b8 8e 3c c9 66 9e 3e
       0.34622893 -0.031256497 0.017421842 0.30937794
0000f0 2b b6 a0 3e 3a 58 9f 3d 1c aa f3 bd fa ac 6d 3e
       0.31388983 0.077805 -0.1189768 0.23210517
000100 02 50 6f be d7 83 5e 3c 13 a4 6c 3e cd fc 8b bc
       -0.23370364 0.013581238 0.23109464 -0.017088318
000110 9e e3 28 be fe 96 21 3e 50 cc 4d be 96 53 09 3e
       -0.16493079 0.15780255 -0.2009747 0.13410792
000120 4c f3 97 bd cc c9 b4 3d 22 61 48 be a1 2d b1 bd
       -0.07419452 0.08827552 -0.19568303 -0.08651281
000130 0c ce a1 3c aa c4 37 bd f8 f6 b2 3d 92 6c 75 3e
       0.019751571 -0.044865288 0.08738512 0.23967198
000140 cc f6 32 3e f5 6b e4 bd cb 5c 8b 3e c2 fd 42 bb
       0.17476958 -0.11153404 0.27219233 -0.0029753302
000150 84 81 f3 bd 3f 7e 56 be 22 bd e1 3d c3 9f c2 3c
       -0.118899375 -0.20946597 0.11022402 0.023757821
000160 41 9c 7a 3d d8 e7 15 3d b4 19 49 3e 34 f7 49 3d
       0.06118417 0.036598057 0.19638711 0.049308017
000170 ec 2b 53 3e 88 f4 c3 3d b0 09 2f 3e 6e a2 67 be
       0.20622224 0.09568125 0.17093539 -0.22620556
000180 f2 d3 5a 3e 25 02 91 3e d4 93 e1 bc f8 55 28 3c
       0.21369913 0.2832195 -0.02753631 0.010274403
000190 88 56 ca bd 95 a3 96 3e c8 9d b0 bc 35 1e 63 3e
       -0.09879786 0.29421678 -0.021559611 0.22179492
0001a0 be d0 04 3b d0 61 4b 3e 74 c9 b2 bd 47 26 ea 3a
       0.0020266022 0.19861531 -0.087298304 0.0017864191
0001b0 70 1c c8 3d 3e 00 a4 3e be 4d 17 be 70 b6 56 3e
       0.09771049 0.32031435 -0.1477575 0.20968032
0001c0 58 74 a4 bd 5d 34 7c 3e 17 97 46 3e 53 35 92 3e
       -0.08030003 0.2462935 0.19393574 0.28556308
0001d0 1c 82 18 3e e1 e3 15 3e 57 de 82 3e 8f 94 8e bd
       0.14893383 0.1463771 0.25560257 -0.06961929
0001e0 d0 79 e0 3d a8 9a 7a 3d c6 79 65 be 74 15 ae 3e
       0.10960734 0.061182648 -0.22409734 0.34000742
0001f0 14 9a ae 3b b5 ab 05 3d 20 6e 90 bd 78 1f 17 be
       0.005328426 0.032634456 -0.07052255 -0.14758098
000200 10 5c 8f bc 2e a2 a5 3e f8 c9 9b 3e b8 03 85 bd
       -0.017499954 0.32350296 0.30427527 -0.0649485
000210 96 cb 60 be 80 32 c1 bd 27 11 37 bb e3 aa 9c 3e
       -0.21952662 -0.0943346 -0.0027933808 0.30599126
000220 00 53 b4 3d 88 c3 05 3e b8 81 50 bd f8 5d 9a 3e
       0.088048935 0.1306287 -0.05090496 0.30149817
000230 c7 dd 57 3e 5b 0e 43 3e e0 94 90 bd 5e b9 0d be
       0.21080695 0.19048445 -0.07059646 -0.13840243
000240 f0 03 9c 3c ae bc 57 be fe f3 22 be 2e d4 49 be
       0.019044846 -0.2106807 -0.15913388 -0.19709846
000250 06 f8 54 be c0 22 d8 3c d0 e7 21 bd c0 43 a4 bb
       -0.20797738 0.026383758 -0.039527714 -0.0050129592
000260 e4 dd 89 bd e0 a7 82 bc 10 4d b3 bc 80 57 4d bd
       -0.067317754 -0.01594919 -0.021887332 -0.050132275
000270 78 43 29 3e 80 f2 7b bb 9a 46 29 be c0 11 c7 bd
       0.16529644 -0.0038444102 -0.16530839 -0.097201824
000280 40 93 54 3d 9c 70 e7 3d d4 a6 e4 bd 02 9d 75 3e
       0.05189824 0.113007754 -0.111646324 0.23985675
000290 60 65 05 3d 08 06 d1 3d 9c dc 91 3d 50 a4 07 3e
       0.03256738 0.102062285 0.07122156 0.13246274
0002a0 80 9d 4d be 3c f6 03 3e e8 59 8a bd 0a 65 05 be
       -0.20079613 0.128869 -0.067554295 -0.13026825
0002b0 ec 08 d8 bd 48 ab 1d 3d c0 08 8f bd 80 c5 33 3b
       -0.10548577 0.038493425 -0.06984091 0.0027430952
0002c0 30 e4 23 be 48 fc 5a be f8 56 78 3d 50 3e 9f 3d
       -0.16005015 -0.213853 0.060629815 0.07775557
0002d0 7e 13 25 3e 00 4d 21 3d 40 73 e3 3c f0 60 07 3e
       0.16120717 0.039380074 0.027764916 0.13220572
0002e0 30 08 8d 3d 3c 21 dc bd bc eb ca 3d c0 ce d2 3b
       0.06886327 -0.107485265 0.09908244 0.006433338
0002f0 50 f0 7c bd 1e 49 55 be f4 fc c9 3d f8 82 8b 3d
       -0.061752617 -0.20828673 0.098627 0.0681209
000300 f8 90 45 3d 94 73 4d 3e 52 19 16 3e 42 0c 47 be
       0.048233956 0.20063621 0.14658096 -0.1943827
000310 08 d0 45 3d 64 7a 40 bd 43 56 01 be a4 06 da 3d
       0.048294097 -0.04699172 -0.12630562 0.10645798
000320 d2 9a b1 bd 64 46 65 be 2e 86 60 3e 17 08 df bd
       -0.08672108 -0.22390133 0.21926185 -0.10890215
000330 ae 62 74 3c 89 5f 04 3e d6 4a 53 3e 00 eb 44 3c
       0.014916105 0.12927069 0.20634016 0.012018919
000340 b0 69 75 3d 08 d7 43 be 90 85 fe bc a4 15 49 3e
       0.059915245 -0.19124997 -0.031069547 0.19637161
000350 80 34 94 bb 84 fd c1 3d 9c 6c b0 bd f8 f9 50 be
       -0.00452286 0.094721824 -0.086144656 -0.20407856
000360 74 59 ff bd 0c f2 18 3e 90 2e 85 3d 60 6a 99 bd
       -0.12468234 0.14936084 0.06503022 -0.074909925
000370 80 db fc bc c8 b3 6f be 86 56 2c 3e 4c b1 7d 3e
       -0.030866385 -0.23408425 0.16829881 0.24774665
000380 98 19 9e 3d 54 51 48 be 26 f5 7f be 80 93 e2 bb
       0.07719725 -0.19562274 -0.2499586 -0.006914556
000390 54 6b cf bd 60 79 74 bc c0 40 7e 3e 52 4f 27 be
       -0.10127893 -0.014921516 0.24829388 -0.16338852
0003a0 60 6c c3 3d 2e 34 46 3e cc 4b b1 bd 7a 7a 2b be
       0.09542155 0.19355842 -0.08657035 -0.1674594
0003b0 4c 41 2d be ce 7f 7b be ae 3e 66 3e 40 37 8e 3c
       -0.1691944 -0.24560472 0.22484848 0.01736033
0003c0 20 76 c8 3d 48 1e 66 bd 28 eb 4f be 88 28 4b 3e
       0.097881556 -0.056181222 -0.20304549 0.1983968
0003d0 d0 3d 5a 3d 54 ae 35 be 7a 22 2b 3e 78 72 e7 3d
       0.053281605 -0.17742282 0.1671237 0.1130113
0003e0 50 66 d6 bd d8 e4 7b 3e 22 36 58 be 78 3d d9 bd
       -0.10468733 0.24599016 -0.211144 -0.10607427
0003f0 f2 d6 59 3e 6a 9e 10 be 5e 66 01 be 44 8b a0 bd
       0.21273401 -0.1412293 -0.12636706 -0.07839063

hedge_qs.0.linear_relu_stack.2.bias f4 [16]
000000 9e dd 43 be 0c bd 44 be f9 63 f5 3c e4 d4 6c 3e
       -0.19127509 -0.1921274 0.029954897 0.23128086
000010 1a a8 9d 3c e6 c6 39 3e b3 d4 46 3e f7 e3 a5 3d
       0.019245196 0.1814228 0.19417076 0.081001215
000020 48 3a 6b 3e 40 3b 0a be 60 0d ef 3c f0 65 9f 3c
       0.22971451 -0.13499165 0.029181182 0.019457787
000030 d6 3c c0 3c 62 38 1a be b6 1c 6e 3e 90 59 30 bd
       0.023466509 -0.15060571 0.2325314 -0.043054163

hedge_qs.0.linear_relu_stack.4.weight f4 [16, 16]
000000 94 e1 10 be e0 13 58 bc 78 5f 7a 3e 64 6b 1b be
       -0.14148551 -0.013188332 0.24450481 -0.15177685
000010 3a c0 7e 3e a8 88 ce 3d 84 da cb bd e8 e1 5a be
       0.24878016 0.10084659 -0.09953788 -0.21375239
000020 88 ac 5e 3d fe 5c 15 be d8 6f 6a be 12 d3 77 3e
       0.054363757 -0.14586255 -0.22894228 0.2420161
000030 cc a7 60 3e 30 a2 dd 3d ce 3c 4a be 50 43 a6 3d
       0.2193901 0.108219504 -0.19749758 0.081183076
000040 a8 c8 50 3e 80 e5 44 3b 92 c1 46 3e 80 81 13 be
       0.20389044 0.003004402 0.19409779 -0.14404869
000050 dc 64 e2 bd 00 05 f2 3a 84 35 80 bd c8 b2 6c be
       -0.11054394 0.0018464625 -0.06260207 -0.23115075
000060 26 67 08 3e b4 7a f6 3d b2 81 29 be 0a 14 01 be
       0.13320598 0.120351225 -0.16553381 -0.126053
000070 d0 a1 ff 3c 02 73 05 3e 08 2b 43 bd 98 ca 01 3d
       0.031205088 0.13032153 -0.04764846 0.03168735
000080 64 94 b7 bd 50 4a 08 bd d8 90 dd 3d fa 42 08 3e
       -0.0896385 -0.033273995 0.108186424 0.133068
000090 02 41 70 3e f8 5c 57 3d b4 b1 ce bd 24 f3 32 be
       0.23462299 0.052578896 -0.10092488 -0.17475563
0000a0 44 5f 1b be ee d9 17 3e 60 81 4d 3c b0 bd 64 3d
       -0.1517306 0.14829227 0.012543052 0.055844963
0000b0 28 d6 dc bd f0 64 16 bd 20 86 5b bd 8a 96 0f 3e
       -0.107830346 -0.036717355 -0.05359471 0.1402227
0000c0 64 6f d4 bd 18 5a 2d bd 04 fc 8d bd de 29 67 be
       -0.103728086 -0.04232225 -0.06932834 -0.22574565
0000d0 52 7d 6d 3e a8 ab 5a 3e 20 57 8e 3c 80 90 22 bc
       0.23192337 0.21354544 0.017375529 -0.009922147
0000e0 00 2b 3e bd fc de cc bd 1e 19 61 3e 14 f3 01 be
       -0.046427727 -0.100034684 0.21982238 -0.12690383
0000f0 4c 54 cf bd b8 b5 45 3e 60 78 00 3d fc 49 c7 3d
       -0.101235 0.19307601 0.0313648 0.09730908
000100 c8 ce f5 bd bc 02 ec bd dc a4 4c 3e 50 b7 a4 3c
       -0.12002331 -0.11523959 0.19984764 0.020106941
000110 20 b8 12 bd 3e a7 57 be 30 2e 2f 3e 2c 3b 5e be
       -0.035820127 -0.21059892 0.17107463 -0.2170226
000120 7e ec 57 be 04 1a a8 bd 30 d3 34 bd 98 5a 29 3e
       -0.21086308 -0.08208087 -0.044146717 0.16538465
000130 44 c9 73 3e 00 ba 3f 3b 16 dd 43 3e fa b1 09 be
       0.23807245 0.0029255152 0.19127306 -0.13446799
000140 00 8a 86 3d c4 2d ac 3d 08 01 72 be 8b a4 41 be
       0.0656929 0.084071666 -0.23633206 -0.18910424
000150 c6 70 ab bd ef ca 86 be dc ff 16 3d dc 6f 2e be
       -0.08371119 -0.263267 0.0368651 -0.17034858
000160 ac e4 9e 3d f6 bc 04 3e 0e 94 4d be 94 75 76 be
       0.077584594 0.12962708 -0.2007601 -0.2406829
000170 79 40 a7 3d cc 50 98 bd ea 7e 1a be ee 19 03 3e
       0.08166594 -0.07437286 -0.15087476 0.1280286
000180 00 94 83 3d 44 46 76 3e 8a 21 40 be 8a c6 15 3d
       0.06424713 0.24050242 -0.18762794 0.036566295
000190 60 66 63 3e 0d e1 a0 3d 87 ef 2b be 79 3f 25 bd
       0.22207022 0.07855425 -0.16790591 -0.040343735
0001a0 59 6b 41 3e e4 70 6c be 78 24 25 3e 80 2f 5a 3e
       0.18888606 -0.2308994 0.16127193 0.21307182
0001b0 20 cf 2e 3c 80 a9 9b bc 20 06 eb bd f6 74 57 3e
       0.0106695 -0.019001722 -0.114757776 0.21040711
0001c0 e0 f6 74 3d 20 cd a0 3d 74 e6 63 3e 68 05 42 bd
       0.05980575 0.078516245 0.2225588 -0.047368437
0001d0 d7 9c 3a 3e f7 e7 92 be 0e 76 28 3c 9c 30 3b 3e
       0.18223892 -0.286926 0.010282053 0.18280262
0001e0 80 89 32 bd 6c 90 b7 bd fe 7f 32 3e 58 a4 4f 3e
       -0.04358816 -0.08963093 0.17431638 0.20277536
0001f0 7a 1d 3b be e0 d2 be 3d b4 cf 91 3d 2e 92 37 be
       -0.18272963 0.09317565 0.07119694 -0.17926857
000200 70 ad bb 3d 66 80 66 3e db 16 3a 3d 24 35 07 be
       0.0916394 0.22509918 0.045431953 -0.13203865
000210 08 3a bb 3d f5 f7 e4 bd de 01 1c 3e 8b 6b 32 bd
       0.09141928 -0.111801066 0.15235087 -0.043559592
000220 4a 6d 28 3d 20 3b b3 3c ce 99 61 be b0 5e 66 be
       0.04111985 0.021878779 -0.22031328 -0.22497058
000230 c4 ad 2b 3e 70 f4 a6 3c 28 95 01 be 3c 16 ef bd
       0.16765505 0.020380229 -0.12654555 -0.11674163
000240 40 9f e5 bb 4a 9c 4a be 44 d0 80 bd 30 50 44 bd
       -0.0070075095 -0.19786182 -0.062897235 -0.047928035
000250 5a 63 4f 3e 10 86 1f 3d f8 dd 7c 3d 34 e8 2c 3e
       0.20252743 0.03894621 0.061735123 0.16885453
000260 d4 fc 30 be 40 55 9a bc bc 9d 6c 3e f8 a2 0a bd
       -0.17283946 -0.018839478 0.23107046 -0.033846825
000270 e0 5f 9e 3d b0 3c 4b 3d 5c 95 5b be 00 bd f1 bc
       0.077331305 0.049618423 -0.21443695 -0.029509068
000280 e8 55 7a 3d 54 8d eb 3d 48 77 15 3d b0 0f 2f be
       0.061117083 0.115015656 0.03649071 -0.17095828
000290 dc 12 e8 3d 34 54 7a 3e e0 cb 1e be 72 a9 64 be
       0.11331722 0.24446183 -0.1550746 -0.22330263
0002a0 16 57 08 be 8e 97 50 be c2 71 7a be 4e 39 66 be
       -0.1331447 -0.20370314 -0.24457458 -0.22482798
0002b0 e2 e5 7e be a0 6a 06 3c 48 7b a3 3d 20 76 eb 3d
       -0.24892381 0.008204132 0.079824984 0.1149714
0002c0 18 85 18 bd c0 df c3 3b 25 4e 01 3e f8 1b 40 3e
       -0.037236303 0.005977601 0.12627466 0.18760669
0002d0 21 90 36 bd 77 6f 69 be 62 12 27 3e 5d dc 17 be
       -0.044571046 -0.22796427 0.16315606 -0.14830156
0002e0 f9 7a 81 bc 5e 80 1b 3e e6 e2 1d 3e 60 d7 57 bd
       -0.015805708 0.15185687 0.15418586 -0.052695632
0002f0 85 40 d0 bd 66 3f 5b 3e 6c 92 28 3e 8c 37 20 3e
       -0.10168556 0.21410903 0.16462106 0.1564619
000300 a0 51 cb 3c 28 84 c3 bd 60 0a 1b 3c 4e bc 7e be
       0.024819195 -0.09546691 0.009462923 -0.2487652
000310 14 0f ba bd 7e b3 55 be e0 55 76 be 80 ea e9 bd
       -0.09084907 -0.20869252 -0.24056196 -0.114216805
000320 88 85 4f be 86 b8 31 be 20 b7 9a bc b0 30 d5 bd
       -0.20265782 -0.17355546 -0.018886149 -0.10409677
000330 c2 3f 23 be fa 7d 7b be da 97 66 3e 46 4a 53 3e
       -0.1594229 -0.24559775 0.22518864 0.20633802
000340 1e 66 1d 3e 2c 4d 06 be 1a 07 91 3d c3 e1 b6 3e
       0.15370986 -0.13115376 0.07081433 0.35719118
000350 4b b1 7c 3e d7 f7 8d 3d 47 0e 18 3e 75 b7 b0 3d
       0.24677007 0.06932037 0.14849196 0.08628742
000360 53 41 a9 3e 32 a4 64 3e d8 7b 72 3e 80 64 ce 3d
       0.3305765 0.2232826 0.23680055 0.100777626
000370 f6 0f f2 bd 30 0a 83 bd 16 7e 29 be 3a e4 6a 3e
       -0.118194506 -0.063984275 -0.16552004 0.22938624
000380 88 2e 56 3d e0 d9 3e 3d a2 c9 4d be 5f da 0c 3e
       0.05229047 0.0465945 -0.20096448 0.13755177
000390 d2 e6 99 bd ee e9 f5 3d 3f 12 61 3e 31 2d a2 3e
       -0.075147286 0.12007509 0.21979617 0.31675103
0003a0 c7 64 58 3e 5e 6b 1f 3e 64 82 93 3d 84 76 48 be
       0.21132194 0.15568301 0.072026044 -0.1957646
0003b0 5a 70 0c 3b 7a f2 5d 3e c0 68 a5 bd 00 cc 19 bb
       0.0021429271 0.21674529 -0.0807662 -0.002346754
0003c0 38 80 32 bd de a1 11 be 8e 0d 59 3e 72 a3 31 3e
       -0.04357931 -0.14221904 0.21196577 0.17347506
0003d0 43 50 32 be be fa 81 3b 0e f4 83 be e5 44 ae 3c
       -0.1741343 0.0039666584 -0.25772136 0.021273086
0003e0 73 ef 9c 3b 30 86 22 3e 92 cc 05 be 7a 49 24 be
       0.0047892868 0.15871501 -0.13066319 -0.16043654
0003f0 0b c6 cc bc 70 d7 6d 3e d2 c1 10 3e 1c 62 2d be
       -0.024996778 0.23226714 0.14136437 -0.16931957

hedge_qs.0.linear_relu_stack.4.bias f4 [16]
000000 be 01 4e be fc 60 23 be 70 8b 60 be 08 d3 72 bd
       -0.20117852 -0.15954965 -0.21928191 -0.059283286
000010 d8 d4 3e 3d 78 28 42 3e c8 ae 3a be 56 7e 12 bc
       0.046589702 0.1896075 -0.18230736 -0.008941254
000020 c0 72 88 3d 3e 6f 06 be 98 22 44 be de fc 4d bd
       0.06662512 -0.13128373 -0.19153821 -0.05028998
000030 68 3c 84 bd 26 94 c2 bc 34 fd 9e 3e 34 ab fd bd
       -0.06456834 -0.023752283 0.31052554 -0.1238617

hedge_qs.0.linear_relu_stack.6.weight f4 [1, 16]
000000 90 a9 52 be 30 98 51 3d c8 d8 ee 3d d0 d8 6a 3e
       -0.20572495 0.051170528 0.116624415 0.2293427
000010 14 98 8a bd df ed 1c be 2e a6 b1 bc 23 c8 71 be
       -0.06767288 -0.15325116 -0.021685686 -0.23611502
000020 c5 22 0e be f4 ce 2d 3e 30 2d 09 3d d1 7e a3 3b
       -0.13880451 0.16973478 0.03349036 0.004989483
000030 f4 5e 3e 3e eb cd 52 3e 19 9f 85 3e 11 c0 89 bd
       0.18590909 0.20586364 0.26097944 -0.06726087

hedge_qs.1.linear_relu_stack.0.weight f4 [16, 2]
000000 14 ef e8 3e ea 09 18 3f fc 25 10 bf 1d 52 d2 be
       0.45494902 0.5939013 -0.5630796 -0.41078272
000010 9b 0a eb bd 31 ea 06 3f 39 31 bf 3e c9 d3 2e bf
       -0.11476632 0.527011 0.3734224 -0.6829191
000020 c0 a3 67 3f a3 53 84 bd 3c 06 4d 3f 5d 80 c4 be
       0.9048424 -0.06461265 0.8008764 -0.38379183
000030 2b b1 5f 3f bd 04 c2 3e d3 87 34 3f 33 fa 83 3e
       0.8737971 0.3789424 0.7051975 0.25776824
000040 47 a7 14 3e d2 76 f9 3e 1c 02 9c be 70 ff 20 3f
       0.14516936 0.48723465 -0.3047036 0.62889767
000050 2a b3 c1 be 96 f2 0c 3f 59 7d 7c 3e 42 c9 16 bf
       -0.37832004 0.55057657 0.24657191 -0.58900845
000060 01 e6 2a 3f fa b2 12 3f 42 f2 61 3f 24 81 93 3e
       0.6675721 0.57304347 0.8826028 0.28809464
000070 40 da 33 bf e1 37 e8 3a 73 ce d5 3e 55 28 88 be
       -0.702549 0.0017716849 0.4175907 -0.2659327

hedge_qs.1.linear_relu_stack.0.bias f4 [16]
000000 9d d6 74 be 26 31 0e 3d b7 9c 03 3f de d3 bd be
       -0.23909993 0.03471484 0.51411 -0.37075704
000010 52 ed f7 3e af d8 2f 3e 18 5f ce 3e 99 da 22 3e
       0.4842325 0.17172502 0.40306926 0.15903701
000020 a1 e4 4a 3d 67 30 e0 3e 0f cb 08 bf 9a e1 07 3f
       0.049534444 0.43786928 -0.5343484 0.53078616
000030 fc 9c 05 bf 1b 82 c3 be 1e 77 c3 3c ed 02 b3 bd
       -0.52192664 -0.381852 0.02386051 -0.087407924

hedge_qs.1.linear_relu_stack.2.weight f4 [16, 16]
000000 f6 fd 74 be bc 5c a4 bd 18 90 6d 3e 7a d1 0a 3e
       -0.23925003 -0.080255 0.23199499 0.13556471
000010 50 7a 86 3d b8 40 85 bd 5c ca 64 be 08 0d fc 3d
       0.06566298 -0.06506485 -0.22342819 0.12307173
000020 68 fd cc 3d 6a 95 51 be 24 30 86 3d cc 49 81 bd
       0.10009271 -0.20467153 0.06552151 -0.06312904
000030 f0 0c 31 3d b2 a9 5b 3e 38 96 5d bd 60 99 80 3d
       0.04322523 0.21451452 -0.054098338 0.06279254
000040 82 c9 61 3e 34 bd 2e be f2 93 20 3e cc 99 08 be
       0.22049525 -0.17064363 0.15681437 -0.13339919
000050 08 2a 65 be 60 21 36 3e d4 b1 5b 3e f8 96 2c 3d
       -0.22379315 0.17786169 0.21454555 0.042136163
000060 ce 46 5e be d8 32 7d be 00 9d 60 bd 30 72 72 bd
       -0.21706697 -0.24726427 -0.054837227 -0.05919093
000070 ac 08 d5 3d 6c 54 1a be 42 bb 23 3e 50 d4 b7 3c
       0.10402045 -0.15071267 0.15989402 0.022440106
000080 47 7e 83 be 18 f2 69 be 45 18 8f bd aa 1a 64 be
       -0.2568228 -0.22846258 -0.06987051 -0.22275797
000090 ce b9 3b bd 0b fe 82 3e 46 12 33 3e ae e9 11 be
       -0.045831494 0.25584444 0.1748744 -0.14249298
0000a0 bf 43 f5 3d 3d f3 57 be 3c ec 70 be 19 30 49 3d
       0.11975812 -0.21088882 -0.23527616 0.049118135
0000b0 a8 b4 d4 3d 5c df b9 3f 2c 80 a9 3d d8 94 68 3d
       0.1038602 1.4521289 0.082764 0.056782573
0000c0 b6 7e 62 3e 30 18 64 3d 34 78 7b 3e a4 ae ed 3d
       0.22118649 0.05568713 0.24557573 0.11605576
0000d0 70 77 67 bd ec 81 51 be fc ba f0 bd 9c 9a 4b 3e
       -0.05651039 -0.20459718 -0.117544144 0.19883198
0000e0 00 1c 24 3b 2c 0e a8 3d e0 e4 99 3c 20 fa b9 bc
       0.0025041103 0.08205828 0.018785894 -0.022702277
0000f0 20 cc 21 3e a8 7b 19 3d 0a e4 15 3e 20 e3 31 3d
       0.15800524 0.037471443 0.14637771 0.043429494
000100 8c 48 ed 3b b2 ee 53 be 88 03 9c 3d 80 9e af bc
       0.0072413143 -0.20696524 0.07617861 -0.021437883
000110 63 90 9d 3c 87 dc 5a be d2 1a d5 3d 66 ff 83 be
       0.019233888 -0.21373187 0.10405506 -0.2578079
000120 ba 1a 19 3e 5c e0 c5 3e 0a 36 0f be 8e ce 74 3d
       0.14951602 0.38647735 -0.13985458 0.0597673
000130 16 12 31 3e 9d 98 a5 bf 80 e5 b5 bb 84 c7 d6 be
       0.17292055 -1.2937199 -0.00555104 -0.41949093
000140 1e 49 0f 3e fc 2e fb 3d 08 80 05 bd 80 02 3b 3c
       0.13992736 0.12264821 -0.032592803 0.01141417
000150 2a 4d 66 be 64 8c df bd 1e 79 7b be 38 4f 7d bd
       -0.22490373 -0.10915449 -0.24557921 -0.061843127
000160 18 8c 4a 3d 04 db 6d 3e 8c 28 e4 bd 4a 61 32 3e
       0.04945001 0.23228079 -0.11140546 0.17419925
000170 04 ec 0e be 1a 74 05 3e 16 4f 76 3e 2a db 17 be
       -0.1395722 0.1303257 0.24053606 -0.14829698
000180 6a a5 68 3e aa 71 57 3e 18 ac 03 be 68 7e 36 bd
       0.2271935 0.21039453 -0.12858617 -0.044554144
000190 00 bb 00 3b 00 5a da bb a8 e5 9f 3d 1e 0d 13 3e
       0.001964271 -0.006663561 0.07807475 0.14360473
0001a0 0c 04 df 3d 54 b7 7a be 3c 3a a6 3d 98 e5 fb bd
       0.10889444 -0.24483997 0.08116576 -0.12299651
0001b0 7c 79 03 be a8 cf 6b 3e a0 26 52 be 58 c6 16 3d
       -0.12839311 0.23028433 -0.20522547 0.03681025
0001c0 78 cb 4c 3d 06 e7 15 be 00 ce 6e 3c a8 7c 7c 3d
       0.04999873 -0.1463891 0.014575481 0.06164232
0001d0 1a b1 23 be 60 e2 98 3d 5a a3 75 be 58 00 ae bd
       -0.15985528 0.074650526 -0.23988095 -0.08496159
0001e0 d8 cc 48 bd d6 15 6d be 1c 0d 8a bd b0 5b 57 3d
       -0.04902348 -0.23152861 -0.06740782 0.052577674
0001f0 26 72 6f be 98 65 58 be 28 eb f9 3d 9e 2a 1d 3e
       -0.23383388 -0.21132505 0.122030556 0.15348288
000200 34 36 79 be 50 a9 70 3e 88 98 39 3d 22 31 2a 3e
       -0.24337083 0.23502088 0.04531148 0.16620305
000210 d0 95 89 3d 90 4a f4 3d 90 e7 fc bd b8 67 5d be
       0.067180276 0.11928284 -0.123488545 -0.21621597
000220 e0 45 3c 3e 00 88 a2 39 c0 8c 94 3b 0e c7 1a be
       0.1838603 0.00031000376 0.0045333803 -0.15114996
000230 58 f2 20 bd 3e 85 14 be cc a1 d8 bd 34 02 5c be
       -0.039293617 -0.14503953 -0.10577735 -0.21485215
000240 e3 ad 43 be 78 7c de 3d 03 b6 c4 bd c8 3a 78 bd
       -0.19109301 0.10863584 -0.096050285 -0.060602933
000250 51 f0 2c 3e 78 b4 38 3e 1a 0f 80 3e 6f 83 08 3e
       0.16888548 0.18037593 0.25011522 0.13331388
000260 20 57 d0 3d 32 11 c2 bd 70 9c 59 bd 9f ef 8c bd
       0.10172868 -0.09475936 -0.053127706 -0.068816416
000270 44 ec c3 bd f4 bc 6d 3f c8 ca d4 3d 37 e4 aa 3e
       -0.095665485 0.92866445 0.1039024 0.3337724
000280 f6 49 d9 bc 62 83 7b be 3e d8 87 be 88 24 c8 3d
       -0.026524525 -0.24561837 -0.26532167 0.09772593
000290 ac 22 50 3d 0d 6e 8d be 08 72 06 3e 4c 7f a4 bd
       0.050814316 -0.27623025 0.13129437 -0.080320925
0002a0 95 67 a5 3d 3b 9e 23 3d d4 90 78 3e a7 ba 20 3e
       0.08076397 0.039945822 0.24273998 0.15696202
0002b0 c0 29 a9 3c f1 ff 0b 3b 20 1e db bd 91 ef df bd
       0.02064979 0.002136227 -0.10699105 -0.109343655
0002c0 6a 14 fa 3c 68 19 03 3e f6 13 44 be 20 ec 3f 3e
       0.030527312 0.1280266 -0.1914824 0.18742418
0002d0 29 b9 3d 3e 7c c8 80 3e 87 d7 66 3e 2c b1 0d be
       0.18527664 0.25152957 0.22543155 -0.13837117
0002e0 51 7d 36 3e 2a 84 5e bd 40 de 2d bd f7 10 46 bc
       0.17821242 -0.05432526 -0.042448282 -0.012089006
0002f0 f0 54 cf 3c 22 31 96 3f 26 aa 0c be 2d a1 eb 3e
       0.025309056 1.1733744 -0.13736781 0.46021405
000300 77 e4 d5 3d ea 9a 2d be f3 2b 62 be 02 7c 71 be
       0.10443967 -0.16953626 -0.22087078 -0.23582461
000310 fc 5a 7b 3e e6 34 4a 3e dc 6f df 3d a7 02 85 3e
       0.24546427 0.19746742 0.10910007 0.25978586
000320 04 e3 20 bd ae 10 08 be 9c 06 8e bd fb ec 03 3e
       -0.039279 -0.13287613 -0.069348544 0.1288337
000330 20 03 35 be b7 91 ab 3f 8c e7 ea 3d fb 63 83 3e
       -0.17676973 1.3403844 0.11469945 0.25662217
000340 40 23 9e 3c 88 7c f4 3d cc 8e cf bd d4 c8 80 bd
       0.019303918 0.11937815 -0.10134658 -0.06288305
000350 72 aa 33 be f0 27 b7 bd 70 fa f3 bd f8 a7 e2 bd
       -0.17545488 -0.08943164 -0.119130015 -0.11067194
000360 d2 a1 68 be 30 11 d6 3c 50 a7 2a 3e 58 4e a0 3d
       -0.2271798 0.026131243 0.16665387 0.07827443
000370 e0 a9 6e be 18 da 70 3e 18 03 04 be 0a 4a 2e 3e
       -0.2330699 0.23520696 -0.12891805 0.17020431
000380 f2 d8 55 be a0 01 41 3c 3b a1 31 bc 94 5c f3 bd
       -0.2088354 0.011780173 -0.010841663 -0.11882892
000390 28 c0 90 3e ab b0 14 3d 70 70 1d 3e ee 0b 67 3d
       0.28271604 0.036301296 0.15374923 0.05640786
0003a0 ec 68 4f 3d d0 66 35 be 1c fb 9e 3d d8 0c 53 3e
       0.05063717 -0.17715001 0.07762739 0.20610368
0003b0 80 0a 3a 3b 37 47 54 3f 00 0f 6e 3e a4 15 2a 3d
       0.0028387606 0.82921165 0.2324791 0.041524544
0003c0 f3 47 48 bd 40 bd 36 3e 8e 05 45 be 6a ca 66 be
       -0.04889674 0.1784563 -0.192404 -0.22538152
0003d0 d2 6d 87 bc 5f af 2d 3e d4 c5 97 bd e9 68 6c 3d
       -0.016531859 0.1696143 -0.074107796 0.057717238
0003e0 b7 ab ff bd 2d 83 d6 bd a8 ef 69 3d 06 96 31 3c
       -0.12483924 -0.104742385 0.05711332 0.010838991
0003f0 ea c6 2e be bb 07 a5 bd e0 49 32 3d 68 dc d3 3d
       -0.17068067 -0.08058115 0.043527484 0.103447735

hedge_qs.1.linear_relu_stack.2.bias f4 [16]
000000 f0 6f 67 bd a4 38 1c be af 4d 50 be d0 ff 66 bd
       -0.056503236 -0.15255982 -0.20342134 -0.056396306
000010 d6 b1 91 3e 98 f7 a2 bd 70 78 c9 bd 68 6e 16 bd
       0.2845599 -0.07957381 -0.09837425 -0.036726385
000020 c0 dd 2d 3d 8a 2b 49 3e 08 b9 10 3d 12 81 9a be
       0.042447805 0.19645515 0.03533271 -0.30176598
000030 42 16 0a 3e 4c f0 0f 3e ff 65 5e 3d 07 e1 46 3d
       0.13485053 0.1405651 0.05429649 0.048554447

hedge_qs.1.linear_relu_stack.4.weight f4 [16, 16]
000000 64 79 17 3e 18 0a 93 bd b6 47 18 3e 30 25 83 3c
       0.147924 -0.071796596 0.14871106 0.016008943
000010 78 d3 cd bd 60 9e 28 3c f4 88 03 3e e0 65 f0 3c
       -0.100501 0.010291666 0.12845212 0.029345453
000020 e0 86 69 bd ea 6e 14 be 26 03 70 be ce ab 74 3e
       -0.057013392 -0.14495435 -0.23438701 0.23893663
000030 40 67 65 3c a8 b6 c0 3d 98 51 28 be 90 77 b5 3c
       0.0140016675 0.09409839 -0.16437376 0.022151738
000040 46 ce 5b be 4c a3 1c be c2 2c 91 3e c0 2e db bb
       -0.21465406 -0.15296668 0.2835446 -0.0066889226
000050 6d 5a 81 be d4 a8 b8 bd 12 50 70 3e dc 01 29 be
       -0.25264302 -0.090165764 0.23468044 -0.16504616
000060 30 87 82 bd 86 88 ac 3e 47 ee 0f 3e d0 6f a0 3e
       -0.06373441 0.3369791 0.1405574 0.31335306
000070 51 b0 80 3e 34 6f 57 be 51 3b 01 3e 37 80 03 bd
       0.2513452 -0.21038514 0.12620284 -0.032104697
000080 02 87 23 3e dc b9 6a 3e d0 bf ed 3d 14 4a 93 3d
       0.1596947 0.22922462 0.11608851 0.07191864
000090 c4 9f 29 be 28 1a 85 3d 84 31 c1 3d aa 9f 6f be
       -0.16564852 0.064991295 0.094332725 -0.23400751
0000a0 c0 b9 c4 bd ee 82 21 be e8 bb e3 bd 00 c8 b8 bd
       -0.096057415 -0.15772602 -0.11119825 -0.09022522
0000b0 d2 de 6c be 5e 87 47 3e 8c 9e 90 3d 3e 0f 09 be
       -0.23131874 0.19485232 0.070614904 -0.1338472
0000c0 8e ec 71 3e b8 4f 12 3d 7e 14 1e 3f 1a aa 0e be
       0.23625395 0.035720557 0.6175002 -0.13932076
0000d0 0c 72 7e be b4 59 d1 bd f2 3a 0c be c8 f7 2d bd
       -0.24848193 -0.10222188 -0.13694361 -0.04247263
0000e0 60 0f 35 bc 4e 2f 87 3e 87 bd 93 bd 70 23 e8 3c
       -0.011051029 0.26403278 -0.07213884 0.02833721
0000f0 69 5a 2c 3e d0 94 c3 bd 04 73 7c 3e b9 a9 ce bc
       0.16831364 -0.09549868 0.2465325 -0.025227414
000100 5a ec 07 3e 88 df 26 bd 98 89 92 bd 54 49 b9 3d
       0.13273755 -0.04074052 -0.0715515 0.09047189
000110 b8 fe 6a bd 40 37 fe bd 6c 5b 04 3e 5c 77 33 3e
       -0.057371825 -0.12412882 0.129255 0.17526
000120 00 b6 88 3d 08 93 48 3d 20 c0 6e 3c f6 25 69 be
       0.06675339 0.048968345 0.014572173 -0.22768387
000130 04 72 ad bd 80 e7 7c bb 00 bf 18 bc 58 82 03 3d
       -0.084690124 -0.0038590133 -0.009322882 0.032106727
000140 78 40 c1 3d d0 98 e5 3c 62 df 32 be d4 2f 6f be
       0.094361246 0.028026968 -0.17468026 -0.23358089
000150 38 9f 11 be 80 45 09 bc 84 43 f1 bd 2c 08 aa bd
       -0.14220893 -0.0083783865 -0.11780456 -0.0830234
000160 68 d9 5f 3d b0 95 b0 3c b0 7e c2 bd fe 1c 1c be
       0.054650694 0.021555752 -0.0949682 -0.15245435
000170 c0 73 ba 3d 60 25 ce 3c 34 08 d7 bd 98 e9 e0 bd
       0.09104109 0.025164306 -0.104996115 -0.109820545
000180 30 30 5a 3e 80 bd 66 3b a6 ac a3 3e 88 2d 5a be
       0.21307445 0.0035208166 0.31967658 -0.21306431
000190 1f e3 cf be 88 eb fb bd 80 7b 53 bd b8 88 44 3d
       -0.40602967 -0.123007834 -0.05163145 0.047981948
0001a0 10 f0 14 bd 87 fe 1e 3e 02 f2 a6 bc a8 cc e4 3e
       -0.036361754 0.15526782 -0.02037907 0.4468739
0001b0 38 6f ec 3c 9c fb e2 bd b8 dc d1 bd e8 db d3 bd
       0.028861627 -0.11083147 -0.10247177 -0.10344678
0001c0 d6 c7 72 3e b8 03 1d 3e 89 cc d9 3e a0 07 6e 3d
       0.23709044 0.1533345 0.4253886 0.05811274
0001d0 7e 44 11 bf 48 d3 76 3d e0 2c 02 3d d2 60 66 be
       -0.56745136 0.060260087 0.031781077 -0.22497872
0001e0 b8 ae 1c 3e 9a d2 a4 3e 32 17 2d be 2c 4b b5 3e
       0.15301025 0.32191926 -0.1690338 0.35408914
0001f0 43 71 8a bd 40 3d e9 3b ff d8 83 3e 9f 7c 48 3d
       -0.06759884 0.0071178973 0.25751492 0.048946973
000200 44 a4 c6 3d cc 7b a6 bd c4 89 9e 3d 3c 8b 62 3e
       0.096993 -0.08129081 0.077411205 0.22123426
000210 50 a8 7a bd a2 6c 4c 3e 76 28 3a be 90 96 88 bd
       -0.06119567 0.19963315 -0.18179497 -0.066693425
000220 ce e0 1d be 06 50 32 be e4 1a 36 be c8 9a 20 bd
       -0.15417787 -0.17413339 -0.17783695 -0.03921011
000230 ec e8 69 be 80 33 14 3e 00 b4 d9 3c 40 45 4c 3c
       -0.22842759 0.1447277 0.026575089 0.012467682
000240 d8 07 5d be 88 aa ef 3d be 02 91 bf 9c 0a cd 3d
       -0.21585023 0.11702448 -1.1328962 0.10011789
000250 8e 3b c4 3e c2 c7 17 be 64 51 00 3e e0 39 35 3c
       0.38326687 -0.14822295 0.12531048 0.011061162
000260 00 61 a0 bb 86 c1 bd bd 3e 1b 49 3e 69 9a 02 bf
       -0.004894376 -0.09265427 0.19639298 -0.5101686
000270 50 1a a2 bd d0 19 ba bc f4 4a e1 3d cf d6 89 bc
       -0.07915175 -0.022717386 0.11000624 -0.016826062
000280 50 46 51 3e 00 5c ad bd 02 64 56 3e 48 88 34 3d
       0.20436978 -0.08464813 0.20936587 0.04407528
000290 20 8a f3 bd a4 57 13 3e 1a 11 7d be c0 21 cf 3c
       -0.1189158 0.14388901 -0.24713555 0.025284648
0002a0 b0 d8 b0 bc fe 09 3f be f4 8a fd 3d 9c 84 b2 bd
       -0.0215877 -0.18656155 0.12380019 -0.087166995
0002b0 60 b7 12 bc 08 75 a6 bd 44 3f 99 3d 18 6d 20 3d
       -0.008954853 -0.08127791 0.0748277 0.03916654
0002c0 d8 7a 7b be 30 49 5f bd 37 19 2d 3f f2 c0 4e 3e
       -0.2455858 -0.054513156 0.676166 0.2019079
0002d0 5f a6 c6 be ea 48 7a be 40 5d aa 3c f8 b6 83 bd
       -0.38798806 -0.24441877 0.020796418 -0.06431383
0002e0 e0 e2 f3 3d 75 ee 98 3e ea 44 45 be 39 d6 64 3e
       0.11908507 0.29869428 -0.1926457 0.22347344
0002f0 a8 17 4b 3e 88 a4 31 3d 58 2e dc 3d e8 3d b7 3d
       0.19833243 0.0433698 0.10751027 0.089473546
000300 7c c4 62 3e 84 ef 5b be 8f 78 4e 3f a2 1b 10 3e
       0.22145265 -0.21478087 0.8065271 0.14073041
000310 f7 97 03 bf 3c fd fc bd ea 82 30 3e 36 33 78 3e
       -0.51403755 -0.12352988 0.1723744 0.24238285
000320 70 37 1f 3d d1 d8 50 3e 10 cd 3e 3e 87 fe 38 3e
       0.03887123 0.20395209 0.18632913 0.18065844
000330 78 5f a9 3e ac ad 9a 3d a4 8a 96 bd d0 ee 27 be
       0.3308065 0.075526565 -0.07350662 -0.16399693
000340 66 00 49 3e 02 39 60 be 50 34 e7 3c 50 21 b5 bd
       0.19629058 -0.21896747 0.028223187 -0.088442445
000350 ba 55 30 be 84 0d 1a 3e 90 5a c9 3c 30 d0 d2 bc
       -0.17220202 0.15044218 0.024579316 -0.025734037
000360 e8 9b 60 be 58 cc b0 3d 76 0a 01 3e 8e c6 59 3e
       -0.21934474 0.086327255 0.12601647 0.21267149
000370 ac a9 16 be 10 33 1a bd 2c e2 f0 bd 48 5e 4c 3e
       -0.14713162 -0.037646353 -0.11761889 0.1995784
000380 4a 0f 29 3e d0 e5 31 3d 19 2a 29 3f 4e de 5e be
       0.16509739 0.043432057 0.6607986 -0.2176449
000390 f7 80 de be 70 f0 20 be 06 30 39 be 40 b0 55 3c
       -0.43457767 -0.1571672 -0.18084726 0.01304251
0003a0 58 c9 de 3d e4 40 50 3e d4 ec e5 3d 3d ee 06 3e
       0.10878247 0.20337254 0.11226812 0.13176818
0003b0 d5 fe 9e 3e ca 4b 4e 3e d6 c3 1a 3d 3d 94 94 bd
       0.31053796 0.20146099 0.03778442 -0.07254837
0003c0 90 ca 4b 3e 2c f6 2d be 14 26 3f 3f c2 66 7d be
       0.1990149 -0.16988438 0.7466748 -0.2474623
0003d0 a0 b9 2e bf 36 22 5e be 6c 5d a1 bd 70 1c 12 3e
       -0.6825199 -0.21692738 -0.07879147 0.1426866
0003e0 40 b0 db 3c b3 6e 91 3e 89 56 6e bc 84 d1 22 3e
       0.026817441 0.2840477 -0.014546999 0.15900236
0003f0 d6 65 94 3e 80 61 fe bc 3a 6c 62 3e ef e5 47 be
       0.28983945 -0.031052351 0.22111598 -0.19521306

hedge_qs.1.linear_relu_stack.4.bias f4 [16]
000000 aa c0 62 be 65 d3 58 bd 40 50 b0 bd 24 2a 27 be
       -0.22143808 -0.052935977 -0.086090565 -0.16324669
000010 f8 9d ea bd ee 50 14 be 7e e5 4f 3e 36 bf 0e 3e
       -0.114559114 -0.14483997 0.20302388 0.13940129
000020 f0 3f b8 3d 9d 66 16 3e f8 4a 64 be 54 95 4d ba
       0.0899657 0.14687581 -0.22294223 -0.0007842381
000030 59 a7 78 be 00 23 87 bb ab d7 d1 bc c3 8d 96 be
       -0.24282588 -0.0041240454 -0.025615534 -0.2940503

hedge_qs.1.linear_relu_stack.6.weight f4 [1, 16]
000000 e4 e1 b0 3d 0b 44 a6 3e 46 a8 10 be 88 94 af 3e
       0.08636835 0.32473788 -0.14126691 0.34293008
000010 f0 ec d2 3c ea 58 24 be 14 ee 98 3e a3 ad 64 3e
       0.025747746 -0.16049543 0.2986914 0.22331862
000020 40 da 8d 3d f7 44 9f bf 22 02 26 3e 3c 1c 3f 3e
       0.069263935 -1.2442921 0.16211751 0.18663114
000030 da 22 42 3f 62 b6 5a 3e 4b 9e 99 3e b5 c0 06 3f
       0.7583443 0.21358636 0.3000358 0.526378

hedge_qs.2.linear_relu_stack.0.weight f4 [16, 2]
000000 6b 01 75 3f 10 02 3f 3e 40 a1 18 bf 79 ff 15 bf
       0.9570529 0.1865313 -0.5962105 -0.58592945
000010 b6 84 96 3e 7c 40 22 bf 67 9d 08 3f 27 de f0 3e
       0.29398125 -0.63379645 0.53365177 0.4704449
000020 69 9a f9 3b a4 e8 45 3d 42 78 90 3f da 36 9d 3e
       0.007617284 0.048317567 1.12867 0.3070591
000030 43 b3 e5 3e c8 e1 c0 be b7 3a 31 bf df cd de be
       0.44863328 -0.37672257 -0.69230217 -0.43516442
000040 48 76 a1 be 12 90 64 3e 1c 90 2b 3f 61 7e b7 3e
       -0.31535554 0.22320583 0.6701677 0.35838607
000050 9e 4c 92 bc 6c c3 29 bf 34 c3 00 bf d6 d0 e4 be
       -0.0178588 -0.66313815 -0.50297856 -0.4469058
000060 e2 84 9a 3f e6 2c 2d bf e6 a2 a3 3f 4e 1b c2 3e
       1.2071803 -0.67646635 1.2784088 0.37911457
000070 79 f6 8a 3f dd 18 fb bd 16 a6 45 3e a5 85 fe 3e
       1.0856467 -0.12260602 0.19301638 0.49711338

hedge_qs.2.linear_relu_stack.0.bias f4 [16]
000000 cf df 87 be 77 70 54 3e 1f e4 a8 be 0a d5 f4 be
       -0.2653794 0.20746027 -0.32986543 -0.47818786
000010 fd 8e 31 be 96 71 4b be 4d 52 4f 3e c1 6f 0c bf
       -0.17339702 -0.19867548 0.20246239 -0.5485802
000020 ed e0 c6 3c c2 4e 81 3e 9c fb f2 be 56 38 1a 3e
       0.024277175 0.252554 -0.47457588 0.15060553
000030 27 85 82 3d a2 08 12 bf 01 fd 9d be 96 ac ff be
       0.06373053 -0.5704442 -0.3085709 -0.4993636

hedge_qs.2.linear_relu_stack.2.weight f4 [16, 16]
000000 6e 43 21 be 64 11 f9 bd 40 05 15 3c 60 c1 ea 3d
       -0.15748379 -0.1216152 0.00909549 0.114626646
000010 40 0a dc bd 70 8c c8 bc ce 97 08 3e ee 5a 2e be
       -0.107441425 -0.024481028 0.13339159 -0.17026874
000020 58 8c 52 3e 10 d1 96 3d a0 c5 6c bd 10 b5 36 3d
       0.2056135 0.07364094 -0.057805657 0.04460627
000030 f0 b6 0a bd 00 df ab bc 10 7d 5d be 5e 30 07 be
       -0.03386587 -0.020980358 -0.21629739 -0.13202044
000040 f2 40 4d be 38 28 65 3e 20 8a 9c bc d8 b4 ff bd
       -0.20044306 0.22378623 -0.019108832 -0.12485665
000050 64 5a 94 3d 52 9a 60 be d0 e9 30 bd ec cb 52 be
       0.07243803 -0.21933869 -0.04319173 -0.20585603
000060 98 e2 43 bd 66 57 6c be 78 ad 71 3d 7e 6b 5f be
       -0.04782352 -0.23080215 0.059003323 -0.21818349
000070 d4 b4 76 be 74 37 64 be 06 12 63 3e 76 37 7e 3e
       -0.24092418 -0.22286779 0.22174844 0.24825844
000080 ef 42 40 3f 24 ad 4d be 32 a9 7e 3e b4 a7 7e be
       0.7510213 -0.20085579 0.2486923 -0.24868661
000090 80 86 ae 3b 6d 45 5e 3e b0 8c e3 3d c4 a8 48 be
       0.0053260922 0.21706171 0.111108184 -0.19595629
0000a0 c6 1e 6b 3e b3 7f 80 3e e6 fb 19 3e 58 1d 57 be
       0.22960958 0.25097427 0.15037498 -0.21007288
0000b0 26 48 85 3e a4 c5 bc 3f f1 17 0c 3f 18 a6 a4 3d
       0.26031607 1.4747815 0.5472403 0.08039492
0000c0 e0 1b 6b bd ac 3e 86 3d 92 cb 5e 3e f8 e6 70 3d
       -0.05739963 0.065549225 0.21757343 0.05881402
0000d0 40 9d b7 bd ae 71 18 be 58 44 37 be 64 62 2a be
       -0.0896554 -0.14887115 -0.17897165 -0.16639096
0000e0 70 b1 57 bd a2 56 4e 3e 40 cf 39 bd ac 8e d0 3d
       -0.052659452 0.20150235 -0.045363665 0.101834625
0000f0 18 58 e0 bd d8 a9 57 3e c0 53 e2 bd c4 6f a8 3d
       -0.109543025 0.21060884 -0.1105113 0.082244426
000100 13 d9 e8 3e 72 72 6a be 5a 2a 63 3e 76 1e 3d be
       0.45478114 -0.2289522 0.22184125 -0.18468651
000110 48 d5 77 be 4b 10 15 3f 89 0f 23 be 48 1b 7f 3e
       -0.24202454 0.58227986 -0.15923895 0.2491275
000120 72 83 4e 3e d6 9a 7d 3d f8 96 4f 3e 4e 4b 32 be
       0.2016733 0.06191524 0.20272434 -0.17411539
000130 69 1c 06 bd 01 6f ae 3f 25 8d d6 3e a4 79 75 3e
       -0.032741938 1.3627626 0.4190456 0.23972183
000140 ae cd 4d 3e 92 35 48 be 00 ac 8d bc 78 85 0d be
       0.20097992 -0.19551685 -0.01729393 -0.13820446
000150 b4 aa a6 3d 46 34 22 be 18 8f dd 3d b0 25 0c be
       0.08138028 -0.15840253 0.108183086 -0.13686252
000160 d2 9b 49 3e 50 85 7d be 54 8c 71 3e b8 c2 27 bd
       0.19688347 -0.24757886 0.23588687 -0.040957183
000170 a2 e7 5e 3e 64 cc 56 3e 90 d6 8e bd 90 ce 84 bc
       0.21768048 0.20976406 -0.06974518 -0.016211778
000180 2c 1b 26 3e 28 a2 0d bd 00 26 a6 bb 2c fd da 3d
       0.16221303 -0.034578472 -0.005070448 0.1069282
000190 f0 f2 bb 3d f1 e6 17 be fc 95 a7 bd 00 7a c1 bb
       0.09177196 -0.14834191 -0.08182904 -0.005904436
0001a0 48 e5 26 3d 6c f3 ea bd 10 9f 00 be e2 76 14 3e
       0.040746003 -0.1147221 -0.12560678 0.14498475
0001b0 d6 96 7b 3c 1c 96 89 be b4 d8 27 bd f0 8b 96 bd
       0.015355786 -0.26872337 -0.04097815 -0.0735091
0001c0 4c 9d 25 be b2 ea 4a 3e 86 29 46 3e 48 e8 46 3e
       -0.16173285 0.19816092 0.19351777 0.19424546
0001d0 40 ef 54 be 7e d2 29 3e 74 76 8a bd 30 de 1c bd
       -0.20794392 0.16584203 -0.067608744 -0.038297832
0001e0 60 00 96 bc e6 14 63 3e a0 66 00 3c 00 f9 73 bb
       -0.018310726 0.22175941 0.007836968 -0.0037227273
0001f0 30 d3 8a 3d 90 8f d1 3c 56 c7 77 be 68 7c 48 3e
       0.06778562 0.025581151 -0.24197134 0.19578707
000200 78 3b 2d 3d 78 3c 12 3e f8 b0 46 3e 1e 24 3c 3e
       0.042293042 0.1428088 0.19403446 0.18373153
000210 2a fc 6a be ee 61 38 3e b6 38 60 be 38 34 79 3e
       -0.22947755 0.18006107 -0.21896634 0.24336326
000220 08 1f 42 3d a4 fa 1f be 44 fd 15 3e 00 4b 30 bd
       0.047392875 -0.15622956 0.14647394 -0.043040276
000230 3a 01 5d be 90 e7 06 be 82 e1 2b be c0 9d c9 bb
       -0.21582499 -0.13174272 -0.16785243 -0.0061528385
000240 3a 74 1c 3f ba d0 5f 3e 74 10 61 3e 68 4a f4 bd
       0.6111485 0.21856967 0.21978933 -0.11928254
000250 88 7a aa bd b7 05 bc 3e 28 da 20 3e 60 f8 fb 3c
       -0.08324152 0.3672311 0.1570822 0.030758083
000260 20 a8 a6 bd 2f 9d f9 bd a0 a7 01 3e 40 f1 a9 3c
       -0.08137536 -0.121881835 0.126616 0.02074492
000270 c4 72 c5 3e f4 7b a4 3f 4f f0 ff 3e 90 b8 54 3e
       0.38564122 1.2850327 0.49988028 0.2077353
000280 44 c1 61 be e0 8e 77 3e 30 47 0e bd f8 d1 64 3e
       -0.22046381 0.24175596 -0.03473586 0.22345722
000290 de aa 29 3e d6 4a 39 be f0 12 c6 bd 8a 6d 12 be
       0.16569087 -0.18094954 -0.09671581 -0.14299598
0002a0 60 22 90 3c b0 98 d0 bd 70 08 0c be 0c d6 d5 3d
       0.017594516 -0.10185373 -0.13675094 0.10441217
0002b0 60 e8 5e bc a8 76 9d bd a4 25 7f 3e a8 cc 75 be
       -0.013605207 -0.076886475 0.24916703 -0.24003851
0002c0 a2 58 67 be cc fe 66 3e 70 f1 a1 3c 74 05 28 3e
       -0.22592404 0.22558135 0.019768447 0.1640833
0002d0 fe 81 23 be e0 7d 0d be e2 33 4d be 4c 87 7d be
       -0.15967557 -0.13817549 -0.20039323 -0.24758643
0002e0 18 cd 60 bd b4 a6 4a be e0 45 3a bd 2a 07 14 be
       -0.054883093 -0.19790155 -0.045476794 -0.14455858
0002f0 2c b6 8e bd dc 23 cf bd 60 51 e5 3c 14 da 16 be
       -0.0696834 -0.101142615 0.027992904 -0.14731628
000300 20 bf 0b 3c 88 a0 0c 3d 84 14 0a be 38 f7 79 be
       0.0085294545 0.034332782 -0.13484389 -0.24410713
000310 06 48 0a be 0a 27 4d be 12 9b 7b be 50 f4 99 bc
       -0.13504037 -0.20034423 -0.24570873 -0.018793255
000320 08 f5 0e 3e 9a 41 54 3e 26 f2 44 3e 80 87 37 3d
       0.1396066 0.2072815 0.19232997 0.044806957
000330 14 6d cd bd c8 30 b7 3d 2a 79 70 be 2e 84 37 3e
       -0.100305706 0.08944851 -0.2348372 0.17921516
000340 26 87 2b 3e 20 41 90 bd 98 0c 4d bd d8 7c c8 3d
       0.16750774 -0.070436716 -0.05006084 0.09789437
000350 a8 90 67 3d 90 4d a4 3c 5c 14 98 bd f8 d9 de 3d
       0.05653444 0.020056516 -0.07425758 0.10881418
000360 0c 20 40 3e 2c cf 0c be 5c 47 54 be 60 f3 03 3d
       0.18762225 -0.13750905 -0.20730346 0.032214522
000370 aa 6b 34 be d0 fd c3 bd c6 2e 11 be cc b5 17 be
       -0.17619196 -0.09569895 -0.14177999 -0.14815444
000380 92 59 2e be a4 7a 4a be 6a 86 30 3e f8 52 44 be
       -0.17026356 -0.19773346 0.17238775 -0.19172275
000390 50 2c 05 bd 00 a6 18 bb e0 87 80 3c 1c 3b 3f be
       -0.032512963 -0.0023292303 0.01568979 -0.18674892
0003a0 00 01 3c 3b ba 0c 21 be 30 dd 8a bd 3e 22 49 3e
       0.002868712 -0.15727511 -0.067804694 0.19641969
0003b0 d4 14 dd bd f0 fe fc 3c 9c 4d 01 3e f4 d2 36 be
       -0.10794988 0.030883282 0.12627262 -0.1785391
0003c0 4a 5c 00 be 30 5f ae bc 88 af 42 be b0 51 83 3d
       -0.12535205 -0.021285623 -0.19012272 0.06412065
0003d0 04 fe 33 be 44 15 67 be 66 3a 08 3e a8 4d 7b bd
       -0.17577368 -0.22566706 0.13303527 -0.061353356
0003e0 bc e0 3e be c4 e8 60 be 88 cd 24 bd 70 1e 1a 3e
       -0.18640417 -0.21963793 -0.040235072 0.15050673
0003f0 88 6f 65 3e d8 90 58 bd d0 7e b8 3d 7c de af 3d
       0.22405827 -0.05287251 0.090085626 0.085873574

hedge_qs.2.linear_relu_stack.2.bias f4 [16]
000000 0e a2 42 be 18 56 70 3e 1b 22 11 be d0 04 e9 bd
       -0.19007131 0.23470342 -0.14173166 -0.11377871
000010 97 42 82 be e6 5b 6a be d2 3b d3 3d 54 76 6d be
       -0.2544143 -0.22886619 0.10314144 -0.2318967
000020 54 e4 7a be b3 95 8b be 92 7a 4b be 8c ef 14 be
       -0.24501163 -0.2726265 -0.19870976 -0.14544505
000030 90 95 fe 3c 22 24 66 be f0 c5 ee bd ac 94 ab bd
       0.031077176 -0.22474721 -0.11658847 -0.08377966

hedge_qs.2.linear_relu_stack.4.weight f4 [16, 16]
000000 1c 08 87 3d 30 28 fe 3d a9 bf 6d be 0e 34 6f be
       0.065933436 0.12410009 -0.23217644 -0.23359701
000010 1d 23 24 bd 08 99 e7 bd 0e 76 00 bd a0 03 da bd
       -0.04007255 -0.11308485 -0.031362586 -0.10645223
000020 4a a3 23 3e 36 9f 90 bd de 3e 69 be 00 55 7a bb
       0.15980259 -0.07061617 -0.22777888 -0.0038197637
000030 e8 53 fa bd 00 86 e9 3c 6c 66 4c 3e d8 68 76 bd
       -0.12223035 0.028506279 0.19960946 -0.06015858
000040 7e 49 60 be e0 e1 2a 3d e6 1b 40 be 90 31 9c bd
       -0.21903035 0.041719317 -0.18760642 -0.07626641
000050 f4 4b 00 be 9c 0a 85 3d cc e3 7e be 12 55 3b 3e
       -0.12528974 0.06496164 -0.24891585 0.1829417
000060 34 90 80 bd 94 30 e5 3d 50 10 c9 bd 60 75 18 3e
       -0.062775046 0.11190906 -0.098175645 0.14888525
000070 6c c7 20 3e bc 46 f1 bd 40 e5 c6 3d f0 a0 21 bd
       0.15701073 -0.1178107 0.09711695 -0.039460123
000080 40 d8 06 3d 66 b9 4d 3e a3 4a 5e be 20 b9 18 3c
       0.032921076 0.20090255 -0.21708159 0.009321481
000090 fa 70 45 be 80 8c ed bd 0e c0 1f 3e 18 e2 27 3e
       -0.19281378 -0.11599064 0.15600607 0.16394842
0000a0 b4 f3 28 be 18 d9 04 bd 6c e4 d6 3d b8 14 1d be
       -0.16499215 -0.0324336 0.10492787 -0.15339935
0000b0 46 eb 27 be 38 91 63 3e c0 fd 32 be f6 9e 47 3e
       -0.16398343 0.22223365 -0.1747961 0.19494233
0000c0 7e e7 55 3e 44 59 65 be 52 b3 1d 3f c0 56 87 bd
       0.20889089 -0.22397333 0.61601746 -0.06608343
0000d0 7f 80 2f 3f 2e ea 6d 3e a1 3a 8e bd 58 ea a4 bd
       0.68555444 0.23233864 -0.06944776 -0.0805251
0000e0 58 04 47 be ae c5 06 3f 24 f2 7a 3e 9c f7 9e 3d
       -0.19435251 0.52645385 0.24506432 0.077620715
0000f0 70 8a 85 bc a0 6c e5 bd 4e 27 4b be 30 db 88 3c
       -0.016301364 -0.11202359 -0.19839212 0.01670608
000100 5e ee 41 3e c4 2a 30 3e ad 55 09 3e 44 e1 94 3d
       0.18938586 0.17203814 0.13411589 0.072695285
000110 8c f7 40 be 9e 43 1d 3e 7a da 6d be 20 cc 4b 3c
       -0.18844432 0.15357825 -0.23227873 0.012438804
000120 24 5f 9e 3d 51 3e ea 3c 80 b6 e2 3d b0 36 c2 3c
       0.077329904 0.028594168 0.11069965 0.023707718
000130 14 99 1b be 5e ec 07 3e 00 ff d0 3a 00 20 7d 3d
       -0.15195113 0.1327376 0.0015945137 0.061798096
000140 84 d5 23 be a0 64 a6 3d 83 21 29 3e 10 ad 85 3c
       -0.15999418 0.081246614 0.1651669 0.016317874
000150 76 0e de 3d 24 bf 48 be 62 8c 2e be a6 55 0a be
       0.10842602 -0.19604164 -0.1704574 -0.13509235
000160 82 f2 4b be 77 48 03 be ce c9 49 be 8a 02 2c 3e
       -0.19916728 -0.12820612 -0.19705889 0.16797844
000170 9c 28 f4 bd 48 16 4d bd b0 a6 14 3e e8 fd 16 3d
       -0.11921808 -0.050070077 0.14516711 0.036863238
000180 d4 68 92 bd 06 35 6d be 7b 5a a2 bd 70 d5 d6 bc
       -0.07148901 -0.23164758 -0.07927414 -0.026224822
000190 fc 0a 2c 3c 8c ef 00 3e 14 ba 4a 3e 14 60 3d be
       0.010500666 0.1259138 0.19797546 -0.18493682
0001a0 80 bd 80 bd 57 f8 62 3e 30 1a 96 3c 10 88 4e be
       -0.06286144 0.22165047 0.018323034 -0.20169091
0001b0 40 d0 5f bd 14 f0 93 3d 28 e8 68 be f0 6e 8c bc
       -0.054641962 0.07223526 -0.2274481 -0.017142743
0001c0 46 af 7a 3e ae 9d 3e 3e 20 f5 a3 bd cc c1 85 bd
       0.24480924 0.18614838 -0.08005738 -0.065311044
0001d0 74 ed 06 3e 08 74 18 be f4 1f e9 bd b8 2d d7 bd
       0.13176519 -0.14888012 -0.11383048 -0.10506767
0001e0 f0 d5 98 3c e0 c1 64 be 88 7c 1a 3d 20 78 ab 3c
       0.0186567 -0.22339582 0.03771642 0.020931304
0001f0 20 eb ec 3d d0 44 ed bc f2 1d 6d 3e 7c d8 ab bd
       0.11568284 -0.028963476 0.23155954 -0.083909005
000200 b0 2d 2b be a0 7d 6e bc f8 cb 2f 3f 76 a5 44 be
       -0.16716647 -0.0145563185 0.68670607 -0.19203743
000210 52 e8 0a 3f c0 17 d3 3b 8d e8 37 3e 50 3e 77 3e
       0.5426074 0.00644204 0.17959805 0.24144864
000220 00 23 5b be 8e 9b 43 3f 5a f8 65 3e ec 0d 55 be
       -0.2140007 0.7640923 0.2245802 -0.20806092
000230 10 09 02 3e fc 42 1c 3e 00 ac e1 bd 74 3d 69 3e
       0.1269877 0.15259928 -0.110191345 0.22777349
000240 d0 37 22 3d ba 95 0d be 2c e4 ff bd 18 b7 78 bd
       0.03960401 -0.13826647 -0.12494692 -0.060721487
000250 dc 9e d9 3d e0 ec 71 bd a6 03 66 be e4 e7 09 be
       0.10626003 -0.059063792 -0.2246233 -0.13467366
000260 e8 ab e1 bd 26 03 15 be 80 3c 01 bc 70 1c e3 bc
       -0.11019117 -0.14551982 -0.0078879595 -0.027723521
000270 e0 95 5a bc 30 6f 7d 3e cc 68 e1 3d ac 73 14 be
       -0.013341397 0.24749446 0.110063165 -0.1449725
000280 be 6a 7b 3e 38 a7 6c be 7b 21 c9 bd d0 1c b9 3c
       0.24552438 -0.23110664 -0.09820839 0.022596747
000290 b3 65 26 3e 80 cc 2f bd f4 cb 46 3e 60 d9 33 3e
       0.16249733 -0.042919636 0.1941374 0.1756339
0002a0 e0 c0 03 3c 48 a9 ac 3d d2 4e 7e be b8 98 fc 3d
       0.00804159 0.08430725 -0.24834755 0.12333816
0002b0 c0 fe e1 3d 20 3b 33 3d 78 f0 7c 3d b4 e1 0a be
       0.11034918 0.043757558 0.061752766 -0.13562661
0002c0 ea 9e 39 3e 8c 37 dc bd 70 de 24 be a0 ee ae bd
       0.18127027 -0.10752782 -0.16100478 -0.08541608
0002d0 58 b5 d8 bd f8 20 85 bd f0 8c be 3d b0 08 b5 bd
       -0.105814636 -0.06500429 0.093042254 -0.08839548
0002e0 62 fa 51 3e 04 d9 5a be c2 73 33 3e 7c 22 9e bd
       0.2050567 -0.21371847 0.17524627 -0.07721421
0002f0 80 5f 6b 3e 28 a8 1d bd 00 d1 f4 bc 5c be 65 be
       0.22985649 -0.038490444 -0.029884815 -0.22435898
000300 9c 1f 0d 3e 0c 07 16 be cf d1 96 bd e0 9e fb bd
       0.1378159 -0.14651126 -0.073642366 -0.122861624
000310 9e a3 9c 3d 4c f2 68 be 48 0f 4e 3d 4c 9b 07 3e
       0.07648395 -0.22748679 0.050307542 0.13242835
000320 de 38 57 be 48 8b 20 3e 38 be 2f bd 8e 3a 39 3e
       -0.21017787 0.15678132 -0.042906016 0.18088743
000330 18 50 b0 3d 40 3c 47 bd 26 52 00 3e 80 3c 3c 3c
       0.08609027 -0.048641443 0.12531337 0.011489034
000340 94 a0 77 3e b4 04 70 be 10 95 48 bc 94 26 b2 3d
       0.2418235 -0.23439294 -0.0122425705 0.086987644
000350 af fb 18 3e 5c 29 55 be c7 23 46 3e c4 08 a6 3d
       0.1493976 -0.20816559 0.19349585 0.08107141
000360 18 7a 33 3e cc 69 56 be 28 9f 6c bd 64 2c e7 3d
       0.17527044 -0.20938796 -0.05776897 0.11287764
000370 c4 78 40 be c0 7d 40 3e 5c 7b c1 3d 58 39 54 3d
       -0.18796068 0.1879797 0.09447357 0.0518125
000380 12 b4 3e be 20 c9 5c bc 10 00 12 be 06 4b 69 3e
       -0.18623379 -0.013475686 -0.14257836 0.22782525
000390 e4 16 38 be 7a 10 26 be 74 b3 92 bd 40 b1 66 3d
       -0.17977482 -0.16217223 -0.07163134 0.056321383
0003a0 78 b0 1c bd 30 01 dd 3d 4c 69 a1 3d 50 cc 59 3e
       -0.03825423 0.10791242 0.07881412 0.21269345
0003b0 0e 20 44 3e 54 34 3e 3e e6 f8 1b be 48 14 8b bd
       0.19152853 0.18574649 -0.15231666 -0.06790978
0003c0 d4 b9 84 bd ee b0 7d 3e b1 52 21 bb ea c4 7f 3e
       -0.064807564 0.24774525 -0.0024615938 0.2497746
0003d0 fa 49 12 bf 60 88 6d be 13 f8 43 3e d4 d0 bf bd
       -0.5714413 -0.23196554 0.19137602 -0.09366003
0003e0 48 5a fd 3d 5e 5d d4 be 7a 00 3a be a8 21 4d be
       0.123707354 -0.41477484 -0.18164244 -0.2003237
0003f0 10 ef e0 bc 38 56 71 3d f4 e3 f4 3d 82 27 19 3e
       -0.027457744 0.058920115 0.11957541 0.14956477

hedge_qs.2.linear_relu_stack.4.bias f4 [16]
000000 62 ca 94 3d 48 1d b9 bd fc 74 ce 3d 9b 7f 8f be
       0.07265164 -0.09038788 0.10080907 -0.28027043
000010 d8 9c d1 bd da 3d 8b be 04 c3 7a be a8 04 72 3d
       -0.10234994 -0.27195626 -0.24488455 0.05908647
000020 bc fd b9 be 40 0a 9e bd 42 f0 fc bd 42 91 32 be
       -0.36326396 -0.07716799 -0.12350513 -0.17438224
000030 ea 23 49 be de 93 72 3d 4a bf 43 be 74 3d ba 3e
       -0.19642606 0.05922305 -0.1911594 0.3637501

hedge_qs.2.linear_relu_stack.6.weight f4 [1, 16]
000000 bb b9 84 bd 84 a6 ef 3d a7 83 cf bd 9f 10 3c 3f
       -0.06480738 0.11701682 -0.101325326 0.7346286
000010 c8 f0 b1 bd 88 6a 1d bc c3 d8 73 3e 58 e6 3c bd
       -0.086885035 -0.009607919 0.23813157 -0.04611811
000020 d3 75 3f 3f 58 a7 21 3d 58 79 13 be 30 a5 d5 bd
       0.7478916 0.039466232 -0.14401758 -0.10431898
000030 71 81 db bb 77 fc 8f bd 90 d4 a0 3d 69 9a 8a bf
       -0.00669878 -0.07030576 0.07853043 -1.0828372
