Models/Heston/FFNN/No transaction costs/hs_FFNN_MSE_Notc.pth (torch, 315929 bytes, 406 tensors)

hedge_qs.0.linear_relu_stack.0.weight f4 [16, 2]
000000 e1 0c f7 be 4e 3a 58 3e 9f 01 5a 3e 7d 9e 4c be
       -0.48252013 0.21115991 0.21289681 -0.19982333
000010 6e a9 5d 3e 98 b8 bf 3e 4f ac f8 3e 0e 8b 26 bf
       0.21646664 0.3744552 0.4856896 -0.6505593
000020 73 64 e9 be 8b ac 27 3f 4a 31 e5 3d fb ce 68 be
       -0.4558445 0.65497655 0.11191042 -0.22735207
000030 99 4b 31 bf f5 59 07 be f9 6d 28 3f 8a 8e 10 3f
       -0.6925598 -0.1321791 0.65792805 0.564675
000040 4c e4 bc 3e 57 9b d4 be 8a 62 a7 be 10 1e 0d 3f
       0.36892927 -0.41524765 -0.32692367 0.55123997
000050 63 2d ef 3e e0 be 16 3e 15 11 17 bd 1a cf ba be
       0.46714315 0.1472125 -0.036881525 -0.3648613
000060 96 84 00 bf ea 23 26 bf 88 b5 33 bf 5f 68 bc 3e
       -0.5020231 -0.6489855 -0.7019887 0.3679838
000070 08 31 d1 be ee 08 45 bd 49 45 76 bc c9 fe 9d be
       -0.4085772 -0.04810422 -0.015031167 -0.30858448

hedge_qs.0.linear_relu_stack.0.bias f4 [16]
000000 58 56 48 be 7b 32 db bd a2 43 2e 3f c5 4a 0b 3f
       -0.19564188 -0.10702988 0.6807195 0.54410964
000010 7e 2b bf 3e 3c 93 bf be 00 44 2d bf 7c 21 24 3f
       0.3733787 -0.37417018 -0.67681885 0.64113593
000020 a7 ee c3 3e 5a f5 af 3d 42 a6 18 bd 72 28 cd bd
       0.38268015 0.08591719 -0.03726793 -0.1001748
000030 71 62 4e be f0 ca ab 3e fe cd 2e bf 5c 30 f0 be
       -0.2015474 0.33553267 -0.6828307 -0.46911895

hedge_qs.0.linear_relu_stack.2.weight f4 [16, 16]
000000 38 6a 33 bd db a2 03 3e 34 c8 d5 3d 58 27 61 3e
       -0.04380247 0.12855093 0.10438576 0.21987665
000010 9d b4 5a 3e 28 4c 4a 3d f8 78 41 be 9d 74 80 3e
       0.21357961 0.049389035 -0.18893802 0.2508897
000020 6b 2c 48 3d 54 64 b1 bd e2 7c a4 bd ec cb 5b 3e
       0.048870485 -0.08661714 -0.08031632 0.21464509
000030 30 37 28 3e fa d2 3a 3e fe bb 37 3e 70 d1 6f bd
       0.16427302 0.18244544 0.17942807 -0.058549345
000040 74 65 a8 3d 26 86 0b be c0 69 04 bc 88 19 2d bd
       0.08222476 -0.13625392 -0.008081853 -0.042260677
000050 b8 78 5e bd 76 c2 41 be 20 fa ad bc 80 23 4f 3d
       -0.054314345 -0.18921837 -0.021237433 0.050570965
000060 a4 f9 98 bd 32 b7 1a 3e 96 c6 78 be 7c a1 5d be
       -0.0746949 0.15108946 -0.24294505 -0.21643633
000070 0c c0 c0 bd 64 cf 5f be 86 54 5d be 0e 26 17 3e
       -0.0941163 -0.21856457 -0.21614274 0.1476061
000080 90 77 56 3e 6c e2 3c be e8 19 53 bd 0a 37 4d be
       0.20944047 -0.18445748 -0.051538378 -0.20040527
000090 ce e1 2b be e4 d5 45 be c0 b9 8a 3d a0 77 87 3c
       -0.16785356 -0.19319874 0.0677371 0.016536534
0000a0 d0 ab 17 be c8 46 7c bd 78 c1 33 3e 20 cb 53 bc
       -0.14811635 -0.06159094 0.17554271 -0.012926847
0000b0 88 42 16 3e 02 bf 38 3e 28 cf 3f bd 70 9b 09 be
       0.14673817 0.18041614 -0.04682842 -0.13438201
0000c0 3c 57 ac 3d 83 e3 ab 3d a0 22 9e 3e 2c ae 30 3e
       0.08415076 0.08393004 0.30885792 0.17253941
0000d0 c2 02 0f 3d e0 ab af 3c 50 72 f8 3d 79 ca c5 bc
       0.03491474 0.021444261 0.121311784 -0.024144398
0000e0 84 e3 87 3e e0 41 2a bd 91 54 5f 3c 40 95 27 3e
       0.26540768 -0.04156673 0.013631002 0.16365528
0000f0 14 44 21 be 26 68 49 3e 74 16 72 be fe 2f 09 be
       -0.15748626 0.19668636 -0.23641378 -0.13397214
000100 24 57 4e 3e 8f fe 9a 3d 97 26 29 3e 8a 32 ba 3d
       0.20150429 0.075680844 0.16518627 0.09091671
000110 3c 59 71 bd 78 05 53 bd 00 18 e3 ba bd 1f 0f 3e
       -0.05892299 -0.051518887 -0.0017325878 0.13976951
000120 94 fa 10 3e 8c c0 cd bd 99 10 5b 3e ee b2 5e be
       0.14158088 -0.10046491 0.2139305 -0.21747944
000130 10 17 cb 3c 18 3c 5f 3e 00 cd ac 3d a0 7f 0b be
       0.02479127 0.21800268 0.08437538 -0.13622904
000140 0a 2b 42 3e b5 21 ce ba f9 a7 83 3e 2b e0 54 3e
       0.1896173 -0.0015726598 0.2571409 0.20788638
000150 bf 5b da bd 6c 0c 9f 3d 58 7c d8 3d 23 dd 85 3d
       -0.106620304 0.07766041 0.10570592 0.06536319
000160 21 0f 82 3e 72 99 3c 3e c8 1f 87 3e b0 2f 8c bd
       0.25402167 0.1841791 0.26391435 -0.06845033
000170 90 c6 42 3d 3a ee 2f be 00 4d fe bb 3e d2 01 be
       0.047552645 -0.1718072 -0.007760644 -0.12677857
000180 ea 3d 10 be 20 b5 86 bc 66 8c 10 be a0 cf 4c bc
       -0.14086118 -0.016443789 -0.14116058 -0.0125006735
000190 48 48 21 bd f0 15 aa bd ec 3c bd bd a8 99 b8 3d
       -0.039375573 -0.083049655 -0.092401356 0.090136826
0001a0 8c 5b 7e 3e 22 1c 7a be c0 77 1d bd de 8c 18 3e
       0.2483961 -0.24424794 -0.03844428 0.14897487
0001b0 24 37 3b 3e a4 4a 7c 3e 1e af 19 3e 66 28 08 3e
       0.18282753 0.24637848 0.15008208 0.13296661
0001c0 80 47 50 3c 00 d9 fc ba e0 f0 f3 bc d8 b8 02 be
       0.012712359 -0.0019290745 -0.029777944 -0.12765825
0001d0 28 60 d7 3d f6 69 66 3e 00 c6 c4 3b b0 70 8b 3d
       0.10516387 0.22501358 0.0060050488 0.06808603
0001e0 50 0a f6 bd e6 ea 2e 3e 28 a0 32 be 40 90 24 be
       -0.12013686 0.17081794 -0.17443907 -0.16070652
0001f0 be d2 35 be 64 d5 ec bd 60 b2 ce 3d ae 1d 16 3e
       -0.17756173 -0.115641385 0.10092616 0.1465976
000200 fc 5e c9 3d 82 6d 5c be f8 df 1b be 80 b6 27 3d
       0.0983257 -0.21526149 -0.15222156 0.04094553
000210 08 6e 34 bd 08 f0 e9 bd 60 b6 78 bc aa 17 74 be
       -0.044050246 -0.114227355 -0.0151802 -0.23837152
000220 f0 24 80 3d b8 fe 46 bd 94 52 60 be f0 93 38 3e
       0.06257045 -0.048582762 -0.21906501 0.18025184
000230 b2 92 5a be 10 3d 35 be 3a 6f 74 3e b2 3f 37 be
       -0.21345022 -0.17699075 0.23870555 -0.17895392
000240 aa aa 70 3e 02 67 e5 bd 94 05 b4 3c 76 af a0 bd
       0.23502603 -0.11201288 0.021975316 -0.078459665
000250 e1 a5 91 bd 62 9b 56 3e f4 0d bd bd c6 67 75 3e
       -0.07111717 0.20957711 -0.09231177 0.23965368
000260 c6 62 e8 3d f0 b5 da 3c e5 16 05 be 8c 71 bd bd
       0.113469645 0.026698083 -0.12997015 -0.09250173
000270 00 c9 9b 3a 40 0f 01 3e c4 9f 76 3e 20 ac b2 3d
       0.0011885464 0.12603474 0.24084383 0.087242365
000280 9e fa 7e 3e c4 fb 41 be 3a ab 3b bd 83 c3 83 3e
       0.2490029 -0.18943697 -0.04581759 0.257351
000290 5a a2 bc 3d 00 c6 a9 bb 88 19 66 3e b0 03 2b 3e
       0.092106536 -0.005181074 0.22470677 0.16700625
0002a0 38 c2 ee bc a0 6a c9 bc 4c fd 0e be c4 69 6e be
       -0.029145345 -0.024586976 -0.13963813 -0.23282534
0002b0 2c 7b b3 3d c8 06 5f 3e 60 d9 09 be 38 1c 18 3d
       0.087637275 0.2177993 -0.13461828 0.037136286
0002c0 72 b3 30 3e e0 8b 76 bc bc 17 87 bd 38 04 37 be
       0.17255953 -0.015047997 -0.06596324 -0.17872703
0002d0 86 45 67 3e d2 34 78 be f8 5a 4d 3e b0 6c c8 bd
       0.22585115 -0.242389 0.20054233 -0.097863555
0002e0 30 2c a7 bc 60 ad c9 3d 00 40 ca 37 6e 06 02 be
       -0.020406812 0.09847522 2.4110079e-05 -0.12697765
0002f0 78 c4 d7 3d 78 a3 2f 3e ce b2 05 be 58 07 37 3d
       0.1053552 0.17152202 -0.1305649 0.044684738
000300 e8 75 c3 bd 56 23 5b 3c 6c a0 39 3e cc 58 ea 3d
       -0.09543973 0.013375124 0.18127602 0.11442718
000310 73 80 c9 3d d0 a5 61 3e 38 00 5a 3e aa a6 49 bd
       0.09838953 0.22035909 0.21289146 -0.04923121
000320 39 f2 87 3e a0 62 7f bc 15 07 23 be 40 02 8e bd
       0.2655199 -0.015587479 -0.1592067 -0.06934023
000330 58 6f bc bd 36 c5 53 3e 62 15 11 be 3c 70 c9 bd
       -0.09200925 0.20680699 -0.14168313 -0.0983586
000340 f4 9a 59 be 39 58 85 3d 58 02 25 bd 07 48 86 3c
       -0.21250516 0.06510968 -0.04028544 0.016391767
000350 3d 00 5c be f0 cc 1a be e0 0e bf 3d a9 56 d9 bd
       -0.21484466 -0.1511724 0.09329009 -0.10612232
000360 88 c1 97 3c e6 6f 60 3e d9 77 8d 3d f8 9f 48 be
       0.0185249 0.21917686 0.06907625 -0.19592273
000370 0e 91 46 3e 06 75 22 be 10 c3 6d 3e e8 3d 30 3d
       0.19391271 -0.15864953 0.23218942 0.04302779
000380 08 01 f9 bd a0 98 82 3d d8 fc c5 3d c4 f7 16 3e
       -0.121584 0.06376767 0.09667367 0.14742953
000390 64 82 6d 3e 8a cb 73 3e 8c 0a fd bd b6 07 09 be
       0.23194271 0.23808113 -0.12355527 -0.13381848
0003a0 98 89 05 3d 48 82 79 be ec c9 f4 bd 1c ec 7c be
       0.032601923 -0.24366105 -0.11952576 -0.24699444
0003b0 70 09 59 3e 1e f0 15 be d6 05 3b be 78 19 7d 3d
       0.21195006 -0.14642379 -0.18263945 0.061791867
0003c0 e0 03 85 3d 48 42 3e 3e 68 4b 83 3d 1e 2a 40 be
       0.0649488 0.18579972 0.06410867 -0.18766066
0003d0 28 38 0b 3d c6 90 09 3e 16 cd 72 be bc 4a 5b 3e
       0.0339891 0.13434133 -0.23711047 0.21415228
0003e0 64 f6 43 be 80 47 9f bd 60 51 4a 3d b0 8d 9e 3c
       -0.1913696 -0.077773094 0.04939401 0.019354671
0003f0 34 aa f7 bd e2 9f 71 3e 64 a1 22 be 96 a9 12 3e
       -0.120930105 0.23596147 -0.15881878 0.14322504

hedge_qs.0.linear_relu_stack.2.bias f4 [16]
000000 cf 7a 40 be 08 97 87 bd 38 90 17 bd 5a c5 cc bd
       -0.18796848 -0.06620604 -0.037002772 -0.09998579
000010 b3 37 8c 3e 72 27 c6 bd bc d4 cb bd 66 f2 25 be
       0.27386245 -0.09675492 -0.09952685 -0.16205749
000020 14 af a6 bd ed 5b 55 3e dc 04 81 3e a0 49 67 3c
       -0.08138862 0.20835848 0.2519902 0.014116675
000030 8b fe 89 3d 86 28 04 3e ec 85 5c be 64 87 4a be
       0.06738003 0.12906083 -0.21535462 -0.1977821

hedge_qs.0.linear_relu_stack.4.weight f4 [16, 16]
000000 02 65 62 3e e8 27 d9 bd 90 a2 ba bc d1 d0 33 3e
       0.22108844 -0.10603315 -0.022782594 0.17560126
000010 ea ac 46 be 91 88 a7 3d 3c bd 6f 3e b6 74 15 be
       -0.19401899 0.08180345 0.23412031 -0.14595303
000020 78 55 30 be a5 10 d7 3c f4 ac 08 3e d8 76 a6 3d
       -0.17220104 0.026253054 0.13347226 0.081281364
000030 f4 e9 5f be 52 85 6d be 14 b6 b2 3d aa a2 49 3e
       -0.2186659 -0.23195389 0.08726135 0.19690958
000040 8a d7 a8 3c 48 82 6b 3e c4 39 bf bd 3c 05 37 3e
       0.02061059 0.22998917 -0.0933719 0.1787309
000050 e4 7c 6d 3e 1b f6 32 be 66 80 7f 3e 5a 32 3f 3e
       0.23192173 -0.17476694 0.24951324 0.18671551
000060 78 08 47 bd 61 c2 42 3e 18 f6 e5 3d 70 f8 c8 bc
       -0.04859206 0.19019462 0.11228579 -0.024532527
000070 fd 74 4a 3e bc 27 56 be b2 f1 66 3e 38 81 2d 3d
       0.1977119 -0.20913595 0.22553137 0.04235956
000080 82 b9 3c bd d0 ad 43 3d 42 b6 51 be ca 8b 37 3e
       -0.04607535 0.047773182 -0.20479682 0.17924419
000090 d8 0f 40 be c4 f5 5d be 40 74 17 3e 00 bb cc bc
       -0.18756044 -0.21675783 0.1479044 -0.024991512
0000a0 44 8b a3 3d 0b 8c 1b bd 79 ad 09 be a4 8d dd bd
       0.07985547 -0.037975352 -0.13445081 -0.108180314
0000b0 c3 45 9f bd bd ef 29 3b d4 54 3c 3e 70 84 1e 3e
       -0.07776978 0.0025930249 0.18391734 0.15480208
0000c0 6d b6 90 be 46 e2 1c 3e 36 a4 17 3e 34 e5 52 be
       -0.2826418 0.15320691 0.14808735 -0.20595247
0000d0 cc 73 1b 3e 1d c7 a8 bc cc ac b2 3d e0 ca 6f 3d
       0.15180892 -0.020602757 0.08724365 0.058543086
0000e0 76 b1 68 be 7b 89 32 3d 4d 80 0b 3e 0c 9f f0 bd
       -0.22723946 0.043588143 0.13623162 -0.11749086
0000f0 7b 75 d8 bc 0f 0d d7 3d 1e 77 79 be 7c 51 65 3e
       -0.026423207 0.105005376 -0.24361846 0.22394365
000100 a4 e5 bf 3d fa 2c 2c be 64 f0 e5 3d 08 7b 8e 3d
       0.09369972 -0.16814032 0.112274915 0.0695706
000110 b6 87 30 be 18 04 ac 3d 96 55 15 3e 20 c7 19 3d
       -0.1723927 0.08399218 0.1458343 0.037543416
000120 20 40 ce 3d 68 13 fa bd 7c de e2 bd 64 c9 28 3e
       0.100708246 -0.12210733 -0.11077592 0.16483074
000130 6e 69 77 be 04 d7 c3 bd 0c a6 bd 3d fc 03 b0 3d
       -0.24161312 -0.09562495 0.092601866 0.0859451
000140 bb 1b 0b 3d 64 2b e4 3d 68 00 0f be 62 01 8a bd
       0.033961993 0.111410886 -0.13964999 -0.06738545
000150 7c cf 53 3c 6b 78 76 3e 44 4c 98 bd 0a 39 49 be
       0.012927886 0.24069373 -0.074364215 -0.19650665
000160 62 60 0c 3e 15 69 fb 3d 28 d4 1b 3e 2a fc 5a be
       0.13708642 0.12275902 0.1521765 -0.21385255
000170 e0 f5 85 3e 81 82 75 bd 20 8c e5 3c 04 48 99 3d
       0.2616415 -0.05993891 0.028020918 0.07484439
000180 88 4b 46 be 50 ed 3f bd 7a 4b 15 3e 7c b9 10 be
       -0.1936475 -0.04685718 0.14579573 -0.14133257
000190 c2 b8 06 be d8 0a 3d be 00 9b 26 3d ea 78 49 be
       -0.13156417 -0.18461168 0.040675163 -0.19675031
0001a0 68 c7 20 be 20 d4 b3 bd 76 01 42 be d8 88 95 3d
       -0.15701067 -0.08780694 -0.1894587 0.073014915
0001b0 3a 57 73 be 3e ea 68 be 70 7c 6c 3e 20 4b 19 bd
       -0.23763743 -0.22745606 0.23094344 -0.03742516
0001c0 e8 2d 3f bd b4 0b ec bd 64 17 79 3e 6e dd 76 be
       -0.04667464 -0.1152567 0.24325329 -0.24107906
0001d0 e0 ed 39 3d 5a df 32 3e 88 5c 14 be 7c 20 35 3e
       0.04539287 0.17468014 -0.14488423 0.17688173
0001e0 40 b6 10 be 50 06 49 3d d0 9b 5b 3e 14 fe b8 3d
       -0.14132023 0.049078286 0.21446157 0.090328366
0001f0 e0 ac 27 3d 10 e4 7b 3e 30 61 5c bd 30 96 c3 bc
       0.04093635 0.24598718 -0.053803623 -0.023875326
000200 42 11 1d 3e b0 d8 ff 3c 5c fa ef 3d 8a cf 26 3e
       0.15338615 0.031231254 0.11717674 0.16290107
000210 84 e4 69 3e 5a a0 ab 3c fa 87 0b 3e 3c b5 e5 3d
       0.22841078 0.020950485 0.1362609 0.11216208
000220 78 93 45 3e 24 96 06 3e 7d 9c e4 3d 1c 20 3f 3e
       0.19294536 0.13143212 0.1116266 0.18664593
000230 02 7d 9e 3e 08 7f ba 3c ce 63 7a 3e 08 30 06 3d
       0.30954748 0.022765651 0.24452135 0.03276065
000240 02 eb 2b 3d d8 64 d6 3d 14 24 45 3e 7b ae 89 bd
       0.041972168 0.10468453 0.19252044 -0.06722733
000250 9f c7 3f 3e 10 42 cc 3d fc e1 06 3e 24 7b 12 3e
       0.18728493 0.09973538 0.13172144 0.14304787
000260 6c c5 01 3e c3 96 29 be 1e 8f d5 bd d8 eb 07 bd
       0.12672967 -0.16561417 -0.10427688 -0.033183903
000270 06 b5 38 3d 08 9f 32 3e b8 56 90 3d d6 0b 46 be
       0.045094512 0.17443478 0.0704779 -0.19340453
000280 44 27 81 3d 70 49 30 bd d2 f9 7b 3e 74 7f 0f be
       0.063063174 -0.043038785 0.24607018 -0.14013463
000290 80 6b 87 3b f8 36 15 be ac 0b 34 3e 18 86 60 3d
       0.004132688 -0.1457175 0.17582577 0.05481538
0002a0 84 48 1c 3e 58 d4 21 3e 6c c2 be bd 38 83 cb bd
       0.15262038 0.15803659 -0.09314427 -0.09937137
0002b0 64 74 ad 3d c4 5d f0 bd 22 fa 53 3e f4 b1 57 be
       0.084694654 -0.117366344 0.20700887 -0.21063977
0002c0 26 3b 1b bd 72 b7 6f 3e 44 6b b1 bd 22 fa df bd
       -0.037898205 0.23409823 -0.086630374 -0.10936381
0002d0 f8 eb 4c 3c 62 2a 68 3e 58 27 0a 3e 2c 8d b5 3d
       0.012507431 0.22672418 0.13491571 0.08864817
0002e0 8a 92 22 be b5 a8 7f 3e 28 3f ec 3d f0 09 d2 3d
       -0.15876213 0.249667 0.115354836 0.10255802
0002f0 fa 0c e5 bd 2a be fe 3d b8 29 8c 3d aa ed 7f 3e
       -0.11184116 0.12438615 0.06843895 0.24993005
000300 d3 77 50 3d e4 08 6a be aa ec 22 3e 25 a4 4f 3e
       0.050895523 -0.22854954 0.15910593 0.2027746
000310 f8 45 8e 3e 9f 11 62 3e 98 e4 50 bd 00 a4 73 bb
       0.27787757 0.22077034 -0.050999254 -0.003717661
000320 0c 7b 90 bd 02 e8 74 3e 72 b9 73 3d dc 96 4e be
       -0.07054719 0.23916629 0.059503026 -0.20174736
000330 e0 c0 dd 3d 90 46 38 be d0 64 8b 3d 7c da 72 be
       0.108278036 -0.17995667 0.06806338 -0.23716158
000340 50 40 6f 3d bc 80 71 3e 2c d3 b9 bd ee 5b 6f be
       0.058410943 0.23584265 -0.09073481 -0.23374912
000350 40 21 6b be 78 26 c7 bd 48 d6 63 3d a8 59 78 be
       -0.22961903 -0.09724134 0.055624276 -0.24252951
000360 40 0f 29 bd 3a 0a 1b be 4a 38 70 be d4 9a 6f 3e
       -0.04127431 -0.1514062 -0.23458973 0.23398906
000370 96 d5 0b 3e 34 a9 5b 3e e0 82 6a 3d d0 18 2e 3d
       0.13655695 0.21451265 0.05725372 0.04250413
000380 70 8d 6b 3e e4 d2 58 3e 54 97 56 be ff 3b 78 3e
       0.23003173 0.21174198 -0.20956165 0.24241637
000390 dd 3d 10 3d 9f cd 6d 3e 04 c4 8e 3d 18 bb b8 3d
       0.035215247 0.2322297 0.06970981 0.0902006
0003a0 1c e2 c5 3d 9d a2 f6 3d 78 65 56 3e f4 e5 c0 bd
       0.096622676 0.12042735 0.20937145 -0.0941886
0003b0 87 25 3b be 0a 1d 95 3d 20 1f 30 3c 20 68 6b 3d
       -0.18276034 0.072809294 0.010749608 0.05747235
0003c0 d0 82 67 bd c0 65 90 bc 90 61 85 3c c4 30 a4 3d
       -0.056521237 -0.017626643 0.016281873 0.08017114
0003d0 64 49 6e be 48 18 ef bd 3e 49 1a 3e 9c 8d f2 3d
       -0.23270184 -0.11674553 0.15067002 0.11843416
0003e0 c0 ac d3 3d 1c 12 a5 3d 0e 11 5e be c0 54 ec 3d
       0.10335684 0.08060095 -0.21686193 0.11539602
0003f0 fc 17 df bd bc 7b 98 bd a0 7a 8b 3d b0 ee e7 3c
       -0.108932465 -0.074454755 0.06810498 0.028312057

hedge_qs.0.linear_relu_stack.4.bias f4 [16]
000000 40 32 bc bd 22 b0 4e 3e de b7 62 3e 09 5b 08 3e
       -0.09189272 0.20184377 0.22140452 0.13315977
000010 cc 3b ca 3d bd 9f 90 3d 8c 44 31 3e c8 0f 49 be
       0.098746866 0.07061718 0.17311305 -0.19634926
000020 05 8e 7f 3e a3 c0 b7 bd a0 aa 5d be ad c6 81 3e
       0.2495652 -0.089722894 -0.2164712 0.2534689
000030 08 ce 4f 3e ec 63 4a be 43 9b d7 3d 64 93 a3 3d
       0.20293438 -0.1976468 0.10527661 0.07987097

hedge_qs.0.linear_relu_stack.6.weight f4 [1, 16]
000000 6a 3c c4 ba e9 5b 98 3e 08 88 6b be f6 32 27 bc
       -0.0014971618 0.29757622 -0.2300111 -0.010205021
000010 28 9e cb bd 4c 4a 0d 3e f0 a2 63 3d 50 94 ce bd
       -0.09942275 0.13797873 0.05557531 -0.10086882
000020 a5 c2 8c 3e c3 5e 0e bd 10 94 28 be aa e5 fd 3d
       0.27492252 -0.03475834 -0.16462731 0.123973206
000030 2e 2b 8e 3e ca 0e 22 be ed be 64 3e 2c 73 cc 3d
       0.27767318 -0.15825954 0.22338457 0.09982905

hedge_qs.1.linear_relu_stack.0.weight f4 [16, 2]
000000 63 5b 11 3f b3 70 32 bf f2 ee 7e be 61 03 b7 3e
       0.5678007 -0.69703215 -0.24895838 0.35744765
000010 70 c0 c3 bd ad 28 e0 3e 6c 04 22 3f 4d 90 51 be
       -0.09558189 0.43781033 0.63288 -0.20465203
000020 71 0f 80 3e 73 76 20 bf 13 6f 8c 3d 3c d8 1d 3e
       0.2501178 -0.6268074 0.06857123 0.15414518
000030 3b d7 8a be 61 44 df be 93 97 1c bf d6 45 2a 3f
       -0.27117333 -0.43606856 -0.61168784 0.6651281
000040 4e 86 c2 bd f7 6d 0a 3f 47 cf 11 bf 6b 4f 03 bf
       -0.09498273 0.54074043 -0.56956905 -0.5129306
000050 05 0a 04 bf c7 de ae bd 9a 4e 39 3e 13 9b 31 be
       -0.5157779 -0.08538585 0.1809639 -0.17344312
000060 0e 8c 9c be 79 5f 12 3f 95 04 08 bf 49 9e 9f 3c
       -0.30575603 0.5717693 -0.5313199 0.019484656
000070 bc 22 3b 3f 6a 29 15 bf f6 c8 89 be 82 fc 9d be
       0.73099875 -0.5826632 -0.26911134 -0.3085671

hedge_qs.1.linear_relu_stack.0.bias f4 [16]
000000 fc 6f 9a 3e a8 57 34 3f ea 2f 4d be be 1d 2b 3f
       0.30163562 0.7044625 -0.20037809 0.6684226
000010 0a dc d1 3e 0c df d7 be 8a f1 53 be 0c 9e 16 be
       0.4098819 -0.4216236 -0.20697609 -0.14708728
000020 21 01 13 bf 05 6a 29 be 89 28 8d 3e e4 d0 de be
       -0.574236 -0.1654435 0.27569988 -0.43518746
000030 4f c2 1e 3f 7f 53 19 3c 01 63 09 3f 47 4f 32 bd
       0.6201524 0.009358286 0.5366669 -0.043532636

hedge_qs.1.linear_relu_stack.2.weight f4 [16, 16]
000000 50 ba bf bd 84 0d bc 3d 60 d3 2e bd b4 25 4b be
       -0.09361708 0.091822654 -0.04268205 -0.19838601
000010 f8 62 34 be 06 63 25 be c4 a0 20 be 98 c5 0c 3e
       -0.17615879 -0.16151056 -0.15686327 0.13747251
000020 b6 76 50 be a4 66 02 3e ee 72 69 be 3e bd 75 3e
       -0.20357785 0.12734467 -0.22797748 0.23997971
000030 40 0e e6 3c c0 de ed bc fc b8 7f 3e 24 0d 08 be
       0.028082967 -0.02903688 0.2497291 -0.13286263
000040 61 89 c5 3d 4c 9f 6b bd 50 e3 4d 3d 2e 37 7b be
       0.096453436 -0.057524964 0.05026561 -0.24532768
000050 87 ad 99 bd 50 4e 85 bc f2 ec 19 be fc 8a 7e be
       -0.07503801 -0.016272694 -0.15031794 -0.24857706
000060 50 c9 cb 3c 40 77 8c bd 9f de a0 ba e6 c7 03 be
       0.024876267 -0.06858683 -0.0012273378 -0.12869224
000070 c6 52 32 3e 92 de 69 be 8a a0 10 3e d0 b2 45 3d
       0.17414388 -0.2283881 0.14123741 0.048266232
000080 d2 c3 9a bd 0c dc 6a 3d e8 57 00 3d 94 84 05 be
       -0.07556881 0.05733876 0.031333834 -0.13038856
000090 70 2d 2a 3c b4 9e 2b 3e 46 a4 1f 3e 24 7c e4 bd
       0.01038681 0.16759759 0.15590009 -0.111564904
0000a0 d2 68 24 3e 22 76 1a be 8e f4 85 3c 02 31 49 3e
       0.16055611 -0.15084127 0.016351964 0.19647601
0000b0 84 d5 fe 3d 2e 1f 10 be 69 06 da 3d 70 8d 64 3d
       0.124430686 -0.14074394 0.10645754 0.055798948
0000c0 71 ec ad 3d e0 e9 94 be 70 47 ba bd b9 a6 d5 bd
       0.08492363 -0.29084682 -0.09095657 -0.104321904
0000d0 70 28 09 bc 90 c2 e0 bd 32 a6 61 be 08 16 10 3e
       -0.008371457 -0.1097461 -0.22036055 0.14070904
0000e0 80 ca 93 bc 1e 78 79 be 74 56 29 3e 32 4d 1c 3e
       -0.018040895 -0.24362227 0.16536885 0.15263823
0000f0 81 54 32 be 2c 99 38 be e2 d4 1b 3e 96 48 09 be
       -0.17415048 -0.1802718 0.15217927 -0.13406596
000100 a3 d7 03 3e c5 db 84 bd c0 28 a0 3c 78 0d c3 3c
       0.12875228 -0.0648723 0.019550681 0.023810133
000110 f7 74 57 bd e2 1a 50 3e 62 0f 7c be 06 55 01 be
       -0.05260178 0.20322755 -0.24615243 -0.1263009
000120 70 1e b9 3c b4 64 4c 3e 60 f9 88 3d 00 17 ea bc
       0.022597522 0.1996029 0.066881895 -0.02857542
000130 9b 19 38 3e 48 a8 e9 bd 8d 9f 1a be 84 17 56 3e
       0.17978518 -0.1140905 -0.15099926 0.20907408
000140 68 c9 63 bd ec cd 6b 3e 62 fc 53 be 7c 6c 60 be
       -0.055611998 0.23027772 -0.20701745 -0.21916384
000150 50 52 6c be 68 ba dc bd ca a0 00 3e 60 b8 af 3d
       -0.23078275 -0.10777742 0.12561336 0.085800886
000160 5c db 55 be 90 d9 bc bd 80 14 48 bc b2 46 16 3e
       -0.2088446 -0.09221184 -0.012211919 0.14675406
000170 e8 71 19 be a2 5a 1a 3e d0 e6 af bc fa e1 42 be
       -0.14984858 0.15073636 -0.021472365 -0.19031516
000180 39 1d 88 3e a9 92 99 3e 78 20 2e 3e 3d df 93 3d
       0.26584795 0.29994705 0.17004573 0.07220314
000190 7b c9 01 bc 50 31 b0 3c 3a b8 0b be c8 40 5f 3e
       -0.007921572 0.021507889 -0.13644496 0.21802056
0001a0 98 d0 15 be b8 59 9f bd ce 6f 94 be 0c e2 3c be
       -0.14630353 -0.07780784 -0.2899155 -0.18445605
0001b0 a5 c2 94 3e a8 ba a5 3d 43 1e db 3d 84 fd 4f be
       0.29054752 0.080922425 0.10699131 -0.20311552
0001c0 00 f4 c9 bd 56 04 b0 3d 20 6d 7a bc 77 01 c3 3c
       -0.098609924 0.08594577 -0.0152848065 0.02380441
0001d0 2e e2 6a bd 72 56 66 be e4 f4 37 be d8 37 1f be
       -0.057344608 -0.22493914 -0.17964512 -0.15548646
0001e0 b4 a6 57 3e a8 cb 71 3e 72 bf 4d be b2 4c 3d 3e
       0.21059686 0.23612845 -0.20092562 0.18486288
0001f0 66 41 41 3e d4 6b 10 3e 8c 38 ae 3e 40 90 7f 3c
       0.18872604 0.14103633 0.34027517 0.015598357
000200 b9 b2 94 3e 2a 1a 99 ba a4 0e c2 bd 98 31 9d 3d
       0.29042605 -0.0011680771 -0.09475449 0.07675475
000210 a3 cc 81 3e 8e e4 76 3e f8 29 09 3d fc a3 b3 bd
       0.25351438 0.24110624 0.03348729 -0.08771512
000220 dc 48 82 bd d2 7a 6f 3e d5 19 cb be c0 ed fc bb
       -0.06361553 0.23386696 -0.39668146 -0.0077187717
000230 e6 18 80 3e be 32 50 3e 5c 76 96 3e 5c 5b dd 3d
       0.25018996 0.20331857 0.29387176 0.10808441
000240 6e 7d e1 3d 1a ef 01 bb 70 06 b1 bc a8 d2 04 3e
       0.11010252 -0.0019826354 -0.021609515 0.12970984
000250 71 0a 34 be 9c f1 ed 3d c8 3d de bd 28 d2 0a be
       -0.17582108 0.11618349 -0.108516276 -0.13556731
000260 70 59 14 3e 78 7c a7 3d c5 e8 8e be 20 f4 f7 bd
       0.14487243 0.081780374 -0.27911964 -0.1210711
000270 18 87 cd 3d 60 65 6e 3d b3 d0 4d bc f6 ba 74 be
       0.10035533 0.058202147 -0.012561965 -0.23899445
000280 d4 44 10 3d e1 89 5c 3e 1a 8b 0e 3e 9f d3 14 3e
       0.03522189 0.21536972 0.1392025 0.14533852
000290 1c 3d 48 3e 60 95 b3 bc ca 03 08 be 06 81 18 3e
       0.19554561 -0.021921813 -0.13282695 0.14892969
0002a0 88 9c bc 3d 00 68 d8 bd b4 b6 28 3b f4 bd 34 be
       0.092095435 -0.105667114 0.0025743665 -0.17650586
0002b0 90 ad 11 3e 48 cc 30 be cf 57 82 be d8 0f 99 3d
       0.14226365 -0.17265427 -0.25457618 0.07473725
0002c0 9f c8 5a be 47 e1 4a 3e 40 7a 49 be 53 b5 25 3d
       -0.21365593 0.19812499 -0.19675541 0.040456127
0002d0 61 4e 4d 3e 60 7c 1b 3e 00 61 38 bc 4c fd 3a be
       0.2004943 0.15184164 -0.011253595 -0.18260688
0002e0 c0 76 0e 3d c2 20 46 3e 0e e9 75 be d0 84 2b 3d
       0.034781218 0.19348434 -0.24014685 0.041874707
0002f0 18 69 7e bd 10 9f a2 3c 1a f9 0d be 02 ce 3b be
       -0.062111944 0.019851238 -0.13864556 -0.18340304
000300 d0 0f b8 3e ba 96 60 3e c0 02 dc bb 5e 84 66 3e
       0.35949564 0.21932498 -0.006714195 0.22511432
000310 5b 58 46 3e a6 da 3e 3e 8e 0c 47 be 84 c2 0b 3e
       0.19369642 0.18638095 -0.19438383 0.1364842
000320 c0 48 07 3d e0 79 42 3e ea ca 1a be 28 56 48 bd
       0.033028364 0.18991804 -0.15116468 -0.04891029
000330 75 f2 50 3e 78 47 1f be 1f 18 33 3e a4 8c 24 be
       0.2040499 -0.15554607 0.1748967 -0.16069275
000340 e8 aa f8 3d 3e 88 00 be a8 21 7d 3d a0 7d b1 bd
       0.12141973 -0.12551972 0.061799675 -0.08666539
000350 12 11 06 3e 88 07 81 bd 74 69 f6 3d 30 da 2c 3d
       0.1309245 -0.063002646 0.12031832 0.042200267
000360 b4 f4 44 be e8 a5 3f be 44 bb 0b be b2 af 19 3e
       -0.19233972 -0.18715632 -0.13645655 0.15008429
000370 68 4b 17 be 10 9a 80 bd 04 ab d5 bd 1e ba 3e 3e
       -0.14774859 -0.06279385 -0.10433009 0.18625686
000380 ae ff 6f be f0 90 fc 3d 1c 56 89 bd 78 90 e0 bd
       -0.23437378 0.12332332 -0.06705877 -0.10965055
000390 30 ca 34 3d 4e 2a 20 3e 28 5e 8f bd 9c 7a da 3d
       0.044138134 0.15641138 -0.07000381 0.10667917
0003a0 0e 59 37 3e 10 3e 2f 3e 24 66 4e 3e 0c a6 24 3e
       0.17905065 0.17113519 0.20156151 0.16078967
0003b0 da b7 6a be 74 ac 6c 3e d8 e8 69 be f0 d0 7c 3e
       -0.22921696 0.2311266 -0.22842729 0.24689078
0003c0 50 4c 3d bd b8 cc 13 be 08 6a 5c 3d c4 b4 92 bd
       -0.046215355 -0.14433563 0.053812057 -0.071633846
0003d0 bc a9 3c 3e 8c 80 78 3e 7c c1 d9 3d 94 7f 2a 3e
       0.18424124 0.24267787 0.10632607 0.1665023
0003e0 60 d6 67 3e 64 9a a1 bd 80 24 62 be 28 0e 59 be
       0.22640371 -0.07890776 -0.22084236 -0.21196806
0003f0 9c 28 f5 bd d6 58 23 3e 80 31 2a bc 36 01 0b 3e
       -0.11970636 0.15951857 -0.010387778 0.1357468

hedge_qs.1.linear_relu_stack.2.bias f4 [16]
000000 b2 c4 6e be 28 ee 35 3d e1 2d d4 bc 4a f8 20 3e
       -0.23317221 0.044416577 -0.025900783 0.15719715
000010 8e bb de 3b 38 80 f7 bd b9 07 9f 3e 7f 3d a4 3e
       0.0067972606 -0.12085003 0.3106058 0.32078168
000020 e8 f4 86 3d d1 11 08 3e c2 f3 89 be d6 82 86 bc
       0.06589681 0.13288046 -0.26943785 -0.01641981
000030 cb d4 4c 3e 90 09 e5 bd 18 1e 13 3d 38 fb 72 bd
       0.20003049 -0.111834645 0.03591737 -0.059321612

hedge_qs.1.linear_relu_stack.4.weight f4 [16, 16]
000000 0a 20 06 3e 07 30 c4 3d 3c ff 27 3d e2 eb 43 be
       0.1309816 0.09579473 0.041014895 -0.19132951
000010 21 38 fc 3d 84 45 59 be e9 97 4a be 03 3b ba bd
       0.12315393 -0.21217924 -0.19784512 -0.09093287
000020 ef 65 e6 bd 73 6b 18 bd 5a 0a 27 3e bb 23 d5 bd
       -0.11249911 -0.037211847 0.16312543 -0.10407206
000030 68 44 ee 3d 20 96 0e bd 92 5d 7b be 00 80 73 b8
       0.11634141 -0.03481114 -0.24547413 -5.8054924e-05
000040 6e 3f 48 3e 8a a5 1e be e8 d6 4a be bc 76 4a 3e
       0.19555447 -0.15492836 -0.19808543 0.19771856
000050 10 04 18 bd 80 c5 8b 3c 66 60 75 be 50 fb 77 be
       -0.03711325 0.017061949 -0.23962554 -0.24216962
000060 50 42 83 bc 26 68 14 3e f0 e1 93 3d f2 e6 3b be
       -0.016022831 0.14492854 0.072208285 -0.18349817
000070 00 28 bb bd b8 26 6a bd e0 2c 58 3e 38 44 02 be
       -0.09138489 -0.05716583 0.21110868 -0.12721336
000080 44 cf 53 be 20 ba df bd 40 88 4c 3e 5a 13 08 3e
       -0.20684534 -0.109241724 0.1997385 0.13288632
000090 a6 f2 36 be e8 21 6b be 68 a9 f9 3d c4 26 33 be
       -0.17866 -0.22962153 0.12190515 -0.17495257
0000a0 44 20 7c be b2 a9 3e 3e d0 ae 9f 3d 50 cf 6f be
       -0.24621683 0.18619421 0.07797015 -0.23418927
0000b0 dc 20 3f be b6 a2 42 3e ea 26 45 3e 60 1f 2c bd
       -0.18664879 0.19007382 0.19253126 -0.04202211
0000c0 e6 5e 6a be 94 00 89 3d da 12 0d 3e 54 b2 57 bd
       -0.22887763 0.066895634 0.13776723 -0.0526603
0000d0 44 d6 38 bd 30 ee 70 3e 75 b4 95 3e 25 53 3a 3e
       -0.045126215 0.23528361 0.2923924 0.1819578
0000e0 57 ee 4f 3d bd 8e 00 3e 0b 94 ad bd c9 f8 f8 bd
       0.050764408 0.1255445 -0.084755026 -0.12156827
0000f0 8f 7a fd 3d e0 bb cf 3d 20 a8 6d 3c c4 b4 56 be
       0.12376892 0.10143256 0.014505416 -0.20967394
000100 f0 05 ef bc 05 8f 0e be fa c3 75 be 6c 69 f4 bc
       -0.029177636 -0.13921745 -0.2400054 -0.029835425
000110 4e 56 36 bd 40 b4 21 3e eb 4f a3 bd dc 4c 57 3e
       -0.0445159 0.15791416 -0.079742275 0.21025413
000120 68 0f 61 3e c2 64 da bd 06 62 8e bd 68 2b dd ba
       0.21978533 -0.10663749 -0.0695229 -0.0016873898
000130 51 1f 91 3e ca 46 6b 3e e2 42 3d 3e 2e 0d 48 be
       0.28344205 0.22976223 0.18482545 -0.19536278
000140 76 ff 43 3e ec dd 37 3e e0 60 d4 3d c2 32 04 be
       0.1914042 0.1795575 0.1037004 -0.12909988
000150 12 78 51 be f6 ae 72 be 3a 4a 6d be 08 54 7f be
       -0.2045596 -0.23699555 -0.23172846 -0.24934399
000160 38 fb 69 3e 8c f9 6f be 1a da 29 3e 6c 1e 77 3e
       0.22849739 -0.23435038 0.16587105 0.24132699
000170 24 9a 40 be c0 b9 c3 bd dc 9f d4 bd d8 44 43 bd
       -0.188088 -0.095569134 -0.10382053 -0.047673076
000180 a2 69 27 be 0b 3b 00 3e 28 7a 4b 3c 6d 30 80 3d
       -0.1634889 0.12522523 0.012419261 0.062592365
000190 f4 4a 03 3e 90 b3 99 bc b8 9e d8 3d fa b5 15 3e
       0.12821561 -0.01876238 0.10577148 0.146202
0001a0 dc 81 7b bc b9 10 db 3b 00 a2 62 be d3 c4 04 3d
       -0.015350785 0.006685343 -0.2213211 0.03241427
0001b0 79 62 c3 bd c0 1a 31 bd f0 39 de 3c 78 58 34 3d
       -0.095402665 -0.0432384 0.027127236 0.044029683
0001c0 b0 10 99 3d 40 93 a9 3b 66 8d 74 be 18 b0 d4 3d
       0.07473886 0.0051750243 -0.23882064 0.1038515
0001d0 c4 f6 4b be 94 8a 4c 3e 6c 74 29 be b8 26 7f bd
       -0.19918352 0.19974738 -0.16548318 -0.062292784
0001e0 e8 2a c6 3d 1e 6c 6c be 90 e6 c2 3d 84 d0 1a 3e
       0.096761525 -0.23088118 0.095166326 0.15118605
0001f0 d8 d4 13 be 7e 3d 01 3e 00 29 a8 3d d4 5d 8c 3d
       -0.14436662 0.12621114 0.08210945 0.06853834
000200 52 be 1e 3e d8 b8 1c 3d b2 9c f0 bd 78 37 37 be
       0.15502289 0.03826222 -0.11748637 -0.17892253
000210 93 d6 e7 bd a4 0c af bd a7 5e 3a 3e 49 e9 14 3e
       -0.11320224 -0.08547333 0.1820017 0.14542116
000220 ef a6 b5 3e e3 68 6d 3e 61 7a 3f bd 73 b5 2e 3c
       0.35478923 0.23184542 -0.04674757 0.010663378
000230 93 ac 82 bc c0 e4 b8 3b 6a ec 04 be e0 0a 3d be
       -0.01595143 0.0056425035 -0.1298081 -0.1846118
000240 08 9c 5c bd 30 bd b7 3d 8c ec 06 be 37 7e 14 3d
       -0.05385974 0.089716315 -0.13176173 0.03625318
000250 4f a2 59 bc 60 f1 2b be b6 c8 a1 3e e8 17 03 be
       -0.013283326 -0.16791296 0.31598443 -0.12802088
000260 1c 93 14 3d 49 ae 94 3e 3c b6 04 bd 38 55 03 3e
       0.036273107 0.2903922 -0.032400355 0.12825477
000270 ef 65 45 3e 2a 6a 65 be e4 ae bb 3d 80 93 02 3d
       0.19277166 -0.2240378 0.09164217 0.03187895
000280 00 d8 88 3a 84 ce 98 3d d8 01 c9 bd 98 6d 3f be
       0.001044035 0.07461265 -0.09814805 -0.1869415
000290 38 60 11 be 78 28 72 3e 18 c8 04 bd 6c 6c 95 bd
       -0.14196861 0.2364825 -0.032417387 -0.072960705
0002a0 c8 ee 22 bd 90 cf 29 bd 80 f4 76 3c 80 9d 8a bb
       -0.0397785 -0.041457713 0.015072942 -0.0042302012
0002b0 d0 96 ee 3c 20 b7 39 bc 80 43 57 3d a4 6a cb 3d
       0.029124647 -0.011335164 0.052554607 0.099324495
0002c0 1c 9f f0 bd 0e af 42 3e 6a 8c 8d bd ac 04 ce 3d
       -0.11749098 0.1901209 -0.069115475 0.10059485
0002d0 f6 32 a8 bd d0 5a 55 3d ea 99 09 be 26 34 a6 3e
       -0.08212845 0.05208856 -0.1343762 0.3246166
0002e0 bd 8c c5 3a 69 13 a8 bc 9c 05 b5 3b c3 61 7e 3d
       0.001507185 -0.020517068 0.0055243503 0.06210495
0002f0 0d 3d 8f 3d 90 48 d1 3c 80 98 e8 bb 9e 06 2f 3e
       0.069940664 0.025547296 -0.0070982575 0.17092368
000300 20 5d 67 be 68 34 5b be ed 2d cc 3d bd 32 5f be
       -0.22594118 -0.2140671 0.09969697 -0.21796699
000310 b0 79 27 3e 80 fb 8b bd 00 56 da 3d a9 6d 6c bc
       0.16355014 -0.06835079 0.106609344 -0.014430442
000320 fb da ee bb c5 a6 8e 3d 3e f0 73 be 32 ef 02 be
       -0.007289288 0.069654025 -0.23822114 -0.12786558
000330 fd 9c c4 3d 58 c4 69 be d0 11 d9 3c b8 f9 56 3e
       0.09600256 -0.22828805 0.026497751 0.20993698
000340 b4 3c b2 3d 45 04 44 be e2 71 3a 3e 12 73 05 be
       0.087029845 -0.19142254 0.18207505 -0.13032177
000350 2c 29 46 be 08 50 63 be f5 f7 45 be ac 4e 4f 3e
       -0.19351643 -0.22198498 -0.1933287 0.20244855
000360 eb e6 19 be 24 8e 3e 3e 68 a8 71 be c4 7e 80 3d
       -0.15029494 0.1860891 -0.23599398 0.062741786
000370 19 bc c0 bd d4 05 b3 bd 60 de d0 3c 4a 9c 6e 3e
       -0.09410877 -0.08741346 0.025496662 0.23301807
000380 e0 6c a6 bd 72 69 13 3e 74 00 d3 3d 3c a2 a1 bd
       -0.08126235 0.14395693 0.10302821 -0.07892272
000390 e8 95 6d be 30 20 83 3c 00 b8 a5 bb e0 ee 2c be
       -0.23201716 0.01600656 -0.005057335 -0.16887999
0003a0 c8 f1 f2 bd 94 12 48 be a0 78 77 bc a2 0e 6c be
       -0.11862522 -0.19538337 -0.015104443 -0.23052457
0003b0 b8 83 1a 3e ea cf 6d 3e 08 42 3e 3e 6c 16 9b 3d
       0.15089309 0.23223844 0.18579876 0.07572636
0003c0 70 19 4b be cc 38 3e 3e 49 34 43 be 7b 88 05 bd
       -0.19833922 0.18576354 -0.19062914 -0.03260086
0003d0 6e f1 69 3e 56 7d 72 3e da 51 1a 3e ed 56 96 3d
       0.22846004 0.23680624 0.15070286 0.073407985
0003e0 d0 b5 4f 3e 86 f9 4a bb 80 8a 5c bd d8 0b 7c bd
       0.202842 -0.0030971481 -0.05384302 -0.061534733
0003f0 76 a2 87 be 10 7b 51 3d b8 96 49 bd b6 87 53 3e
       -0.26491135 0.051142752 -0.049216002 0.20657238

hedge_qs.1.linear_relu_stack.4.bias f4 [16]
000000 ea e0 20 3e d0 36 c9 bc b4 0f 90 3d 65 e8 a4 3e
       0.15710798 -0.02456227 0.07034245 0.32208553
000010 6f 32 3d 3e 0e 6e 10 be 24 0b 64 bd 78 ee fa bd
       0.1847627 -0.14104483 -0.055674687 -0.122525156
000020 e9 18 50 3e 93 d4 53 3e d4 74 a6 bd c5 cc 67 3e
       0.20322002 0.2068656 -0.08127752 0.22636707
000030 73 12 9b be 64 d8 34 3e 00 9f f7 bc b6 e4 d1 bd
       -0.30287513 0.17660671 -0.030227184 -0.10248701

hedge_qs.1.linear_relu_stack.6.weight f4 [1, 16]
000000 40 cf 1e bd c4 02 f9 3d e4 53 57 3e b7 9c 45 3e
       -0.038771868 0.121587306 0.21028095 0.19298063
000010 b5 cf 91 3e d0 15 e9 3d aa 60 24 bc 06 77 2a 3e
       0.2847878 0.113811135 -0.010032812 0.16646966
000020 a8 bc 86 3e 6c 51 0f 3e ac ff d2 3d 03 02 a6 3d
       0.26315808 0.13995904 0.10302672 0.081058525
000030 37 01 c3 bd b5 49 cf bd 78 ae a0 3d 34 f1 41 be
       -0.09521716 -0.101214804 0.07845777 -0.18939668

hedge_qs.2.linear_relu_stack.0.weight f4 [16, 2]
000000 96 29 c2 bd 12 6e de 3c e4 d5 89 be 31 21 8e bd
       -0.09480588 0.027152095 -0.26920998 -0.069399245
000010 94 bf 19 3f 52 cf ed be 28 eb e6 3d 7d ad a6 3d
       0.6005795 -0.46447235 0.11275321 0.08138559
000020 a1 42 01 3f 84 1a dd 3d c8 09 1d bf 01 bf 00 3f
       0.5049229 0.10796073 -0.6134305 0.5029145
000030 01 3f 1f 3f ad f3 80 bd ce a8 35 3f 3b e6 f4 3e
       0.6220551 -0.062964775 0.709607 0.47831902
000040 1d d9 ee bd 3c c1 01 bf 11 ee 21 bf d5 1e a7 bd
       -0.11662505 -0.5068548 -0.63253886 -0.081601776
000050 fe e3 0b bf 5e de 33 3f a6 63 37 be f3 e4 bf 3e
       -0.54644763 0.7026118 -0.17909107 0.37479362
000060 30 e3 bc 3d e2 fc 01 bf da 51 30 3f 8b a1 40 be
       0.0922302 -0.50776494 0.68874896 -0.18811624
000070 0a 6b c7 be 1d 2d 14 bf 05 be 08 3f 08 8b 96 3e
       -0.38948852 -0.5788134 0.53414947 0.29402947

hedge_qs.2.linear_relu_stack.0.bias f4 [16]
000000 75 71 ca be 76 6b 57 3e ad 12 de 3d d0 44 f8 3e
       -0.39539686 0.21037087 0.10843406 0.4849
000010 3b 08 b7 3d a0 a3 22 3f c7 a2 2f bf b7 ad 48 be
       0.08937117 0.6353092 -0.68607754 -0.19597517
000020 3a 18 d3 be e6 5c b0 3e 9e 2b e4 be a2 3d 04 3f
       -0.4122942 0.34445876 -0.44564527 0.51656544
000030 e3 de cb bd bd 17 01 3f d1 ff 33 3f 75 30 13 bd
       -0.09954622 0.50426847 0.7031222 -0.035934884

hedge_qs.2.linear_relu_stack.2.weight f4 [16, 16]
000000 82 a5 5a be 80 7b fd bc f7 36 a2 3e 91 d1 93 3d
       -0.21352199 -0.030942678 0.3168256 0.07217706
000010 07 9f 8b 3d aa 71 55 3e 88 32 3c bd 18 21 02 3e
       0.068174414 0.2084414 -0.045946628 0.12707937
000020 f8 1e 5a be 41 9c 15 bf 40 02 54 bd f0 e7 a0 bd
       -0.21300876 -0.5844155 -0.05175996 -0.078567386
000030 7e 8f 39 be c6 c3 1d 3e e2 ae 3d 3d 96 09 91 3e
       -0.18121144 0.15406713 0.04630936 0.28327626
000040 ec e1 5c 3e bd 2a 57 bd 21 36 ad bd 3d 3d 2d bc
       0.21570557 -0.052530993 -0.0845759 -0.010573682
000050 28 50 3f 3e d1 14 b4 3e 88 aa 57 bd ac c6 47 bd
       0.18682921 0.35172132 -0.052652866 -0.048773453
000060 f8 60 38 bd e4 e1 4f 3f ba 23 26 3e 3c 08 76 3e
       -0.04501435 0.81204057 0.16224566 0.24026579
000070 18 e9 8c 3d 81 2d 5f be 1e 45 70 3e 51 75 4e be
       0.068803966 -0.21794702 0.23463866 -0.2016194
000080 30 a9 1b 3e 1c 52 a6 be 00 9d 68 3e 0d 0d 9b bd
       0.15201259 -0.3248452 0.22716141 -0.075708486
000090 48 79 83 bd af df 7a bb 0c 54 ab bd aa 59 a0 3e
       -0.06419617 -0.0038280298 -0.0836564 0.31318408
0000a0 b4 b8 2f 3e a3 15 f1 bd 34 91 a1 bd 79 f2 c1 3d
       0.17160302 -0.11771705 -0.078890234 0.09470076
0000b0 ec 11 32 be 08 d4 71 3e ae fa a5 3d 1b 96 a7 3d
       -0.17389649 0.2361604 0.08104454 0.08182927
0000c0 a0 62 17 bd b0 5f 08 3e 7c 44 e2 3d 54 42 34 be
       -0.03695929 0.13317752 0.110482186 -0.17603427
0000d0 e8 3b b8 3d d0 68 f9 bc 9c ac 84 bd 1a 2d 7b be
       0.08995801 -0.030445486 -0.06478235 -0.24528924
0000e0 c0 b4 8f 3b 80 cb 49 be 7c 84 3a be 60 2e db bc
       0.0043855608 -0.19706535 -0.18214601 -0.026755512
0000f0 08 77 40 be 7c 48 ef 3d 80 b0 f4 3d 36 61 25 3e
       -0.18795407 0.11683747 0.11947727 0.16150364
000100 2a a7 53 be bb 64 8b be 55 83 8d 3e 12 c1 45 bc
       -0.20669237 -0.2722529 0.2763926 -0.012069957
000110 e8 4c 8b bc 31 99 9b 3d a6 be 5b 3e dd a1 31 3e
       -0.017004445 0.07597578 0.21459445 0.17346902
000120 1e 78 06 be 7c 34 c9 be 04 58 ee bd 5e c7 d5 bd
       -0.13131759 -0.39297855 -0.116378814 -0.10438417
000130 d8 2b 18 bd 5e 48 4b 3e 29 90 81 3e 6d e1 4d 3e
       -0.037151188 0.19851825 0.25305298 0.20105524
000140 e0 96 81 bd 84 be 34 3e 29 0a 04 3e 57 6f 8c be
       -0.06327605 0.17650801 0.12894501 -0.27428696
000150 16 21 3c 3e 01 c5 2c 3e 18 6f ab 3d cc 77 12 be
       0.18371996 0.16872026 0.08370799 -0.14303511
000160 d8 30 71 3e 9e 3b 76 be b4 8d 61 be 26 e5 91 bc
       0.23553789 -0.2404618 -0.22026712 -0.017809462
000170 aa 3f 4e 3e 66 6f b1 3d 58 61 60 3d 19 47 48 be
       0.20141473 0.08663826 0.054780334 -0.19558372
000180 54 6a 42 3e aa e8 1d 3e 70 2d 4f bd e4 b1 1d be
       0.18985873 0.15420786 -0.050580442 -0.15399891
000190 4c 5a 1a be ca 06 18 3e 80 b8 5a 3e 20 f5 23 be
       -0.15073508 0.1484634 0.21359444 -0.16011477
0001a0 1c d5 26 3e 58 2b 9a bd 48 94 31 3d 62 86 6e 3e
       0.16292232 -0.075277984 0.043354303 0.2329345
0001b0 f4 65 bc bd 50 f0 f1 3d a0 b6 50 bd e8 e1 31 bd
       -0.091991335 0.11813414 -0.050955415 -0.04342833
0001c0 00 71 26 bb 3b a7 36 3e ad 4e 02 3e 5d ba 22 3e
       -0.0025396943 0.17837231 0.12725325 0.15891404
0001d0 78 68 8f 3d 73 ce 4e 3e c6 b4 00 be d4 51 79 bc
       0.07002348 0.20195942 -0.1256896 -0.015217263
0001e0 d0 0f 70 bd 5d 66 cd 3e 50 47 c5 bc 29 45 a0 bd
       -0.05860883 0.4011716 -0.024081856 -0.07825691
0001f0 60 9f 13 be be fc 8a be 50 8a 74 be 45 ab c7 3c
       -0.14416265 -0.27145952 -0.23880887 0.02437366
000200 e0 f6 1b bc 5c e4 30 be 80 e2 93 3e 5e 91 03 3d
       -0.009519309 -0.17274612 0.28883743 0.032121055
000210 82 9c a7 3e cc 37 f0 3d a0 f0 65 3d cc 99 b4 3d
       0.32736593 0.117293924 0.05613768 0.08818397
000220 da 39 52 3e dd 10 55 bf 10 55 b2 bd 2f 18 57 3e
       0.20529881 -0.83228856 -0.08707631 0.21005319
000230 1e 53 4a be 22 00 a1 3e 5f 61 de 3d ff da 8b 3d
       -0.19758269 0.31445414 0.10858416 0.068288796
000240 a0 1b a6 bc 34 27 90 3c 35 bb 4a 3e 8a 31 dd 3b
       -0.020276845 0.017596819 0.19797976 0.0067502903
000250 7f dc d1 3d 10 45 0c be 90 5e 11 3e f0 e1 c2 3e
       0.102471344 -0.1369822 0.14196229 0.38063002
000260 b0 ed 0e 3d 85 33 b0 be 08 8c 82 3d 92 79 47 3e
       0.034894645 -0.34414306 0.06374365 0.19479969
000270 a0 f9 de bc 23 c3 20 3e 35 7a 19 be 43 cd 21 be
       -0.02721864 0.15699439 -0.14988025 -0.15800957
000280 88 05 f1 bd 01 84 dc 3d 52 ee 27 be 79 c0 bd bd
       -0.11768633 0.10767365 -0.16399506 -0.09265227
000290 3a 12 6c 3e e2 a2 2a be a8 d7 01 3e bd f5 b1 3d
       0.23053828 -0.16663697 0.12679923 0.08689449
0002a0 2e 7a 22 be 01 ae 11 bf 82 b7 18 be 69 99 76 be
       -0.1586692 -0.56906134 -0.14913753 -0.24081959
0002b0 ba 5a 3e 3e 81 42 3e 3e ca 77 21 3e 5a e7 62 3e
       0.18589297 0.18580057 0.15768352 0.22158566
0002c0 ba f7 76 3e 22 86 07 be 1b 9d 52 be 6c 1c 72 be
       0.24117938 -0.13234761 -0.20567743 -0.23643655
0002d0 e3 4d 84 3c a1 ea 7e be 30 e9 0f 3d b3 a2 c4 3d
       0.01615042 -0.24894191 0.035134494 0.09601345
0002e0 c0 0e f1 bb c3 fe 2d 3e 70 f5 ce bd af b0 de bc
       -0.0073564947 0.16991715 -0.10105407 -0.027183859
0002f0 d8 fd 4c bd fe f9 4d 3d a6 5d 82 bd 56 ae 08 3e
       -0.05004677 0.05028724 -0.06365518 0.13347754
000300 fe dd 70 be 4f 70 e6 bc ff 2a 35 3e f7 61 5e 3e
       -0.23522183 -0.028129725 0.17692183 0.21717058
000310 d5 bf 87 3e 33 de 03 3e b0 aa da 3d db 58 0c 3e
       0.26513544 0.12877731 0.10677087 0.1370577
000320 28 8e 01 3d 11 ba 9c be a2 5c 5a 3e 7c b3 10 be
       0.03162971 -0.30610707 0.21324399 -0.14130968
000330 50 2e c2 3c b4 cc e1 3d 1a b0 dc 3d df ab 86 3e
       0.023703724 0.11025372 0.10775776 0.26303002
000340 9c 1e 49 3e 34 e0 28 be 0c 48 86 3d 80 9c cd bd
       0.19640583 -0.16491777 0.065567106 -0.10039616
000350 be f9 33 3e 60 94 a0 3c d0 67 0c 3d a2 a0 0f 3e
       0.17575738 0.019602 0.03427869 0.1402612
000360 88 89 55 be c8 ad 17 bd 58 d7 6f be f0 84 f2 3c
       -0.20853245 -0.037030965 -0.23421991 0.029604405
000370 30 73 c0 3c 0e fc 7a be 60 2d 6f 3d ac 05 85 3d
       0.023492426 -0.24510214 0.058392882 0.064952224
000380 00 af 28 bb 4a 32 59 bd 00 37 27 3e dc 41 27 3e
       -0.0025739074 -0.053026475 0.16329575 0.16333717
000390 fc 6d d6 3c ad 0a 22 3e f8 fe 38 3d 72 0c bc 3e
       0.026175492 0.15824385 0.045165032 0.36728245
0003a0 08 38 11 bd 9a cb 1f bf e0 51 71 3e 7f 6e 7c bd
       -0.035453826 -0.62420046 0.23566389 -0.061628815
0003b0 a8 0b 81 bd ee 6b 36 3e e5 8e 10 be 9d e9 14 3e
       -0.063010514 0.1781461 -0.1411701 0.14542241
0003c0 46 0e 77 3e d4 ba 3e 3d 21 da 11 3e 8f f0 60 3e
       0.24126539 0.046564892 0.14243366 0.21966766
0003d0 5e 7f 33 3c 2f 77 79 3e 88 53 1b 3d 38 d6 3c be
       0.01095566 0.24361871 0.03792146 -0.18441093
0003e0 28 43 45 bd 70 fe 08 3f 4c f8 20 3e 71 95 9a bd
       -0.04815975 0.5351324 0.15719718 -0.07548035
0003f0 04 3d 99 3d 97 c2 db bd 7a 80 f4 bb 32 92 b6 be
       0.07482341 -0.107304744 -0.0074616047 -0.35658413

hedge_qs.2.linear_relu_stack.2.bias f4 [16]
000000 1e f2 00 3e a2 19 3a bc 0d 37 31 be 54 2d 3b be
       0.1259236 -0.01135865 -0.17306156 -0.1827901
000010 40 30 17 3d d1 ca aa bd 8c cc 18 be 98 c2 c9 3d
       0.03691125 -0.083394654 -0.14921778 0.09851569
000020 ce bc 59 3e fe 3e 50 3e d3 68 dc 3d 77 8d 55 3e
       0.2126343 0.2033653 0.10762181 0.20854746
000030 86 5a 54 3d a0 e3 f1 bc a6 d6 02 3d f0 dd 4a 3d
       0.051844142 -0.029527485 0.031942986 0.049528062

hedge_qs.2.linear_relu_stack.4.weight f4 [16, 16]
000000 10 15 6b bd 2f 59 25 3d d8 f5 c7 bd e0 34 4b 3c
       -0.057393134 0.040368255 -0.09763688 0.012402743
000010 2c c0 ea bd 56 58 f5 3d 0a 7d 78 3e ed 12 98 3e
       -0.11462435 0.11979739 0.24266449 0.2970194
000020 8d ba 0f bd df 23 90 3b 80 d1 fb 3d 62 9c 4e 3d
       -0.035090018 0.0043988074 0.12295818 0.050442107
000030 0e af 68 be 00 49 a8 3d de 24 61 be 3a f4 58 3e
       -0.22723028 0.08217049 -0.2198672 0.21186915
000040 31 1c 5e 3d de e9 ef 3d 01 4f 2a be 9e ac 63 3e
       0.054226104 0.117145285 -0.166317 0.22233817
000050 a0 15 7a bd 0a fd 07 3e ec c5 b8 bd 4a c0 3b be
       -0.06105578 0.1328012 -0.090221256 -0.18335071
000060 cf d6 6e be 3b 57 ff 3d 75 9b 25 be 2c 38 e3 bd
       -0.2332413 0.1246781 -0.16172583 -0.11094698
000070 5a f8 55 3d a0 8d 7e 3d 7e 27 8f bb 90 b0 c8 3d
       0.0522388 0.062146783 -0.0043687215 0.097993016
000080 f0 79 bf bd 4c e3 48 be c7 3f 13 3e 8c 2e 9f bd
       -0.093494296 -0.19617957 0.14379798 -0.0777255
000090 64 ba 94 3d 8d 70 78 3e a2 08 32 3e 8a 7a 41 be
       0.07262114 0.24261685 0.17386106 -0.18894401
0000a0 22 6e fb 3d 99 7d a4 3e 13 f9 b0 bb 20 8f e3 bb
       0.122768655 0.32127073 -0.0054007857 -0.006944552
0000b0 cf 3e b1 3d 40 69 db bc d1 fb 72 3e de 3b 92 be
       0.08654558 -0.026783586 0.23728873 -0.285613
0000c0 58 9d 1b be 50 f8 99 bd b0 30 d3 3c c0 89 15 3d
       -0.1519674 -0.07518065 0.025780052 0.03650832
0000d0 92 9a 69 be b8 ff e8 3d c0 51 bb bd 30 3c d0 3d
       -0.2281287 0.113768995 -0.09146452 0.1016773
0000e0 14 39 41 be d0 9d aa 3c d0 29 c9 bd 68 b8 60 bd
       -0.1886943 0.020827204 -0.09822428 -0.054863364
0000f0 40 22 1a 3c ac f2 80 bd 22 5d 12 be 30 ee e3 3d
       0.00940758 -0.06296286 -0.1429334 0.11129415
000100 6a 60 26 3d b1 5b aa be ae 8e 3f be 88 61 33 3e
       0.04061929 -0.3327308 -0.18706772 0.17517674
000110 0c 09 4c be 12 2b 45 be c8 49 1b 3d 85 fd cf 3c
       -0.19925326 -0.19254711 0.03791216 0.025389442
000120 c2 cb 39 3e e2 42 e3 bd 4e af 1b be 30 04 2f 3c
       0.18144134 -0.11096741 -0.15203592 0.010682151
000130 fd 33 47 be d2 68 14 be 6c 21 54 3e 0b 83 82 3d
       -0.19453426 -0.14493111 0.20715874 0.06372651
000140 3a 9e 6d 3e 7e 79 b9 bd 2f fe ac bd 00 9d e1 3b
       0.2320489 -0.09056376 -0.08446919 0.006885171
000150 bc fd 36 3d 8f 56 4a be 9e 42 6b be cd 9a 0e be
       0.044675574 -0.19759582 -0.22974631 -0.1392624
000160 12 06 24 3e 57 fd d7 bd 90 af 6f 3e 0e 8e 47 3d
       0.1601794 -0.105463676 0.23406816 0.04871946
000170 af 9c f6 bd dc a6 5b be 15 ae bc 3d a0 e9 3c be
       -0.12041604 -0.2145037 0.09212891 -0.18448496
000180 6a 61 5c be 30 92 a3 3d d6 9b 21 be 48 5e 80 bd
       -0.21521536 0.079868674 -0.15782103 -0.06267983
000190 40 1d 8f 3d a8 a0 2c bd ae 1b 21 3e ce 34 55 be
       0.06988001 -0.0421454 0.15733215 -0.20820925
0001a0 5c 63 7c be 64 e2 e3 3d ba c1 72 3e a0 59 c5 bc
       -0.24647278 0.11127165 0.23706713 -0.024090588
0001b0 d0 e7 62 3e 70 69 e4 3c 12 2b 19 3e d8 b5 79 3d
       0.22158742 0.027882308 0.14957836 0.060964435
0001c0 4a b4 73 bc 58 83 64 3d 0a f1 87 be 30 30 6d be
       -0.014874527 0.05578932 -0.26551086 -0.23162913
0001d0 e4 2c 24 3e d7 be b6 bd 88 ab 4d be e2 c2 7d 3e
       0.1603275 -0.089231186 -0.20084965 0.24781373
0001e0 90 6c 99 bd 29 ad 40 3e 9a 03 5c 3e 80 d6 44 bc
       -0.0749141 0.18816055 0.21485749 -0.012014031
0001f0 e8 fa 78 3c 38 55 8a 3d a3 f8 e1 3d 8a 51 67 be
       0.015196539 0.067545354 0.11033752 -0.22589698
000200 45 b8 67 3e 6a 1b 93 be 2e ea a2 3e ca 3e 33 3e
       0.22628887 -0.28731853 0.3181929 0.17504421
000210 80 2e 28 3e 74 a2 05 be 7c ff f9 3d 6a c4 35 be
       0.16423988 -0.13050252 0.12206933 -0.17750707
000220 02 d5 0d bc df 1c 3a 3a df 10 15 be fe 5a 5a 3e
       -0.008656742 0.0007099639 -0.14557217 0.21323773
000230 64 10 7c 3e 96 0d 1e be 48 51 aa 3d 88 a7 6f be
       0.24615628 -0.1543487 0.083162844 -0.23403752
000240 a5 b7 cb 3c 20 d4 84 be 5e b1 5c 3e 34 39 10 3e
       0.024867842 -0.2594309 0.21552035 0.14084321
000250 21 d8 f4 3d ad 7a ff bd fc e9 40 3e 38 9f 92 bb
       0.11955286 -0.124745704 0.18839258 -0.0044745468
000260 32 66 1c 3e a4 2b 32 3e 91 d6 9f 3e 4d ed 4f be
       0.1527336 0.1739946 0.3121839 -0.20305367
000270 8d 40 66 3e bc b3 43 3e 08 f5 81 3e fe f8 ac be
       0.22485562 0.19111532 0.25382257 -0.33783716
000280 c0 9f 72 bc 70 c6 ef bc 40 f9 29 be 12 c2 5b be
       -0.014808595 -0.029269427 -0.16598988 -0.2146075
000290 c0 f4 ca 3d da 08 3e be 08 de 4a be 08 42 3c bd
       0.099099636 -0.18558064 -0.1981126 -0.04596141
0002a0 0c e1 66 3e 58 6e 5e be 5c 8e cb 3d 18 d7 73 3d
       0.22546786 -0.2172178 0.09939262 0.0595313
0002b0 80 4d b8 bc d8 b6 46 bd 68 69 9a bd 1a e3 4a 3e
       -0.022497892 -0.048514217 -0.07539636 0.19813195
0002c0 82 9f 2b be a0 7b 22 3c 50 ff ac 3c 80 d4 2b 3e
       -0.16760066 0.00991717 0.021117836 0.16780281
0002d0 c8 42 41 be 2c e9 22 3e 00 ec 31 3c 20 1a a4 bc
       -0.18873131 0.1590926 0.010859489 -0.020031989
0002e0 52 9b 17 be f8 99 4a 3d 78 72 51 3e ae 14 32 3e
       -0.14805344 0.049463242 0.20453823 0.17390701
0002f0 98 cd ee bd b0 5b 95 3d 2c ae 76 3e a0 5a ab 3c
       -0.11660308 0.07292879 0.24089879 0.020917237
000300 62 51 26 3e 00 5a 69 3d 91 df 1f 3e 6e d5 63 be
       0.16241983 0.056970596 0.15612628 -0.22249386
000310 b7 f5 1f be f0 42 24 3e 78 79 74 3d fc e0 08 be
       -0.15621077 0.1604116 0.059686154 -0.13367075
000320 fe f0 bc bd 5a d3 64 be bf f4 1a 3c d0 39 bf bc
       -0.09225653 -0.22346249 0.009457766 -0.023342997
000330 eb b7 3b 3e 34 04 64 3e 39 07 51 3d ba 47 1c be
       0.18331878 0.22267228 0.05103228 -0.15261737
000340 5c d3 ca bd 12 86 50 be 2e 3d 59 be 4e 87 0a 3e
       -0.09903595 -0.20363644 -0.21214744 0.13528177
000350 90 9c 11 3d 80 c3 7a bc 98 59 7f 3d 20 30 74 3c
       0.0355497 -0.0153054 0.062341303 0.014904052
000360 8a 62 05 3e 22 ed 12 be f4 50 bc bd bc ab eb 3d
       0.13025871 -0.14348271 -0.09195128 0.11507365
000370 30 f1 8b bd 48 9a 1e 3e 40 18 c2 bd a4 2d 83 3d
       -0.06833112 0.15488541 -0.094772816 0.0640519
000380 67 0c 3b 3e 6d 03 c4 be 54 e1 3b bd 60 2f 8c 3c
       0.1826645 -0.38283864 -0.045869187 0.017112434
000390 72 15 07 3e 64 c6 e3 bd 10 ce 4a 3d 4d 5a 4f be
       0.13191774 -0.111218244 0.049512923 -0.20249291
0003a0 d4 ad 81 3e d8 01 cb bd b0 72 7a bd ff 9b 13 3e
       0.25327933 -0.09912461 -0.06114453 0.14414977
0003b0 9d 38 4d 3e d2 7a 73 be e5 d5 86 bd ea e6 17 bd
       0.20041128 -0.23777321 -0.06583766 -0.03708545
0003c0 a4 e0 a3 bc 5a a1 f9 bd 13 21 15 3e 48 06 fb bd
       -0.020004578 -0.121889785 0.14563398 -0.122570574
0003d0 f4 2d 06 3e 0b 19 58 3e 88 04 16 3d ff 45 c4 3d
       0.13103467 0.21103303 0.036625415 0.09583663
0003e0 97 8b 9e 3e d8 d0 a9 3e 0b a7 e6 3d b3 7d 43 3e
       0.30965874 0.33167148 0.1126233 0.19090919
0003f0 dc bf 86 3d 0c 9c 52 be ac 42 3f 3e 77 ea 6c be
       0.06579563 -0.2056734 0.18677777 -0.23136316

hedge_qs.2.linear_relu_stack.4.bias f4 [16]
000000 97 43 48 3e 36 d3 6a bc d6 1a 12 3e 20 2b 43 bd
       0.19557033 -0.014332583 0.1426805 -0.04764855
000010 9c 1f 49 3e 93 aa 58 3e ac 3b 7a be e7 8a 3a be
       0.19640964 0.21158819 -0.24436826 -0.1821705
000020 4c 48 87 3e dd 36 15 bc 2a 5c 15 be e8 eb a7 bd
       0.26422346 -0.009107319 -0.14585939 -0.081992924
000030 3f 36 81 bd 1a e7 4e be 3d 44 58 3d 52 9b 81 ba
       -0.06309175 -0.20205346 0.052799452 -0.0009888208

hedge_qs.2.linear_relu_stack.6.weight f4 [1, 16]
000000 08 6d 4f be 2d ca de 3d 2d ff 6b 3e 72 01 56 be
       -0.20256436 0.10878406 0.2304656 -0.20898989
000010 14 1c aa 3c 67 c5 59 3e b0 a2 b5 bd a7 e4 21 be
       0.020765342 0.2126671 -0.08868921 -0.1580988
000020 30 66 90 3d c1 5e 52 3e 10 39 39 3e 70 cb 0b bd
       0.07050741 0.20543958 0.18088174 -0.03412956
000030 57 6a 45 be 10 54 0b 3e 5e 08 81 3e 73 51 c7 3d
       -0.19278847 0.13606286 0.25201696 0.09732332
