Models/Heston/FFNN/Prop transaction costs/hs_FFNN_CVaR_99_tc.pth (torch, 316867 bytes, 406 tensors)

hedge_qs.0.linear_relu_stack.0.weight f4 [16, 2]
000000 ce f7 16 be df d7 16 3f 9b 73 dc 3c e3 a8 08 3f
       -0.14742967 0.58923143 0.026910594 0.533827
000010 03 91 e5 3e e0 c9 13 bf a4 9b 34 bf db fa d5 bd
       0.44837198 -0.5772991 -0.7054999 -0.104482375
000020 49 c2 7e be 12 c4 a7 3a 43 db b1 be 51 55 d5 3e
       -0.24878801 0.0012799522 -0.34737596 0.41666654
000030 a7 db 33 3e 09 28 0c bf 66 fc ed be f7 ae 00 3f
       0.1756426 -0.5474859 -0.46481627 0.50266975
000040 24 57 25 3d 22 d4 eb 3e 14 bf e6 3e dd 42 11 3f
       0.040366307 0.46060282 0.45067656 0.5674265
000050 84 23 0a 3e 51 5c 81 3e 9f df 21 3f 6e 02 dd be
       0.1349011 0.25265744 0.63231844 -0.43165916
000060 dd f1 0d bc e2 60 19 3f 1d 49 6a 3e 8a 80 18 bf
       -0.008663622 0.59913456 0.22879453 -0.59571135
000070 10 13 f8 3e f6 4a 04 3f 2b d8 54 3e 6b 84 f8 be
       0.48452044 0.5167688 0.20785587 -0.48538527

hedge_qs.0.linear_relu_stack.0.bias f4 [16]
000000 e4 70 0d 3f 3f 97 2e bd 48 df 72 3e 3a c8 1f bf
       0.5525038 -0.04262471 0.23717988 -0.62414896
000010 40 eb f3 3e ba d7 53 3e 67 fb 0f 3f f1 79 2f be
       0.4764042 0.20687762 0.56242985 -0.1713636
000020 34 46 11 3f 6e 72 18 3f f1 2a 92 bd 6f 91 18 3f
       0.56747746 0.59549606 -0.07137097 0.59596914
000030 a9 9a e3 be 6a 6f e5 bd f4 22 fb 3e 3b d0 6e be
       -0.44453934 -0.11202891 0.49050105 -0.23321621

hedge_qs.0.linear_relu_stack.2.weight f4 [16, 16]
000000 7e c9 46 be ec 27 7d 3e 86 9e 47 3e a0 9b 1c 3e
       -0.194128 0.2472226 0.19494066 0.15293741
000010 e0 fe b7 bc cc 72 5e 3e 44 cc ea bd a0 30 eb 3c
       -0.022460401 0.21723479 -0.11464742 0.02870971
000020 e0 ae 37 3e a6 1d 2e be 22 2b 55 3e b2 34 0d be
       0.17937803 -0.17003497 0.20817235 -0.13789633
000030 6c eb 7d be 40 b4 e7 3d 86 a6 37 be 40 2e 51 be
       -0.24796838 0.11313677 -0.17934617 -0.20427799
000040 51 9d 0a bd fe 6f 17 be 4c 77 b9 bc d4 c9 bd bd
       -0.033841435 -0.14788815 -0.022639893 -0.09267011
000050 e0 76 25 bd 87 0b db bd e2 99 5b be 10 0c 28 be
       -0.04039657 -0.10695558 -0.2144542 -0.16410851
000060 6e 9a 2a 3e f0 27 ac bd c0 4d 98 bb 26 ae 99 3c
       0.16660473 -0.08406055 -0.0046479404 0.018759798
000070 f0 e6 d7 bd e5 a8 3d 3d c0 0f d1 bd fe 9b 65 be
       -0.10542095 0.04630365 -0.10208082 -0.22422788
000080 e4 34 6c be 44 7c 29 be 82 aa 63 be b8 23 a0 3d
       -0.23067051 -0.1655131 -0.22233012 0.07819313
000090 48 97 0c bd 64 b4 41 3e 0c 7c 90 bd 34 38 67 be
       -0.03432396 0.1891647 -0.0705491 -0.22580034
0000a0 0c 8d d7 3d 92 65 24 be 30 ff ed 3d b4 dd c4 bd
       0.105249494 -0.16054371 0.11620939 -0.09612599
0000b0 a0 08 19 3c f6 a4 25 be 0e 27 13 3e c0 ee ab bb
       0.009340435 -0.16176209 0.14370367 -0.005246967
0000c0 3c be 9b bd 0e c6 51 be 40 38 96 bb 78 73 e6 bd
       -0.07604644 -0.20485708 -0.0045843422 -0.11252493
0000d0 b0 e8 e8 3c c2 53 17 be 42 b3 0e be 7c 95 e2 bd
       0.028431267 -0.14778045 -0.13935569 -0.11063668
0000e0 36 45 06 3e c4 48 22 be 62 cf 62 3e f8 0a 30 3d
       0.1311234 -0.1584807 0.22149423 0.04297921
0000f0 0a f7 2b 3e ee 31 62 3e e0 29 b2 bc 7a 3e 0c 3e
       0.16793457 0.22089359 -0.021748483 0.13695708
000100 38 49 10 3d d4 07 c8 bd f5 d7 8d 3c a8 82 11 3e
       0.035226077 -0.09767118 0.01731489 0.14209998
000110 18 ac 4a bc ef e7 92 3b ab 63 dd bd ac d5 6d be
       -0.012370132 0.004483215 -0.10810026 -0.2322604
000120 d9 40 ad 3e f0 b1 91 3d 0a 75 20 3e f4 83 0a 3e
       0.33838537 0.07114017 0.15669647 0.13526899
000130 d8 1c 1b bd f2 5c 20 3e 92 1d 8f 3e 2e 88 19 be
       -0.037869304 0.15660456 0.27952248 -0.14993355
000140 06 32 62 be 20 53 50 bd 78 f4 bb bd 84 02 78 3e
       -0.22089395 -0.050860524 -0.09177488 0.2421971
000150 80 bd e0 bb cc 44 a0 bd c2 a1 0f be 38 05 b7 3d
       -0.0068585277 -0.07825622 -0.1402655 0.08936542
000160 6e 41 79 3e ac 0f 90 3d aa a7 3e be 1c 02 8a bd
       0.24341366 0.07034239 -0.18618646 -0.067386836
000170 fe bd 05 be 04 a6 23 3e aa c5 50 3e 12 fb 73 be
       -0.13060758 0.15981299 0.20387903 -0.23826244
000180 84 e8 70 bb d0 8c 9d 3d b1 e9 2c 3e 18 19 38 bd
       -0.0036759684 0.076928735 0.16886021 -0.044945806
000190 d2 1d 18 3e b2 9e 6f 3e 46 38 5b be dc 12 9b bd
       0.14855126 0.23400381 -0.21408185 -0.075719565
0001a0 45 d0 1e be da ed a5 bb 10 de 70 bd 9f 98 37 3d
       -0.15509136 -0.0050637545 -0.058805525 0.044823285
0001b0 60 75 05 be 90 0b f0 bc ff a7 ac bd 9c 56 19 3e
       -0.13033056 -0.029302388 -0.0843048 0.14974445
0001c0 3f d7 3a 3e 6e fe 74 3e a7 76 eb bb 98 3e 33 3e
       0.18246172 0.23925182 -0.0071857753 0.17504346
0001d0 20 b1 ec 3d 4c a1 a5 3d 4e 50 e3 3d 84 60 45 be
       0.115572214 0.080874056 0.11099301 -0.19275099
0001e0 17 f6 7d 3b 3b 6b 8c 3d 96 8d 0b be a1 3d 79 be
       0.0038751417 0.0685639 -0.1362823 -0.24339916
0001f0 dc 54 93 bd 91 e2 9b bc de 1c f9 bd 00 6c bf b9
       -0.0719392 -0.019028934 -0.12163709 -0.00036510825
000200 8a b5 1f be ea ed 54 3e 74 2c 9e 3d 20 c3 54 bd
       -0.15596595 0.20793882 0.077233225 -0.0519439
000210 10 d2 c9 3d 80 fd 15 3e bc 65 10 be d0 65 bb bd
       0.09854519 0.14647484 -0.14101309 -0.091502786
000220 24 c0 ac bd ea 6e 6d be b0 85 81 bd 00 52 71 3d
       -0.084350854 -0.23186842 -0.06324327 0.058916092
000230 00 cf 55 3c 40 52 47 be e4 38 a9 bd 20 34 6e 3c
       0.013049841 -0.1946497 -0.08262804 0.014538795
000240 b4 16 a1 3d 9c 42 b2 3d dc 8a b1 bc 2c 2e da bd
       0.078656584 0.08704111 -0.021672659 -0.10653338
000250 d1 51 b4 3d 9b 03 a3 3c a3 3e 8b 3e 5c d3 bb bd
       0.08804668 0.01989918 0.27196226 -0.09171173
000260 03 f4 65 3e bd 7b 9a bd a0 a6 17 3c b0 52 f4 bd
       0.22456364 -0.075431325 0.009256035 -0.11929834
000270 80 4a 1a be 01 c7 2e be 27 ae b6 3c 3e 8e 43 3e
       -0.15067482 -0.17068101 0.02229984 0.1909723
000280 a4 ef a7 3d 80 e2 b6 bc 60 e4 60 bc 6c 07 39 be
       0.08200005 -0.0223248 -0.013726324 -0.18069237
000290 92 a5 18 3e 9e 06 01 be 98 f0 59 be 6c 22 97 3d
       0.1490691 -0.1260018 -0.21283185 0.07379612
0002a0 c0 d4 0e bd 1c 6b 73 be d2 ac 1e 3e 82 28 36 be
       -0.034870863 -0.23771328 0.15495613 -0.1778889
0002b0 7a 79 5c 3e dc b7 64 3e 00 8e fd 3b 00 67 cc bb
       0.21530715 0.22335762 0.007737875 -0.0062378645
0002c0 52 46 4f be c6 65 21 3e 86 75 75 be 54 78 9b bd
       -0.20241669 0.1576148 -0.23970613 -0.0759131
0002d0 74 0b 45 3e f8 9b 46 bd 80 9d 5b bd e6 22 5d be
       0.1924265 -0.048488587 -0.053617 -0.21595344
0002e0 60 4f 32 3c 42 2e 2b be 5c a9 16 3e 9c 1b 2c 3e
       0.010883182 -0.16716865 0.14713043 0.16807407
0002f0 20 bf ef 3d d0 b7 4a 3e 04 32 f7 3d 6c 6e c3 3d
       0.11706376 0.19796681 0.120700866 0.09542546
000300 fe 8e 90 bc 28 95 f9 3d 17 22 0a bd 58 16 2f 3e
       -0.017646309 0.121866524 -0.033723917 0.17098367
000310 25 82 2d be a0 ed 89 bd 6f 05 4b 3e 90 e4 3d be
       -0.16944177 -0.067347765 0.19826292 -0.18544221
000320 6b c7 61 bd e9 24 72 be e4 55 be 3d 79 b9 4c 3e
       -0.05512182 -0.23646893 0.09293726 0.19992627
000330 2c 1a cb bd bd 52 7a be 90 98 11 3e 58 9e 7c bd
       -0.09917101 -0.24445625 0.14218354 -0.061674446
000340 8e 03 2c 3e 08 9b c1 3d 4c 86 99 bd a4 e7 fa bd
       0.16798231 0.09453398 -0.07496318 -0.12251213
000350 b0 1b 81 3d c8 2d 1d bd 28 97 68 be f4 16 9c 3d
       0.06304109 -0.03837374 -0.22713912 0.076215655
000360 28 95 31 3e ba 81 41 3e 10 ff d6 3d 50 18 d5 3c
       0.17342055 0.18897143 0.10497868 0.02601257
000370 e0 93 0e 3c 60 38 2a bd a4 b2 d3 bd 3e 45 65 be
       0.008702248 -0.04155767 -0.10336807 -0.22389695
000380 9d 9c 48 3e a8 c1 ec bd 85 e4 83 3e 28 cc 13 3d
       0.19590993 -0.115603745 0.25760284 0.03608337
000390 52 f1 5b bc ca 01 2c bd 64 7a 5d 3e 08 2e 0c 3e
       -0.013424234 -0.041993894 0.2162872 0.13689435
0003a0 8c 98 c0 3d b7 df 26 3e 5c ff b1 bd e4 c7 7d 3e
       0.09404096 0.16296278 -0.08691284 0.24783283
0003b0 ce a8 7f 3e 41 8b 56 be 06 fb f4 3d 0a 3e 7f 3e
       0.24966738 -0.20951559 0.119619414 0.2492601
0003c0 dd a4 d7 3b b4 48 d8 3d ea 0c 23 be 5c 8e b5 bd
       0.0065809325 0.10560742 -0.15922895 -0.088650435
0003d0 03 93 e3 3c 8b dc 0b be cb ec 26 be d0 62 1b 3e
       0.027780062 -0.13658349 -0.16301267 0.15174413
0003e0 af e9 96 3e 89 9c 8d 3e 2e 4a 17 be f8 34 ad 3d
       0.2947516 0.2765849 -0.14774391 0.084573686
0003f0 b6 f1 64 be 4c 39 01 3e 2a 4f 81 3e 6a bb 56 3e
       -0.2235783 0.12619513 0.2525571 0.2096993

hedge_qs.0.linear_relu_stack.2.bias f4 [16]
000000 ba 5b 4c be 15 a8 4b 3e c0 f3 e3 3c f8 a9 7b be
       -0.19956866 0.19888337 0.02782619 -0.24576557
000010 87 34 9d 3e 72 a0 66 be bd 20 56 bd 19 66 32 be
       0.30704138 -0.22522143 -0.052277315 -0.1742176
000020 64 19 df 3d 6a 07 98 3e 7e f1 14 be 88 96 a1 bd
       0.10893515 0.29693156 -0.14545247 -0.0789004
000030 00 51 83 be be 44 08 be 89 5f 42 3d 48 88 74 3e
       -0.25647736 -0.13307473 0.04745439 0.23880112

hedge_qs.0.linear_relu_stack.4.weight f4 [16, 16]
000000 d4 dc f1 3d 38 fb 1d be 02 f6 39 3e 0c 66 48 3e
       0.11809698 -0.15427864 0.18160251 0.19570178
000010 60 e6 59 bc 50 f6 aa bc 52 68 49 3e 42 f4 6e be
       -0.013299555 -0.020869404 0.19668701 -0.23335364
000020 ae a1 62 be 06 59 6c be fc 84 cf 3d 1a ab 6a 3e
       -0.22131988 -0.23080835 0.10132787 0.22916833
000030 e0 6a a4 3c 68 45 ca 3d 3a 31 51 be fc 4a d8 bd
       0.020070493 0.098765194 -0.20428935 -0.10561177
000040 9c d9 44 3e 1d 26 45 3e f4 2d 7a 3e 26 ea 33 3e
       0.19223636 0.1925282 0.24431592 0.1756979
000050 5f e0 7a 3c 44 7f 42 3e 72 0b be 3d b8 1a 12 be
       0.015312283 0.1899386 0.09279527 -0.14268005
000060 94 0b 73 be 96 4b 4f be b0 8b 5d 3e c0 8e 1a 3d
       -0.23734885 -0.20243677 0.21635318 0.037733793
000070 c8 a8 3e bc 18 6d 70 be 16 91 25 3d 48 e1 1e bd
       -0.01163692 -0.23479116 0.040421568 -0.038789064
000080 52 a6 74 3e d4 90 9d 3d a2 7f 15 be 74 9b 4b be
       0.23891571 0.076936394 -0.1459947 -0.1988352
000090 da f0 43 3e 58 65 9e 3d 26 b7 6b be d3 52 6e bd
       0.19134846 0.077341735 -0.23019084 -0.058184456
0000a0 00 92 ea bc ac 56 84 3e a0 68 fb bc e8 40 b2 3d
       -0.028634071 0.25847375 -0.030689538 0.08703786
0000b0 ee 3b 5c 3e 72 3d 4a be 49 99 ce 3c c8 47 88 3e
       0.21507236 -0.19750002 0.025219576 0.26617265
0000c0 40 2f a9 3c 35 ba 53 bd e0 f7 e5 bc e0 fb db 3c
       0.020652413 -0.051691253 -0.028072298 0.026853502
0000d0 bc ee 2b 3b da c5 36 3e 15 df 88 bd c6 bd 7e 3e
       0.0026234826 0.17848912 -0.066831745 0.2487708
0000e0 c4 b7 a8 bd 45 a1 b5 be 62 24 65 3e 00 94 7d 3b
       -0.082381755 -0.354746 0.2237716 0.0038692951
0000f0 78 04 41 3e ce 08 3b 3e 2b 4a 16 3e 91 ff f0 3d
       0.18849361 0.18265077 0.1467673 0.117674954
000100 f4 fe 19 be d0 3f 5d bd 1a f3 62 3e 4c e8 e0 3d
       -0.15038663 -0.054015934 0.22163048 0.10981807
000110 6b 4f f8 bd 90 2d a4 3d 85 2b d7 bd 40 f4 70 3c
       -0.12124523 0.08016503 -0.105063476 0.014706671
000120 90 d8 65 bd 7e 25 d7 bd 98 e8 1b bd ac 41 e4 bd
       -0.056114733 -0.10505198 -0.038063616 -0.111453384
000130 17 e0 0b 3d 14 d2 ae bd 8b 2f 48 3e 71 f3 0c 3d
       0.034149256 -0.08536163 0.19549386 0.03441185
000140 a4 eb a6 3d 2e 37 78 3b b6 d3 09 be 6c cb 8c 3d
       0.08150414 0.0037874687 -0.13459668 0.06874737
000150 b3 47 ab 3e 78 e5 ae bd 41 ca 92 bd 86 c5 a0 bd
       0.3345314 -0.085398614 -0.07167483 -0.078501746
000160 f6 a5 63 be 0d d1 be ba fa 6f 28 be 20 4c c4 3c
       -0.22231278 -0.0014558152 -0.16448966 0.02396208
000170 b0 df 30 bd e2 cf 39 3e 8f 71 91 3e 27 0d 67 3e
       -0.043182075 0.18145707 0.2840695 0.22563611
000180 6c ba 4d be de 1a 5d be e4 66 79 be 8c 15 19 be
       -0.20090646 -0.2159228 -0.24355656 -0.14949626
000190 e0 c4 77 bc 0a e0 06 be 50 12 c2 bc a0 6f 50 be
       -0.015122622 -0.13171402 -0.023690373 -0.20355082
0001a0 0e 1d 24 3e 50 14 18 3e 8e ab 2a 3e 4c ce ff bd
       0.16026708 0.14851499 0.16667005 -0.1249052
0001b0 42 4e 27 3e 76 db 49 be ec 55 46 3e f4 25 6e be
       0.16338447 -0.19712624 0.19368714 -0.23256665
0001c0 d0 91 84 3d 7c 77 fb bd 12 2e 35 3e e4 ae c1 3d
       0.06473124 -0.12278649 0.17693356 0.09457186
0001d0 d7 6e 02 be 98 06 d2 bd a6 d6 0a be c9 20 81 3d
       -0.12737595 -0.10255164 -0.13558444 0.063050814
0001e0 32 5a 5e 3e 3f 0b c5 bd 70 81 50 bd ac 7a 59 be
       0.21714094 -0.09621286 -0.05090469 -0.21238202
0001f0 db 83 e0 bc 40 74 33 3e b4 a4 16 3e 0c 8a 2f be
       -0.027406624 0.17524815 0.14711267 -0.17142504
000200 dc 4e 0b be f4 95 b0 bd 4a 04 18 be 5c d0 d4 bd
       -0.13604301 -0.08622351 -0.14845386 -0.10391304
000210 6f f3 6b 3e 8e df 76 3e 97 41 ba 3b ef 90 7a be
       0.23042081 0.24108717 0.0056840884 -0.2446935
000220 d8 d4 d7 3d 12 b6 ac 3d ca c1 44 be ea a1 4c 3e
       0.105386436 0.08433165 -0.1921455 0.1998364
000230 ec ac 82 3e d4 a3 0a 3e 68 d8 8e 3e 99 57 a1 3e
       0.25522554 0.13539058 0.2789948 0.31512144
000240 e0 5a 30 bd 3a 4d 78 3e 00 90 47 be 78 e2 44 bd
       -0.043055415 0.2424821 -0.19488525 -0.04806754
000250 98 4f 29 be 74 87 e4 3d 60 8d 11 3d 00 69 dc bd
       -0.16534269 0.11158648 0.035535216 -0.10762215
000260 36 04 66 be b8 2a 3f be 20 aa 13 3e 64 c6 6d be
       -0.22462544 -0.1866864 0.14420366 -0.23220211
000270 78 42 a0 bd 00 31 48 3e 4a fb 61 be 00 4c c8 ba
       -0.07825178 0.19549942 -0.22068515 -0.0015281439
000280 a8 38 78 3e c9 c0 aa 3d 40 13 3a 3c 60 9e 9e 3c
       0.24240363 0.08337552 0.011357129 0.019362628
000290 02 5a 16 3e e0 04 71 3e 26 2e 6b 3e 53 d5 dc 3d
       0.14682773 0.23537016 0.22966823 0.10782876
0002a0 3e bd 15 be 65 b8 a8 3d 6a f2 75 be ee b0 29 be
       -0.14622971 0.082382955 -0.24018255 -0.165714
0002b0 54 29 0d 3e f4 d2 3a be 12 92 99 3e d7 1c e8 bb
       0.13785297 -0.18244535 0.29994255 -0.007083516
0002c0 f8 6b d1 bd 10 60 5b 3d 34 b9 51 3e 8a 3e 3f 3e
       -0.102256715 0.05355841 0.20480806 0.186762
0002d0 70 61 5e be 88 6e 5a 3d 4c 57 be 3d 7c 68 b4 3d
       -0.21716857 0.053328067 0.09293994 0.08808991
0002e0 4e ba 5a 3e 28 16 4b bd 28 a4 4f be a4 d0 35 be
       0.21360132 -0.049581677 -0.20277464 -0.17755371
0002f0 28 8c ef bd 00 a4 7b 3d fc 2f bf 3d 62 34 5b 3e
       -0.116966546 0.0614357 0.09335324 0.21406701
000300 40 3f a3 bc 9f f9 e3 3d 10 5a d2 3c 66 13 22 be
       -0.01992762 0.11131596 0.02567771 -0.15827712
000310 82 b5 47 bc a6 c5 1f 3e 60 71 5d 3e 8a be 5f be
       -0.012189271 0.1560274 0.2162528 -0.21850029
000320 42 23 4b 3e 9c 9f 75 be 78 00 ea 3d b6 ab 12 3e
       0.19837669 -0.23986667 0.11425871 0.14323315
000330 5d c1 21 3e 2c c5 16 3e 31 01 2f 3e 59 70 fe 3d
       0.15796418 0.14723653 0.17090298 0.12423772
000340 f4 71 04 be 82 7a 2a 3e 8e ad 57 be 72 70 52 3e
       -0.12934095 0.16648296 -0.210623 0.20550707
000350 90 b5 6e be 22 76 5c 3e 88 88 43 be 8a 1e 2f 3e
       -0.23311448 0.21529439 -0.19095051 0.17101493
000360 50 c0 16 3d 80 54 b1 3d 54 75 d1 bd 1a 58 6b be
       0.036804497 0.08658695 -0.10227457 -0.22982827
000370 78 85 70 3d b0 ec 4c 3d 6a 73 36 be 3a c5 4b be
       0.058721036 0.05003041 -0.17817464 -0.19899455
000380 b2 ab 6a 3e 3c 0f 9b 3d 5e 94 58 3e e8 5c 7f 3d
       0.22917059 0.07571265 0.21150348 0.06234446
000390 b8 11 97 3d c0 86 73 bc 8c e6 b3 bd d0 b6 5a 3e
       0.073764265 -0.01486367 -0.08784208 0.213588
0003a0 58 b2 77 3d f2 47 6a 3e e4 7a 85 bd f0 63 bc bd
       0.060472816 0.22879007 -0.0651758 -0.09198749
0003b0 1c 14 d5 bd 10 af 29 bd 00 69 17 3c 00 a9 42 bd
       -0.10404226 -0.04142672 0.009241343 -0.047524452
0003c0 f4 89 4c be 20 3a 0e bc 54 80 ae bd 8c 17 33 3e
       -0.199745 -0.00868085 -0.085205704 0.17489451
0003d0 28 bc 5f be 14 e0 cb bd 76 27 1e 3e 18 b6 59 3d
       -0.2184912 -0.09954849 0.1544474 0.053152174
0003e0 24 61 9a 3d d0 f1 67 be 12 ad 26 be 08 82 8d 3d
       0.07538059 -0.22650838 -0.16276959 0.06909567
0003f0 e0 9e 24 3e a0 50 4c 3e b4 c8 92 bd e8 61 b3 3d
       0.16076231 0.19952631 -0.07167187 0.087589085

hedge_qs.0.linear_relu_stack.4.bias f4 [16]
000000 e0 ae 45 3c 54 49 74 3d d4 a6 86 bd ec 78 aa bd
       0.012065619 0.059640244 -0.06574789 -0.08323845
000010 27 ba f7 bd 13 89 32 3e 26 c0 6a be fb 9a 12 3e
       -0.120960526 0.17435102 -0.22924861 0.14316933
000020 b5 46 98 3e d0 3e 34 3d 4f 4b 8f 3e 84 49 68 be
       0.29741445 0.044005215 0.27987143 -0.22684294
000030 0f 85 e3 bd e4 ce d4 3d e4 fc 7e be e8 b9 70 be
       -0.11109363 0.10391024 -0.24901158 -0.23508418

hedge_qs.0.linear_relu_stack.6.weight f4 [1, 16]
000000 00 61 23 3e 28 9d a2 bd e8 6e 42 3e bd 09 9c bd
       0.15954971 -0.079401314 0.1898762 -0.07619045
000010 e9 47 45 bc ef 68 6f 3e 6c db c8 bd cf cb 97 3a
       -0.0120410705 0.23379873 -0.098074764 0.0011581125
000020 33 38 34 3e 12 33 36 be 64 8e 17 3e cc f9 ab bd
       0.17599563 -0.1779292 0.14800411 -0.08397254
000030 31 95 47 bb 68 b9 79 be e8 92 f1 bd a4 cc c4 3d
       -0.0030453915 -0.24387133 -0.11795598 0.096093446

hedge_qs.1.linear_relu_stack.0.weight f4 [16, 2]
000000 68 8d d0 be ca c4 d5 be 7b b1 dc 3e 89 7d cf 3e
       -0.40732884 -0.417517 0.43104157 0.40525463
000010 ab d0 19 3f 83 3b 38 bf 3e 85 07 bf bc 0d 9d bc
       0.6008403 -0.7196581 -0.52937686 -0.019171588
000020 a8 00 32 be 02 43 ec 3e 91 33 3f 3e 52 28 54 3e
       -0.17383063 0.46144873 0.18672015 0.20718506
000030 2d 36 3a be 06 5a 22 bf 24 5a ee 3e c2 d6 d7 be
       -0.18184729 -0.63418615 0.46553147 -0.42156035
000040 1d 65 32 bf f2 0c 3a bc 8c 53 28 bf 21 da b3 be
       -0.69685537 -0.011355625 -0.6575248 -0.35127357
000050 49 c3 45 3f 9f 9d 15 3f 58 34 42 3f 54 e4 01 bf
       0.77251107 0.58443636 0.7586112 -0.50739026
000060 6f b0 0d bf 09 6c fa be 37 85 ae 3e 68 e0 34 3f
       -0.5534734 -0.4891055 0.3408601 0.70654917
000070 6d dc 23 3d 48 5b 97 be 5b 22 ed bc a3 db 1c bf
       0.040005136 -0.2956183 -0.028947046 -0.6127264

hedge_qs.1.linear_relu_stack.0.bias f4 [16]
000000 c1 e4 00 3f dc 57 17 3c 53 35 53 be d6 b2 c4 3e
       0.5034905 0.009237256 -0.2062581 0.3841769
000010 8d 94 ae bd d6 c3 26 bf cc 05 23 bf b7 a2 5c 3e
       -0.085244276 -0.6514257 -0.6368072 0.21546446
000020 fe 98 95 bd a9 53 20 be 92 d4 b9 3e 81 2f 16 3f
       -0.073045716 -0.15656914 0.3629499 0.58666235
000030 81 ed 21 bf 5c 91 20 bf 72 69 71 3e 41 09 27 bf
       -0.6325303 -0.627218 0.2357538 -0.65248495

hedge_qs.1.linear_relu_stack.2.weight f4 [16, 16]
000000 20 e2 3b 3c 3c db ec bd 58 0d b2 bd 3e ee 4d 3e
       0.011467487 -0.11565253 -0.08693951 0.20110413
000010 cc 37 4b 3e 5a 49 4b be 08 0b 00 3e 3e 08 2b 3e
       0.19845504 -0.198522 0.12504208 0.16702363
000020 10 10 c9 bd dc bd a5 bd 4a a2 51 be d0 09 d5 3c
       -0.09817517 -0.080928534 -0.20472065 0.026005656
000030 c0 83 2c bc 40 54 4a bd 40 cb 05 3d 96 71 42 be
       -0.0105294585 -0.049396753 0.032664537 -0.18988642
000040 8f a1 a3 bd e0 91 e7 3d 04 69 f6 3e 91 92 bd be
       -0.07989799 0.1130712 0.48126996 -0.37025884
000050 40 32 f5 bb 7c 5e 10 be 08 96 46 bd 66 c4 57 3e
       -0.007482797 -0.14098543 -0.048482925 0.21071014
000060 b8 e5 02 3e f8 8f 1d be ef 5f d1 3d bd 39 f8 3d
       0.12782943 -0.15386951 0.10223376 0.12120388
000070 ac 67 51 be ca d6 5d 3e 1f 91 00 3e 90 17 33 bd
       -0.20449704 0.21663967 0.1255536 -0.043723643
000080 0a ef 0f be 80 14 28 3e 2f 22 19 3f 48 da 93 be
       -0.1405603 0.1641407 0.59817785 -0.28877473
000090 20 30 2e be 48 44 a4 3d ec a3 eb bd 3e 0c c6 bd
       -0.17010546 0.08020836 -0.11505875 -0.09670304
0000a0 3a d3 73 3e c2 82 1c 3e b7 a4 54 3e e2 aa 8c 3e
       0.23811045 0.15284255 0.20765959 0.27474123
0000b0 00 3c 3b 3b 38 25 97 bd c1 65 13 3e 0c ea 2d 3e
       0.0028569698 -0.07380146 0.14394285 0.16983813
0000c0 58 50 05 3d 68 f8 02 3d 1c d5 bf bd c0 f6 d1 3b
       0.032547325 0.03197518 -0.09366819 0.0064075887
0000d0 e0 c2 3b 3e dc 6e 8c 3d a0 dd b7 3d c8 4c 26 3e
       0.18336058 0.06857082 0.089778185 0.16240227
0000e0 0a ec 35 3e 40 c6 80 3d 7c d9 90 bd c0 1a 21 bc
       0.17765823 0.06287813 -0.07072732 -0.009833038
0000f0 ec c2 ad bd c0 de 87 bd be 84 2e be 64 1d 90 3d
       -0.08484444 -0.06634283 -0.17042825 0.07036856
000100 60 0e fa bc 16 f7 23 be 04 cb c4 3d 74 14 75 3e
       -0.030524433 -0.16012225 0.09609035 0.23933583
000110 b0 51 a3 bd 10 9e 9f bd c4 2c 84 3d 8a 23 4d be
       -0.07974565 -0.0779382 0.06453851 -0.20033088
000120 50 e1 e7 bc 30 a6 dc 3c b4 eb 68 be 00 1a f3 bb
       -0.02830568 0.026934713 -0.22746164 -0.007418871
000130 0c 0c 1e 3e 80 a2 6a bd a0 e7 c2 bc 18 a6 d6 3d
       0.15434283 -0.05728388 -0.023792088 0.104808986
000140 d0 4d 61 be b8 38 46 bd 20 b4 e2 bc 40 a1 04 3e
       -0.2200234 -0.048393935 -0.02767378 0.12952137
000150 58 c6 f2 3d 54 5f 5f be f4 1e f7 bd f2 49 13 3e
       0.11854237 -0.21813709 -0.12066451 0.14383677
000160 ce ff 5a be 78 89 17 3e 40 00 ed 3c 90 09 57 be
       -0.21386644 0.14798534 0.028930783 -0.20999742
000170 88 ac 9f 3d 60 07 45 bc b2 be 1d be e0 2c 8e bc
       0.077965796 -0.012025684 -0.15404776 -0.017355382
000180 e2 7b 10 be 64 a0 c3 3d a4 40 59 be c0 2a 44 bd
       -0.14109758 0.095520765 -0.21216065 -0.047892332
000190 4c 5d e7 3d 68 66 ba 3d 0e 87 02 3e a8 ce 37 3e
       0.11297092 0.09101564 0.12746832 0.17949927
0001a0 1c dc c7 bd fa 7a 10 be 30 04 28 bd e0 f8 23 3d
       -0.097587794 -0.14109412 -0.04101962 0.040032268
0001b0 84 c1 ed bd a4 63 b9 bd 50 5e 6e 3d 06 8b 21 3e
       -0.11609176 -0.09052208 0.058195412 0.1577569
0001c0 a4 22 34 3e f6 76 25 3e a4 2d 87 bd 9e ae 59 be
       0.1759134 0.16158661 -0.06600502 -0.21258017
0001d0 36 d5 2a be 58 ca 4c 3e bc 55 e6 bd e8 f4 29 3d
       -0.16682896 0.19999063 -0.11246821 0.041493326
0001e0 a0 62 65 be aa 2b 40 be 38 44 e3 bd 58 3d 9e bd
       -0.22400904 -0.18766657 -0.11096996 -0.07726544
0001f0 80 f9 b9 bd 10 8e 32 3d 2e ae 72 be 1c 23 e0 3d
       -0.090807915 0.043592513 -0.23699257 0.109441966
000200 f0 b5 88 3e 5d a6 8a be 2d ba 7f bf 18 86 d5 3e
       0.26701307 -0.2708005 -0.99893457 0.41703868
000210 78 8e 19 3e f0 b4 6d 3e 58 5e 1c bd a7 4f b1 3d
       0.14995754 0.23213553 -0.03817591 0.086577706
000220 c0 c3 0f 3d 34 00 f0 3d 1f cb 0e 3d 6c 96 a3 bd
       0.03509879 0.11718789 0.03486168 -0.07987675
000230 10 4c 4b bd 46 b3 21 3e 45 48 2d 3d ac 4d 40 3e
       -0.049633086 0.15791044 0.04230525 0.1877963
000240 d0 f9 8a 3d 81 88 69 3e e2 b1 04 3f c4 c7 55 be
       0.06785929 0.22805978 0.5183393 -0.20876986
000250 24 51 f4 bd 92 6c 57 3e 64 6e 85 3d 79 02 ef bd
       -0.11929539 0.2103751 0.06515196 -0.116703935
000260 50 50 d7 bc 40 21 c5 bb 83 27 73 3e 54 bc 8e 3e
       -0.026283413 -0.0060159266 0.23745541 0.27878058
000270 c0 54 54 3d d4 87 7f 3e a6 16 99 bc 80 2a 7d bc
       0.051838636 0.24954158 -0.018687557 -0.015452027
000280 ea 4b a0 3d 5f 45 a8 3d aa bb 33 bf e2 60 ca 3e
       0.078269795 0.082163565 -0.7020823 0.3952704
000290 ba 26 0a 3e 9c 89 6d be 90 96 f1 bd 20 2e 4b be
       0.13491336 -0.23197025 -0.11796296 -0.19841814
0002a0 d0 c9 8a 3d 80 bc 61 bc b9 7a 63 bc 4a 25 ce bd
       0.06776774 -0.013777852 -0.01388424 -0.10065706
0002b0 20 4c 39 be a0 f0 cd bd ef 04 85 3d 40 9e 0b be
       -0.18095446 -0.10055661 0.06495082 -0.13634586
0002c0 33 c1 94 bc ea 92 16 3e db 49 95 bc 55 5b 41 be
       -0.01815853 0.14704481 -0.018223694 -0.18882497
0002d0 dc 2a 5a be 9c c4 38 be a0 b9 45 3d 42 0b 46 be
       -0.21305412 -0.1804375 0.04827273 -0.19340232
0002e0 62 77 5c be 26 a1 73 be ab 49 d2 3d 86 88 eb bd
       -0.21529916 -0.23791942 0.10267957 -0.11500649
0002f0 90 f6 cf 3d 4c d6 d8 bd 53 18 72 3d 50 ff 14 3e
       0.1015445 -0.10587749 0.05910523 0.14550519
000300 fe 1a 61 be c6 89 4b 3e 58 54 84 3d a4 21 17 be
       -0.21982953 0.19876775 0.064614 -0.14758927
000310 46 b2 6f 3e 94 79 e1 3d 5c de 66 3e 74 55 f9 bd
       0.2340785 0.11009517 0.22545761 -0.12174502
000320 6e a8 3a be 7e 26 50 3e c0 4a 07 be be 39 61 3e
       -0.18228313 0.20327184 -0.13212109 0.21994683
000330 86 82 7e be 00 a7 af 3b 28 ca 6f bd 62 24 13 be
       -0.24854478 0.005360484 -0.0585424 -0.14369348
000340 a0 92 1e 3d 78 66 0e be e0 52 8f bc 08 48 3e be
       0.03871405 -0.13906276 -0.017495573 -0.18582165
000350 3c 5f 91 bd 50 c3 ca bc e8 b0 61 be 18 fd 25 bd
       -0.07098243 -0.024751335 -0.2204014 -0.040524572
000360 b8 37 30 3d ec 63 ec 3d a8 64 17 be 76 a7 37 be
       0.043021888 0.11542496 -0.14784491 -0.17934975
000370 00 31 c5 3a 64 57 08 3e f0 04 14 3e b6 a6 28 be
       0.001504451 0.13314587 0.14455009 -0.16469845
000380 64 61 71 3e 49 7e 55 be a4 5c 09 bf 94 a4 b8 3e
       0.23572308 -0.20848955 -0.53656983 0.36063063
000390 02 7f 3f be 6c fb ff 3d 5c 28 82 bd 51 dc 9a bb
       -0.18700793 0.12499127 -0.06355354 -0.004725971
0003a0 e2 55 01 3e e0 ff 70 3e 01 b4 36 be 65 8d 40 bd
       0.12630418 0.23535109 -0.17842104 -0.047009844
0003b0 d0 dd 6c bd 08 fd 4c bd bf 6a ab 3d 7c 98 90 3d
       -0.057828724 -0.050045997 0.083699696 0.07060334
0003c0 58 56 f0 3d d4 ca 78 3e cc 10 ec 3d f0 4b 00 bd
       0.11735219 0.24296123 0.11526641 -0.03132242
0003d0 40 cc ae bb a8 79 15 be b4 5b 15 be 1e ca 0c be
       -0.005334407 -0.1459719 -0.14585763 -0.13748977
0003e0 b0 71 ce 3c ca 7e 7b be 58 b0 2e bd 9c 80 09 be
       0.025200695 -0.24560085 -0.042648643 -0.13427967
0003f0 98 2e 1c bd 74 4f 49 3e c4 ee 0b be e0 ea 33 3e
       -0.038130373 0.19659215 -0.136653 0.17570066

hedge_qs.1.linear_relu_stack.2.bias f4 [16]
000000 40 0c 1e be 5a ef 0e 3e ac 98 33 bd ee 21 7d be
       -0.1543436 0.13958493 -0.04384677 -0.24719974
000010 98 1d 50 be 08 f6 8b 3d fc 73 2f be 10 58 ff 3c
       -0.20323789 0.06834036 -0.17134088 0.031169921
000020 2a f5 6c 3d 37 91 33 3e 0c 95 3b 3e 8d c8 5b 3d
       0.057850994 0.17535864 0.18318576 0.053658057
000030 ce 2f 74 be 88 bc b6 bd 18 97 30 3e 08 a6 2d 3d
       -0.23846361 -0.08922678 0.17245138 0.042394668

hedge_qs.1.linear_relu_stack.4.weight f4 [16, 16]
000000 32 ce 14 3e b9 99 0e be f0 0f 1d be 80 14 de 3d
       0.14531782 -0.13925828 -0.15338111 0.10843754
000010 20 e8 a6 3d 20 a7 49 bc 40 39 7a bc 10 a5 a2 bc
       0.08149743 -0.012307912 -0.0152724385 -0.019854099
000020 f4 ff a8 3d c4 32 f5 bd 42 54 d4 3d 50 c6 ab 3d
       0.08251944 -0.119725734 0.103676334 0.083874345
000030 30 f5 80 3d 4e 2c 3a be f8 c1 47 3e 9c cd b8 bd
       0.06296766 -0.18180963 0.19507587 -0.09023592
000040 7c 18 b4 bd cf f6 cf 3d c2 91 32 3e 34 aa 8e 3d
       -0.087937325 0.10154497 0.17438415 0.069660574
000050 8c 9b 4f 3e b4 84 e1 3d d4 a1 44 be da 46 59 be
       0.2027418 0.11011639 -0.19202358 -0.21218434
000060 fa 10 00 3e ae 7f c3 bd a6 57 d3 bd f0 f4 80 bc
       0.12506476 -0.09545837 -0.10319452 -0.015741795
000070 d0 70 5a 3e 34 18 84 bd 9f e4 9c bd f0 e0 94 bc
       0.21332097 -0.06449929 -0.076607935 -0.018173665
000080 38 7f 06 3d 18 a0 cb 3d 7c c9 70 be 90 1a 43 be
       0.03283617 0.09942645 -0.2351436 -0.19053102
000090 00 ce f2 bc d4 23 2a 3e a8 02 87 3d 90 e7 2e 3d
       -0.029639244 0.1661523 0.065923035 0.042701304
0000a0 26 38 8a be 2c 0c 3e be 90 dd a0 3d 40 01 4d 3d
       -0.26995963 -0.1855933 0.0785476 0.05005002
0000b0 f8 94 c0 3d a0 26 3f bd 6b 1b 64 be 04 06 c4 bd
       0.094034135 -0.046667695 -0.22276084 -0.0957146
0000c0 18 40 cc 3d 16 fb 61 be ef 53 5b 3e 0a 67 06 be
       0.099731624 -0.22068438 0.21418737 -0.13125244
0000d0 b2 51 5d 3e 24 9a ad 3d 8c 20 dd bd 80 e9 0c 3c
       0.21613196 0.084766656 -0.107972234 0.008600593
0000e0 35 f5 d8 3d dd 50 7e be 97 54 88 be 37 f3 3c 3e
       0.105936445 -0.24835534 -0.26627037 0.18452154
0000f0 e6 d5 0a be b4 66 d3 3d 4a 91 8a bc 1a bf 09 3e
       -0.13558158 0.103223234 -0.016914982 0.13451806
000100 18 bf 5e 3d 80 b5 25 3e 94 77 5c be 20 0d 0d bc
       0.05438146 0.16182518 -0.2152999 -0.008609086
000110 7e 2a 68 3e 18 03 0a 3d 40 b6 83 bb 92 9a 2a be
       0.2267246 0.033694357 -0.0040195286 -0.16660526
000120 0f ad 96 bc 21 eb 61 be 39 7b 4b be 88 cb f3 bd
       -0.018393068 -0.22062351 -0.19871224 -0.11904055
000130 20 af f4 3c 08 cb 1a 3e 06 8f 8c bc 70 03 36 be
       0.029868662 0.15116513 -0.017158043 -0.17774749
000140 16 8b 21 3e f6 d6 9f 3e 76 87 95 3e a8 7e df bd
       0.15775713 0.3121869 0.2920491 -0.1091283
000150 20 a0 20 3e 3a 9b 79 be e4 01 e7 3d 6e 66 7b be
       0.15686083 -0.2437562 0.112796575 -0.24550793
000160 fc 60 35 be 40 b8 64 3e 47 78 1e bf e5 f9 df bd
       -0.17712778 0.22335911 -0.6190228 -0.109363355
000170 f0 c2 b0 3c 1c 90 c6 3d 62 46 64 be dc 14 a0 3d
       0.021577328 0.096954554 -0.22292474 0.078164786
000180 c0 3a a8 3b 72 df 4e be cb 36 aa 3d 2c 1c 5a 3e
       0.0051339567 -0.20202425 0.08311232 0.21299809
000190 e0 87 db bc 84 db 03 be 1c 15 fa 3d 80 ae aa bb
       -0.026798189 -0.12876707 0.122110575 -0.0052087903
0001a0 ad 65 b6 bd 57 4f 38 be 37 75 f2 3d 60 9b 53 3e
       -0.08906112 -0.17999016 0.11838763 0.2066474
0001b0 e4 96 14 be b4 f7 30 3e 5d 31 17 3e c2 b4 21 be
       -0.14510685 0.17281991 0.14764924 -0.1579161
0001c0 d6 80 45 be 5c 3b 67 be 44 6f 01 be 28 b8 4d 3e
       -0.19287428 -0.22581238 -0.126401 0.20089781
0001d0 00 3d a2 3a 7e b8 24 3e e0 cd 2a be 08 5a 9c bd
       0.0012377799 0.16086003 -0.16680098 -0.076343596
0001e0 2c 30 2f be 46 26 09 3e 6a 77 39 3e c4 e0 7a 3e
       -0.1710822 0.13393506 0.18111959 0.24499804
0001f0 58 1e 52 bd 60 e7 32 be 60 aa df 3c 80 bb 4a be
       -0.05129847 -0.17471075 0.02730292 -0.19798088
000200 5a 7f 4d 3e 37 42 4e 3c ff 9d d5 3b ca b1 70 be
       0.20068112 0.012589029 0.0065190787 -0.23505321
000210 3e 5b 23 3e a6 a7 16 3e 00 6c 41 3d 9c b8 fe 3d
       0.15952775 0.1471239 0.047222137 0.12437555
000220 8b 82 01 3f c8 6a a4 3d 1d f3 d9 3e d0 82 fc bd
       0.5058982 0.080281794 0.42568293 -0.12329638
000230 c4 86 0e 3e e8 2b 38 3d 30 bd 09 3f 36 58 40 be
       0.13918597 0.044963747 0.538043 -0.1878365
000240 12 29 65 be 00 c4 08 bd 02 e9 0d be 82 20 7d 3e
       -0.22378948 -0.033390045 -0.13858417 0.24719432
000250 9c ec 93 bd ba 22 47 be 30 6d bd 3d 18 7b 42 3d
       -0.07222864 -0.19446841 0.092493415 0.047480673
000260 66 44 73 be 80 b3 57 3c 38 d6 22 3d 26 d3 77 be
       -0.2375656 0.013165355 0.039755076 -0.2420164
000270 48 b0 4d bd e8 9e 7e bd f0 c6 9a 3d 3e 9d 16 be
       -0.050216943 -0.062163264 0.075574756 -0.1470842
000280 e0 f4 81 bd ca ac 96 3e 64 91 b2 3e 84 ed 8d 3d
       -0.06345534 0.29428703 0.3487655 0.06930068
000290 78 55 17 3e 0c 91 c2 3d b8 12 a1 bd dc fd e3 bd
       0.14778697 0.09500322 -0.078648984 -0.11132404
0002a0 32 75 b5 be d1 18 f5 3d 89 28 44 bf 41 b5 cc bd
       -0.35440975 0.11967624 -0.7662435 -0.09995509
0002b0 64 71 94 3d a0 1d 71 bd a4 9d 8c be e0 5c 5d 3d
       0.0724819 -0.058866143 -0.2746402 0.05404365
0002c0 e8 6f e3 bd f2 c6 73 bd b0 18 53 3e a8 45 f9 bd
       -0.11105329 -0.0595159 0.20614886 -0.12171489
0002d0 c8 59 75 bd c0 47 ff 3b ee 28 75 be aa 12 3a be
       -0.059900075 0.0077905357 -0.23941395 -0.18171182
0002e0 3d b9 22 3e a1 b6 93 be dd 97 3f 3e e4 29 64 be
       0.15890975 -0.28850272 0.18710275 -0.22281605
0002f0 ac 6c ae bd 00 4d b1 3d ff db 81 be a6 2a 76 be
       -0.08516821 0.08657265 -0.25363156 -0.24039707
000300 dc bf 5b be a0 12 0f bc 00 d9 c7 3a 3c 21 da 3d
       -0.21459907 -0.008732468 0.0015247166 0.1065087
000310 20 bd 81 3d 66 26 25 3e 58 05 63 be b8 48 53 be
       0.06334901 0.16127929 -0.22170007 -0.20633209
000320 80 bf ee bc 54 ac c4 bd 38 33 05 3e 2c f3 9e 3d
       -0.029144049 -0.096031815 0.1300782 0.07761225
000330 8e 21 35 3e 36 10 46 3e 1e 6d 50 be 02 a9 0f 3e
       0.17688581 0.19342121 -0.20354125 0.14029315
000340 40 4a 2f bd 39 69 9b 3e f0 62 fe 3c 4e f2 5a 3e
       -0.04279542 0.30353716 0.031053036 0.21381494
000350 7e 2d 77 3e bc b2 85 bd 10 29 01 bd e8 bd 05 be
       0.24138448 -0.065282315 -0.0315333 -0.13060725
000360 54 f1 12 be 8a 7f 96 3e 0b f8 c3 be 41 36 03 be
       -0.14349872 0.2939418 -0.3827518 -0.12813665
000370 08 34 35 be 50 88 60 3e 84 05 ea be b0 94 1f 3e
       -0.1769563 0.21926999 -0.45707333 0.15584064
000380 98 17 44 bd 75 a8 de 3d f8 be 14 be 5e a0 0a 3e
       -0.047874063 0.108719744 -0.14525974 0.13537738
000390 e4 82 32 be 6a ee 4b 3e 60 bb 77 3c 74 ff 70 be
       -0.17432743 0.19915166 0.015120357 -0.23534948
0003a0 82 17 36 be fa 4e c1 3d 42 a7 4b be 20 84 7e bc
       -0.17782405 0.09438892 -0.19888023 -0.015534431
0003b0 00 4a 63 3d 30 40 6b be 50 c9 20 be c0 d5 8a 3b
       0.055490494 -0.22973704 -0.15701795 0.0042369068
0003c0 90 9f e5 bc 80 36 eb bc b0 e4 7b 3e 7c 31 87 bd
       -0.028030187 -0.028712511 0.24598956 -0.06601235
0003d0 02 8d 03 be 9e 0d 7c 3e 60 2d df bd d0 7b 91 3d
       -0.12846759 0.2461457 -0.108973265 0.071036935
0003e0 24 62 b3 3d 4e b9 78 be 10 fe ba bc 94 98 c7 bd
       0.08758953 -0.24289438 -0.022826225 -0.09745899
0003f0 14 68 2f be 2a 4f 15 3e 60 24 77 bd 78 ad 72 3e
       -0.17129546 0.1458098 -0.060337424 0.23698986

hedge_qs.1.linear_relu_stack.4.bias f4 [16]
000000 54 d0 ef 3d 75 ee 20 be 9a bc 01 3e b5 d6 19 3d
       0.11709657 -0.15715964 0.12669602 0.037558276
000010 b3 1a b6 3d ec 0f 1e 3e 0c 50 27 3e 8a 54 2e be
       0.08891811 0.15435761 0.16339129 -0.17024437
000020 c2 10 26 3e 5a 9d 5b be c9 a1 3d 3e 0f 14 f4 3d
       0.1621733 -0.21446744 0.18518747 0.119178884
000030 26 33 20 be 21 bc ad bd 66 0e 87 bd 40 cf 48 be
       -0.15644512 -0.08483148 -0.06594543 -0.1961031

hedge_qs.1.linear_relu_stack.6.weight f4 [1, 16]
000000 d7 92 ac b7 61 ac 1f 3e fb c6 30 3e 0b d9 e2 3d
       -2.0572375e-05 0.15593101 0.17263405 0.11076554
000010 fd 42 17 3e 2f 27 41 3e ea 75 af bb 8e 35 51 3e
       0.14771648 0.18862604 -0.0053546326 0.20430586
000020 7f 87 3b be c6 3d 14 3e ef 0a ac 3e e6 42 07 be
       -0.18313406 0.1447669 0.33602092 -0.13209113
000030 08 63 64 3e 61 39 5c 3e ff 97 c1 bc 84 3c a6 3d
       0.22303402 0.21506263 -0.023632048 0.08117011

hedge_qs.2.linear_relu_stack.0.weight f4 [16, 2]
000000 e0 0d ef be 57 6d ed bd 85 96 9f 3e c5 dc c6 3c
       -0.46690273 -0.115931205 0.31169525 0.024275193
000010 9e 05 30 3d 5e a4 9e 3d 38 8c 0e bf 60 71 da be
       0.042974107 0.07746194 -0.55682707 -0.42664623
000020 42 ce a9 3e 27 43 97 bd 92 c9 0a bf fb 40 05 be
       0.33165175 -0.07385855 -0.5421382 -0.1301307
000030 a5 39 6d 3f fe 6f 24 bb de 13 50 bf c1 e6 11 be
       0.92666084 -0.0025091167 -0.81280315 -0.14248182
000040 4a b5 21 bf 8c 9e e5 be 46 1a 35 be 47 a4 e0 3d
       -0.6316725 -0.44847524 -0.17685804 0.109688334
000050 9a f6 31 3e b5 0b ad bc 12 d7 39 3e b4 76 83 bd
       0.17379227 -0.021123746 0.18148449 -0.06419125
000060 c4 4e 11 bf a0 8f a5 3c b5 08 27 bf e4 ac bb 3e
       -0.5676081 0.020210087 -0.6524766 0.36655343
000070 90 3d 93 3c 42 3c 9c 3e a8 e6 7f be 6f cf 1a be
       0.017973691 0.30514723 -0.24990332 -0.15118192

hedge_qs.2.linear_relu_stack.0.bias f4 [16]
000000 03 2d b6 3e 3c 41 30 3f c3 a4 a7 be cd f1 32 3e
       0.35581216 0.6884954 -0.3274289 0.17475052
000010 ab 0d 4a 3e 3d 65 01 3f 18 d2 45 3e 87 a0 e8 3e
       0.19731776 0.505451 0.19318426 0.45434973
000020 a6 c8 f5 be 5f 00 dc 3e 01 11 37 be 8a e5 26 bf
       -0.48004645 0.42969033 -0.1787758 -0.65194
000030 85 7b 83 bd 00 22 32 be 38 0e 76 bd 87 2b a5 bd
       -0.06420044 -0.17395782 -0.060072154 -0.08064943

hedge_qs.2.linear_relu_stack.2.weight f4 [16, 16]
000000 d2 05 02 bf fa cd 9b bd 3c 49 5c 3e b0 ef 8c bc
       -0.5079013 -0.07607646 0.21512312 -0.017204136
000010 38 8b 30 3e 13 73 9a bd 09 60 9d 3e b6 39 b0 bf
       0.17240608 -0.0754148 0.30737332 -1.3767612
000020 62 02 62 3e ed 8b 61 3c 04 5e 05 be 8a 1f 49 3e
       0.22071221 0.013766271 -0.13024145 0.19640937
000030 b6 55 05 be 38 83 20 3e f0 3c 85 3d b8 c2 5d be
       -0.13020977 0.15675056 0.065057635 -0.2165631
000040 07 8a fd bd b0 7f f9 3d cc 24 92 bd 64 f4 7f 3e
       -0.12379842 0.121825576 -0.07135925 0.24995571
000050 c3 09 9a 3c 75 f0 2f be 08 5e 54 3e cd 26 ad bf
       0.018803483 -0.17181571 0.20738995 -1.3527466
000060 80 f3 58 bd a6 52 78 bd ac d1 bb bd a0 86 59 bc
       -0.052966595 -0.060625695 -0.09170851 -0.013276726
000070 00 b3 4f 3d 9e a1 79 3e f8 af 2f bd e2 1c 56 3e
       0.050707817 0.24378058 -0.042892426 0.20909455
000080 d2 54 d5 be cb e0 79 3e 64 34 42 be 8e 85 1c be
       -0.41666275 0.24402158 -0.18965298 -0.15285322
000090 38 d5 cd 3e e7 51 f6 3c 29 42 81 3e 18 90 98 bf
       0.40201735 0.030068351 0.2524579 -1.1918974
0000a0 3e 61 72 3e 89 db bc 3c 58 62 e4 bd 10 75 e8 3c
       0.23669907 0.023053901 -0.1115157 0.028376132
0000b0 e0 a9 99 bd e6 b9 6b be 70 6c 8d bc 3a a6 2d 3e
       -0.07503104 -0.23020133 -0.017263621 0.16957942
0000c0 46 25 00 3c 9c 41 ad 3c 60 b4 3d 3c 3a 5c 72 be
       0.007821387 0.021149449 0.011578649 -0.23667994
0000d0 c8 ad 53 3e 01 53 42 3e ef 32 d2 bd 9c 41 88 be
       0.20671761 0.18976976 -0.10263621 -0.26612556
0000e0 82 e2 2f be 60 11 fc 3d 38 a8 0d be 48 56 93 3d
       -0.1717625 0.123080015 -0.13833702 0.07194191
0000f0 02 3e 2b 3e 60 9f 9d bd 30 f5 b0 3d f0 66 38 be
       0.16722873 -0.07696414 0.08640516 -0.18008018
000100 de 27 39 be 81 5a cb 3c d8 21 8a bd aa 99 1d be
       -0.18081614 0.024823429 -0.067447364 -0.1539065
000110 52 d8 11 3e a6 85 65 be 4f 5a 4c 3e 19 ba 50 bd
       0.14242676 -0.22414264 0.19956325 -0.050958727
000120 18 26 30 3e a6 40 06 3d dc 02 f3 bd d8 8b 4a bd
       0.17202032 0.032776497 -0.1186578 -0.04944977
000130 5c f2 e4 3d 4a fe 5d 3e bc 09 3a be c8 80 21 bd
       0.11179039 0.21679035 -0.18167776 -0.039429456
000140 58 bb 0f 3c 63 88 23 3e 5c 0b 17 be b2 0d 0b be
       0.008772694 0.15969996 -0.14750427 -0.13579443
000150 a3 95 84 3e 29 15 c6 be a7 d9 c5 3d 0e 59 6e bf
       0.25895414 -0.3868802 0.096606545 -0.93104637
000160 04 c5 dc 3d fa 47 39 3e c0 5a be 3c 2c 8d ff bd
       0.10779765 0.18093863 0.023236632 -0.12478098
000170 70 66 45 3d d8 bf 82 3d 60 8c d3 3d 5c a2 62 3e
       0.048193395 0.063842475 0.10329509 0.22132248
000180 dd 6e 1e be 86 ab 43 3b a0 c3 0f be 0c 90 7f be
       -0.15471978 0.0029856875 -0.14039469 -0.24957293
000190 c1 d7 46 ba 1e e1 aa bd aa 28 85 3e a2 fe 9f bf
       -0.00075852504 -0.08343719 0.26007587 -1.2499583
0001a0 10 3b 3c 3e 1e a0 c8 be 88 ab 6f bd 00 5c 70 3b
       0.18381906 -0.3918466 -0.058513194 0.003667593
0001b0 bc 2c f2 3d c0 85 05 3c 52 b3 26 3e 62 57 3e be
       0.11824939 0.008149564 0.16279343 -0.18588021
0001c0 34 43 45 3e c8 b7 6a 3e 3c 0e cd 3d 30 f8 af 3c
       0.19263917 0.2292167 0.100124806 0.02148065
0001d0 35 a5 3c bd 70 80 9d bd 93 39 0c bd a1 74 cc 3d
       -0.04605599 -0.07690513 -0.034234595 0.09983183
0001e0 30 5d 2b 3d ed 5c ae bd 20 7b 59 3d b8 33 4d 3d
       0.041836917 -0.08513818 0.053095937 0.05009815
0001f0 6e de 3e 3e 64 35 b4 bd 8a 24 00 3e 2a f2 4b be
       0.18639538 -0.08799246 0.12513939 -0.19916597
000200 90 7e 79 bd 00 c2 3d 3b 6e a0 50 be fa 9a 5a be
       -0.060911715 0.0028954744 -0.20373699 -0.21348181
000210 68 cc 19 3e 38 1e dc 3d 20 39 ed bd a0 e6 8b bd
       0.15019381 0.10747951 -0.11583161 -0.068310976
000220 9c 5b cf 3d 80 98 ac 3c f8 c4 fa 3d 20 ef 73 3d
       0.10124895 0.021068811 0.122446 0.05955422
000230 46 c7 61 3e 04 67 6f be 60 65 3b 3d b0 44 19 bd
       0.22048673 -0.23379141 0.045750976 -0.03741902
000240 97 35 24 be 17 8a b8 3d 12 36 69 be 60 18 f4 bc
       -0.16036068 0.090107135 -0.22774532 -0.02979678
000250 bb be 60 be c5 8d 19 be e1 38 f5 3c 63 14 f8 bd
       -0.21947758 -0.14995487 0.029934349 -0.121132635
000260 5a 14 61 3e 4b 41 ec bd 8e 59 68 be 8a 26 0e be
       0.2198042 -0.11535891 -0.22690412 -0.13881889
000270 00 f2 ec bb b0 72 f6 bc 20 48 12 be e0 aa 26 bd
       -0.007230997 -0.030083984 -0.14285326 -0.040690303
000280 60 c9 20 3e a0 5b f9 bc fa 13 42 be 14 e3 d5 bd
       0.15701818 -0.030439198 -0.18952933 -0.10443702
000290 8c bf e9 3d 70 fa ef bc a2 67 7b be 88 7b 68 bd
       0.11413488 -0.029294223 -0.24551252 -0.056758434
0002a0 b0 54 a3 3d 5c 54 33 be 8e 3b 0d be e8 99 44 3d
       0.07975137 -0.1751265 -0.1379225 0.04799834
0002b0 e6 5d 46 be 9a 1b 1d 3e c0 5b 4f 3d 64 e0 a9 3d
       -0.19371757 0.1534256 0.05062461 0.08294752
0002c0 f9 53 61 3c 9e 5d 06 3c 6e 07 19 be ca b1 0c 3e
       0.013752931 0.008201031 -0.1494424 0.13739696
0002d0 c1 a9 06 be 8c 84 a4 bd 0d dc f6 bd fd 4a 84 bd
       -0.13150693 -0.08033094 -0.1205369 -0.064596154
0002e0 98 77 16 3d f7 1e ba bc c8 c0 65 be f0 29 55 3d
       0.036735147 -0.022719843 -0.22436821 0.052041948
0002f0 28 9a 21 3e 80 f4 23 bc 5c e1 3f 3e 40 e0 e2 3c
       0.15781462 -0.010007024 0.18738312 0.027694821
000300 71 91 d7 be af 73 87 3e d0 4d fb bc e4 a7 3f 3e
       -0.4210315 0.26455447 -0.030676752 0.18716389
000310 ce de 2b 3e cc 35 9d be 30 7f 05 3e 99 d0 a4 bf
       0.16784212 -0.30705106 0.130368 -1.2876159
000320 6c 70 b5 bd a3 23 d3 3d 78 47 6c 3d 5e 52 31 3e
       -0.088593334 0.103095315 0.057685345 0.17316577
000330 ee 10 7c be e0 f8 6a 3d 4e 73 44 be 48 b7 51 3d
       -0.24615833 0.057366252 -0.1918461 0.05120018
000340 78 35 4e be ca 46 35 be 98 cb c0 bd 8c 03 2b 3e
       -0.20137584 -0.17702785 -0.094138324 0.16700572
000350 3c 51 83 bd a4 75 5f be 02 a4 2d be 7c 0f e0 bd
       -0.064119786 -0.2182222 -0.16957095 -0.109404534
000360 06 0e 16 be 18 2b 13 3d 90 14 5a 3e 80 aa 8f bc
       -0.14653787 0.03592977 0.21296906 -0.017537355
000370 90 e6 ec 3d 78 9e 25 3d 80 1d 73 bd 50 0c 5f be
       0.11567414 0.04043433 -0.059354305 -0.2178204
000380 cc 90 3b be 62 94 24 bd c0 c9 82 3b 38 2b 1f 3e
       -0.18316954 -0.04018057 0.0039913356 0.1554383
000390 ce 1b 57 3d be 67 1c be 4a 65 33 3e fd 45 1e be
       0.05251675 -0.1527395 0.17519107 -0.15456386
0003a0 08 b1 c0 bd de 31 0d be 48 e9 6f be 3c db 59 3e
       -0.09408766 -0.13788554 -0.23428833 0.21275038
0003b0 f0 8c c1 bc 3c 81 43 3e 60 e9 c4 3c 00 f4 ed ba
       -0.023626775 0.19092268 0.024037063 -0.0018154383
0003c0 31 25 36 3e c0 f6 69 be d4 92 43 3e 30 55 77 be
       0.17787625 -0.22848034 0.19098979 -0.2415359
0003d0 57 d4 d6 bd c2 7c 67 be 8e 89 a5 3b 9e b0 2a 3e
       -0.10489719 -0.22606185 0.005051798 0.16668937
0003e0 52 04 4e be a6 1b cd bd 30 89 5a 3d b6 8c 4d be
       -0.20118836 -0.10015039 0.05335349 -0.20073208
0003f0 e0 c2 f5 bd 92 ff 1c 3e 14 78 c5 3d f0 57 6e 3e
       -0.1200006 0.15331867 0.09642044 0.23275733

hedge_qs.2.linear_relu_stack.2.bias f4 [16]
000000 41 ed 97 bc e3 8b 91 bd bd f3 2e 3e df 72 31 be
       -0.018545749 -0.071067594 0.17085166 -0.17328976
000010 2b fb 2b be 78 29 a8 bd 01 2b b0 3d d0 6a 33 be
       -0.16795032 -0.082110345 0.08601952 -0.17521214
000020 5a a4 4f be 37 b0 8e 3d 00 86 d7 bd f6 ab e7 3d
       -0.20277539 0.06967204 -0.10523605 0.11312096
000030 90 2d ba 3d 84 86 56 3e 4d e6 fa bb 82 9c 11 3e
       0.090907216 0.20949751 -0.0076568485 0.14219859

hedge_qs.2.linear_relu_stack.4.weight f4 [16, 16]
000000 84 ca e1 3e 8a d8 97 3e 5d 2d c0 3e 78 ee b9 3d
       0.4409982 0.29657394 0.3753461 0.090786874
000010 95 99 15 be d0 fa 8e 3e 22 6d 5d 3e c9 4c 2f be
       -0.14609368 0.2792573 0.21623662 -0.17119135
000020 46 e7 59 be 2d 9a 17 ba 90 a0 d0 3c 02 55 1a 3e
       -0.2127963 -0.0005783167 0.025467187 0.1507149
000030 ae b7 d5 3e 78 76 c3 bd 67 91 46 be 1d 37 65 be
       0.417417 -0.095440805 -0.19391404 -0.22384305
000040 74 2e c3 bd b8 08 22 3e 4c c4 25 be ba 25 33 be
       -0.095303446 0.15823638 -0.16188163 -0.1749486
000050 52 53 5f be 28 48 77 be fc a6 c1 bd 20 9d 64 be
       -0.21809128 -0.24148619 -0.09455678 -0.22325563
000060 d4 5f 67 3e ac 84 f9 3d 04 bf 06 be 60 43 2e bc
       0.2259515 0.12183508 -0.13158804 -0.010636181
000070 b8 53 cf bd cc 9d d4 bd 60 4f 7e 3e 86 ed 05 3e
       -0.1012339 -0.1038166 0.24834967 0.13078889
000080 e9 1a 35 bf 7c e8 cd be a9 0a f0 bd b0 1b 30 3e
       -0.70744187 -0.40216434 -0.11720783 0.17198062
000090 e0 44 80 bc e2 99 54 3d 77 32 a6 bf ff ca e0 bd
       -0.015657842 0.051904567 -1.2984151 -0.109762184
0000a0 a0 14 1b bc d2 b5 06 3e 22 b7 72 be 08 07 2c be
       -0.009465367 0.13155296 -0.23702672 -0.16799557
0000b0 bf 96 b3 bd dc bd 63 be 00 39 81 bc f3 67 6d 3e
       -0.08768987 -0.22240394 -0.01577425 0.23184185
0000c0 fc 4d 13 bf 81 f4 e2 be ef 7e d0 bd 38 0b ea bd
       -0.5754087 -0.44327167 -0.10180461 -0.11427921
0000d0 f8 a7 42 3d 61 82 0f be c3 4b 85 bf 5d 48 53 be
       0.04752347 -0.1401458 -1.0413746 -0.20633073
0000e0 b8 d8 f5 bd 6d d6 4c 3e 20 c4 05 bc bd 93 23 be
       -0.120042264 0.20003672 -0.008164436 -0.15974326
0000f0 83 38 46 3d 24 94 18 3e a4 94 df 3d 00 b2 3e 3e
       0.048393738 0.14900261 0.10917023 0.18622589
000100 c0 9b c2 3d a4 15 f6 bd 50 2d ff 3c 30 17 75 3e
       0.09502363 -0.12015846 0.031149536 0.23934627
000110 98 d8 7b 3d 64 f4 df bd 76 44 0c 3e b0 2b 83 3c
       0.061485857 -0.10935286 0.13697991 0.016012043
000120 32 37 71 be 70 e2 c2 bd 00 49 9f bb e4 bc 0a 3e
       -0.23556212 -0.09515846 -0.004860997 0.13548619
000130 a6 8e 46 3e 44 a6 c7 bd 5c 46 6e 3e e6 15 33 3e
       0.19390354 -0.097485095 0.23269027 0.17488822
000140 b0 6a d0 bd 40 6a 0b 3e 90 0b 89 3d 88 5b 25 bd
       -0.10176599 0.1361475 0.066916585 -0.040370494
000150 e8 a4 b8 3d c2 b1 5b be 20 78 6d 3d 40 39 ad bd
       0.09015828 -0.21454528 0.05797589 -0.08458185
000160 86 7c 6c 3e 48 7a 1f 3d 38 12 9a 3d d0 bd 74 be
       0.23094377 0.038934976 0.07523006 -0.23900533
000170 dc 3c 0f 3e 60 99 72 be d0 c9 5b 3d a4 d1 5e 3e
       0.1398806 -0.2369132 0.05365926 0.21759659
000180 3c 21 dc 3d 2e 29 24 be 80 42 8f 3b 40 97 d3 bb
       0.107485265 -0.16031334 0.004371941 -0.0064572394
000190 0c 83 cc 3d 30 f7 82 3c 20 62 67 bd f0 7b bf bd
       0.09985933 0.015987009 -0.056490064 -0.09349811
0001a0 f0 e5 1b 3d 00 a8 af ba 76 e8 2a be 20 ef 6b 3e
       0.038061082 -0.0013401508 -0.1669024 0.23040438
0001b0 76 4e 13 be 92 ef 2a 3e 00 0c f5 3b 96 50 5b 3e
       -0.14385399 0.16692951 0.007478237 0.2141746
0001c0 d0 62 4c bd be ed 6d 3e 08 c2 5e be 94 54 32 3e
       -0.049898922 0.23235223 -0.21753705 0.17415076
0001d0 d0 8c f5 3c a2 26 43 be d0 71 63 be e0 b7 5d be
       0.029974371 -0.19057706 -0.22211385 -0.21652174
0001e0 b8 4d 11 3e d0 43 12 bd d8 ca 6b be 54 3a d6 bd
       0.14189804 -0.035709202 -0.23026597 -0.10460344
0001f0 be ed 4a be 70 af c1 3c 10 82 1f 3e 90 0c 94 3c
       -0.19817254 0.023643225 0.15576959 0.018072397
000200 f4 9d a3 bd ac c7 73 3e d0 6f 04 bd da d4 0a be
       -0.079891115 0.23806638 -0.032333195 -0.13557759
000210 1a ae 3a 3e 50 83 c2 3d a8 63 d6 bd 6a 5e 25 3e
       0.18230477 0.09497702 -0.10468227 0.16149297
000220 78 e7 3d bd 60 8a 9f 3d 00 d4 3c ba 14 14 10 be
       -0.046363324 0.07790065 -0.00072032213 -0.14070159
000230 0c 2d 78 be 50 0b 69 3e 46 b8 42 3e 90 50 a4 bc
       -0.24235934 0.22758222 0.19015607 -0.020057946
000240 dc bb 2e be d0 d2 96 3d 0a c1 79 be 1c cf 79 3e
       -0.1706385 0.07364428 -0.24390045 0.24395412
000250 70 e5 0b 3e 58 ad 04 be 46 31 4c 3e 00 eb 94 bd
       0.13661742 -0.1295675 0.19940671 -0.07271385
000260 7e 3d 26 be 94 f4 92 bd 24 1e bc 3d 60 0a ca 3d
       -0.16234395 -0.07175556 0.09185436 0.0986526
000270 d0 54 7c be c6 fd 54 3e fe 69 2d 3e 40 d9 b4 bd
       -0.24641728 0.20799932 0.16934964 -0.088305
000280 57 56 db 3e a0 14 f2 3e 2b 44 3f 3e fd 63 4c be
       0.4283931 0.4728136 0.18678348 -0.19960018
000290 53 8f ea bd 1c 30 77 3d 9e d6 46 3f ad 5e 3e be
       -0.11453118 0.060348615 0.7767123 -0.18590803
0002a0 52 8b 1f be 22 af 57 3b 3c 86 54 be b0 d9 6e 3e
       -0.1558049 0.0032910784 -0.20754331 0.23325229
0002b0 78 66 86 3e 7c bd 58 3e 75 17 e1 3d 3e f3 55 be
       0.26250052 0.21166033 0.10990802 -0.20893571
0002c0 1a 6f 55 3e 21 a2 8b be 61 36 6a be e6 d5 59 be
       0.20843163 -0.27272132 -0.22872306 -0.21273002
0002d0 96 5e 25 be 9e a3 bb 3d 0c 33 af 3d 14 d1 a7 bc
       -0.16149363 0.09162067 0.08554658 -0.020485438
0002e0 4e be 19 be a5 3e c9 3b 32 74 5a 3e f8 4e 2e 3e
       -0.15014002 0.006141501 0.21333387 0.17022312
0002f0 7c e5 88 3d b6 36 48 be ac 97 5b be df 6c 28 3d
       0.06684396 -0.1955212 -0.21444577 0.041119453
000300 46 b0 ba bc b7 00 e0 3d 37 f4 6b 3c 76 e0 42 3e
       -0.022789132 0.10937636 0.014401487 0.19030938
000310 82 2b 31 be 05 ce a9 3b dc b2 79 bd 8c 31 24 be
       -0.17301753 0.00518203 -0.06096159 -0.16034526
000320 d4 09 f0 bd b2 96 70 3e 9c 12 e4 bd a4 fe db 3d
       -0.117206246 0.23494986 -0.11136362 0.10741928
000330 d6 1a 8e bd a0 35 4b be 34 81 dd bd b8 4b f7 bd
       -0.06938712 -0.19844675 -0.10815659 -0.12074989
000340 c0 31 7d 3c 90 96 34 be d0 a3 8b 3d e8 e3 ee 3d
       0.015453756 -0.1763556 0.06818354 0.116645634
000350 48 ba 37 be 74 9f f5 bd 18 62 8d 3d 1c be 87 3d
       -0.17942154 -0.11993304 0.069034755 0.06628057
000360 30 0c d7 3c f0 60 a1 bd 58 5f 5b 3e ac 95 0c be
       0.026250929 -0.078798175 0.2142309 -0.1372897
000370 dc 42 06 be 7e fe 6b be 40 18 8f 3d 64 3e d6 3d
       -0.13111442 -0.230463 0.06987047 0.10461119
000380 c5 34 25 3e 27 23 ff bd b0 f6 ff ba df 8e 47 3e
       0.16133411 -0.12457877 -0.0019528475 0.19488095
000390 5e 1b f4 bd a6 2a 69 3b 6b 4d 82 3d bf 3f 41 3e
       -0.119192824 0.00355784 0.063624226 0.18871973
0003a0 a8 0d 04 3e 78 f9 7f be e6 6a 05 be a9 9a c3 bd
       0.12895834 -0.24997509 -0.1302906 -0.095509835
0003b0 28 12 86 bd 46 51 6a be 03 bd 44 3e b4 6c d6 bd
       -0.06546432 -0.22882566 0.19212727 -0.10469952
0003c0 39 fb eb 3e f3 f8 4e 3e 0c 1b d8 3e 27 54 43 3c
       0.46090105 0.20212154 0.42208135 0.011921919
0003d0 6f f3 82 3e 40 5f c3 3e 49 eb 3d 3f 3a f3 b6 bd
       0.2557635 0.38158607 0.7418714 -0.089331105
0003e0 ec 71 04 3e 93 05 02 be 60 09 2a 3d 53 1d 28 be
       0.12934083 -0.12697439 0.041512847 -0.16417436
0003f0 d6 f2 bb 3e 40 5a 2a be a7 f8 09 3c b3 de 0c 3e
       0.36708707 -0.1663599 0.0084211 0.13756828

hedge_qs.2.linear_relu_stack.4.bias f4 [16]
000000 0a df 88 3e 5e 04 51 be 10 6c 8a 3e a7 1d 62 3e
       0.26732665 -0.20411822 0.2703557 0.22081624
000010 e2 d4 2b be f4 aa 2f be d0 79 cf bd 78 a3 02 bd
       -0.16780427 -0.17155057 -0.10130656 -0.031894177
000020 c6 21 71 be b0 bc 79 be c1 53 a5 3c 0c 61 c7 3d
       -0.2354804 -0.24388385 0.020181539 0.09735307
000030 b2 51 09 be f6 1f 60 be 46 fc 0e 3c a9 00 a7 3e
       -0.1341007 -0.21887192 0.008727139 0.3261769

hedge_qs.2.linear_relu_stack.6.weight f4 [1, 16]
000000 6b 88 ce 3e b8 a7 f6 bd 67 9e 94 bf 61 e6 8d bf
       0.40338454 -0.120437086 -1.161084 -1.1085931
000010 c0 97 83 bc 80 aa 6a bb e8 ac 64 3d c6 94 0c 3e
       -0.016063571 -0.0035807192 0.05582896 0.13728628
000020 f0 d5 d0 bd dc 9c 52 3e f4 86 94 3e e0 31 40 be
       -0.10197055 0.2056765 0.2900921 -0.18769026
000030 34 12 06 3d b8 3e 38 3d 22 b8 77 ba 25 20 5d 3e
       0.032732204 0.04498169 -0.000944974 0.21594293
