Models/Heston/FFNN/Prop transaction costs/hs_FFNN_CVaR_50_tc.pth (torch, 316867 bytes, 406 tensors)

hedge_qs.0.linear_relu_stack.0.weight f4 [16, 2]
000000 3c 81 1e 3e 38 6d 0a 3f 45 2c 73 be 89 58 4e be
       0.15478987 0.54072905 -0.23747356 -0.20150961
000010 f0 9e 2d bf 18 bd 40 be 1d 55 a5 be 38 e0 0c 3f
       -0.67820644 -0.18822134 -0.322915 0.5502963
000020 0c 65 3e 3e 6a 6e ab 3e 0a 42 58 be a2 5a 2a 3d
       0.18593234 0.33482677 -0.21118942 0.04159034
000030 69 d4 07 bf 12 05 0b bf b0 9d 42 be 6d 82 05 bf
       -0.5305849 -0.5430461 -0.19005466 -0.5215214
000040 28 cd fc 3e 72 69 37 3e b1 17 05 bf 21 3c 9f be
       0.49375272 0.17911318 -0.51989275 -0.31100562
000050 1d 36 15 3f 19 2c 50 be 31 36 4c 3e f4 53 c7 3e
       0.58285695 -0.20329322 0.19942547 0.3893124
000060 eb 7e 94 be d6 1f dd 3e 63 39 b1 3d 0b e2 51 be
       -0.2900308 0.4318835 0.08653524 -0.20496385
000070 15 c2 ac 3e 6b 9b 16 3e 1d 44 26 bd 9c 67 00 bf
       0.33741823 0.14707725 -0.0405923 -0.50158095

hedge_qs.0.linear_relu_stack.0.bias f4 [16]
000000 3f fa 2d bf 81 e1 11 3f f4 b9 1f 3e 46 8b be bd
       -0.6795997 0.56984717 0.15598279 -0.09303908
000010 08 e0 0e bf 99 06 fa bc b0 43 30 bf ec f4 28 3f
       -0.55810595 -0.030520724 -0.6885328 0.6599872
000020 ec 68 39 bc 40 a4 37 3f 53 6a 0a 3f 93 8f 48 be
       -0.011316519 0.71735 0.5406849 -0.19586019
000030 1d 15 da 3e bb a7 17 3f d4 6a c8 be 2e 1a 25 be
       0.42594233 0.5924031 -0.39144003 -0.16123268

hedge_qs.0.linear_relu_stack.2.weight f4 [16, 16]
000000 76 60 4d be 0a bc 44 be fc 08 8c 3d 00 d2 29 3c
       -0.20056328 -0.19212356 0.06837651 0.010365009
000010 6c 43 b0 bd 20 e5 03 be ce 0e 30 3e f4 8a b2 3d
       -0.0860661 -0.12880373 0.17193148 0.087179095
000020 c0 42 3f 3c 70 21 3a be b4 42 17 be 04 af 1f 3e
       0.011673629 -0.18176818 -0.14771539 0.15594107
000030 28 7f 17 3e 38 63 c9 bd b0 44 35 3e 00 ee 19 3b
       0.147946 -0.098333776 0.17701983 0.0023487806
000040 22 b1 1f 3e 3a 1f 3d be c8 4a 06 3e f6 10 73 3e
       0.15594915 -0.18468943 0.13114464 0.23736939
000050 f8 5a 80 bd 80 bb 72 3c 10 2b 4a be 50 07 62 3d
       -0.06267351 0.014815211 -0.1974299 0.055182755
000060 44 75 8b bd 80 00 75 3c 64 f6 98 bd c0 7c d1 bd
       -0.06809476 0.0149537325 -0.0746887 -0.10228872
000070 94 53 a3 bd 60 c5 e4 3c d0 f8 93 3d ec 3b a7 3d
       -0.07974926 0.027926147 0.072251916 0.08165726
000080 a8 f6 e0 3d 60 0d 11 3d 7a 79 34 be c0 9d 2b bc
       0.10984546 0.035413146 -0.17624465 -0.010474622
000090 b4 80 ca bd b2 5f 22 3e 10 7b dd 3c e4 a3 ec bd
       -0.098878294 0.15856817 0.02703622 -0.11554697
0000a0 60 23 41 3c 4a e3 2e 3e 50 5c fc bc ac cb 78 3e
       0.011788219 0.17078891 -0.030805737 0.24296445
0000b0 74 7b f8 3d ee d1 4e be 5c dd 7c be e8 55 3d be
       0.12132922 -0.2019727 -0.24693817 -0.18489802
0000c0 b8 ea 08 3e 6f 2f a4 bd a0 d4 d2 bd 10 cb 88 bc
       0.13370788 -0.0801686 -0.10294461 -0.01669839
0000d0 20 bf 31 3d 6c 45 74 be ac d1 cf bd 3f e1 b6 3d
       0.04339516 -0.23854607 -0.101474136 0.08929681
0000e0 22 9f 30 bc e1 31 f9 3d 5a 7f 00 3e de 0d 7b 3e
       -0.010780128 0.12167717 0.12548581 0.24517009
0000f0 c7 c5 72 be 0b 74 a2 3d 20 1e d5 bd f8 54 3c 3e
       -0.23708259 0.0793229 -0.104061365 0.18391788
000100 20 d5 76 bd 00 00 79 3d 50 be 04 be ac 82 94 bd
       -0.060261846 0.060791016 -0.12963223 -0.07251486
000110 94 61 50 3e 80 10 be 3d c0 95 1d 3d 76 5c 12 be
       0.20349723 0.09280491 0.03847289 -0.14293084
000120 00 f1 b0 3d cc fb 48 be 1e c5 2a be 6a fb 51 be
       0.08639717 -0.19627303 -0.16676757 -0.20506063
000130 c0 19 fd bd 30 b0 20 be 14 6b f0 bd 78 3e b6 3d
       -0.12358427 -0.1569221 -0.117391735 0.08898634
000140 3e 33 7e be 4d 2d db bd 40 03 8f bd 74 07 04 be
       -0.24824235 -0.10702 -0.06983042 -0.12893468
000150 18 4e 65 be e0 ad 2e 3d 1c 8b 02 be 10 9f 85 3c
       -0.22393072 0.04264629 -0.12748379 0.016311198
000160 d4 4a a1 3e 9c cd 99 3e 6a 18 49 3e 8c 5f f7 3d
       0.31502402 0.3003968 0.1963822 0.12078771
000170 ad 3e 13 3e f3 0d 9c 3e c0 10 a8 3b 3a 20 52 be
       0.14379378 0.30479392 0.00512895 -0.20520106
000180 a2 b6 2a be 28 f7 c3 bd 22 a8 57 3e 34 96 9c bd
       -0.16671231 -0.09568626 0.21060231 -0.076458365
000190 a2 88 28 be ea ee 3d be f6 1c 59 be c8 15 20 3e
       -0.16458371 -0.1854817 -0.21202454 0.15633309
0001a0 e0 88 01 be 1a a7 04 be 20 dc 85 3d 08 33 24 bd
       -0.1264987 -0.12954369 0.06536126 -0.04008773
0001b0 70 8f 04 3d 2e aa 35 be 8c 00 e7 3d 84 de 7a be
       0.032363355 -0.177407 0.11279401 -0.24498945
0001c0 ac d8 78 be e0 83 86 bd bc 89 33 be f2 87 1c 3e
       -0.24301404 -0.06568122 -0.1753301 0.15286234
0001d0 c0 77 ba 3b 74 2f fa bd 18 6e 32 3d 20 3d 43 3e
       0.005690545 -0.12216082 0.043562025 0.19066286
0001e0 e8 2d 76 3d a6 33 35 be 10 62 c3 bd 44 c6 dc 3d
       0.060102373 -0.17695484 -0.09540188 0.10780004
0001f0 cc 19 16 3e 90 91 09 bd bc 07 a9 3d 60 68 15 bd
       0.14658278 -0.033586085 0.08253428 -0.036476493
000200 e4 57 62 3e 59 dc f8 bd c0 22 03 be d0 db 86 bc
       0.2210384 -0.12151403 -0.12806225 -0.016462237
000210 d6 14 5e be c0 a9 19 bd e2 40 70 3e 34 5d a5 3e
       -0.21687636 -0.0375154 0.23462251 0.3229767
000220 b0 12 9e 3e db bd 71 3e a0 32 05 be 5a 2c 48 3e
       0.30873632 0.2360758 -0.13007593 0.19548169
000230 fe 4b 36 3e 43 c5 6e 3e d0 fd 29 3e da 23 7a 3e
       0.17802426 0.23317437 0.16600728 0.24427739
000240 90 cf 3c bd fb 01 a1 3e 66 f1 2b be 80 0b 2c be
       -0.046096385 0.31446823 -0.16791305 -0.16801262
000250 72 8b 76 3e 08 35 db bd 00 5d db bc a1 56 65 3d
       0.24076632 -0.10703474 -0.026777744 0.05599082
000260 68 2e 89 3e 36 48 29 be 40 f5 a3 3e b0 db e8 3c
       0.26793218 -0.16531453 0.32023048 0.028425068
000270 af bc f4 bd 28 08 aa bd 40 8b 5e bd 72 a2 70 3e
       -0.11950051 -0.08302337 -0.054332018 0.23499468
000280 b4 24 a5 bd 23 60 c8 3d 88 b9 25 3e 3e 82 14 3e
       -0.08063641 0.097839616 0.16184056 0.14502808
000290 d0 db 28 be 4e ca 34 3e 00 58 a0 3d 97 bc 5b be
       -0.16490102 0.17655298 0.07829285 -0.2145866
0002a0 a3 8a 10 be b6 e8 dc bd 74 8b 43 3d 60 01 8b bc
       -0.14115386 -0.107865736 0.047740415 -0.01696843
0002b0 0f 71 00 3e e8 fe 49 3e 00 9a 9e bd 9a 5c 50 3e
       0.12543128 0.19726145 -0.07744217 0.20347825
0002c0 c6 59 32 be 80 df ce 3c 4a 13 5e be 80 97 7a 3b
       -0.17417058 0.025253057 -0.21687046 0.0038237274
0002d0 7e 78 70 3e 50 f0 80 bd 32 f3 68 be 94 43 90 bb
       0.23483464 -0.06295836 -0.22749022 -0.004402587
0002e0 82 b6 cb 3d a6 f1 20 3d 67 c1 53 3d b6 44 52 3e
       0.0994692 0.039292954 0.051698115 0.20534024
0002f0 fb 5d a0 bd 42 7a af be f0 d7 e5 3c b2 34 28 3e
       -0.07830425 -0.34272963 0.028057069 0.16426352
000300 00 35 32 bb 09 cf 97 3e 8c 9c 8c 3d 70 37 ff 3d
       -0.0027192235 0.29650143 0.068657964 0.12461746
000310 28 3f 5c 3e c0 fc 0d 3d c0 25 45 bd 90 b2 40 3e
       0.21508467 0.03466487 -0.048131704 0.18818116
000320 7c c8 30 be 49 af b3 3b 1c 7d 77 3d 68 5c 39 3e
       -0.17263979 0.005483542 0.060422048 0.18101656
000330 64 38 a2 3d 0a 0f 05 3e 38 80 18 3e 60 65 e6 3d
       0.07920912 0.12994018 0.14892662 0.112498045
000340 e4 67 43 be 08 9b 32 3d bc a2 d4 3d f4 5d f3 3d
       -0.190826 0.04360488 0.103826016 0.118831545
000350 a0 63 12 3e cc 2d b9 3d 7a 5f 73 3e 00 49 f6 bb
       0.14295816 0.09041938 0.2376689 -0.0075160265
000360 a0 bd 52 3c 28 cd 6e bd 40 fe 8e bd 92 2e 49 3e
       0.012862593 -0.05830112 -0.06982088 0.19646671
000370 88 11 1a be 00 b9 10 3b 30 9a 6c 3e 98 1e 30 bd
       -0.1504575 0.0022082925 0.23105693 -0.042997926
000380 74 a5 d5 bd 70 4c 65 be a2 ef 6b be d4 29 4e be
       -0.10431948 -0.2239244 -0.23040631 -0.20133144
000390 b8 94 51 3e c0 3e 79 3e 2e 9a 0a be 9e dd 1e be
       0.20466888 0.24340343 -0.13535377 -0.15514228
0003a0 c6 ec 4b be fe a1 1d be ce 01 24 be ec a4 a3 bd
       -0.1991454 -0.15393826 -0.16016313 -0.07990441
0003b0 c6 aa 01 3e 68 ee d5 3d 96 b1 19 be 00 81 d1 3b
       0.12662801 0.10445863 -0.1500915 0.006393552
0003c0 3e 6e 51 be 8d dd 61 3e e0 f2 d3 3c 92 39 75 be
       -0.2045221 0.22057171 0.025872648 -0.23947743
0003d0 3e ab 06 be 90 42 ed bc f8 45 c1 3d 61 1d 30 3e
       -0.13151261 -0.028962404 0.094371736 0.17198707
0003e0 6c c3 38 3e 8c e6 16 3e fd 0e ba bc 3a ca 56 3e
       0.18043298 0.14736384 -0.022712225 0.20975581
0003f0 09 43 ce bd 3e d0 a0 3c 30 3d 5a 3d 06 bd 41 3e
       -0.1007138 0.019630548 0.05328101 0.18919763

hedge_qs.0.linear_relu_stack.2.bias f4 [16]
000000 28 15 ed bd 90 b2 98 bc 0c 35 bc bd 42 98 35 be
       -0.11576301 -0.018639833 -0.091898054 -0.17733863
000010 fa 64 10 3e 54 8b b6 3d 80 09 0c 3b d8 c0 32 3d
       0.1410102 0.089132935 0.0021367967 0.04364094
000020 40 4a 85 3e e3 c5 3c 3e 5b bb c4 3d 4c 11 16 3e
       0.2603321 0.18434863 0.09606048 0.14655036
000030 c6 8b 53 3e 48 00 9f 3d 7a 28 5e 3e 67 15 28 3e
       0.20658788 0.077637255 0.21695128 0.16414414

hedge_qs.0.linear_relu_stack.4.weight f4 [16, 16]
000000 42 4c 1e be be b7 4e 3e 00 f2 83 3a 49 50 26 3e
       -0.15458778 0.2018728 0.0010066628 0.16241564
000010 ac 53 f3 bd b3 39 42 3d 50 93 a4 3d 4e 7f 55 be
       -0.118811935 0.047418308 0.0803591 -0.20849344
000020 b8 37 6a be f6 83 1b be 2e 6b 2c be e1 88 48 3e
       -0.22872818 -0.15187058 -0.16837761 0.19583465
000030 fa 0a 1c 3d ea e9 23 be 00 fe 0f bb 7f d2 12 bb
       0.038096406 -0.160072 -0.0021971464 -0.0022403297
000040 40 2a 77 3e 08 c5 7f 3d 90 64 fc bd 52 7d 0c be
       0.24137211 0.062443763 -0.12323868 -0.13719681
000050 00 ad 51 3d f0 44 75 be 98 4f ff 3d 18 54 56 be
       0.051190376 -0.23952079 0.12466353 -0.20930517
000060 4a 1e 42 be 30 85 9a 3c ae 78 5c 3e 20 02 25 3d
       -0.18956867 0.018862337 0.2153041 0.04028523
000070 aa 4e 34 be 68 15 69 3d e2 0b 48 be 8c 53 ac bd
       -0.17608133 0.05690518 -0.19535783 -0.08414373
000080 84 5f 34 3e fe ee 28 be 80 5a 42 3c 18 27 50 bd
       0.17614561 -0.16497418 0.011862397 -0.050818533
000090 a4 ef f6 3d f6 e5 2c 3e e4 35 c8 bd 30 da 26 bd
       0.120574266 0.16884598 -0.09775904 -0.040735424
0000a0 cc 61 2a be 40 b2 2f bd 00 b5 46 3c de 42 6a 3e
       -0.16638869 -0.0428946 0.012128115 0.2287707
0000b0 68 96 1d bd 50 1a bc bc 68 f7 cb 3d b0 f6 32 be
       -0.038473517 -0.022961766 0.09959298 -0.17476916
0000c0 94 4b d9 bd c6 fe 6d 3e 64 31 89 3d 80 ad 02 3d
       -0.106101185 0.2324172 0.06698874 0.031903744
0000d0 30 cd 36 bd 8a 3f 67 be e0 a5 80 3d 34 75 06 be
       -0.044629276 -0.22582832 0.06281638 -0.13130647
0000e0 24 1f 9a 3d b0 97 30 bd 04 c7 cb 3d 70 77 88 bc
       0.07525471 -0.04311341 0.099500686 -0.016658515
0000f0 80 ea 25 3d 78 fa c8 bd dc 5a 7a 3e cc d2 ba 3d
       0.04050684 -0.09813398 0.24448723 0.091222376
000100 a0 ac 24 bc 50 b2 ca bd 04 21 5b 3e a8 84 c5 3d
       -0.010050923 -0.09897292 0.21399313 0.09644443
000110 7a 09 04 be 8e 6f 50 3e aa 26 3c 3e fa 62 77 3e
       -0.1289424 0.20355055 0.18374124 0.2415885
000120 20 e8 5b 3c 70 c9 ab 3d ea 03 6c 3e 26 ec 5a be
       0.013422042 0.083880305 0.23048368 -0.21379146
000130 b0 e6 79 be 92 cd 58 be f0 90 ee 3c 38 a0 c9 3d
       -0.24404407 -0.21172169 0.029121846 0.098450124
000140 9c 78 3e be 9c cd 19 be c0 cd f5 3c fc a5 33 bd
       -0.18600696 -0.1501984 0.030005336 -0.043859467
000150 48 0b 30 be 52 7f a4 3d d0 35 18 3e be 0d 0e 3e
       -0.17191803 0.08032097 0.14864278 0.1387243
000160 c2 a7 8c bd af 7e 5a 3e b7 de 4b be c5 f2 e4 3d
       -0.06867935 0.21337388 -0.19909178 0.11179117
000170 fa b3 b5 bd 60 4a fb 3d 1c 7a 1d 3e 20 1c f9 bd
       -0.088722184 0.12270045 0.15378612 -0.121635675
000180 a0 ca 5b bc 30 86 ea 3c 80 1a 99 bb 50 eb 52 3e
       -0.013415009 0.028628439 -0.0046723485 0.20597577
000190 f4 6e f1 bd 88 17 e9 3d a6 a9 58 3e a0 de 3f bc
       -0.11788741 0.11381441 0.21158466 -0.011710793
0001a0 e4 5b 66 3e 08 62 16 be de 7c 24 3e 0e 47 1a be
       0.22495991 -0.14685833 0.16063258 -0.15066168
0001b0 22 4b 67 be 62 ef 6e be 1a cb 36 3e c0 ab 12 be
       -0.22587255 -0.23333505 0.17850915 -0.1432333
0001c0 ec e6 a3 3d c8 90 79 3d 04 2a 33 be 3d 98 b2 3c
       0.08003029 0.06092909 -0.17496496 0.021801108
0001d0 34 86 68 3e 13 84 97 3e 48 b8 c4 3d 6c 75 56 3e
       0.22707444 0.29592952 0.09605461 0.2094323
0001e0 79 0a 54 3e ca a9 ad 3d 26 c3 e5 bd 47 b0 45 bd
       0.2070712 0.0847965 -0.11218862 -0.048263814
0001f0 9b 5a 9d 3e a4 f4 0e 3e 1c 13 a1 bd 18 d0 23 b7
       0.3073319 0.1396051 -0.07864973 -9.764008e-06
000200 e4 57 8b bd ec 22 dc bd 64 58 95 bd c6 cd 1f be
       -0.06803873 -0.10748848 -0.0729225 -0.1560584
000210 84 28 fa bd 80 9c 1a be 24 a3 09 be ee ae 17 3e
       -0.12214759 -0.15098763 -0.1344114 0.14812824
000220 44 1e aa bd 08 32 29 3d fe 7c 4a 3e bc e2 f6 bd
       -0.08306554 0.04130748 0.19774243 -0.12054965
000230 c0 bb 9c 3c d6 aa 32 be 5c 26 b7 bd b8 dc 6f be
       0.019132495 -0.17447981 -0.08942863 -0.23424041
000240 00 40 10 bd 90 7d bf 3c ce a8 7d 3e 21 9f 54 be
       -0.035217285 0.023375303 0.24771425 -0.20763828
000250 dc a2 c5 bd 10 7a db 3d ac 2c 52 be 42 e5 44 3e
       -0.096502036 0.10716641 -0.20524853 0.1922808
000260 1d 90 0c 3e df 39 7c be 5a 16 ec bd 7f cf d6 bd
       0.1372685 -0.24631451 -0.11527701 -0.104887955
000270 f5 f5 64 be fa db 18 be 94 96 bf bd a6 89 c2 bc
       -0.2235945 -0.14927664 -0.093548924 -0.023747277
000280 f6 bb 28 be 7a c4 6c be 08 52 21 3e 7c 17 44 be
       -0.16477951 -0.23121825 0.15753949 -0.19149584
000290 f0 8e 14 3e 18 ae dd 3d d0 1d 36 bd e0 32 47 3d
       0.14507651 0.108242214 -0.044462025 0.048632503
0002a0 b0 02 d1 3c c8 9f b3 bd c0 50 51 bc 72 31 4f 3e
       0.025513977 -0.0877071 -0.0127756 0.20233706
0002b0 40 5b ee 3c 40 be f9 bd 16 01 25 3e a0 f2 56 be
       0.029096246 -0.121944904 0.16113696 -0.20990992
0002c0 90 bc 59 be f8 16 66 bd 00 5a b2 3c 28 ae 28 bd
       -0.21263337 -0.05617425 0.021771431 -0.041181713
0002d0 f8 8d 6f bd 74 4e 16 be b8 14 47 3e 34 ef 0c be
       -0.058485 -0.14678365 0.19441497 -0.13763124
0002e0 30 16 5a bd 88 f7 72 be fc 88 44 be e0 2e 42 3e
       -0.053243816 -0.23727238 -0.1919288 0.18963194
0002f0 f4 66 f4 bd 30 31 ad 3c aa a8 50 3e 10 ca b1 bc
       -0.11933699 0.021141618 0.2037684 -0.021702796
000300 5c c5 cb 3d de dc 77 3e 34 b1 ed 3d 60 e8 09 bc
       0.09949753 0.24205348 0.116060644 -0.008417219
000310 9c e8 52 be b8 8f 5d 3d 98 dd 11 be ae 14 57 be
       -0.20596546 0.05409214 -0.14244688 -0.21003982
000320 e8 0a 21 be 94 30 45 3e 44 86 e7 3d e0 24 5f 3d
       -0.15726817 0.19256812 0.11304906 0.054478526
000330 f2 ba 64 3e da 44 25 be 08 df b8 3d 62 66 1a be
       0.22336939 -0.16139546 0.09026915 -0.15078118
000340 dc f9 f9 3d 58 00 b2 bd 06 59 32 be 0b 53 09 be
       0.1220586 -0.08691472 -0.17416772 -0.13410585
000350 18 f7 cb bd 56 a2 8c 3d 7e 4a 64 3e 00 e5 c4 3d
       -0.09959239 0.068669006 0.22294042 0.09613991
000360 1e 5a 02 3e b3 67 b8 3d 86 31 2c 3e 81 2c 55 3d
       0.1272969 0.09004154 0.16815767 0.052044395
000370 34 8b 29 bd cc 2b 1a be 00 b8 c7 ba 1b 76 18 3e
       -0.04139252 -0.1505577 -0.0015237331 0.14888804
000380 ca b8 71 be 60 36 d7 3d 70 f6 1f 3d 87 c8 e1 3d
       -0.23605648 0.10508418 0.03905338 0.11024576
000390 08 e0 a7 bd 5f 09 ab 3b a6 e9 60 3e f0 1e a2 bc
       -0.081970274 0.005219623 0.2196413 -0.019790143
0003a0 16 29 4b be 08 27 dd bd 5c 17 3a 3d d3 8d 5c 3e
       -0.19839892 -0.1079846 0.045432433 0.21538477
0003b0 09 2a db bd 08 32 f2 3d c0 1d 04 3d 42 2f 7a be
       -0.10701377 0.11825949 0.032254934 -0.2443209
0003c0 40 5f 48 3e 00 cf a9 3c c8 45 7b bd a0 72 85 bc
       0.19567585 0.020728588 -0.061345845 -0.016290009
0003d0 28 c0 0a 3d d0 64 a6 bc 48 b3 46 3e 58 39 63 3d
       0.03387466 -0.020311743 0.19404328 0.05547461
0003e0 de 1c 44 be a0 60 6c 3d c4 bc f3 3d 74 62 2c be
       -0.19151637 0.057709336 0.119012386 -0.16834432
0003f0 b0 9d 42 3d 10 51 af 3d c0 6a fc 3c b4 c1 c9 3d
       0.047513664 0.08560383 0.030812621 0.09851399

hedge_qs.0.linear_relu_stack.4.bias f4 [16]
000000 4b dd a4 3c 30 d4 bd bd b4 d8 d8 bd 70 02 c6 bc
       0.020125052 -0.09268987 -0.10588208 -0.024171084
000010 c0 16 7a be 0e 12 30 bd b0 b7 6a bd 03 f9 85 3e
       -0.24422741 -0.04298597 -0.057304084 0.26166543
000020 e0 d1 cc bd f5 cc c3 3c 30 15 ae bd 20 2e 20 3c
       -0.10000968 0.023901442 -0.08500135 0.009776622
000030 32 dd 5e be 5f 17 39 3e e9 dc 83 3b 24 51 de bd
       -0.21764067 0.18075322 0.0040241373 -0.1085532

hedge_qs.0.linear_relu_stack.6.weight f4 [1, 16]
000000 28 a5 6e be ec fb e6 bd 74 cf 51 3e 88 db 11 3d
       -0.2330519 -0.11278519 0.20489293 0.035609752
000010 d0 75 dc bd e4 c2 59 be a0 07 56 3c 28 c4 a6 3e
       -0.107646585 -0.21265751 0.013063341 0.3257153
000020 f0 71 bd bc 4f fc 0d be 78 89 1b 3d 44 3d dc 3d
       -0.023125619 -0.1386578 0.037972897 0.10753873
000030 62 ea 67 3e a8 3f 9d 3e 8d a4 b1 bd 00 c2 50 3d
       0.22648004 0.30712628 -0.08673964 0.050966263

hedge_qs.1.linear_relu_stack.0.weight f4 [16, 2]
000000 2a 31 db bd 14 79 18 bf fe f1 92 3e a5 8e fb bd
       -0.10702737 -0.5955975 0.2870025 -0.12283067
000010 f2 e1 56 3e 8e 03 ba 3e f5 1c 43 3f e4 5c cb bd
       0.20984629 0.36330837 0.7621606 -0.09929827
000020 c8 8f a3 be 83 5c 27 3f 25 4f 88 3e cb a4 b4 be
       -0.31945634 0.65375537 0.26622882 -0.35281977
000030 62 62 f2 be 61 97 2a 3d 49 3b 06 bf 0f 44 5f 3d
       -0.47340685 0.041648272 -0.5243421 0.054508265
000040 2d b8 e8 3d 32 d8 98 bd c3 80 ce be 5e 45 18 3f
       0.11363254 -0.07463111 -0.40332612 0.59480846
000050 3d 47 16 bf 49 1d ab 3e 58 fd 17 be 76 d6 db be
       -0.5870245 0.3342078 -0.14842737 -0.42937058
000060 b3 85 04 bf 97 c2 44 3f 9e 65 34 bf 09 ba dd 3e
       -0.5176651 0.7685942 -0.70467556 0.43305996
000070 67 2d fe be d1 61 32 bf 4e 44 88 be 84 fd ff 3e
       -0.49644014 -0.69680506 -0.26614612 0.49998105

hedge_qs.1.linear_relu_stack.0.bias f4 [16]
000000 38 73 f7 be 8a a6 ef be 96 a8 29 bf 6c 4e 9f 3d
       -0.48330092 -0.46806747 -0.66272867 0.0777863
000010 7c cd 8a 3d a2 2d 28 be f7 c0 0a 3f 4c 3b 0e bf
       0.06777474 -0.16423658 0.5420069 -0.5555923
000020 a2 b1 71 be 50 37 1a bf 39 00 a8 be da 54 2d be
       -0.23602918 -0.6024065 -0.3281267 -0.169269
000030 67 62 f9 3e fc 0a 56 be ca a8 3b 3e 07 1f 2b bf
       0.48707888 -0.20902628 0.18326107 -0.6684422

hedge_qs.1.linear_relu_stack.2.weight f4 [16, 16]
000000 b8 13 39 bd 82 6a 69 be a8 f6 32 3d da 4e c5 3e
       -0.04518482 -0.22794536 0.04369226 0.3853672
000010 76 43 1a be e0 21 fd bd 63 94 98 be 4c 6a 12 be
       -0.15064797 -0.12359977 -0.2980071 -0.14298362
000020 a6 56 4f 3e 84 c8 7d 3e 7a ad 2d 3e 54 70 34 3e
       0.20247898 0.24783522 0.16960707 0.17620975
000030 c8 e1 63 be a8 55 e2 bd a0 fb 63 3c 80 37 eb bc
       -0.22254097 -0.11051494 0.013914973 -0.028712988
000040 e2 52 7d 3e dc 16 6f be a0 c0 0a 3e be 7d d4 3e
       0.24738649 -0.23348564 0.13550043 0.41502184
000050 82 aa 01 be a0 71 77 3d 27 cb 7f bd a0 f0 d0 3d
       -0.126627 0.060411096 -0.0624496 0.102021456
000060 74 16 9b bd c2 6c 6f be 78 8f 72 bd cc 66 0c be
       -0.07572642 -0.23381332 -0.059218854 -0.13711089
000070 ea 59 57 bd c0 10 f7 3d 40 fe 98 3c 18 d3 c7 bd
       -0.052575983 0.12063742 0.018675923 -0.0975706
000080 e8 72 d3 3d 36 cb 7f 3e d4 1a 11 3e 34 63 7e 3e
       0.10324651 0.24979863 0.1417039 0.2484253
000090 10 d1 a5 3d b8 b8 dd bd 22 76 38 3e 04 ea 88 3d
       0.08096516 -0.10826248 0.18013814 0.0668526
0000a0 80 df e1 3b 06 08 50 be 02 cb 7b be ee 99 11 3e
       0.0068930984 -0.2031556 -0.2458916 0.14218876
0000b0 bc 43 71 be 80 79 c3 3d de 6d 78 3e 1c 62 dd bd
       -0.23560995 0.09544659 0.24260661 -0.108097285
0000c0 70 00 21 be 00 29 55 3c 50 63 38 3d 0e da 4b 3e
       -0.15722823 0.013010263 0.045016587 0.199074
0000d0 e8 af 2e bd 00 2e 2e bc f0 86 ca bd 34 08 f5 bd
       -0.042648226 -0.010631084 -0.098890185 -0.11964455
0000e0 04 27 e8 3d 48 14 49 bd 58 b1 e7 3d d0 86 53 be
       0.11335567 -0.049091607 0.113131225 -0.20656896
0000f0 34 ae 6f be 60 1d 09 bc b0 79 4b 3e 72 45 53 be
       -0.23406297 -0.00836882 0.19870639 -0.2063196
000100 fc 95 c2 3d dc 8b 16 3e 98 5b 4b 3e 8e db 01 3f
       0.095012635 0.1470179 0.19859159 0.5072564
000110 30 59 ae bd e0 ee 17 3e e2 f4 93 bd 5a fc 54 3e
       -0.08513105 0.14837217 -0.07224442 0.2079939
000120 40 3a 71 bd c0 dc b5 bc 08 32 83 bd c8 80 59 be
       -0.058893442 -0.022199988 -0.06406027 -0.21240532
000130 21 b9 c4 bd 20 09 a6 bd c4 48 85 bd ac 3a 91 3d
       -0.09605623 -0.08107209 -0.065080196 0.07091269
000140 50 4a 62 3d 34 38 e6 3d 84 1e ab bd f4 ee 86 bd
       0.05524665 0.11241189 -0.0835543 -0.065885454
000150 20 b2 a1 bd 7e f3 45 3e 20 a8 57 3d 46 18 6d be
       -0.07895303 0.19331166 0.05265057 -0.23153791
000160 7a 7f 4c 3e e4 e2 49 3e 00 e6 7b 3d 70 53 15 3d
       0.19970503 0.19715458 0.061498642 0.036456525
000170 18 0c f7 bd 64 c9 5f 3e 88 97 2d bd e0 3d 7c be
       -0.120628536 0.21854168 -0.04238084 -0.24632978
000180 58 04 7d 3e c0 9c 4f 3c 08 0f be bd 0d 0d 96 bc
       0.24708688 0.012671649 -0.09280211 -0.01831677
000190 2a 98 72 be b2 ff 62 be 55 7e 88 be a0 5a 7a 3e
       -0.23690858 -0.22167853 -0.26658884 0.24448633
0001a0 ec 9e be 3d 0c e3 84 bd c8 f6 29 3e b0 1b 78 3d
       0.09307656 -0.06488618 0.16598046 0.06057328
0001b0 0a 14 88 be 76 b4 6a be 28 90 29 3d 76 3b 38 be
       -0.2657779 -0.22920403 0.041397244 -0.17991433
0001c0 f0 27 55 3e 70 28 d8 3c a4 cb 48 be d8 b8 69 bd
       0.20816016 0.02638647 -0.19608933 -0.057061046
0001d0 64 86 10 be b8 c8 39 3e 3c c3 b3 3d 00 48 c4 3c
       -0.14113766 0.18142974 0.087774724 0.023960114
0001e0 4c 6b c2 3d 10 31 da bd 76 4f 15 be 00 00 36 bb
       0.094931215 -0.10653889 -0.14581093 -0.0027770996
0001f0 92 61 04 3e 16 69 7e be c4 97 c0 3d 2a f2 72 3e
       0.12927845 -0.24844775 0.09403947 0.23725191
000200 78 a1 61 bd 30 b1 94 3d 30 e3 3f 3e cc 36 87 3e
       -0.05508563 0.07260358 0.18739009 0.26408994
000210 64 30 3a 3e 50 68 b5 3d c1 d2 69 be 5e d2 18 3e
       0.18182522 0.08857787 -0.22834302 0.14923999
000220 7c 76 7f be 80 3e 68 bc f0 0f 8c bc 4c 23 60 be
       -0.24947542 -0.014175057 -0.017097443 -0.21888465
000230 a6 66 95 be 80 4f 17 3e 7c 89 8f 3d 48 ff 68 3e
       -0.29179877 0.1477642 0.07008645 0.22753632
000240 5c 23 78 3e ac aa da bd 08 d2 25 3d 7a 44 2c bf
       0.24232239 -0.10677084 0.040483505 -0.67291987
000250 84 75 f3 bd 0e 86 79 be 3d 38 97 3e d6 55 40 3e
       -0.11887649 -0.24367544 0.29535094 0.18782744
000260 92 63 08 3e 30 9e cd 3d 68 19 2e 3d 6e ca 44 be
       0.13319233 0.100399375 0.042504698 -0.19217846
000270 41 91 9d 3e e8 ee a0 3d 9c b2 ef 3d 20 32 10 bd
       0.30774882 0.07858068 0.11703989 -0.035204053
000280 4e 21 06 3e 6a f9 26 be 84 0f 62 be d5 b6 44 3e
       0.13098642 -0.16306081 -0.22076231 0.1921037
000290 00 17 66 bc c8 f9 7b 3d 16 f2 65 bb 14 3d b0 3d
       -0.01404357 0.061517507 -0.0035086921 0.086054
0002a0 d4 c7 5d 3e d0 85 3f 3d 7c 0a c4 bd 7c 0b 02 3e
       0.2165826 0.046758473 -0.09572312 0.12699693
0002b0 51 1f 72 be 98 b9 3c 3d 64 3f 33 be aa f1 34 3e
       -0.23644759 0.046075433 -0.1750465 0.17670313
0002c0 08 09 f7 3d f8 ad 61 bd 70 f7 bb 3c 86 11 c2 3d
       0.120622694 -0.05509755 0.022945136 0.094759986
0002d0 24 5c 1b be b0 77 8b 3d f6 71 83 bc d8 76 ff 3d
       -0.15171868 0.06809938 -0.016045552 0.124738395
0002e0 64 ac 9f bd 00 03 f0 bc bc 9f a2 bd 60 e0 7c be
       -0.07796553 -0.029298306 -0.07940623 -0.24694967
0002f0 7c fd df 3d 1e e9 29 be a0 2d 28 3e 24 d6 6d 3e
       0.1093702 -0.16592833 0.16423655 0.2322622
000300 f0 d6 1f 3d c8 6e 41 be 5c 3d 5b 3e 60 3b 14 bd
       0.03902334 -0.18889916 0.21410125 -0.036189437
000310 6a 99 22 3e 04 1a 3d 3e a8 02 42 3d c2 66 01 3e
       0.15878835 0.18466955 0.047365814 0.12636855
000320 00 b6 07 3a ce af 18 be ee 74 75 3e c6 17 1a 3e
       0.00051769614 -0.14910814 0.23970386 0.15048131
000330 f8 16 1e 3d 80 25 c7 bb c0 5b 39 3e 98 1b 1d be
       0.038596123 -0.0060774684 0.18101406 -0.15342557
000340 a2 02 40 be 3c 3e 6c 3e 4a 63 69 3e 41 d7 d6 bc
       -0.18751004 0.23070616 0.22791782 -0.026225688
000350 60 d6 97 3c e2 0a 14 3e 1d 49 53 be ae c2 6b be
       0.01853484 0.14457276 -0.20633359 -0.23023483
000360 6c 05 cc 3d 28 19 2a bd 88 e2 19 3e b8 cb b3 bd
       0.09961972 -0.041527897 0.15027821 -0.08779091
000370 ef 8d 33 3c 9c ef 95 bd 9a f2 58 3e 36 40 06 be
       0.010959133 -0.073210925 0.21186295 -0.13110432
000380 20 96 28 bc 4c 03 c5 3d ec af a1 3d 5c a0 8f 3d
       -0.010289699 0.096197695 0.078948826 0.07013008
000390 7c f7 a0 3d f8 3b 51 bd 7c d5 0c be fc 9d 78 3e
       0.07859704 -0.05108258 -0.13753313 0.24279016
0003a0 38 74 c8 3d 00 9e fd bb 76 1c 63 be 9c 37 cc bd
       0.09787792 -0.0077397823 -0.22178826 -0.09971544
0003b0 00 92 49 3d 88 bf 05 be e8 4d 49 3e c0 19 72 3c
       0.049211502 -0.13061345 0.19658625 0.014776647
0003c0 dc 2e ec bd a0 92 22 3c 98 4d b8 bd 47 22 42 3e
       -0.11532375 0.009922653 -0.08999175 0.18958388
0003d0 40 99 0c bd 00 ae 54 ba 6f 5d 9d be 96 aa 62 be
       -0.034325838 -0.0008113086 -0.30735347 -0.22135386
0003e0 5c 2f c7 bd c4 c2 39 3e 10 f1 7d 3d a2 8e 32 3e
       -0.0972583 0.18140703 0.061997473 0.17437223
0003f0 ad 21 41 be ca 2f 36 be c0 36 ce 3c 2c 93 89 bd
       -0.18860503 -0.17791668 0.025172591 -0.06717524

hedge_qs.1.linear_relu_stack.2.bias f4 [16]
000000 d4 b4 db bc cb 75 5d 3e 88 c5 26 be 5c e4 d9 bd
       -0.026819624 0.21626966 -0.1628629 -0.10639259
000010 3a 5d 9e b9 0c d5 6c be bb dd c2 3d 04 5c b3 bd
       -0.00030205568 -0.23128146 0.09514948 -0.08757785
000020 87 4e 6b 3e 6f d2 2e 3e 91 5c 31 bd 37 af e3 bd
       0.22979175 0.17072462 -0.04330117 -0.11117404
000030 68 05 80 bd ce 63 32 3d c4 e2 73 be 7e 95 8b 3d
       -0.06251031 0.043552212 -0.23816973 0.06815623

hedge_qs.1.linear_relu_stack.4.weight f4 [16, 16]
000000 98 14 1e be 10 85 d4 bc 62 1b 24 3e 3c 23 9f 3d
       -0.15437543 -0.025942355 0.1602607 0.07770392
000010 10 ec 74 be c8 b4 ba 3d 40 78 0e 3c 54 40 7c 3e
       -0.23918176 0.091165125 0.008695662 0.24633914
000020 28 3a 0d bd 48 5e 59 3e 40 0a 08 be 10 9f f8 3c
       -0.03447929 0.21227372 -0.1328516 0.030349284
000030 48 13 3f bd c8 e7 10 3e dc 37 50 3e f4 d2 a3 3d
       -0.046649247 0.14150918 0.20333809 0.079992205
000040 ef 73 04 3e 29 0f 11 3e ae 97 32 be b4 d8 e8 3d
       0.1293485 0.1416594 -0.17440674 0.11369458
000050 ad 60 20 3e 0a a3 3b 3e fa 09 18 be 98 3a 5a 3d
       0.15661879 0.18323913 -0.14847556 0.053278536
000060 0c a9 18 bc 9c cf 8a be d0 e3 33 be e6 f8 56 3e
       -0.009317648 -0.27111518 -0.17567372 0.20993385
000070 84 33 c8 3d 08 e9 99 bd 96 74 6c be 46 3c 77 bd
       0.09775451 -0.0751515 -0.23091349 -0.060360216
000080 b0 3b 1a 3e 98 da 5e bd f2 5a 4b be c0 19 7d be
       0.15061831 -0.054407686 -0.19858912 -0.24716854
000090 18 94 b9 bd 20 f1 ef bc c6 76 07 3e c8 2d e3 3d
       -0.0906145 -0.029289782 0.13228902 0.110927165
0000a0 00 f6 c8 3b 10 a7 1a 3e 30 2f 33 3e 38 10 7b bd
       0.006132841 0.15102792 0.1749847 -0.061294764
0000b0 66 51 2d 3e 30 91 f5 3d 40 62 66 bc a8 23 c1 3d
       0.16925582 0.11990583 -0.014061511 0.09430629
0000c0 1a e2 7c be d0 fd 9f bc e0 16 28 be d2 eb 69 3e
       -0.24695626 -0.019530207 -0.16414976 0.22843865
0000d0 34 07 24 be 9a 3c 3b 3e fc 53 c5 3d 64 4d a7 bd
       -0.16018373 0.18284836 0.096351594 -0.08169058
0000e0 a4 b2 80 bd 68 5b bd 3d 80 c9 11 bb b0 e9 59 bd
       -0.06284073 0.0924595 -0.0022245347 -0.053201377
0000f0 42 49 01 3e e0 f3 40 3e 12 a8 68 be e0 dd 0f be
       0.12625602 0.18843031 -0.22720364 -0.14049482
000100 b2 02 e8 3f 3b b7 3d 3e 34 ab 21 be c4 a1 61 3e
       1.8125823 0.18526928 -0.15787965 0.22034365
000110 60 76 ff 3c 16 8e 7f be db 7a 45 be b0 f0 2e be
       0.031184375 -0.24956545 -0.19285147 -0.17084002
000120 46 fa 6d 3e 22 6e 49 bf 92 8b 6e bd 4f 0d 48 be
       0.23240003 -0.78683674 -0.058238573 -0.19536327
000130 88 74 d8 3d 42 51 36 3e 8a 9e 0a 3e 03 c5 ec 3e
       0.105691016 0.17804435 0.1353704 0.46244058
000140 f2 37 04 3e 8e 8b 0c 3d 28 b1 06 3e ca 6d 51 be
       0.12911966 0.034312777 0.13153517 -0.20452037
000150 8a 67 be 3d 00 92 99 bb a0 96 21 be c0 f7 b7 bb
       0.09297092 -0.004686594 -0.15780115 -0.005614251
000160 42 7d e1 3d 89 22 97 3d 70 2d e8 bd b8 f7 35 bd
       0.11010219 0.07379634 -0.113367915 -0.044425696
000170 b6 a4 72 be 3d 4e 57 3e 24 d6 33 3e 27 2a 57 be
       -0.23695645 0.2102594 0.17562157 -0.21012174
000180 81 05 0b 40 50 59 1d 3e c2 22 11 3e bc be 52 be
       2.172211 0.15366101 0.14173415 -0.20580572
000190 5c 6e c9 3e 48 f3 07 be e1 b6 5b be 36 99 3c be
       0.3934201 -0.13276398 -0.21456482 -0.1841782
0001a0 78 b9 3a 3d a4 99 12 c0 44 3d 29 be ce 73 56 3e
       0.045587033 -2.2906275 -0.16527277 0.20942613
0001b0 d0 b0 74 bd c4 ac 17 3e 4a 99 07 be a4 75 04 3f
       -0.059738934 0.14811999 -0.13242069 0.51742005
0001c0 28 6c 06 c0 5a 84 bc 3b 30 65 b6 3d c8 b7 5a be
       -2.1003513 0.005753082 0.08906019 -0.2135917
0001d0 6b 8a 84 be c0 c3 95 3c 90 ea 06 3e 3e 6a 46 3e
       -0.25886855 0.018281817 0.13175416 0.19376466
0001e0 50 2f aa bd ba de 91 3f 18 04 2e be a9 ed 44 bc
       -0.083098054 1.1396096 -0.16993749 -0.012019553
0001f0 62 02 13 be 8d ed c9 bc a8 8b cc 3d 44 8c be be
       -0.14356378 -0.024649406 0.09987575 -0.3721639
000200 e6 ce 73 3e 4e af 00 3e 58 e7 c4 bd 68 ba 54 be
       0.23809394 0.12566873 -0.09614438 -0.20774233
000210 a4 82 ef bd 20 2f a9 bc 70 d4 6f 3d d8 51 27 bd
       -0.116948396 -0.020652354 0.058552206 -0.040849537
000220 28 49 3e bd 24 ca a3 bd 38 e7 34 3e 3c 4a 38 3e
       -0.046456486 -0.0799754 0.17666328 0.17997068
000230 f0 10 81 bd 5c b1 be bd f8 6f f2 3d 6c 38 b9 bd
       -0.06302059 -0.09311172 0.118377626 -0.09043965
000240 e6 d9 d1 3f f2 4c 73 3e be 37 35 be e8 01 f8 3d
       1.6394622 0.23759821 -0.17697045 0.121097386
000250 48 dd 1b 3e c6 1a 62 be 46 28 3c 3d a8 2a 56 3d
       0.15221131 -0.22080526 0.045936845 0.052286774
000260 4a a0 ac 3e 8c e0 91 bf d7 65 60 3e 7f bf b9 3d
       0.3371604 -1.1396651 0.21913849 0.09069728
000270 74 85 14 be 68 d5 84 3d 60 f7 c0 3d 35 af d4 3e
       -0.14504033 0.064860165 0.09422183 0.41539922
000280 a0 da 10 3d 48 63 53 be 8e e4 5b 3e b2 1a 6a be
       0.035364747 -0.20643342 0.21473905 -0.22861746
000290 42 a7 68 be 60 fd 98 3c 68 06 5b be e2 c1 71 3e
       -0.22720054 0.018675506 -0.21389163 0.23609117
0002a0 30 57 11 bd c0 19 50 3c d0 66 83 bd 10 44 08 3e
       -0.03548354 0.012701452 -0.06416094 0.13307214
0002b0 10 a7 1d 3d a8 6a 01 bd 7c d4 2f be 4c 41 79 be
       0.0384894 -0.031595856 -0.171709 -0.24341315
0002c0 80 d6 66 3d 9e 8c b0 bd ba fb 1c be 38 e2 9b bd
       0.056356907 -0.086205706 -0.15330401 -0.07611507
0002d0 52 6b 1a be f0 0c 5f be 80 8a 6a bc 5c f8 e1 bd
       -0.15080002 -0.21782279 -0.014315248 -0.11033699
0002e0 b0 e4 e9 bc 63 14 a4 bd 7a 77 77 3e 48 69 95 3d
       -0.02855143 -0.08011701 0.2416667 0.072954714
0002f0 c0 ed e0 bd 04 17 22 be 14 2f 3b 3e 8a 9e 72 be
       -0.10982847 -0.15829092 0.18279678 -0.2369329
000300 20 df 25 be 69 39 1d 3e 6e 47 2a be 5c cb 49 be
       -0.16198397 0.15353931 -0.16628811 -0.19706482
000310 c2 93 f4 3d c6 00 4a 3e c2 25 00 be 8a d1 0f 3e
       0.11942245 0.19726858 -0.12514403 0.14044777
000320 e1 94 d9 bd c9 b5 63 be f4 2c a7 bd 2c 16 95 3d
       -0.106240995 -0.22237314 -0.08162871 0.072796196
000330 b4 c6 43 3e ba 25 4b 3e c4 5c ae bd ff e0 ea 3d
       0.19118768 0.1983861 -0.085137874 0.11468696
000340 10 e4 91 3c 80 02 8c bd f4 c4 d1 3d 4a f2 63 be
       0.017808944 -0.06836414 0.10242644 -0.22260395
000350 b2 0b 43 3e 70 e0 40 3d de 7b 31 be 1e 8e 16 3e
       0.1904743 0.04708904 -0.17332408 0.14702651
000360 50 92 84 3c 58 f6 4d 3e ba b6 29 be 68 5e 60 3e
       0.016183048 0.20113504 -0.16573611 0.21911013
000370 70 d3 7b be a8 9e 63 bd 84 b8 d1 3d 40 0d 58 3d
       -0.24592376 -0.05557123 0.10240272 0.05274701
000380 cb f7 cf 3f f2 47 55 3e 94 91 0a 3e 40 cf 53 bd
       1.6247495 0.20828226 0.13532096 -0.05171132
000390 ef 58 3c 3d c6 c5 0c be 82 60 2f be 08 60 f1 3d
       0.04598325 -0.1374732 -0.17126659 0.11785895
0003a0 91 d0 b2 3b c5 6e 4b bf 9f af 14 be f1 a0 47 be
       0.005456992 -0.79465896 -0.14520119 -0.19494988
0003b0 92 4b 63 be d0 20 e7 3d e0 e7 31 bc 05 95 49 3e
       -0.22196797 0.11285555 -0.010858506 0.19685753
0003c0 86 4a c4 3f 24 c5 45 bd 30 bb 91 bd 10 a6 88 3d
       1.5335243 -0.04828371 -0.07115781 0.06672299
0003d0 a3 e7 b5 3e 04 43 ea 3d 7c 73 1f be 22 3f 4c be
       0.35528287 0.114385635 -0.15571398 -0.19945958
0003e0 26 74 8b 3e 50 6e 85 bf bf 95 33 be dc 02 ff bc
       0.27237052 -1.042429 -0.17537592 -0.031129293
0003f0 76 66 37 3e 80 0f 3f be 50 9a 44 3d 93 dd 04 3e
       0.1791018 -0.18658257 0.047998726 0.12975149

hedge_qs.1.linear_relu_stack.4.bias f4 [16]
000000 68 6b 22 be 4b 54 bf bd 70 d1 6d be 8e 4f 19 be
       -0.15861285 -0.093422495 -0.23224425 -0.14971754
000010 5a d2 1b 3d aa 9a 9b bd ef af 8f bd fd 55 6e 3e
       0.038042404 -0.07597859 -0.070159785 0.2327499
000020 c8 76 3c bd 27 62 23 3e c8 68 c2 bd bd 2e 61 3d
       -0.046011716 0.15955411 -0.09492642 0.054976214
000030 ef 8f 9d bd 24 35 35 be f7 79 e6 3d a2 57 5e 3e
       -0.07693469 -0.17696053 0.11253732 0.21713117

hedge_qs.1.linear_relu_stack.6.weight f4 [1, 16]
000000 68 6c 73 3d 78 72 46 ba 90 83 46 be c8 83 d6 3d
       0.059429556 -0.0007570158 -0.19386125 0.10474354
000010 e2 d0 35 3e fb 9f 80 3c 23 b0 1e 40 a3 ac a4 be
       0.17755464 0.015701285 2.4795005 -0.3216296
000020 2a 80 7f 3e f3 d9 99 3e 20 34 b1 3d dd 92 02 3e
       0.24951234 0.30049095 0.0865252 0.12751336
000030 db 1f 91 bd b4 30 1c 3e 5d 9f 71 3e f6 e3 9e 3e
       -0.07086154 0.15252954 0.23595949 0.31033295

hedge_qs.2.linear_relu_stack.0.weight f4 [16, 2]
000000 82 5c 9e be b7 93 a7 be 58 90 51 be b1 52 1f 3e
       -0.30929953 -0.32729885 -0.20465219 0.15558888
000010 cd a4 1d bf 33 78 28 3f 6e 51 91 be f1 ae fc 3d
       -0.6157959 0.6580841 -0.28382438 0.12338055
000020 08 09 5f 3f ed 77 84 be 4b af 87 be 0a f9 3f 3d
       0.87123156 -0.25872746 -0.26500925 0.04686836
000030 ee b4 c0 be 10 03 e3 be f0 ae a3 be 5a e3 3a 3e
       -0.37638038 -0.44338274 -0.31969404 0.1825079
000040 ae fd 1b 3e 49 f4 a4 bd b2 29 0c 3f c7 af fd be
       0.1523349 -0.08054406 0.5475112 -0.4954817
000050 b4 03 20 3f 0c 07 87 3e 41 71 13 3f f2 92 1d bf
       0.6250565 0.26372564 0.57594687 -0.61552346
000060 78 57 a2 be 29 26 30 bf ee 16 32 bf ba 23 a1 3c
       -0.31707358 -0.6880823 -0.6956624 0.019670356
000070 79 45 13 be e3 65 27 bf 56 61 a3 bd b8 e1 9a 3e
       -0.1438197 -0.6538984 -0.0797755 0.30250335

hedge_qs.2.linear_relu_stack.0.bias f4 [16]
000000 3a ad a7 bd d9 01 e5 be 95 2a a5 3e 6e 8a 19 3f
       -0.08187337 -0.44727972 0.3225905 0.5997685
000010 2b 91 65 be 3d 06 9e 3e bb e1 f3 3e d0 df 2e be
       -0.22418658 0.30864134 0.47633156 -0.17077565
000020 b1 a2 9b be df ab f0 be 23 bd d6 3d 43 cc f7 be
       -0.3039756 -0.47006127 0.10485294 -0.48398027
000030 4d b1 83 3e 7e 14 89 be b1 3f 4d 3b 86 78 e4 3e
       0.25721207 -0.26773447 0.003131848 0.44623202

hedge_qs.2.linear_relu_stack.2.weight f4 [16, 16]
000000 58 6d 69 be 84 cd 79 3e b4 99 0b c0 a4 a0 22 be
       -0.22795618 0.24394804 -2.1812563 -0.15881592
000010 1c 2a 0e 3f 12 44 47 3d 74 fd 6a bb 00 c8 1e 3c
       0.55533004 0.0486489 -0.0035856636 0.009691238
000020 68 1e 7c 3e 74 0b a8 3d bd b2 96 3d d0 40 ed 3c
       0.24620974 0.082053095 0.0735831 0.02896157
000030 64 60 d0 3d f4 b0 bd bd 20 38 c0 bc b2 08 19 3e
       0.10174635 -0.09262267 -0.023464262 0.14944723
000040 ce 0d 48 3e e8 ff fe 3d ea c6 61 3e 60 c0 c7 bd
       0.19536516 0.12451154 0.22048536 -0.097534895
000050 fa 45 5f be b0 37 90 bd f0 4b 89 bd b4 97 6e be
       -0.21804038 -0.070418715 -0.06703937 -0.23300058
000060 20 d5 66 bd 86 14 19 be bc 53 fc 3d e8 ef 14 be
       -0.056355596 -0.14949235 0.123206586 -0.14544642
000070 02 ab 6d be fe 63 28 3e 90 de 63 3e d4 92 88 bd
       -0.23209766 0.16444394 0.2225287 -0.0666863
000080 30 53 1f bd d8 77 ea 3d 28 a9 fb be f4 ce 1b 3e
       -0.038897693 0.1144864 -0.49152493 0.15215665
000090 90 d2 6d 3d 23 31 f3 3d f8 85 66 bd 82 11 4f be
       0.058062136 0.118746065 -0.056280106 -0.20221522
0000a0 40 52 fb 3d e4 0a 9a 3d 94 3f 93 be 90 d1 6b 3d
       0.12271547 0.075216085 -0.28759444 0.0575729
0000b0 ea b4 3f be be 73 32 be 60 57 29 3d 32 07 bf bd
       -0.18721357 -0.17426965 0.041343093 -0.09327544
0000c0 94 b1 5f 3e c4 03 d2 bd c0 68 a7 3c c4 f4 89 3d
       0.21845084 -0.102546245 0.02043569 0.067361385
0000d0 e2 82 3a 3e c6 34 5c 3e 0a f6 7e be 1c 66 f9 3d
       0.1821399 0.21504506 -0.24898544 0.12177679
0000e0 60 ad 99 bd e4 68 60 be 92 cd 43 be f8 4d 2b 3e
       -0.07503772 -0.21915013 -0.19121388 0.16728961
0000f0 80 05 8f 3c f8 90 74 be b4 88 27 3e ba 31 42 be
       0.017458677 -0.23883426 0.16360742 -0.18964282
000100 bc e3 95 3d 20 ad d3 3d 4c f5 3f be d0 c0 e1 3d
       0.073188275 0.10335755 -0.18745917 0.11023104
000110 08 5f c1 bd 70 ef 81 3c 14 f4 ac 3d 74 a0 e8 bd
       -0.09441954 0.015861243 0.08444992 -0.11358729
000120 10 c8 a9 3d 04 37 27 3e 12 ea 0e 3e 3c b7 6b be
       0.08290112 0.1632958 0.13956478 -0.23019117
000130 7c 4d c4 3d d4 02 ef bd 10 2a b1 bd 50 df 8f bd
       0.095850915 -0.11670461 -0.08650601 -0.07025015
000140 a6 f5 2f be 1c 88 bd bd 26 fe 1b 3d 46 ec 62 bd
       -0.17183551 -0.092544764 0.03808417 -0.05540111
000150 ae 90 f9 bd 8e a0 72 3c 16 cc 51 3e 36 fb 65 3e
       -0.121857986 0.014808787 0.20488009 0.2245911
000160 98 38 bf 3d f0 98 a1 bd 89 11 15 3d 50 d7 b2 3c
       0.09336966 -0.07890499 0.036393676 0.021831185
000170 c9 e0 0d be 2c af 7e be 88 e1 37 3d 5a ff e1 3d
       -0.1385528 -0.2487151 0.044892818 0.110350326
000180 5c e1 59 be b4 ff 03 3e 3e 20 25 c0 99 97 e1 3d
       -0.21277374 0.12890512 -2.580093 0.11015243
000190 29 74 e1 3e 1d 4b 2e be b2 8f 54 be f0 de a3 3c
       0.44033936 -0.17020841 -0.2075794 0.020003766
0001a0 fe 7e 28 be 00 be 6c bd e3 cb be 3e c4 0e 93 3d
       -0.16454694 -0.057798386 0.37264928 0.07180551
0001b0 66 8f f8 bd 80 40 12 bb bc ec ec 3d 96 9e b7 bd
       -0.12136726 -0.0022316277 0.11568591 -0.08965795
0001c0 c0 a9 bc bc c0 81 f6 3b b6 86 03 c0 83 98 e2 3d
       -0.023030162 0.0075227916 -2.055097 0.110642456
0001d0 79 b7 0e 3f 39 38 ac 3d 9e 88 ab be 84 97 f3 bd
       0.5574871 0.08409161 -0.33502668 -0.11894134
0001e0 54 72 d4 bd c0 bf a1 bd 8d 18 8c 3e 54 5f ac bd
       -0.10373369 -0.078979015 0.2736248 -0.0841662
0001f0 61 1a 0a 3e e2 d0 6a be 9a d7 4d be 35 59 86 bd
       0.13486625 -0.22931245 -0.20101777 -0.06559984
000200 78 6a 3f 3e 28 97 23 3d 40 a9 39 3c e0 c6 4d 3e
       0.18692958 0.039939076 0.011331856 0.20095396
000210 c6 c2 16 be e8 b2 ef 3d d0 fa 6d bd d4 71 cb bd
       -0.14722738 0.117040455 -0.05810052 -0.0993382
000220 dc c5 2e be b8 1a 53 3e f2 f4 6a be 98 1e 72 3d
       -0.17067665 0.20615661 -0.22945002 0.059111208
000230 f6 97 4f 3e f8 63 4c bd b0 dc f9 bc d0 fa 79 bd
       0.20272812 -0.049900025 -0.03050074 -0.06103021
000240 5c 58 78 be 44 72 80 bd 80 66 31 bb 14 1b 90 bd
       -0.24252456 -0.062717944 -0.0027069151 -0.07036415
000250 82 e6 2a be e4 36 a1 bd 06 14 0e 3e 14 38 b4 3d
       -0.16689494 -0.07871798 0.13874826 0.087997586
000260 60 6a 72 bd ec e7 8b bd 68 e9 38 3e 6e f9 14 3e
       -0.05918348 -0.06831345 0.18057787 0.14548275
000270 00 65 47 bc 14 e5 ef bd 58 7a 37 be 2c 99 11 3e
       -0.012170076 -0.11713615 -0.17917764 0.14218587
000280 ce 3f 34 3e cc d8 21 3e 7c 62 02 40 dd da 90 3e
       0.17602465 0.15805358 2.037261 0.2829198
000290 88 74 2b be 46 c3 cf 3d b1 e4 7b 3e 28 de 4c bd
       -0.16743672 0.10144667 0.24598958 -0.050016552
0002a0 80 e6 23 3e 60 fe 45 3c ae be 58 be 60 cb be 3d
       0.16005898 0.0120845735 -0.21166489 0.093161345
0002b0 4b 54 4a bd 6a 81 79 be 56 de 5c 3e 8a 92 28 3e
       -0.049396794 -0.24365774 0.2156919 0.1646215
0002c0 60 87 60 3d e0 25 f0 bc 6c 76 64 3f 94 82 a2 bd
       0.054816604 -0.029314935 0.892432 -0.07935062
0002d0 1b 93 d7 bd 34 71 aa bc b3 08 4c 3e 1c a1 30 be
       -0.10526105 -0.020805933 0.19925193 -0.17248958
0002e0 88 8c 19 be 20 9b b0 bc 4a 2c b8 bd 04 ed 53 3e
       -0.14995015 -0.021558344 -0.089928225 0.20695883
0002f0 7d 75 5e be 30 22 df bd 0c a4 25 3e da df 15 3e
       -0.21724506 -0.108951926 0.1617586 0.14636174
000300 ca 22 14 3e e0 52 10 3e 6c 83 0f 3e d0 0e f8 bd
       0.14466396 0.14094114 0.14014977 -0.121122
000310 00 bd 25 bd 26 19 71 be 48 f3 53 be 34 40 3d 3e
       -0.040463448 -0.2354475 -0.20698273 0.18481523
000320 64 d6 ad 3d 90 c4 66 bd 80 df ba 3d 8a 78 59 be
       0.084881574 -0.0563398 0.091246605 -0.21237388
000330 e8 82 bd bd 94 21 a9 3d 64 e2 f9 3d 42 c1 78 be
       -0.09253484 0.08258358 0.12201384 -0.24292472
000340 00 05 5b 3e 10 e9 f1 bc 46 36 1a 40 95 23 b4 3d
       0.21388626 -0.029530078 2.4095626 0.08795849
000350 93 b1 1d bf 4d ab 67 3d bd 9f 6c 3e 68 9e 30 3e
       -0.6159908 0.05655985 0.2310781 0.17247927
000360 24 27 55 be 22 3a 0c be 74 4e 59 be 16 61 43 3e
       -0.20815712 -0.13694051 -0.21221334 0.19080004
000370 76 ab c6 3d 64 0d 5f be a0 9b 6b be 10 4b 9a bc
       0.09700672 -0.21782452 -0.23008585 -0.01883462
000380 d2 75 07 be a0 97 3d 3d 94 90 83 3d 60 78 f9 3d
       -0.13228539 0.04628718 0.064240605 0.12181163
000390 ec 28 fb bd ee 1d 4e be 82 6e 4f 3e c4 50 2d 3e
       -0.122636646 -0.20128605 0.20256999 0.16925341
0003a0 78 65 59 3d 78 ab 1b bd 90 a0 37 be a0 46 de 3d
       0.053075284 -0.038005322 -0.17932343 0.108533144
0003b0 e4 62 26 be d0 78 3a 3d 9c 16 81 3d fc de 42 be
       -0.16248661 0.045525372 0.063031405 -0.19030374
0003c0 1a 0e 1e be c8 9d ca bd 5f bd d7 bf 4c 49 b0 3d
       -0.15435067 -0.09893376 -1.6854666 0.0860773
0003d0 e0 18 bd 3e 67 9f e9 bb b2 5f ef 3a 38 a1 8d bd
       0.3693304 -0.007129598 0.0018262772 -0.06915516
0003e0 38 89 fe 3d d0 a8 b8 3d ed 69 e0 3d 5c 04 af 3d
       0.12428516 0.090165734 0.10957704 0.08545753
0003f0 2f ef 07 be c0 c6 7a 3c 70 30 e5 3c e2 0e fa bd
       -0.13274835 0.015306175 0.027977198 -0.1220987

hedge_qs.2.linear_relu_stack.2.bias f4 [16]
000000 b5 ce a9 3c bc 41 02 be 1a 66 54 3d dc bf d2 3d
       0.020728448 -0.12720388 0.051855184 0.102905005
000010 c0 8f 2b be 29 b3 7a bd d9 66 ed 3d fd 8c 06 be
       -0.16754055 -0.061206017 0.11591882 -0.1313972
000020 92 c3 27 be 32 b1 1d be dc 30 5e bd aa 31 41 3e
       -0.16383198 -0.15399626 -0.054245815 0.18866602
000030 12 3b 37 be 45 98 43 3e c4 d5 ce 3d be 01 33 3c
       -0.17893627 0.19101055 0.10099366 0.010925708

hedge_qs.2.linear_relu_stack.4.weight f4 [16, 16]
000000 00 74 3f bd 70 3b 87 bc 28 7f 7a bd 00 61 af bc
       -0.046741486 -0.016507834 -0.061156422 -0.021408558
000010 e0 0b e3 3c 4e 00 28 3e d2 d8 14 3e 44 85 92 3d
       0.027715623 0.16406366 0.14535835 0.07154325
000020 a0 04 29 bc 1a 20 55 be 30 c3 fa 3c c8 69 72 bd
       -0.010316044 -0.20813027 0.03061065 -0.059182912
000030 00 fb fa bb c4 a1 bf 3d d2 3f 63 3e e4 00 0b 3e
       -0.007659316 0.09357026 0.22192314 0.13574558
000040 11 76 9f be 74 bf 84 bd 2f d2 b5 3d 94 b6 ee bd
       -0.31144765 -0.06481829 0.0887798 -0.11655918
000050 0a d4 06 be 77 72 53 bd 77 67 1a bf 46 fc 4c be
       -0.13166824 -0.051622834 -0.60314125 -0.2001811
000060 2c 93 84 bd f8 f0 6e be 49 6b 25 3f 69 7b ea 3d
       -0.06473383 -0.2333411 0.6461683 0.1144932
000070 cc 02 05 be 6f e7 cc 3e 70 1b 90 3c 5c dd 6e be
       -0.12989348 0.4002032 0.017591208 -0.2332663
000080 6a dd 7e 3e e4 8d 12 3e 7a ea 38 3e 80 b8 7a 3d
       0.2488915 0.1431194 0.18058196 0.06121111
000090 00 31 2b be c8 65 9f bd a8 7c 84 bd 8e 4c 7b be
       -0.16717911 -0.07783085 -0.06469089 -0.24540922
0000a0 88 f0 6c be 8c be 71 be 7e 04 7a be 20 a2 5d 3c
       -0.2313863 -0.23607844 -0.24415776 0.013527423
0000b0 36 35 48 be 0c 31 a6 bd fa 38 70 be ac dc 30 3e
       -0.19551548 -0.08114824 -0.23459235 0.1727168
0000c0 5c 8d bc be b6 4a 73 be 04 46 5e be b0 0c 70 3e
       -0.368266 -0.23758969 -0.21706396 0.2344234
0000d0 18 13 f8 bd 7f 00 0f be 51 78 fa be bb d1 67 be
       -0.12113017 -0.13965033 -0.4891992 -0.226386
0000e0 40 20 7b bc 6c a3 8f 3d 8d be 72 3d f7 29 cb 3d
       -0.015327513 0.07013592 0.059263755 0.099201135
0000f0 28 4b 96 bd d5 3e 47 3e 28 df 3c bd a7 06 e6 bc
       -0.07338554 0.19457562 -0.046111256 -0.028079344
000100 c4 52 82 3e 30 99 99 bd 12 a5 3c bd 36 a6 79 3e
       0.2545377 -0.07499921 -0.04605586 0.2437981
000110 00 47 e0 3a c7 69 55 3d cc d5 8f 3e d2 40 a8 3e
       0.0017111003 0.05210283 0.28092802 0.32861954
000120 c0 fb d3 3b 00 7a 53 bb cb 5c 1b bf e9 d3 86 3c
       0.00646922 -0.0032268763 -0.60688466 0.016458469
000130 d0 b5 55 bd 28 90 c6 be 00 57 a8 bd f6 45 a1 3e
       -0.052175343 -0.38781857 -0.08219719 0.31498688
000140 4c 21 76 3e 86 22 0c be 10 91 0d 3e 44 a6 8b bd
       0.24036139 -0.13685045 0.13824868 -0.06818822
000150 4c 7d 18 be 00 a6 49 bd 56 0f de 3e 43 e6 d4 3e
       -0.14891547 -0.049230576 0.43371075 0.41581926
000160 88 c5 0b 3d 78 ee 7a be 1f f5 90 be 9d ef cc 3d
       0.034123927 -0.24505031 -0.28312013 0.1000664
000170 d8 27 61 3d b0 d8 ee be b0 65 d2 bc bf 41 a0 3d
       0.05496964 -0.46649694 -0.025683254 0.0782504
000180 04 cf 60 3e e6 15 22 be 38 db 07 be 78 40 23 3e
       0.2195397 -0.15828666 -0.13267219 0.15942562
000190 a4 14 68 be 6e 3a 2d be 0e 94 ad 3e ae 24 fb 3e
       -0.22664124 -0.1691682 0.3390202 0.49051422
0001a0 8e d3 0e 3e 20 d1 68 be 66 44 04 bf 10 f6 83 be
       0.13947889 -0.22736025 -0.5166687 -0.25773668
0001b0 70 5b 7b 3d ca 55 26 bf a2 9d 72 be 2c 26 e0 3e
       0.0613665 -0.64974654 -0.23692945 0.43779123
0001c0 f4 0a 03 3e 50 a6 c2 bc f0 08 01 3e 08 81 14 be
       0.12797147 -0.023760945 0.12601066 -0.14502347
0001d0 74 96 dc bd a0 3b 8d bc 24 5e 9e bd 10 8c 5b bd
       -0.10770884 -0.017240345 -0.077328 -0.05360037
0001e0 6c e5 bc 3d 0a 81 59 3e de 2d 18 be 46 7e 69 be
       0.09223446 0.21240631 -0.14861247 -0.22802076
0001f0 f8 48 6b 3d 38 b6 34 3e 6c f6 58 3e 7e 66 04 be
       0.057442635 0.17647636 0.21187752 -0.12929723
000200 0b 33 89 3e 90 de 19 bd 58 77 1a bd ac ad fe 3d
       0.26796755 -0.037565768 -0.03771147 0.12435469
000210 1c fa 61 be 9d 4f 8e 39 3d 71 87 3e 87 38 35 3e
       -0.22068065 0.00027143667 0.2645358 0.17697345
000220 30 8d 64 3e 8e d6 29 be 59 8e 04 bf bb b9 90 be
       0.22319484 -0.16585752 -0.51779705 -0.282667
000230 b0 85 e2 bc 96 e1 40 bf d0 3f e3 3c a6 29 7f 3e
       -0.027651638 -0.75344217 0.02774039 0.24918231
000240 db 8c 4d 3e 40 9d 30 3e 04 42 8d 3c e0 97 50 3c
       0.20073263 0.17247486 0.017243393 0.012731522
000250 de 6d 0d be 51 77 44 be ad 93 1c 3f 5b 50 e8 3e
       -0.13811442 -0.1918614 0.61162835 0.45373806
000260 16 a7 50 be 76 70 7b 3e ed 55 27 bf ad a0 c1 bb
       -0.20376238 0.24554619 -0.6536549 -0.0059090466
000270 80 f7 c5 3b 7d 30 46 bf ce ff 0a be 01 2f d1 bb
       0.006041467 -0.7741774 -0.13574144 -0.006383777
000280 ce 0e 7a 3d 46 46 33 3e bf e4 cf 3d 42 0a 6b be
       0.061049275 0.17507276 0.10151052 -0.22953132
000290 02 47 5c 3e 49 05 7c 3e 68 80 f2 3e d7 46 06 3f
       0.21511462 0.24611391 0.4736359 0.52451843
0002a0 3c 1a 7b 3e 1e 67 4a be 15 42 90 be f5 9b 83 be
       0.24521726 -0.19765899 -0.28175417 -0.25704923
0002b0 d0 a0 84 bd 50 1f ac be 00 00 b2 3d 44 2c d4 bc
       -0.06475985 -0.3361764 0.08691406 -0.025900014
0002c0 00 5f 5e bb 6e 30 37 be cc af 09 3e 60 fd 3c bc
       -0.0033931136 -0.17889568 0.13445967 -0.011535019
0002d0 8c a2 06 be b2 0f 5b be 9e b4 05 be 60 2d 59 3e
       -0.13147944 -0.21392706 -0.13057181 0.21208715
0002e0 18 29 ec bd a8 32 77 be 80 aa 6a bb 6c 76 a3 3d
       -0.115312755 -0.24140418 -0.0035807192 0.079815716
0002f0 3c 43 4a 3e f8 e9 87 bd c0 2d dd 3b 30 2c 2f be
       0.1975221 -0.06636423 0.0067498386 -0.171067
000300 ad d8 cf 3e 20 0f 5b be 86 66 e8 3d e8 2d 1f 3d
       0.40594998 -0.21392488 0.1134768 0.03886214
000310 40 4b ad 3b cc 82 ad 3d ad 7d 1b 3e 57 b1 9c 3d
       0.0052885115 0.08472213 0.1518466 0.076510124
000320 20 b0 37 3d c8 7b 5c bd a6 7e 0a be b9 3a 3a be
       0.0448457 -0.053828984 -0.13524875 -0.18186463
000330 40 00 e0 bd 0f 50 32 be 40 0a 66 bd 1d 06 95 bd
       -0.10937548 -0.17413352 -0.05616212 -0.07276557
000340 ca 99 2c 3e 04 57 f2 3d ab ab 3f bd 68 71 19 be
       0.16855541 0.11833003 -0.046794575 -0.14984667
000350 7c 3c 45 be e8 f8 57 3e 63 25 4a be b1 48 7c be
       -0.19261354 0.21091044 -0.19740824 -0.24637105
000360 bc 80 30 be 3c 32 65 be fe e0 da bd fa e7 27 3e
       -0.17236608 -0.22382444 -0.10687445 0.16397086
000370 a4 e0 eb bd 2f fa 29 be b0 4f 37 3e 14 3e 4a bd
       -0.11517456 -0.16599344 0.17901492 -0.04937561
000380 98 8e 97 bc 86 0e 1e be 87 1e ae bd 2a 23 1c be
       -0.018500611 -0.15435228 -0.085019164 -0.15247789
000390 f0 dd a1 bd 93 f8 2b 3d d9 50 18 be 2d 74 26 3e
       -0.07903659 0.041985106 -0.14874591 0.16255255
0003a0 e0 7e 78 3e d0 93 a6 3c a5 a6 3d be 7e a7 f5 bb
       0.24267149 0.020334154 -0.18520601 -0.0074967733
0003b0 0a b2 63 3e a2 71 cb 3d 80 36 db 3b 73 a4 51 3e
       0.22235885 0.09933783 0.0066898465 0.20472889
0003c0 46 28 84 be 12 be 29 3e 27 a1 62 be c0 61 b7 3b
       -0.25811976 0.16576412 -0.22131787 0.0055963695
0003d0 80 d5 75 bd a2 32 75 bc d0 d7 87 3d 4e c4 c0 bd
       -0.060018063 -0.014965685 0.0663296 -0.09412442
0003e0 02 8d 5c 3e 20 0b 32 bd 83 35 8a 3d 94 ac 85 be
       0.21538165 -0.04346764 0.06748488 -0.2610823
0003f0 f6 c4 5a 3e ae 6a 84 be 70 64 10 bd df 5a 84 be
       0.21364197 -0.2586264 -0.035252035 -0.2585058

hedge_qs.2.linear_relu_stack.4.bias f4 [16]
000000 fc 2c 33 be 34 73 44 3e ac 57 ba bd 4d 88 35 3e
       -0.17497629 0.19184572 -0.09098753 0.17727776
000010 fc 6d 64 3e a0 e1 68 3e 79 b7 37 3e 30 91 3a bd
       0.2230758 0.22742319 0.17941083 -0.045548618
000020 3e f2 df 3d 38 50 42 3e a1 30 7b 3e 10 d8 30 be
       0.10934876 0.18975914 0.24530269 -0.17269921
000030 f4 37 76 3e c2 cc f0 3c 9f 95 14 bd a1 77 8c 3d
       0.24044782 0.029394511 -0.036275502 0.06858755

hedge_qs.2.linear_relu_stack.6.weight f4 [1, 16]
000000 ae 25 15 be 94 03 00 bf 7c 36 a5 bd af 2e c0 be
       -0.14565155 -0.5000546 -0.08067033 -0.37535617
000010 ba 6e d6 3e 48 58 4e 3e db a1 01 3f b4 49 6b be
       0.41881353 0.20150864 0.50637597 -0.22977334
000020 70 0e fa 3e c9 bf e6 3e fe 4d 73 3e 56 c5 48 be
       0.4883914 0.45068195 0.2376022 -0.19606528
000030 00 9a e5 3d 19 03 b1 3d 7a 54 dd bd 89 5b 4a be
       0.11211014 0.08643169 -0.10807128 -0.1976148
